E2NN/Trained_models_h64_s10_20250726_160534/e2nn_model.pth (torch, 128994 bytes, 42 tensors)

inertial_net.net.0.weight f4 [64, 3]
000000 1a 96 06 bc ed 93 06 3b b6 e5 fe 3a 14 eb 5a 3c
       -0.008214498 0.0020534948 0.0019447121 0.013361711
000010 f2 b8 17 39 22 ef 99 bb 0a 15 fe bb 23 44 b6 bc
       0.0001446938 -0.0046976963 -0.007753973 -0.022249287
000020 a6 da 2b 3c f9 a7 3b bb 00 06 34 3c a6 c6 11 bd
       0.010489142 -0.0028634055 0.010987759 -0.035589837
000030 68 3d 4a 3b e9 cf 42 bc af 7b 4b bd c5 d4 d4 3c
       0.0030859355 -0.01189039 -0.0496785 0.025980363
000040 9d 1f 76 bc 96 3a 12 bc 94 22 c8 3b 72 59 6b 3b
       -0.015022186 -0.008925101 0.0061076377 0.0035911468
000050 a8 b5 e8 3b 9f f4 49 3c e6 75 b4 ba 95 a4 ad ba
       0.0071017332 0.012326389 -0.0013768047 -0.0013247902
000060 30 ea 6a 3b be ba cf 3a ca 79 93 3c 19 62 7b 3b
       0.0035845153 0.00158485 0.01800241 0.0038358031
000070 d8 23 3b bc e7 c7 0e bc 1b 3c de 3b f1 da be bc
       -0.01142212 -0.008714653 0.0067820675 -0.023297759
000080 ae b9 b4 bc de 73 c5 bc 2d 7f 35 bc c9 ea 2e 3d
       -0.022061195 -0.024103101 -0.011077684 0.042704377
000090 69 9a f0 3b 58 cc 22 bd 8b dc a9 bc bd 01 6c b9
       0.007342626 -0.03974566 -0.020735046 -0.00022507361
0000a0 f9 cc 58 bc e6 d7 b5 bc 46 1c 05 3c 1e b5 f4 bc
       -0.013232463 -0.022197675 0.008124417 -0.02987152
0000b0 da 0c 1b bb a8 55 eb bc eb 4a c6 3b c5 d1 db 3c
       -0.0023658783 -0.028727368 0.0060514114 0.026833424
0000c0 eb c8 ce bc e9 6f 9d b9 a7 14 a9 3c 31 2a b7 bc
       -0.02524229 -0.00030028753 0.02063973 -0.022358986
0000d0 f5 60 29 bc 26 cd 20 3d 7c d8 09 bd eb 69 7d 3c
       -0.010338058 0.039258145 -0.03365372 0.015467147
0000e0 b4 84 1f 3c 85 1e b6 bb dc c9 ab 3c e2 53 3c bb
       0.009736229 -0.0055578374 0.020970277 -0.0028736521
0000f0 d6 d8 0d bc 57 54 19 3d 25 4d d5 bc 5b 4c c5 3c
       -0.008657655 0.03743395 -0.026037762 0.02408426
000100 b2 cf e5 bc f5 dd c6 bc 01 da b9 bc 62 0e 0a 3c
       -0.028053138 -0.02427576 -0.02268696 0.008426281
000110 58 9f 39 3c d6 07 3a bb 13 88 35 3c 24 ea 03 bb
       0.011329494 -0.0028386018 0.011079806 -0.0020128572
000120 a9 aa 7b 3c f3 44 25 bc 7f f3 15 bc 86 6f 13 bc
       0.015360513 -0.01008724 -0.009152292 -0.008998757
000130 7d 26 0c 3d 18 cf 5a bc ac 7d 5e bc aa b4 38 bc
       0.034216393 -0.013355039 -0.013579767 -0.011273542
000140 f3 50 34 3d c3 c9 dd bb a8 a6 ad bc 18 7c 88 3d
       0.04402251 -0.0067684366 -0.021197632 0.06664294
000150 94 51 0c 3d f9 99 ac bc 0b 6a 6a bc b2 90 2d 3c
       0.034257486 -0.021069514 -0.014307509 0.01059358
000160 a7 e1 43 bc 72 96 03 bd 05 70 e7 3b 5f 2a e6 bc
       -0.011955655 -0.032125898 0.0070629143 -0.028096376
000170 cc f4 b8 3b 5b 72 2b 3c bc ed 01 bd c1 0c 67 ba
       0.0056444164 0.010464276 -0.03172086 -0.0008813851
000180 c9 24 ed bb db 4a 14 3c a3 55 2b 3d 7d 00 d1 3a
       -0.007237051 0.00905105 0.041829716 0.001594558
000190 f6 32 8b 3b 63 25 26 3b 99 1d 99 bc e6 56 17 3d
       0.0042480184 0.0025351874 -0.018690871 0.036948107
0001a0 5b bc f6 3c bb b5 f2 bc d6 96 20 3d 1e 62 c8 bc
       0.030119112 -0.029627671 0.03920635 -0.024460848
0001b0 3e e3 a2 bc 98 8c 0d bb 23 7f e7 3c 00 0d 24 bd
       -0.019883748 -0.0021598693 0.028258866 -0.04005146
0001c0 44 aa 45 3c ff bb 02 3d 1d 9b 21 3d 4a 5a ef bc
       0.01206452 0.03191757 0.03945457 -0.029217858
0001d0 6c 1b 87 bc b5 60 04 3c 4f d1 c5 bc 7d b6 14 bd
       -0.016492568 0.008079697 -0.024147658 -0.036306847
0001e0 e3 2d 27 3c 63 e5 cb bc 70 73 b1 bc 66 be 59 3c
       0.010203811 -0.024889654 -0.02166149 0.013290023
0001f0 45 94 a0 3c af 12 0d bd d3 60 a8 3b 19 d4 ac bc
       0.01960195 -0.034441646 0.0051384955 -0.02109723
000200 64 6f b3 bb 46 19 7d 3c 01 cc a0 3a b5 3d 8a bc
       -0.0054759253 0.01544792 0.0012267829 -0.016875127
000210 e9 45 a8 bc 54 03 fe 3a 0f c0 3c 3c bd 48 8e bc
       -0.020541148 0.0019379654 0.0115204 -0.017368669
000220 99 58 2a ba 8d e7 d0 3c f6 fa 0d 3c e9 62 ea bc
       -0.00064981874 0.025501037 0.008665791 -0.028611617
000230 bc d1 f3 bc d6 cf a2 bb 8e b0 47 bc df 72 26 3d
       -0.029763095 -0.0049686236 -0.01218809 0.040636893
000240 fc f2 53 3c ad 0d 0f bd 7c 34 2e bd 07 ed b2 3c
       0.01293635 -0.03492515 -0.04253052 0.02184154
000250 2c 71 89 bc 3f db b8 bc 81 e5 a0 bb b6 d1 8b bc
       -0.016777597 -0.022565482 -0.0049101715 -0.017067771
000260 77 4c 51 bc 1a 84 8b ba 2d 17 9f bc ce d1 01 3d
       -0.012774578 -0.0010644228 -0.01942023 0.031694226
000270 aa ad 6e 3c 05 77 32 bc 9a 02 e8 bc 84 d0 13 3c
       0.014567772 -0.010892634 -0.028321553 0.009021882
000280 fa 1b 21 bb 24 2d 29 3b a7 00 35 3d 45 b0 05 bd
       -0.0024583326 0.002581426 0.044190075 -0.032638807
000290 c6 30 06 bd ff f1 c0 bb 8c c0 ca 3c 82 61 68 bc
       -0.032761358 -0.005888223 0.024750017 -0.014183404
0002a0 03 1b 24 3c ae b2 e5 bc c8 3e e4 bc f2 f9 cc 3a
       0.010016206 -0.028039303 -0.027861968 0.0015638454
0002b0 69 83 23 bc 17 56 2c bd 0b 13 00 bc 2f 82 ce 3a
       -0.009980061 -0.04207429 -0.00781704 0.001575535
0002c0 13 eb 78 3c c4 ba f3 3b 70 7c bb bc 17 3c 4c bd
       0.015192765 0.0074380357 -0.022886485 -0.049861994
0002d0 62 db df 3c 39 0a 6f bc 67 5c 7c bc e3 39 86 3c
       0.02732629 -0.01458984 -0.01540289 0.016385024
0002e0 6c f9 94 bc 3a bf ee 3b e5 28 0f bd b3 ff 1a 3c
       -0.01818534 0.0072859796 -0.03495111 0.0094603775
0002f0 f3 76 93 3c d6 9b 01 3c 78 4e 16 3c 82 35 ac bc
       0.018001055 0.007910689 0.009173982 -0.021021608

inertial_net.net.0.bias f4 [64]
000000 fc a1 cb ba 6c d6 6d bb c6 06 5d 3c 32 41 39 3c
       -0.0015535946 -0.0036291135 0.013490384 0.011307048
000010 47 e3 d5 39 51 98 27 3a 32 36 9f 3b 45 9a 9f bb
       0.0004079586 0.00063932413 0.0048587555 -0.0048706853
000020 cd d5 c8 3a 23 98 c0 3a 7a cf da ba 31 f6 6a bb
       0.0015322507 0.0014693778 -0.0016693913 -0.0035852308
000030 eb 9a 26 3c 45 94 25 3b 24 57 87 bb 33 37 17 bc
       0.010168771 0.0025265377 -0.004130261 -0.009229469
000040 e3 86 f7 bb 1a 50 b9 b9 e7 30 9d bb 89 76 fb ba
       -0.0075539215 -0.0003534563 -0.0047970894 -0.0019185107
000050 d6 c7 28 3b 0c 08 cd 3c 7d b2 9e bb 7b 5a 8c bb
       0.0025753877 0.025028251 -0.004843055 -0.004283247
000060 a0 f6 4f bb 21 02 95 38 75 26 dc bb 01 87 cb bb
       -0.0031732693 7.10527e-05 -0.0067184516 -0.006211162
000070 f1 4b c1 bb ff 87 e1 ba 4a 5b 88 3b 75 b6 3b 3b
       -0.0058989455 -0.0017206668 0.004161273 0.0028642688
000080 a7 15 00 bb df a8 a6 3b 9d 09 84 bb 8f be 3b bc
       -0.0019544156 0.005086049 -0.0040294663 -0.011459007
000090 ae e9 14 bc 12 eb 4d bc 8f 42 ea 3b e1 b2 78 bb
       -0.009088917 -0.012568252 0.0071490477 -0.0037948417
0000a0 35 58 3e 3b 78 18 8d bb 68 8a 00 3c 52 c8 a1 bb
       0.0029044275 -0.0043058954 0.007845499 -0.00493721
0000b0 d3 af af 3a b5 80 6d bc 26 ce 84 3b 5b 81 5d 3c
       0.001340384 -0.014496018 0.004052895 0.01351961
0000c0 78 fe 4d 3a 6d 0e 4e 3c 9d 57 90 bc a6 ac 6f 3a
       0.0007858048 0.012576682 -0.017619902 0.0009142853
0000d0 b1 99 9a 3c 2c 1a 53 ba 83 4a 39 3c 66 11 c1 3b
       0.018872114 -0.0008052911 0.011309269 0.0058919666
0000e0 04 70 02 3c bd 0a d7 b9 ee 42 fc 3b 71 95 29 3b
       0.007961277 -0.00041015996 0.0076984083 0.0025876428
0000f0 3c ef 04 3b b2 81 da bb 50 f6 32 bb 0f 56 3f bc
       0.0020284196 -0.006668293 -0.0027307458 -0.011678233

inertial_net.net.1.weight f4 [64]
000000 1c a0 7b 3f 00 c7 7f 3f 64 29 7a 3f 59 61 7a 3f
       0.9829118 0.99913025 0.9771941 0.9780479
000010 d0 41 82 3f 69 b3 7d 3f e6 75 80 3f 3a 75 7d 3f
       1.0176334 0.99101883 1.003598 0.99007
000020 4e 1d 81 3f bc d2 7b 3f 91 1b 81 3f f0 6a 81 3f
       1.0087068 0.9836843 1.0086538 1.011076
000030 89 f7 83 3f be 56 7c 3f 5e a3 7d 3f db d5 83 3f
       1.0309917 0.9856986 0.99077404 1.0299639
000040 7b d2 7f 3f 81 1d 7f 3f da 0c 82 3f 8b 3c 80 3f
       0.9993054 0.99654394 1.0160172 1.0018476
000050 cc a4 7f 3f 04 5b 86 3f 52 a6 80 3f 25 e2 7f 3f
       0.99860835 1.0496526 1.0050757 0.99954444
000060 0b 3b 7c 3f 9b 65 80 3f 2e 2d 81 3f a2 20 81 3f
       0.9852759 1.0031008 1.0091913 1.0088084
000070 0c 48 7f 3f e4 c7 7d 3f 29 66 7d 3f a7 31 80 3f
       0.9971931 0.99133134 0.9898401 1.0015153
000080 d5 68 82 3f c4 e7 7f 3f a6 26 86 3f c0 ba 82 3f
       1.0188242 0.9996302 1.0480545 1.0213242
000090 36 75 81 3f 58 9c 84 3f 5d 39 84 3f bb df 83 3f
       1.0113895 1.0360212 1.0330006 1.0302652
0000a0 b2 a4 81 3f 3c d0 7e 3f 9d 9e 7c 3f df c0 7c 3f
       1.0128386 0.9953649 0.98679525 0.987318
0000b0 98 cc 7d 3f 99 84 82 3f 89 ea 83 3f 29 93 77 3f
       0.9914031 1.0196716 1.030595 0.96708924
0000c0 f6 3b 87 3f 9a 26 83 3f 07 50 80 3f 0e 88 7c 3f
       1.0565174 1.0246155 1.0024422 0.986451
0000d0 0c 21 80 3f 63 e7 7e 3f a0 4f 85 3f ad eb 7f 3f
       1.0010085 0.9957182 1.0414925 0.9996899
0000e0 d4 b4 80 3f 4d 62 82 3f 48 39 7b 3f 74 2f 85 3f
       1.0055184 1.0186249 0.9813428 1.0405107
0000f0 80 13 82 3f 4f da 78 3f 17 7d 81 3f 44 f1 7c 3f
       1.0162201 0.9720811 1.0116299 0.9880564

inertial_net.net.1.bias f4 [64]
000000 39 57 43 3a fb bd 8a 3b 8e 40 c6 3b 4b 06 e0 3a
       0.0007451657 0.004234073 0.006050176 0.0017091719
000010 a9 69 c5 3a ec 5d f3 bb ee 08 1e 3c 3d 9a a6 bb
       0.0015061396 -0.007426968 0.009645684 -0.0050843046
000020 6e 26 8c ba 42 b8 4e 3b 9b 75 fe 3a 84 dd fa 3b
       -0.0010692605 0.0031542932 0.0019413711 0.0076558013
000030 d6 41 0e 3c 9e 67 81 3b 43 55 96 bc 3c 53 4d 3c
       0.008682689 0.0039491197 -0.018351203 0.012532052
000040 b5 ce c5 3b f2 21 55 ba 13 be 2a 3c 40 10 e1 b8
       0.0060366043 -0.00081303634 0.010421294 -0.00010731863
000050 38 be cb 3b ef b4 a3 37 b1 b1 2a 3c 01 91 48 bb
       0.006217744 1.9515368e-05 0.0104183415 -0.0030604007
000060 df 97 83 bb 0e 7c 8e ba 53 03 21 3c fd 91 d5 3b
       -0.004015907 -0.0010870711 0.009827453 0.0065176473
000070 e6 e0 92 bc 74 e9 3b bc 15 b1 1e bb 70 51 80 bb
       -0.017929506 -0.011469234 -0.0024214436 -0.003915958
000080 23 e8 06 3c d2 95 b1 3a 38 ac 56 3c d3 c0 a6 3b
       0.008234057 0.0013548678 0.013102584 0.0050889044
000090 35 91 4a 3c a3 7e 79 3c a8 df 93 bc b7 55 6c 3b
       0.012363722 0.015227946 -0.018050984 0.0036061832
0000a0 75 b5 7f ba 2f f6 3a b9 6a 5b 09 3c 02 2b 2c bc
       -0.0009754517 -0.00017830053 0.008383611 -0.010508301
0000b0 e2 33 35 3c c1 6b 24 3b c7 36 26 3c 1d 1b b0 3c
       0.011059733 0.002508864 0.010144896 0.021497304
0000c0 18 3f 16 3c d3 44 17 bb 71 4f 0d bd 70 e8 7a 3a
       0.009170316 -0.0023081794 -0.03449959 0.0009571379
0000d0 2d d5 fa 3a 6f 1c e6 ba fa 0a 42 bc bb 87 2e bb
       0.0019137018 -0.0017556081 -0.011843437 -0.0026631195
0000e0 44 ec 3b bb d7 57 d6 39 13 a4 78 3c 6d bb 36 3c
       -0.002867476 0.00040882707 0.015175837 0.011153084
0000f0 58 1e ae bb 30 96 39 bc c9 cd 86 3c a9 10 70 bc
       -0.005313676 -0.011327311 0.016455548 -0.01465241

inertial_net.net.4.weight f4 [64, 64]
000000 56 6c 4d 3b 9f e3 be 3c 57 36 31 bc 95 0a 9a bc
       0.003134509 0.023301898 -0.010816178 -0.018803874
000010 c3 b8 79 3b 89 3e cb ba 26 2f b3 3b 74 98 11 3c
       0.0038104511 -0.0015506308 0.005468267 0.008886445
000020 48 fe ce bc a4 cc 64 bb 32 5f c2 bc d2 56 41 3c
       -0.025267735 -0.0034912014 -0.023727033 0.011800485
000030 4b 77 07 bd 0f 1d 0b 3b 81 87 34 3c 50 f0 12 ba
       -0.03307275 0.0021227037 0.011018635 -0.00056052674
000040 1c d6 29 3b 18 04 eb bc f8 51 63 3b 53 bd 47 bc
       0.0025914973 -0.028688475 0.0034686308 -0.0121911345
000050 8c e0 b1 ba 97 30 18 bc dd 5b f9 bb 5c 25 00 3c
       -0.0013570949 -0.0092889285 -0.007609828 0.007821407
000060 c2 f4 d8 3c 77 0f 35 3c 0e 0f c4 3c cb f1 17 3c
       0.026483897 0.01105105 0.02393296 0.0092739565
000070 bd fd e9 3c d0 72 08 bd fb 17 3c 3c 14 2b 33 3c
       0.028563375 -0.03331262 0.011480327 0.010935564
000080 96 ca 95 3b e0 d3 b5 bc 38 c4 87 3c ff 50 08 3d
       0.0045712693 -0.022195756 0.016573057 0.03328037
000090 d0 61 8d bc be f4 32 3b bf 72 0d bc 91 b4 42 bc
       -0.017258555 0.0027306522 -0.008633315 -0.011883871
0000a0 f7 c2 8f bc 58 03 f4 3b dd c2 03 bc 15 c4 93 38
       -0.017549021 0.0074466877 -0.0080420645 7.046029e-05
0000b0 85 46 85 bc 16 8c bf 3c 32 67 e1 bc ed ac 8f 3b
       -0.016268978 0.023382228 -0.027515028 0.004384628
0000c0 1e c6 49 bb bd ea b5 bc 30 9c 46 3c 74 49 3f bc
       -0.0030788253 -0.022206658 0.012122199 -0.011675227
0000d0 4e b1 f8 3b e2 92 e9 bb 1d ed ab bc 4e 4b 44 bc
       0.0075894957 -0.0071281055 -0.020987088 -0.011980845
0000e0 62 c2 b2 bb 6b c4 67 bc 2d c4 0c bc 41 0c 41 bd
       -0.005455301 -0.014145951 -0.008591694 -0.047130827
0000f0 a5 00 00 3c 8a 84 bf 3c 4e b8 c8 bb d7 18 97 3b
       0.007812654 0.02337863 -0.0061254865 0.0046111154
000100 13 7a dd bb 4b 57 c6 3b ef 36 a5 bc c3 f2 15 3c
       -0.006758937 0.0060528866 -0.020167796 0.009152117
000110 85 76 8e 3c e3 9d 8a 3c a5 a2 01 3d cf 36 72 3b
       0.017390499 0.01692099 0.03164925 0.0036958938
000120 5e c2 ae ba 5f a4 3d 3c 4e 27 e4 bb 08 c4 9a 3c
       -0.0013333072 0.011574834 -0.0069626933 0.018892303
000130 52 d5 99 3b 28 98 83 3c b0 e1 68 bc 1f 07 03 3d
       0.004694619 0.016063765 -0.014213964 0.031989213
000140 bf d6 cc bc fe 0c cf 3a 62 18 b4 3c e4 b7 0a bc
       -0.025004743 0.0015796719 0.021984283 -0.0084666945
000150 a4 d3 de 3b 9a bc f1 3b f1 13 82 3b 16 c2 7e 3b
       0.006800132 0.0073772194 0.0039696624 0.0038873008
000160 b6 41 1b 3c 58 1c 5e 3c d0 1f c1 bb ee 1a 93 bb
       0.009476116 0.013556562 -0.005893685 -0.0044892943
000170 15 42 0b bd b0 33 3b 3c 5e 2f 7d bb aa 10 d6 3b
       -0.033998568 0.0114258975 -0.003863297 0.006532748
000180 23 3d 3d 3c de 88 d0 3c 2a 36 1b 3b 74 15 20 3b
       0.011550221 0.025455888 0.0023683407 0.002442685
000190 22 4c ce 3a 24 a7 37 3c 1f f0 df ba 6a 1a 17 3b
       0.0015739242 0.011209283 -0.0017085111 0.0023056515
0001a0 18 c3 1d 3b 49 6f 74 3c 5e 6f 38 bb 08 dd 06 3c
       0.0024072584 0.014919111 -0.0028142552 0.008231409
0001b0 44 a7 fa 3b 13 0a ad bc 84 d9 2e bc 7b ae 55 3b
       0.007649334 -0.021122968 -0.010671977 0.003260522
0001c0 6b 29 4a 3c de 6f 88 3c 7b c2 ea bc e7 7a 14 bc
       0.012338976 0.016654905 -0.028657189 -0.009062505
0001d0 f4 69 d0 3a 81 7d 96 3c 4b a7 23 bc cb 74 c7 3b
       0.0015900717 0.018370392 -0.009988616 0.006086921
0001e0 d6 0a d6 ba 5d 68 43 bb 39 f3 2d bc a4 19 35 3c
       -0.0016330134 -0.0029816844 -0.010617071 0.0110534765
0001f0 8e 36 09 bd 9d f6 99 bc 53 9f 6c 3b b7 61 a6 bc
       -0.033499293 -0.018794352 0.0036105707 -0.020310266
000200 71 ec 89 3c 0a aa 6f 3c 86 12 c3 3b 59 7f 22 3c
       0.016836377 0.014627943 0.005953136 0.009918057
000210 30 08 e1 3b cc eb 59 bc f4 dc 53 bc 6a 23 ab 3a
       0.006867431 -0.013300847 -0.012931097 0.0013056819
000220 44 1d 01 bd 8f 43 c0 3b 16 96 10 3d 09 0b d2 bc
       -0.03152205 0.0058674286 0.035299383 -0.025640028
000230 a1 3f d4 ba 20 21 71 bb 52 76 b9 3c 3f ae a3 3c
       -0.0016193279 -0.0036793426 0.022639427 0.019980548
000240 68 3f 21 3d 5e c6 16 3c db 95 01 3c 86 3a 27 bc
       0.03936711 0.009202568 0.0079092635 -0.010206824
000250 71 c1 df bc 3e 8a 2d 3c f6 7a a6 ba 79 3a 14 bc
       -0.02731392 0.010592042 -0.001270144 -0.009047144
000260 4a 93 78 3c 0f cb 31 bc 11 66 c5 bc bc 6d e1 39
       0.015171835 -0.010851636 -0.02409652 0.00042997103
000270 3b 0e d7 3c 57 a1 35 3c ba 91 28 ba 63 01 10 bc
       0.026251903 0.01108583 -0.00064304064 -0.008789393
000280 b4 75 92 bc a4 1a 97 bc 5c f9 a0 bc 1a 14 26 3c
       -0.01787839 -0.01844532 -0.019650154 0.0101366285
000290 86 bb 4b 3c 7f 37 4d 3c 19 26 2e bb 22 22 83 3c
       0.012434846 0.012525438 -0.0026573 0.016007487
0002a0 a6 16 61 bc ff 6d 64 bc 3f de 08 bb 57 f4 aa ba
       -0.01373831 -0.013942241 -0.0020884422 -0.001304279
0002b0 3f 9d d7 3b 3c 54 a1 3c 9b d5 8d bb c6 5e 9b bb
       0.0065800245 0.019693486 -0.0043284423 -0.0047415225
0002c0 3e ac bf 3c 08 b2 c5 bc d5 44 a7 3c 06 9c c2 bb
       0.023397561 -0.024132743 0.020418564 -0.0059390096
0002d0 f9 d2 03 bc 71 8c 02 bc bc 9b 7a b9 16 8d 14 bc
       -0.008045905 -0.007968054 -0.00023899873 -0.009066841
0002e0 50 13 c7 3b 37 28 94 3c d0 a7 d9 bc 25 34 00 3c
       0.0060753003 0.018085582 -0.026569277 0.007824932
0002f0 f1 49 cf bc 14 f5 8d bc e7 55 b6 3b ff a1 a3 3c
       -0.025303813 -0.017328776 0.0055644396 0.019974707
000300 b3 df 7d 3b 92 89 64 bc b0 11 36 bb 58 59 9e b9
       0.0038738071 -0.013948815 -0.0027781539 -0.00030202675
000310 29 d7 14 3b 6b 82 92 bb ed 18 a6 bc a5 fc de 3b
       0.0022711253 -0.0044711134 -0.020275557 0.00680502
000320 fb 08 13 bc f4 60 ca 3c a3 f8 84 3c d5 e7 f9 3a
       -0.008974309 0.024704434 0.01623184 0.0019066284
000330 8e 57 2a bc e7 fc e9 3c a0 9e 45 bc 15 c1 d7 bb
       -0.010396851 0.028562976 -0.012061745 -0.0065842965
000340 b9 92 94 bb e8 d1 19 b9 f1 8d a1 bc 8e ea 19 3c
       -0.0045340923 -0.00014669413 -0.019721003 0.009394301
000350 84 96 4e bc ab c8 3d 3d 3e dc b3 ba 85 53 24 bc
       -0.012609128 0.04633395 -0.0013722253 -0.010029678
000360 39 61 f9 bb 6a ae 98 3b 83 69 ba bc be f3 a8 bc
       -0.007610467 0.0046594637 -0.02275539 -0.020624038
000370 c8 1e d3 3c 19 38 57 bc 4f 17 32 3c ce 75 cd 3b
       0.025771514 -0.013135933 0.010869815 0.006270147
000380 1c 58 1e bc 5a 22 87 bb 2b 6d 1c bd ec 46 00 bd
       -0.009664562 -0.004123968 -0.03819005 -0.031317636
000390 d2 3e 71 bc b3 77 25 bd 45 3e 38 3c 8d 50 69 3c
       -0.01472445 -0.040397357 0.011245315 0.014240396
0003a0 d3 33 7b 3c ba 0e 32 bb 17 26 ec bb 14 b4 3e bc
       0.01533218 -0.0027169422 -0.007206689 -0.011639614
0003b0 a1 15 b3 3b 80 da a7 bc df be fb 3b 88 3a 06 bd
       0.005465225 -0.020489931 0.0076826657 -0.032770663
0003c0 1f 7e c3 3c cf 90 b3 3c 9a fc 6b 3c 32 a8 b3 bb
       0.02386385 0.021919636 0.014403487 -0.005482697
0003d0 b6 31 d6 3c 16 7a 43 bc 9c ea 5a 3c 3c d9 83 bb
       0.02614675 -0.011930963 0.013361599 -0.004023699
0003e0 ac 34 a5 3c 0c 85 d1 3c 99 37 7e bc 1f e3 70 bc
       0.020166717 0.025576137 -0.015516185 -0.014702587
0003f0 df 81 18 3c 3b 0a e0 bb 7a 42 5d ba 9c d3 c8 3c
       0.009308307 -0.006837157 -0.0008440387 0.024514966

inertial_net.net.4.bias f4 [64]
000000 dd 6d 43 3b c3 dc cc 3b ab 24 f3 bb d9 16 a1 bb
       0.0029820122 0.006251903 -0.0074201426 -0.0049160537
000010 cc 31 9c 3b 89 57 6c bc a3 c7 54 bc d8 b3 7a 3b
       0.0047666784 -0.014425167 -0.01298705 0.0038254168
000020 f4 d3 0e bc f4 f7 e2 bb 6c 4b cb 3b e9 c0 f8 bb
       -0.008717526 -0.006926531 0.0062040593 -0.007591356
000030 6b 43 ea bb e6 13 dc bb 06 5d a6 3b a7 a1 6d bb
       -0.00714915 -0.0067162393 0.005077007 -0.0036259682
000040 9f 9c 4a bb f2 3f 48 3b d0 dc 51 bc 82 0c be bb
       -0.0030916107 0.0030555693 -0.012808993 -0.005799831
000050 0e fe 74 bb 24 ec 35 bb 41 23 ed bb f7 a2 9e 3a
       -0.0037382874 -0.002775916 -0.0072368686 0.0012103011
000060 ff 49 6f bb 91 cc 9c 3c 3e 19 c4 3b df cd 8e bb
       -0.003651261 0.019140514 0.0059844544 -0.004358038
000070 15 71 05 3c 89 2c 2d bc f9 52 d5 3b 27 68 be 3b
       0.008144637 -0.0105697 0.0065101353 0.005810756
000080 33 f9 a6 3b 6a 71 e1 3b 87 54 4e 3c 3a 04 5d bb
       0.005095625 0.006879975 0.012593395 -0.0033724443
000090 ab d9 6e bc 04 6a 91 3b 3d 2a d5 bb 7d f5 b7 3b
       -0.014578263 0.004437687 -0.0065052793 0.0056139813
0000a0 78 a7 d6 ba ad 10 88 bb 95 96 77 3b dc c8 50 3b
       -0.0016376814 -0.0041523785 0.0037778963 0.0031858003
0000b0 e9 55 0d bc d7 11 07 bc fb 41 3c 3c 77 c4 fa ba
       -0.00862644 -0.008243999 0.01149034 -0.0019132037
0000c0 e0 03 38 bc 85 c4 10 3b fa f9 ab bb c7 f8 63 3c
       -0.011231393 0.002208979 -0.0052483054 0.013914294
0000d0 27 ca 22 3b 06 9e 09 3c 58 c9 7f bb 12 00 3b 3c
       0.002483973 0.008399492 -0.0039029922 0.011413591
0000e0 96 78 a8 3b 97 96 6d 3b 4c 5c 94 3b f6 87 27 3c
       0.005141328 0.0036253089 0.004527604 0.010225287
0000f0 b1 c4 e4 3b 34 87 88 3b 1b fc 26 3b 4b 5c 54 ba
       0.0069814553 0.004166508 0.0025479856 -0.0008100911

inertial_net.net.5.weight f4 [64]
000000 f4 4a 7e 3f d6 17 7c 3f 49 82 81 3f ea e9 81 3f
       0.9933312 0.9847387 1.0117885 1.014951
000010 38 66 80 3f 5a cd 81 3f ab 6a 83 3f 37 e4 81 3f
       1.0031195 1.0140793 1.0266927 1.0147771
000020 47 d2 81 3f 3a 7b 83 3f 3e 16 7f 3f 1f 5f 81 3f
       1.0142297 1.0271981 0.99643314 1.0107154
000030 f3 39 81 3f 4d a4 82 3f cc f6 7e 3f 12 25 81 3f
       1.009581 1.0206391 0.9959533 1.0089438
000040 dc d1 7d 3f 21 4c 80 3f d7 90 81 3f ba 5f 7f 3f
       0.99148345 1.0023233 1.0122327 0.9975544
000050 c6 06 7d 3f 03 e4 7c 3f 39 1b 80 3f a6 39 7b 3f
       0.9883846 0.9878542 1.0008308 0.9813484
000060 d5 af 84 3f c6 01 84 3f 49 1d 83 3f 86 be 84 3f
       1.036616 1.0313041 1.0243312 1.0370643
000070 b4 76 7f 3f 79 3b 82 3f ae bb 84 3f bc 09 85 3f
       0.997905 1.01744 1.0369775 1.0393596
000080 64 26 84 3f 3b a9 84 3f e5 29 80 3f 7e b1 83 3f
       1.0324216 1.0364145 1.0012785 1.0288541
000090 b9 32 81 3f ae 69 7b 3f bf b4 81 3f 63 d9 7c 3f
       1.0093604 0.9820813 1.0133284 0.98769206
0000a0 cf cf 7d 3f 3e d7 74 3f 0a ed 7d 3f 31 f7 81 3f
       0.99145216 0.95640934 0.9918982 1.0153562
0000b0 99 87 83 3f f1 a0 7e 3f 44 cf 80 3f 56 9e 83 3f
       1.0275756 0.9946433 1.0063252 1.0282695
0000c0 14 ee 7e 3f ed a1 7a 3f 31 ff 80 3f ef 0c 85 3f
       0.9958203 0.9790333 1.0077878 1.0394572
0000d0 6a 76 81 3f 42 d5 86 3f b4 e0 87 3f 9a 63 88 3f
       1.0114262 1.0533831 1.0615449 1.0655396
0000e0 c0 6a 80 3f b8 d0 7e 3f 94 60 85 3f 93 51 81 3f
       1.0032578 0.9953723 1.0420098 1.010302
0000f0 43 b6 83 3f 39 3d 81 3f bb d2 80 3f 55 c8 83 3f
       1.0289997 1.0096809 1.006431 1.0295511

inertial_net.net.5.bias f4 [64]
000000 60 3c 91 3b f5 bd 81 3c ec 6c b0 bc 5f ab ca bb
       0.004432246 0.015837649 -0.021536313 -0.00618498
000010 de 0f 33 3c 98 2e d5 bc 85 f9 d4 bc d3 ab 58 3c
       0.010929076 -0.026023194 -0.025997886 0.01322456
000020 a8 84 30 bc 49 fc 85 bc 23 4c 39 3c 29 11 48 bc
       -0.010773815 -0.01635565 0.011309656 -0.012211123
000030 a1 93 a7 bc d2 4c 2b bc 4f 4a fe 3b ad 53 a6 bb
       -0.020456137 -0.010455327 0.007760323 -0.005075893
000040 be 24 76 bb 73 0a f9 3b 42 bd ec bc 40 1d 10 bc
       -0.003755852 0.0076001226 -0.028898839 -0.008796036
000050 63 da 58 bc d4 d2 50 bc 4c 86 59 bc 66 56 16 3c
       -0.013235661 -0.012745578 -0.013276648 0.009175872
000060 88 ed 36 bc 54 a6 2a 3d 1d db 81 3c 7e 79 2c bc
       -0.01116503 0.04166253 0.015851552 -0.010527013
000070 8f 91 d1 3b 13 63 42 bc 8d 15 45 3c 1c 61 97 3c
       0.0063955258 -0.011864441 0.012029064 0.018478923
000080 96 34 53 3c 12 37 06 3c c3 fa ad 3c 73 58 59 bc
       0.012890955 0.008191841 0.021237737 -0.013265717
000090 92 97 ca bc d9 a2 c9 3c b9 bd 0e bc e6 b1 f9 3a
       -0.024730477 0.024613785 -0.008712226 0.001905021
0000a0 66 b9 b5 bb 71 b3 26 3b db 93 49 3c 72 8a 44 3b
       -0.005545783 0.0025436545 0.012303318 0.0029989746
0000b0 a7 ef b5 bc a3 01 b2 bc 47 12 9d 3c e2 e1 46 bb
       -0.022209002 -0.021729296 0.019173754 -0.003034704
0000c0 df 2b a8 bc d7 47 37 3b 1c a6 c6 bb 74 77 ee 3c
       -0.020528732 0.0027966404 -0.0060622822 0.029109694
0000d0 8e 92 d3 3b 19 e3 0f 3c 8e ab 24 bc d5 76 25 3d
       0.0064566797 0.008782172 -0.010050667 0.04039653
0000e0 bd 60 75 3c f3 07 be 3b 81 14 b3 3b d6 7d aa 3c
       0.0149766775 0.0057992875 0.0054650907 0.020811956
0000f0 b1 2c 40 3c fa e2 66 3c 45 a0 cc 3b b2 c0 93 bc
       0.011729405 0.014092201 0.0062446916 -0.01803622

inertial_net.net.8.weight f4 [64, 64]
000000 71 11 75 b9 c4 56 59 3c 64 ca 55 bb 29 62 3b bc
       -0.00023371518 0.013265315 -0.0032621855 -0.011436977
000010 64 18 72 bb 0f 10 0d 3c 1d 18 02 3c 84 34 20 3b
       -0.0036940807 0.008609786 0.007940319 0.0024445364
000020 a1 53 1f bc e8 e9 81 3c 81 7d d9 bc fa 45 36 bb
       -0.0097245285 0.015858606 -0.026549103 -0.0027812705
000030 c3 31 69 3c 19 3f 2e bb f0 f0 d7 3b c5 f6 bf bc
       0.0142330555 -0.0026587902 0.0065900013 -0.023433099
000040 6c af 5f 3c a8 64 1d bc 72 a9 ee 3c 6a 63 09 bb
       0.013652664 -0.009606518 0.029133532 -0.0020963796
000050 1b 2a ce bb 04 1e 3c 3a fb 35 1c 3c 58 b7 9f 3a
       -0.0062916405 0.00071761035 0.009534354 0.0012185378
000060 7c df d8 bb ea 42 ac bb e8 82 9a 3c 6a 1e 1f bc
       -0.0066184383 -0.005257 0.01886125 -0.009711841
000070 04 a3 19 bb 91 49 d4 ba 30 de 67 bc 8e 2e 90 3c
       -0.0023443112 -0.0016196241 -0.014152095 0.017600324
000080 d2 f0 89 bc 1a 1f 09 bc 4c f4 a2 bc 80 7c 31 bc
       -0.016838465 -0.008369232 -0.01989188 -0.010832906
000090 82 57 7d bb 67 6c 87 bc eb 15 10 3c 9a b0 b2 bb
       -0.0038656895 -0.016531182 0.008794288 -0.0054531815
0000a0 6a 22 8c 3c 5a 48 e8 3c cc fe c1 3a 02 a2 3f bc
       0.017106254 0.028354812 0.0014800667 -0.0116963405
0000b0 1f c0 2d bb 43 3a 4f 3b ef d7 ad bc 69 15 28 bc
       -0.0026512218 0.003162042 -0.02122113 -0.010259011
0000c0 7c 5b b6 3b c4 be a8 bb 7f e3 f9 3b 42 fb 80 3b
       0.005565105 -0.005149694 0.0076259966 0.0039362023
0000d0 6e 4c 3b 3c 2f 7c 40 3c b2 17 20 bb 2e c1 af 3c
       0.0114317965 0.011748358 -0.0024428186 0.02145442
0000e0 9e 1b 17 3c d4 2c fa b9 6e f6 36 bc f9 3f 53 bb
       0.009222893 -0.00047717115 -0.011167152 -0.0032234176
0000f0 af ba 38 3b b6 60 a3 3a 08 27 c5 3b 4c d7 02 3c
       0.0028187444 0.0012464735 0.006016616 0.007985901
000100 09 a2 a6 ba 79 0a 3b 3c 8c cb 4e 3c cb 65 83 bc
       -0.0012713085 0.011416071 0.012621772 -0.01603975
000110 fa da 96 bc 94 cd 2f bc 83 5e bf bc 52 2a a6 3c
       -0.018414963 -0.010730166 -0.023360496 0.020283852
000120 c5 0f 55 3c 14 10 81 bb 7d c0 7c 3c 87 4c a7 3b
       0.013004248 -0.0039386842 0.015426752 0.0051055583
000130 6b 51 d7 3b 6b 59 5a bc 22 14 6e bc 80 76 0b 3c
       0.006570985 -0.013326983 -0.014531167 0.008512139
000140 4c 60 7d 3a 10 14 b9 bb 26 b7 53 3c b4 bc bd bb
       0.00096655334 -0.0056481436 0.012922084 -0.0057903174
000150 58 38 de 3b 0a f8 96 3c 8f ef d5 3b c4 89 a9 bc
       0.006781619 0.018428821 0.0065288018 -0.020695575
000160 d1 ce 4d bc d2 3e a4 bc c2 f3 7f 3c 3c 82 d6 bb
       -0.012561516 -0.020049486 0.015622081 -0.006546287
000170 b8 5b bd 3c b9 86 34 3a ba ac a8 3c 63 e8 64 bc
       0.023115024 0.00068865303 0.020590175 -0.013971421
000180 b4 74 0f 3c 63 a6 ed 3b 4f e1 49 bc 7b 84 89 3c
       0.008755852 0.007252501 -0.012321784 0.016786804
000190 c7 43 d1 3c 0c 41 06 3c 9f 05 13 3c 42 ef 0b bb
       0.025545014 0.008194219 0.008973508 -0.0021352326
0001a0 28 5a bd 3b d8 ba 08 bc be 84 02 3d a7 b4 60 3c
       0.0057785697 -0.008345328 0.031864874 0.013714946
0001b0 45 69 f8 bb b4 f3 31 bc 7a e5 9b 3a ba f3 5b 3c
       -0.0075809085 -0.010861326 0.0011893951 0.013424808
0001c0 13 e9 d8 bb c7 3e 22 3c 99 c1 33 bc 10 67 1e 3b
       -0.0066195815 0.009902663 -0.01097145 0.0024170317
0001d0 ff a1 85 bb 37 f3 cd bb d5 9a c3 bb 87 b7 b3 bc
       -0.0040781493 -0.006285097 -0.005969385 -0.021938099
0001e0 71 3c 88 3b 5d 79 5b bc aa 0d 52 bc 5d 7e 02 3c
       0.004157596 -0.0133956345 -0.012820641 0.007964698
0001f0 5c 62 27 3b 82 c2 da bb 86 10 9e bc 67 85 97 3c
       0.0025540804 -0.006676019 -0.019294988 0.018496228
000200 af 3f 2c bd 41 a1 29 3b 10 ef c5 bb 18 8e e1 3b
       -0.04205292 0.0025883468 -0.0060404614 0.006883394
000210 bb 5a 2b 3b eb 99 91 bb ef 27 e1 bb f3 1a cc 3c
       0.002614661 -0.0044433973 -0.0068712155 0.024915194
000220 dd 8f 73 bc a9 25 48 bc e6 32 1d bc 86 70 61 3a
       -0.014865843 -0.01221601 -0.009594655 0.0008599836
000230 24 d4 16 bc 39 bf 28 3c 5c 8c 55 bb d0 b5 af bb
       -0.009205852 0.010299497 -0.0032584881 -0.00536225
000240 35 4a 06 3c 10 f4 d9 bc 9c c5 70 bc 82 15 bf 3b
       0.008196403 -0.026605636 -0.014695551 0.0058314214
000250 16 51 67 3c 25 d8 b5 bc c8 43 ab 39 62 32 9f 3c
       0.0141184535 -0.022197792 0.00032666163 0.019433204
000260 63 d6 b1 3b cd 1b 77 3b 25 76 93 bc eb 1d ca bc
       0.005427168 0.003770578 -0.018000672 -0.02467247
000270 a1 04 c4 bb 78 e5 94 3b 7d 0c cf bc ee f5 04 bc
       -0.005981997 0.0045439564 -0.02527451 -0.008115275
000280 13 df 23 3c 43 8c 03 3c 4f b1 83 3c bd bb 14 bc
       0.0100019155 0.0080290465 0.016075758 -0.009077963
000290 dd 52 43 ba 96 de 14 3c b4 ee 61 bc 5e bf 2a 3c
       -0.0007451007 0.009086272 -0.013789821 0.010421602
0002a0 9e b3 8d 3c 31 d4 c5 3c f0 55 c4 3b 14 27 49 bb
       0.017297562 0.024149032 0.00599169 -0.0030693458
0002b0 7c 3b d6 bb 1d 69 e6 3b ec ed 9b 3b a7 90 ae 3c
       -0.006537853 0.0070315734 0.004758587 0.02130921
0002c0 1e b7 f7 bb 13 a9 cf 3a 5a e1 c9 bb 22 da fa bc
       -0.007559671 0.0015843235 -0.006160897 -0.030621592
0002d0 c1 59 99 bc 59 62 43 bb cd d6 89 bb ae e4 3c bc
       -0.018719556 -0.0029813258 -0.0042065145 -0.011529131
0002e0 7a 4c 9c bc b3 99 33 3c b0 12 93 bb 58 cb e9 bb
       -0.019079436 0.010961938 -0.0044883117 -0.007134836
0002f0 d6 de 49 bb 26 6f 92 3c be 69 89 bb ad c0 0d bb
       -0.0030802987 0.017875265 -0.0041935137 -0.0021629736
000300 85 fb 9b 3b 8e 7b e8 bc 6e f6 3c bc 6e 88 df bc
       0.004760208 -0.028379228 -0.011533363 -0.027286734
000310 d9 43 36 3c e7 9f 7a bc ba c6 91 3b 55 0a ab 3c
       0.011124575 -0.015296913 0.004448739 0.02087895
000320 87 72 d3 bb 5c 61 c3 bb 21 30 5b ba 3e 4f 12 ba
       -0.0064528617 -0.005962534 -0.0008361359 -0.0005581266
000330 a8 bb 0a 3c a1 bc 8e 3c 39 cf 69 3c 1c a9 ff bb
       0.008467592 0.01742393 0.014270597 -0.007802142
000340 8e 53 09 3b 99 fa cf 3c 43 82 28 bc 0e ff 7b 3c
       0.0020954343 0.025388049 -0.010284963 0.015380634
000350 af b5 0e 3c a2 ca 17 3c a5 7b 36 3c 54 c0 9c bc
       0.008710309 0.00926462 0.011137878 -0.019134678
000360 87 d6 38 b8 97 91 ff 3c 2d 90 b9 3b bf 65 38 bb
       -4.4068813e-05 0.031197352 0.005662939 -0.0028136817
000370 17 47 54 bc 92 c7 23 3c 12 f8 b8 3c c5 37 cd 3b
       -0.012956402 0.009996312 0.022579227 0.0062627518
000380 a9 b2 cc 3c 1c 04 7e 3c f8 11 67 3c 4e ce e5 bc
       0.024987536 0.015503909 0.014103405 -0.028052475
000390 86 8e 8c bb e9 11 8c 3c 61 36 1a 3c f2 58 a0 3c
       -0.004289451 0.017098384 0.009412379 0.019573662
0003a0 73 4d 33 3b 70 9c b8 bb bf 42 95 bc fb 04 d3 39
       0.0027359396 -0.005633883 -0.018220304 0.00040248767
0003b0 8e 59 93 bb 99 f2 ca bc be e8 4a bc b4 04 5d 3b
       -0.0044967597 -0.024773883 -0.012384592 0.0033724727
0003c0 25 c5 af bb a7 41 83 bc 60 83 bd 3a 1b 58 cf 3c
       -0.0053640776 -0.016022516 0.0014458708 0.025310567
0003d0 f2 1e d2 3c 7a 2d 18 3c ed be 80 bb b6 9f bc 3c
       0.025649521 0.009288186 -0.00392901 0.023025375
0003e0 5a ca 92 bb e1 91 e7 3b 0c 3c 0c 3b 33 a5 30 ba
       -0.0044796886 0.0070669507 0.0021398095 -0.0006738484
0003f0 e6 b0 3b bc 4f 68 14 3c 42 f1 e6 3b ea b3 13 3c
       -0.01145575 0.009058072 0.007047803 0.009015063

inertial_net.net.8.bias f4 [64]
000000 1c a0 56 bb 21 bf d1 bb 0c 3f 10 3b 5d 06 a6 3b
       -0.0032749241 -0.006400958 0.0022010235 0.0050666765
000010 8f 61 1f bc 93 71 b8 bb 5e 73 49 3c 80 23 fa 3b
       -0.00972785 -0.0056287735 0.012295572 0.0076336265
000020 4f cf 22 ba bb 27 53 bc 1b 09 bf 3c 08 1c 71 b9
       -0.0006210701 -0.01288789 0.023319772 -0.00022993993
000030 61 36 20 bc 7b eb 5a bb 61 6b 84 bc 9e 02 85 3c
       -0.00977859 -0.0033404517 -0.016164484 0.0162366
000040 4b db 74 bc 30 9d 96 bb 21 ce 60 3c e3 60 b9 3c
       -0.014944862 -0.004596375 0.01372102 0.022629207
000050 04 26 c8 bb 28 65 48 3c b0 fe df bc e7 10 8a bb
       -0.0061080474 0.012231149 -0.027343124 -0.0042134407
000060 b3 44 94 bc fd 47 6d 3c 70 b4 a0 bc 6b 50 aa 3a
       -0.018099165 0.014482495 -0.01961729 0.0012993937
000070 1c a0 68 bc a6 60 ee bb 70 0b 30 3c 97 a9 c0 3a
       -0.014198329 -0.007274705 0.010744914 0.0014698979
000080 f8 ea a3 3c e5 d9 2a 3c f8 83 b1 3b db 49 81 bc
       0.020009503 0.010427927 0.005417343 -0.015782287
000090 fc e6 09 3a 0a 46 f1 3b 80 fc 26 3a ce 9b c4 3c
       0.00052605546 0.0073630856 0.0006370023 0.024000075
0000a0 6a 87 32 bc a4 92 81 3b 93 d6 85 3b f4 d5 e7 3a
       -0.010896543 0.0039542485 0.004084417 0.0017687664
0000b0 10 f1 04 3b 6a 7f 92 3b e1 a2 95 bc 9a 6f 92 bb
       0.0020285286 0.0044707553 -0.018266143 -0.0044688703
0000c0 96 b3 cb bc 79 7e c8 bb d3 10 84 3c ad 32 e8 3c
       -0.024865907 -0.0061185923 0.016121304 0.028344477
0000d0 df 55 8b bc 26 3b 9b 3b 65 0e c5 bb fd 00 cc 3b
       -0.01700872 0.0047372757 -0.006013679 0.0062257037
0000e0 09 f5 49 36 e3 58 23 3c 1b 71 44 3c 0e 42 ca 3a
       3.0093963e-06 0.009969923 0.011989857 0.0015431063
0000f0 a0 46 bf bb db 4b b6 bb bc 9c e7 bb ab 9c 94 bb
       -0.0058372766 -0.005563242 -0.0070682447 -0.004535278

inertial_net.net.9.weight f4 [64]
000000 0d 64 8a 3f 60 f5 7f 3f 0c d0 81 3f 62 21 84 3f
       1.0811783 0.9998379 1.0141616 1.0322688
000010 8b 34 8d 3f fc a0 89 3f be ac 8a 3f 65 fe 87 3f
       1.103166 1.0752254 1.0833967 1.062451
000020 89 9d 89 3f 02 e8 87 3f 57 32 8e 3f 3f 77 89 3f
       1.0751201 1.0617678 1.1109113 1.0739516
000030 41 f3 8b 3f 56 af 86 3f 6b 4d 86 3f 54 79 8d 3f
       1.093361 1.0522258 1.0492376 1.1052651
000040 ec 5e 8e 3f 10 2f 85 3f 1d 69 8a 3f d4 a7 85 3f
       1.1122718 1.0404987 1.0813328 1.0441842
000050 a7 2e 87 3f f6 b7 8d 3f ce e1 8d 3f 53 38 82 3f
       1.0561112 1.1071765 1.1084535 1.0173439
000060 d4 c4 88 3f 83 01 8c 3f 63 ef 8b 3f 38 5d 80 3f
       1.0685067 1.0937961 1.093243 1.0028448
000070 fd 73 89 3f 06 c5 89 3f 41 e1 8c 3f 0c 9a 85 3f
       1.0738522 1.0763252 1.1006242 1.0437636
000080 e3 09 8b 3f 3e 2a 8d 3f b4 60 86 3f ab 41 8d 3f
       1.0862392 1.1028516 1.0498261 1.1035665
000090 5a 94 86 3f a8 10 8a 3f e8 0b 84 3f d4 8c 8c 3f
       1.0514023 1.0786333 1.0316133 1.0980477
0000a0 d3 da 8e 3f 5a ed 85 3f df 47 7d 3f 49 dc 89 3f
       1.116053 1.0463059 0.9893779 1.0770351
0000b0 6d d5 85 3f 24 43 88 3f 55 1a 89 3f d9 76 85 3f
       1.0455757 1.064549 1.0711161 1.0426894
0000c0 53 9f 8f 3f 9a ad 88 3f 96 46 89 3f 3d 7d 8e 3f
       1.1220497 1.0677979 1.0724666 1.113197
0000d0 73 43 86 3f 51 de 80 3f 78 8e 8f 3f eb 06 87 3f
       1.0489334 1.0067846 1.1215353 1.0548986
0000e0 19 e9 8b 3f eb ff 89 3f 66 c1 8b 3f cf 6f 88 3f
       1.0930511 1.0781225 1.0918396 1.0659121
0000f0 70 62 84 3f 84 99 86 3f 7a 32 8e 3f df 21 88 3f
       1.0342541 1.0515599 1.1109154 1.0635337

inertial_net.net.9.bias f4 [64]
000000 11 53 72 3d 73 ed 44 bc 9f 61 15 bc d2 ea bf 3c
       0.05916125 -0.012019503 -0.009117513 0.0234274
000010 a2 c9 59 3d 70 23 38 3d bb ce 8d 3d 8d 7e 24 bd
       0.053170808 0.04495567 0.06924196 -0.04015975
000020 d5 cd 4d bd d8 99 62 bd b9 f5 55 bd 3e 64 02 3d
       -0.050245125 -0.055322498 -0.052236293 0.03183388
000030 5f 4b 70 3d 2c df f4 3c 7d d4 66 3c 52 86 85 bd
       0.05866563 0.029891573 0.014088747 -0.0651976
000040 a1 2a d0 bd 14 8b 91 3c 53 da 99 3d ef 74 51 3d
       -0.10164381 0.017766513 0.07512345 0.051136907
000050 2c 5e 15 3d b9 1b af bd a6 f0 ce bd a1 83 a8 bc
       0.036466762 -0.085502096 -0.10104494 -0.020570578
000060 a1 c0 8f bd dc 86 a3 3d 70 88 c3 bd 2c 85 15 bc
       -0.07019163 0.07984707 -0.09547508 -0.009125989
000070 8d dd 9f bd 2e f0 8d bd ff d4 96 bd d3 f9 94 bc
       -0.07805929 -0.06930576 -0.073648445 -0.018185532
000080 3f 9a aa 3d 18 31 98 bd 4c 3a 0d bd cf c6 d1 bd
       0.08330201 -0.07431239 -0.034479424 -0.10242998
000090 ae 31 20 bd cd 31 25 bd b4 7b a7 3c ca 6a 80 bd
       -0.03910988 -0.040330697 0.020444728 -0.062703684
0000a0 27 fc d6 bd da f4 8e bc 54 7e 0e 3c fa d7 37 bd
       -0.10497313 -0.017450739 0.008697111 -0.044883706
0000b0 02 25 0a 3d 2b 60 2b bd 7b e2 6c 3c 57 41 45 3c
       0.0337267 -0.04183976 0.014458294 0.012039504
0000c0 35 d5 a7 3d 27 06 2b 3d f8 bb 34 bd e5 53 d9 3d
       0.08194963 0.041753914 -0.044124573 0.10611705
0000d0 0f 01 56 3c 7a 0a af 3c 78 5b 92 3d c1 43 34 bb
       0.013061776 0.0213673 0.071463525 -0.0027506205
0000e0 69 48 6e 3d f8 c6 7e 3d 83 b2 a9 3d a3 94 25 3d
       0.058174524 0.06220147 0.082860015 0.040424954
0000f0 fc 53 65 3c 61 7e f4 bc 39 e8 da bd 0d 56 52 bd
       0.013997074 -0.029845418 -0.10688824 -0.051351596

inertial_net.net.11.weight f4 [9, 64]
000000 84 31 95 bd 0c 3e 08 3d 18 04 02 3d e7 5e 8d bd
       -0.07284835 0.033262298 0.031742185 -0.06902867
000010 27 e3 90 bd 82 8d 88 bd df 4e b0 bd 3d 88 50 3d
       -0.07074576 -0.066676155 -0.086087935 0.050911177
000020 99 4a 9e 3d 66 8d b2 3d 2c 98 8e 3d 6c 52 bf bd
       0.07729072 0.08718376 0.06962618 -0.093418926
000030 36 57 9d bd 56 d6 4b bd 24 a4 45 bd 28 9a bd 3d
       -0.0768265 -0.049764954 -0.04825224 0.092579186
000040 62 50 dd 3d 1f 3d a0 bd 7e c8 9a bd 95 2a 10 bd
       0.108063474 -0.07824158 -0.07557772 -0.03519686
000050 d1 c7 87 bd 97 9b 55 3d 1c 13 9a 3d 13 4c b8 3d
       -0.06629909 0.052150335 0.07523176 0.08998885
000060 ba 9f b1 3d 39 17 ed bd 14 09 91 3d 1d 4f 09 3d
       0.086730435 -0.11576695 0.0708181 0.033522714
000070 39 47 a3 3d 27 40 80 3d 9c b5 5e 3d 34 ab c3 3d
       0.07972569 0.06262236 0.054372415 0.09554139
000080 8d da d0 bd 37 08 c4 3d fa eb 96 3d bc e6 c8 3d
       -0.10197935 0.09571879 0.07369228 0.09809634
000090 11 d0 82 3d dd ea d1 3d 26 2d 74 bd 36 87 8f 3d
       0.06387342 0.10249875 -0.05961337 0.07008211
0000a0 5d 02 9d 3d c9 c4 96 3d 06 09 be bc fa 20 92 3d
       0.076664664 0.073617525 -0.023197662 0.07135196
0000b0 9e 5a a1 bd b7 ea 8c 3d 36 2b 62 bd c2 2d b5 bd
       -0.07878612 0.06880706 -0.05521699 -0.08846618
0000c0 f5 6d 90 bd 42 61 63 bd 41 d7 81 3d d4 29 97 bd
       -0.07052223 -0.055512674 0.063398845 -0.07381025
0000d0 5b 4f 43 bd 98 a6 98 bd 04 4a c0 bd df e4 dc 3d
       -0.0476831 -0.0745365 -0.09389117 0.10785841
0000e0 41 5b c8 bd f0 98 ad bd 34 7a b9 bd 25 89 b0 bd
       -0.0978303 -0.08476436 -0.090565115 -0.08619908
0000f0 72 88 22 bd 6f 1a 78 3d 6f f8 76 3d c0 8c d9 3d
       -0.039680906 0.060572084 0.06029552 0.10622549
000100 d1 4d c2 3c 02 05 9c 3c 32 e6 0a bc f0 11 0d bc
       0.023718746 0.019045357 -0.008477734 -0.008610234
000110 0c b4 03 3d ed 07 98 3c 54 a6 13 3c 3c be d4 bc
       0.032154128 0.018558467 0.009011824 -0.025969617
000120 08 d6 34 3c 4f a4 bf bc 04 ab 08 bd 87 80 8a bb
       0.011037357 -0.023393778 -0.03336622 -0.0042267474
000130 6e 66 35 3c b9 92 a1 3c 51 62 98 3c a4 91 d1 bc
       0.011071784 0.019723283 0.018601568 -0.025582142
000140 22 2f 65 bb a0 98 ed bb 31 19 07 ba 20 53 99 3c
       -0.003497072 -0.0072508603 -0.0005153595 0.018716395
000150 53 a0 ea 3b 18 c7 dc bc 50 fa ea bc 8e a4 7c bc
       0.0071602254 -0.026950404 -0.028683811 -0.015420092
000160 aa 82 a9 bc 21 51 0f 3d 76 58 53 bd ad 9c 12 bc
       -0.020692188 0.03498948 -0.051598035 -0.008948487
000170 0a 08 64 bb 30 ba 80 bc f9 17 06 bd 42 6b df bc
       -0.003479483 -0.015713781 -0.032737706 -0.027272824
000180 b4 cb e8 3c 07 4f 4d bc 15 1b 0f bd 37 35 ca bc
       0.028417446 -0.012531049 -0.034937937 -0.024683578
000190 ff 4f 0c bc 4f 5c 28 bc 8d 97 3e 3b 9a 1d ec bc
       -0.008563994 -0.010275914 0.002908203 -0.028822709
0001a0 f0 56 40 bd dc 64 22 bc 41 84 c5 3b 61 fb 24 bc
       -0.04695791 -0.009911742 0.006027729 -0.010069699
0001b0 14 34 be bc e3 9c 0e bd f6 d9 fc 3c 42 a5 1d 3d
       -0.023218192 -0.034817588 0.03086565 0.03848768
0001c0 1d d0 f8 3c d2 82 df 3c c0 42 91 bc f6 f7 0a 3d
       0.030372674 0.02728406 -0.017732024 0.03392788
0001d0 7d aa ef 3c 30 89 05 3d 5e 5e 3e 3c 76 88 40 bd
       0.0292561 0.032601535 0.011619179 -0.04700514
0001e0 53 b2 0e 3d 37 4c 2a 3d d5 27 17 3c 01 f0 03 3c
       0.034838032 0.04157659 0.009225805 0.008052827
0001f0 dc 84 a2 3c a5 8f 11 bd 32 17 05 bd 58 11 b9 bc
       0.019838743 -0.03553738 -0.032492824 -0.022591278
000200 1e 9e 1b 3d 10 71 f0 bc 60 05 72 bd 59 d7 6e 3c
       0.03799259 -0.029350787 -0.059087157 0.01457771
000210 94 56 f9 3c e8 9d ee 3c fb 6e f9 3c 26 b8 4c bd
       0.030436791 0.02912803 0.030448427 -0.049980305
000220 21 b8 02 bd 4e 5f 89 bc 7a 8c e7 bc 57 f8 42 3c
       -0.03191388 -0.016769078 -0.028265227 0.011900029
000230 cb 80 10 3d 4d 7e 18 3d 4c 76 33 3d 28 87 ed bc
       0.035279077 0.037229825 0.04381399 -0.028995112
000240 69 c7 fb bc da 72 55 3d 8b d2 01 3d 05 d8 e5 3c
       -0.030734735 0.052111484 0.03169493 0.028057108
000250 03 82 60 3d 37 90 e0 bc 47 e0 b1 bc 5c e9 ca ba
       0.05481149 -0.027412517 -0.02171339 -0.0015480923
000260 3e 1f 37 bc 2e f5 20 3d da 4d ed bc 53 b2 61 bc
       -0.011176882 0.03929632 -0.028967787 -0.013775426
000270 52 b0 27 bc a2 88 d6 bc 32 9e 2e bd 92 9f 1e bc
       -0.010234909 -0.026188198 -0.042631336 -0.009681599
000280 be 61 b7 3c 04 e2 4c bd 6d eb c6 bc f1 41 f4 bc
       0.022385474 -0.050020233 -0.024282182 -0.0298166
000290 14 fd 06 bd c2 38 53 bc 95 a2 39 3d f7 a9 e6 bc
       -0.032956198 -0.01289195 0.045321066 -0.028157217
0002a0 45 22 5e bd e0 09 a1 bd c1 28 81 b9 c8 d7 a5 bc
       -0.0542319 -0.07863212 -0.0002463516 -0.020244494
0002b0 70 c7 ed 3c 1c a7 14 bd 8b d1 53 3d 03 47 7c 3b
       0.029025763 -0.03629218 0.051713508 0.0038494475
0002c0 1a 56 e6 3c af 06 41 3d 50 e3 4b bd 03 14 34 3d
       0.028117228 0.047125515 -0.04977733 0.043964397
0002d0 39 ef 57 3d 4b 41 44 3c c0 e6 04 3d ed c7 18 3d
       0.052718375 0.011978458 0.032446623 0.03730004
0002e0 88 33 6b 3d f3 79 d5 3c 40 87 ec 3c d5 99 a3 3c
       0.05742219 0.026059126 0.028873086 0.019970814
0002f0 c3 6a 48 3d 49 f5 9f bc f4 0b 1e bd df 95 ed bc
       0.04892994 -0.01952614 -0.03858562 -0.029002128
000300 96 03 ba bc 41 38 06 3d 40 d7 e0 3c 2f 46 14 bd
       -0.022706788 0.03276849 0.02744639 -0.036199745
000310 ab 43 19 bd 99 d2 4d ba 00 2e bf bc 63 8a b0 3c
       -0.03741805 -0.0007851511 -0.023337364 0.021550363
000320 ff 02 fe 3c 4d e1 5b 3d 03 fc b6 3c 77 75 0b bb
       0.031007288 0.05368166 0.022336965 -0.0021279731
000330 c4 42 2a bd 95 1b 96 bc c2 16 c2 bc 2a 79 27 3d
       -0.04156758 -0.018323699 -0.023692492 0.040887035
000340 0f 4e 92 3c 2e 02 15 bc f2 57 0b bd d8 b4 9d 3a
       0.017859487 -0.009094758 -0.034019418 0.0012032045
000350 67 fa 81 bc ac df a3 3c bd 46 63 3c eb 74 08 3d
       -0.015866471 0.020004116 0.013871846 0.033314627
000360 f3 fd f4 3c 00 92 5c bc 93 3b 2a 3b 19 0f 07 3d
       0.029906249 -0.0134625435 0.002597545 0.032973383
000370 07 82 e8 bb 5b c4 b8 3b 4e 03 df 3c e5 56 04 ba
       -0.0070955786 0.005638642 0.027223255 -0.00050483487
000380 d8 15 b6 bc ec c4 0b 3c 64 48 d4 3c 43 1f 92 3c
       -0.022227213 0.008530837 0.025913425 0.017837172
000390 29 58 8a 3b 40 0b 30 3c be 48 94 bc 47 f7 cb 3c
       0.0042219353 0.01074487 -0.018101092 0.024898184
0003a0 4b 3f c5 3c 45 b8 08 3d fd 1f a8 3c 4b 41 ee 3c
       0.024078032 0.033378858 0.020523066 0.029083868
0003b0 72 f6 0d bd 3a 5c 06 3d f0 91 ed bb 2c 4b 3a bd
       -0.034658857 0.032802798 -0.007250063 -0.045481846
0003c0 82 0f 15 bd 15 af a1 bb 0a 57 2e 3c 28 5b 0c bd
       -0.036391743 -0.0049342015 0.010640869 -0.03426662
0003d0 88 11 af bc e1 88 31 bc 6c 9e fc bc 46 b3 2f 3d
       -0.021370664 -0.010835857 -0.03083726 0.042895578
0003e0 30 b1 06 bd cf 2b 96 bb 67 73 2e bb 41 ae f7 3b
       -0.032883823 -0.004582859 -0.0026619078 0.0075586145
0003f0 ef d1 12 bc 1f f9 b7 3c 6e 9c 7f 3c ff aa b4 3c
       -0.008961185 0.022457657 0.015601261 0.022054194

inertial_net.net.11.bias f4 [9]
000000 a2 9c 91 bd 5b 59 20 3c 11 2b 96 3c 32 6d 20 bd
       -0.071099535 0.009786929 0.018331083 -0.039166637
000010 7f 35 41 ba ce e1 9a 3b 10 db 00 bd 20 5f 57 3c
       -0.0007370337 0.004726625 -0.031458914 0.013145238
000020 c8 b1 17 bb
       -0.0023146737
