E2NN/Trained_models_h64_s10_20250726_160534/vanillarnn_model.pth (torch, 152754 bytes, 18 tensors)

input_net.0.weight f4 [64, 9]
0.22810017 -0.010134025 -1.1500667 0.8413939 -0.18718277 -0.4004832 0.59973943 -0.24966379
-0.07543022 -0.4974309 -0.9479421 -0.099188365 0.41564932 -0.008414896 -0.4254728 -1.1156722
0.65549886 0.34977996 0.4390242 0.12383419 1.0208446 -0.525102 -0.5010209 -0.53171116
0.4352156 0.03761802 0.5715318 -0.5567625 -1.0141702 0.25527483 -0.62363917 0.6776882
0.30017862 -0.040222056 0.21385768 -0.39602283 -0.061088637 0.13749518 0.59080404 0.7496584
0.14365149 -0.12654983 -0.08694249 0.057309672 -0.2799027 -0.9053344 0.30843076 1.6772177
-0.17849892 -0.106064975 0.51378995 -0.08710281 -0.43101028 -0.3786003 0.043643735 -0.11438227
-0.69723916 0.61221975 -0.32410732 -0.54419434 0.6399848 -0.02063757 -0.26083678 -0.5561769
0.079477206 0.50489783 0.20626156 0.09835866 0.041728742 0.3223718 0.5596602 -0.058554962
-0.012082264 0.17429514 0.15102756 0.012234851 0.17739046 -0.13635297 0.7014533 0.8207168
-0.2177912 0.032794222 -0.19174105 0.50563765 0.06368511 0.24367853 0.83248585 -0.40393642
0.012413266 0.06692097 -0.1375536 0.43302038 -0.06710852 0.4047941 0.75445503 0.21034293
-0.44338793 0.2956445 -0.9702793 0.2987473 0.39585543 -0.16176333 -0.07028509 -0.5390627
-0.25690794 0.18251663 0.8897828 -0.39523956 0.52242273 -0.021477232 0.026155483 -0.2614083
-0.376365 0.14212503 -0.42465153 -0.642709 0.4070452 0.55434537 -0.029829705 0.15084602
-0.042731326 0.4241753 0.63189 0.4132263 0.2645985 -0.08528502 0.10378653 0.5230662
-0.061761454 0.106357 -0.52146256 -1.0236881 -0.6415632 0.6061326 -0.09640262 -0.47051647
0.71236736 -0.63403064 0.14305447 -1.1119761 1.2659506 -0.26970047 -0.08732476 -0.30336487
0.37578213 -0.14271648 0.052628413 0.55515873 -0.5595414 0.25786394 0.2585359 -0.2991719
-0.6953661 -0.7831848 0.16603473 1.0434287 -0.13221952 -0.09747791 0.34497905 0.14651383
-0.12141996 0.55262506 0.28931922 -0.20982231 0.26163775 -0.16256587 -0.5332789 0.5682089
0.37009746 -1.1024834 0.6490127 0.52288926 -0.15455462 -0.14574815 0.7643907 0.49570954
-0.528169 -0.3106939 -0.6519942 0.49132973 0.51453936 0.74544364 -0.84050024 0.31105977
-0.8663101 0.25550118 -0.29765272 1.412441 -0.5079654 -0.056736644 -0.7705248 -0.028291728
0.2391788 0.0030195003 0.31714678 0.06064312 -0.46028125 0.6070931 -0.16098748 0.06751345
-0.23837012 0.60251594 0.6293686 -0.5980114 0.9197581 0.24722193 0.28665456 0.99594235
-0.548754 0.95943946 -0.25827646 0.27094272 0.43475375 0.32239267 -0.5322293 0.05354779
0.19211479 -0.4087855 -0.13876657 -0.1834842 -0.59644413 0.05104781 -0.80581903 -0.3236848
0.07140956 0.31572813 -0.22507049 -0.40186343 0.4694812 -0.52157533 -0.9495111 0.31211874
-0.2169154 -0.18239978 -0.27614075 -0.45308006 0.71973467 0.61242115 0.2859552 -1.6995343
-0.08984511 -0.8055782 -0.24424717 0.14696464 -0.13550173 -0.36040923 0.07127022 0.6083824
0.16236515 0.4500704 -0.2092257 -0.48771986 0.39413735 0.76536614 -0.8272434 -0.24786036
00000000: 1793 693e 2e09 26bc 6335 93bf 9765 573f
00000010: d7ac 3fbe 220c cdbe 8688 193f dda7 7fbe
00000020: 297b 9abd 43af febe 55ac 72bf 4523 cbbd
00000030: fdcf d43e a2de 09bc 92d7 d9be 59ce 8ebf
00000040: c6ce 273f 5c16 b33e c8c7 e03e c89c fd3d
00000050: 09ab 823f 166d 06bf e842 00bf 391e 08bf
00000060: 94d4 de3e 5a15 1a3d e84f 123f fd87 0ebf
00000070: 54d0 81bf 62b3 823e d1a6 1fbf f97c 2d3f
00000080: 03b1 993e e2bf 24bd 82fd 5a3e 81c3 cabe
00000090: 1438 7abd 89cb 0c3e ef3e 173f 9de9 3f3f
000000a0: 6019 133e 4796 01be e70e b2bd 8cbd 6a3d
000000b0: 684f 8fbe ffc3 67bf a3ea 9d3e 12af d63f
000000c0: 6cc8 36be 9838 d9bd bd87 033f f562 b2bd
000000d0: 61ad dcbe e6d7 c1be c6c3 323d 4041 eabd
000000e0: 447e 32bf 6fba 1c3f 65f1 a5be 5250 0bbf
000000f0: 0bd6 233f 1f10 a9bc 668c 85be 9c61 0ebf
00000100: f2c4 a23d fc40 013f 3b36 533e 4470 c93d
00000110: c2eb 2a3d eb0d a53e e445 0f3f 54d7 6fbd
00000120: b0f4 45bc 6d7a 323e f8a6 1a3e af74 483c
00000130: d8a5 353e 1da0 0bbe 7292 333f 7f1a 523f
00000140: a804 5fbe 3c53 063d c457 44be 7871 013f
00000150: 576d 823d dd86 793e cb1d 553f c1d0 cebe
00000160: 0361 4b3c dd0d 893d dada 0cbe d9b4 dd3e
00000170: 3170 89bd 2c41 cf3e f723 413f 2364 573e
00000180: be03 e3be b75e 973e 3964 78bf 68f5 983e
00000190: 90ad ca3e 49a5 25be a1f1 8fbd 0300 0abf
000001a0: 7089 83be a4e5 3a3e cec8 633f d75c cabe
000001b0: 7fbd 053f 05f1 afbc 0644 d63c 4fd7 85be
000001c0: eab2 c0be 3989 113e ed6b d9be 9488 24bf
000001d0: 3a68 d03e 94e9 0d3f 6d5d f4bc 6177 1a3e
000001e0: 0b07 2fbd 812d d93e 8bc3 213f 6692 d33e
000001f0: 7479 873e eaa9 aebd 088e d43d abe7 053f
00000200: 94f9 7cbd b3d1 d93d 927e 05bf 3608 83bf
00000210: 7c3d 24bf 822b 1b3f bd6e c5bd 89e7 f0be
00000220: b55d 363f d54f 22bf df7c 123e 3c55 8ebf
00000230: ab0a a23f 2e16 8abe 53d7 b2bd a452 9bbe
00000240: 8466 c03e 4524 12be e490 573d e21e 0e3f
00000250: 1b3e 0fbf be06 843e d15e 843e 0f2d 99be
00000260: 8303 32bf cd7e 48bf 0205 2a3e 128f 853f
00000270: 8e64 07be 80a2 c7bd 18a1 b03e b907 163e
00000280: 07ab f8bd d678 0d3f a621 943e a9db 56be
00000290: 62f5 853e ab77 26be f784 08bf 2376 113f
000002a0: 6a7d bd3e 2d1e 8dbf b225 263f 12dc 053f
000002b0: 9143 1ebe 013f 15be 1caf 433f a4cd fd3e
000002c0: 1536 07bf 4513 9fbe 18e9 26bf 928f fb3e
000002d0: dab8 033f 65d5 3e3f 062b 57bf 3a43 9f3e
000002e0: 80c6 5dbf 0dd1 823e f065 98be deca b43f
000002f0: 050a 02bf af64 68bd 1d41 45bf 0ec4 e7bc
00000300: 4aeb 743e cfe2 453b 1061 a23e ec64 783d
00000310: fca9 ebbe 746a 1b3f e7d9 24be 7e44 8a3d
00000320: 4c17 74be 7c3e 1a3f 4d1e 213f 4617 19bf
00000330: 4475 6b3f bf27 7d3e 63c4 923e 14f6 7e3f
00000340: 247b 0cbf d39d 753f d03c 84be 01b9 8a3e
00000350: 0b98 de3e a710 a53e 2e40 08bf ed54 5b3d
00000360: bdb9 443e 554c d1be d318 0ebe 48e3 3bbe
00000370: 90b0 18bf 8217 513d 284a 4ebf 04ba a5be
00000380: 2d3f 923d 1ea7 a13e e178 66be 0bc1 cdbe
00000390: d75f f03e f685 05bf 2913 73bf 07ce 9f3e
000003a0: 121f 5ebe 02c7 3abe 5262 8dbe 1cfa e7be
000003b0: 8840 383f a2c7 1c3f b868 923e 578a d9bf
000003c0: b700 b8bd 5f3a 4ebf ee1b 7abe e67d 163e
000003d0: f7c0 0abe 8f87 b8be 1ff6 913d f3be 1b3f
000003e0: 0d43 263e a16f e63e 433f 56be 6bb6 f9be
000003f0: 5fcc c93e 09ef 433f 39c6 53bf 1bcf 7dbe

input_net.0.bias f4 [64]
-0.0012685076 0.008069308 0.000697873 0.001102282 0.01451165 0.024059897 0.025612975 0.008550753
0.0011512939 -0.0030811501 -0.0033488418 0.002073676 0.0038350748 0.024404543 0.0069038128 -0.009288601
-0.0012663655 0.00040327772 0.008046669 -0.0051411632 0.0057467385 0.0080621485 0.001907941 0.0033001725
-0.014335704 0.011337611 -0.021491012 -0.010392017 0.010281167 -0.004889363 -0.004430912 0.01668541
0.0041165603 0.010260451 -0.0011569151 0.0068175225 -0.00170895 0.0029543561 -0.0055875597 -0.031849384
0.036215022 -0.010829792 0.0071654283 -0.0047680913 0.0004529279 0.009720562 0.00627646 0.009374016
-0.0070054107 0.014889802 -0.004862693 -0.0054693967 0.02220031 -0.012693781 -0.007724623 -0.00064781395
0.003316312 -0.0054867505 -0.002402618 -0.00643385 0.009358459 0.0051072068 -0.019498762 -0.002224462
00000000: 0d44 a6ba 2135 043c 77f1 363a 727a 903a
00000010: 46c2 6d3c 4319 c53c 4dd2 d13c 7518 0c3c
00000020: 03e7 963a 1fed 49bb 3e78 5bbb 83e6 073b
00000030: e155 7b3b 09ec c73c 6139 e23b 372f 18bc
00000040: 2dfc a5ba 056f d339 2dd6 033c 3477 a8bb
00000050: 234f bc3b 1a17 043c e013 fa3a b547 583b
00000060: 4de0 6abc 63c1 393c eb0d b0bc 4743 2abc
00000070: 5772 283c f336 a0bb 2f31 91bb d7af 883c
00000080: 36e4 863b 731b 283c a1a3 97ba 8665 df3b
00000090: d9fe dfba df9d 413b d917 b7bb 8074 02bd
000000a0: 3456 143d 716f 31bc f8cb ea3b a63d 9cbb
000000b0: f476 ed39 fe42 1f3c c3aa cd3b 7995 193c
000000c0: a58d e5bb 5bf4 733c 3a57 9fbb a038 b3bb
000000d0: 6ddd b53c 94f9 4fbc d61e fdbb 0fd2 29ba
000000e0: 7c56 593b 33ca b3bb 3e75 1dbb 0cd3 d2bb
000000f0: 3954 193c 5b5a a73b debb 9fbc 48c8 11bb

input_net.1.weight f4 [64]
0.97292936 0.9885607 1.0277554 0.9780962 0.9476137 1.0272275 0.9848319 0.978924
0.9913432 1.0213081 1.0097365 0.98559064 0.96002424 0.9641609 1.0011278 1.0001645
0.9906788 0.99864304 0.95690924 0.98334825 0.9715384 0.9653658 0.98116666 0.9634541
0.991562 0.95554185 0.9187407 0.95244396 0.97940177 1.0078843 0.9896484 0.9954055
0.97383446 0.9931751 0.9615678 0.9428844 0.9907827 0.982137 0.9641513 1.0144205
1.0591784 0.9838806 1.0226047 0.92849654 0.9850642 0.94739133 1.0199784 0.9917931
1.0156982 0.9801643 1.0098912 1.0121858 0.97780436 0.9585754 1.0239189 1.00201
0.9670823 1.0017091 0.9781049 0.9966984 0.95545506 0.98055893 1.0045742 0.9546174
00000000: e611 793f 5012 7d3f 7d8d 833f 8364 7a3f
00000010: d096 723f 317c 833f f21d 7c3f c39a 7a3f
00000020: abc8 7d3f 39ba 823f 0c3f 813f ab4f 7c3f
00000030: 26c4 753f 40d3 763f f524 803f 6405 803f
00000040: 209d 7d3f 12a7 7f3f 01f8 743f b6bc 7b3f
00000050: beb6 783f 3722 773f bd2d 7b3f eea4 763f
00000060: 02d7 7d3f 649e 743f 9732 6b3f 5ed3 733f
00000070: 13ba 7a3f 5a02 813f 9959 7d3f e5d2 7e3f
00000080: 374d 793f b940 7e3f 4f29 763f df60 713f
00000090: efa3 7d3f 556d 7b3f 9fd2 763f 88d8 813f
000000a0: 2893 873f 99df 7b3f b6e4 823f f3b1 6d3f
000000b0: 2b2d 7c3f 3d88 723f a78e 823f 27e6 7d3f
000000c0: 6602 823f 0cec 7a3f 1d44 813f 4e8f 813f
000000d0: 6351 7a3f 3365 753f c60f 833f dd41 803f
000000e0: b592 773f 0138 803f 1565 7a3f a027 7f3f
000000f0: b498 743f e905 7b3f e395 803f ce61 743f

input_net.1.bias f4 [64]
0.017380431 0.008779657 -0.020862894 -0.05659565 -0.0453769 0.0062134964 0.036765832 0.0015540771
-0.04569828 -0.041899003 -0.055224285 0.0050163325 0.020905677 0.019000135 -0.018885499 -0.020876167
0.00025269046 -0.0586005 -0.0090088155 0.000508117 -0.039486248 -0.047021385 0.0017667678 -0.10155554
0.009128077 -0.0071339193 -0.075885676 -0.017967803 -0.012724792 0.079187326 -0.0032018072 0.022256913
0.013406567 0.0026766781 0.013266847 -0.033236638 -0.0032434284 -0.002121322 -0.063026294 -0.06242713
0.12131716 -0.049273454 -0.011512223 -0.06916909 0.015280603 0.03580032 0.033302177 0.031008443
-0.006509572 -0.019430501 -0.03323909 -0.03315822 -0.019761598 -0.004755192 -0.03612744 -0.025221588
0.0058731795 0.005406584 -0.04148323 -0.027470669 0.012760757 -0.03004477 -0.056984946 -0.0830075
00000000: 6861 8e3c 8dd8 0f3c a9e8 aabc d7d0 67bd
00000010: 21dd 39bd 969a cb3b c597 163d 2db2 cb3a
00000020: 1f2e 3bbd 4a9e 2bbd dc32 62bd 0c60 a43b
00000030: 6242 ab3c 2ca6 9b3c c3b5 9abc 7f04 abbc
00000040: 8a7b 8439 1407 70bd b699 13bc 2833 053a
00000050: 55bc 21bd 7f99 40bd e492 e73a 5afc cfbd
00000060: ee8d 153c a7c3 e9bb f369 9bbd 3731 93bc
00000070: a57b 50bc f72c a23d 69d5 51bb 2154 b63c
00000080: 38a7 5b3c 356b 2f3b 305d 593c 2423 08bd
00000090: b38f 54bb e105 0bbb ee13 81bd 97b3 7fbd
000000a0: 2275 f83d f6d2 49bd c39d 3cbc 86a8 8dbd
000000b0: 7f5b 7a3c 5ba3 123d dd67 083d 6b05 fe3c
000000c0: 3f4e d5bb b72c 9fbc b625 08bd ead0 07bd
000000d0: 13e3 a1bc 71d1 9bbb 5efa 13bd 819d cebc
000000e0: cd73 c03b b729 b13b 52ea 29bd 2b0a e1bc
000000f0: 7e12 513c 7320 f6bc 0c69 69bd d6ff a9bd

input_net.1.running_mean f4 [64]
-0.23387548 -2.2630975 1.3979193 -1.799824 0.5708411 0.73044586 -0.19881058 -0.091933906
0.42933595 -0.10235162 0.27309301 0.751527 0.4406423 0.6517705 0.59188974 0.019637227
0.5444432 0.08797336 0.40489426 0.16983545 0.75335133 -1.0868615 -0.028967042 1.0566405
-0.60725725 0.078363374 -0.12020291 -0.09270518 0.7375983 0.28792015 -0.37119305 -0.10132082
0.2971813 -0.5611013 -1.3583272 -1.5006138 -0.19445881 -0.4984936 0.66384524 1.3449785
0.82710636 -1.2088202 -0.95204616 0.7004986 -0.48313937 -1.8989176 1.9937729 0.9953972
-0.30694306 0.59633076 -1.4089037 -0.8578156 -0.41972193 -0.6620181 0.11493872 -1.1240228
-1.0736437 1.5967461 -0.6494648 -1.5530516 -0.34179735 -0.07374098 2.5063536 -1.0518169
00000000: 0e7d 6fbe 97d6 10c0 05ef b23f a260 e6bf
00000010: a422 123f 80fe 3a3f 0095 4bbe d847 bcbd
00000020: ecd1 db3e ba9d d1bd d9d2 8b3e 1364 403f
00000030: de9b e13e 6eda 263f 1686 173f 40de a03c
00000040: a160 0b3f 612b b43d 4d4e cf3e 58e9 2d3e
00000050: a2db 403f 471e 8bbf 4a4c edbc ff3f 873f
00000060: 3675 1bbf fa7c a03d f12c f6bd 37dc bdbd
00000070: 3ed3 3c3f 456a 933e 040d bebe 4a81 cfbd
00000080: 2628 983e 56a4 0fbf aadd adbf 1d14 c0bf
00000090: 3620 47be 8e3a ffbe c3f1 293f 4128 ac3f
000000a0: 3ebd 533f 9fba 9abf 4cb9 73bf e053 333f
000000b0: 0b5e f7be bb0f f3bf f333 ff3f 5ad2 7e3f
000000c0: a427 9dbe 22a9 183f f556 b4bf ce99 5bbf
000000d0: cbe5 d6be 057a 29bf fe64 eb3d fbdf 8fbf
000000e0: 286d 89bf 2d62 cc3f 5343 26bf 65ca c6bf
000000f0: 1000 afbe 8305 97bd 1968 2040 f0a1 86bf

input_net.1.running_var f4 [64]
2.4789784 8.144178 4.808248 2.9309604 1.1147995 0.89902806 0.7028058 1.0927373
2.4428835 0.34855884 17.072887 8.683438 4.191441 0.16546026 8.611829 0.8721796
0.892553 4.7800064 26.638565 5.756867 27.666353 8.54359 3.1353955 4.1196575
0.62100565 0.5287119 1.0969068 0.4014014 2.102127 0.4342951 0.65801567 0.99901855
1.6183296 0.71658343 12.735858 4.862853 2.6235492 3.4772809 0.1734946 0.15474698
0.16584058 1.6965107 0.563224 0.44791102 0.5668437 0.7896846 3.298771 0.9892755
3.502484 2.6910014 6.468558 4.706614 2.8373044 0.5810122 0.09238959 2.9816084
3.6090567 0.673731 12.938347 6.620247 0.82550985 4.295359 0.053900953 3.2985768
00000000: 95a7 1e40 8e4e 0241 2bdd 9940 db94 3b40
00000010: c0b1 8e3f b426 663f 15eb 333f d1de 8b3f
00000020: 3458 1c40 4e76 b23e 4695 8841 5def 0a41
00000030: 4920 8640 6a6e 293e 0dca 0941 2a47 5f3f
00000040: 5a7e 643f d0f5 9840 c81b d541 4138 b840
00000050: b154 dd41 8bb2 0841 52aa 4840 3cd4 8340
00000060: 3afa 1e3f aa59 073f 7167 8c3f 7c84 cd3e
00000070: 4089 0640 ed5b de3e b773 283f aebf 7f3f
00000080: 6d25 cf3f 0372 373f 13c6 4b41 7e9c 9b40
00000090: 3be8 2740 c58b 5e40 92a8 313e fe75 1e3e
000000a0: 1dd2 293e 4327 d93f 732f 103f 9854 e53e
000000b0: ab1c 113f c528 4a3f 101f 5340 2941 7d3f
000000c0: b328 6040 5e39 2c40 6dfe ce40 959c 9640
000000d0: 6596 3540 37bd 143f c136 bd3d acd2 3e40
000000e0: c9fa 6640 a379 2c3f 7803 4f41 10d9 d340
000000f0: 9d54 533f 9573 8940 3fc7 5c3d e21b 5340

lstm.weight_ih_l0 f4 [256, 64]
0.034146976 0.3951211 0.07672457 -0.20555343 0.14513911 -0.08360912 0.122848906 0.06266998
0.13369334 -0.04914337 0.16606688 0.15287636 0.0798301 -0.124602415 0.124850184 -0.07143913
0.04122494 0.039602228 0.046662636 0.036208726 0.07541133 0.016595919 0.28996986 -0.22656779
0.01303392 0.040317412 0.004453393 0.16421124 0.04030445 0.10657535 0.13172196 -0.09546688
0.016870204 0.30295274 0.006120186 0.15844305 -0.0008067745 0.19932745 0.60302955 -0.0202968
0.1136813 0.081759945 -0.24731012 0.00021297009 -0.36808503 0.2928061 -0.030514864 -0.0059180176
-0.19368143 -0.07290892 -0.22816026 -0.14205733 0.24337214 -0.116796575 0.16192375 -0.32518214
0.088448636 0.09874021 -0.084164314 -0.14040983 0.049657162 0.1959656 -0.11761301 -0.25189042
-0.22089948 -0.0530994 -0.08212211 0.038574275 0.17363878 0.37676114 0.049279697 0.08657259
-0.4578112 -0.26696876 -0.28922266 -0.064968735 0.055635657 -0.07728506 -0.105510294 0.1966845
0.050310798 0.3096316 -0.039935473 0.082359515 -0.10192016 -0.035554677 -0.058533527 -0.1904701
0.13736013 0.32476744 -0.1467668 0.06720908 -0.23911954 0.23879908 0.12081576 0.17870586
-0.006391687 0.030971454 -0.22879888 0.006390752 -0.20616743 -0.24919295 -0.09016161 -0.059999708
-0.008469804 -0.013155254 0.23669942 -0.062094193 0.057115864 -0.03035001 0.26432553 -0.14389719
-0.006539911 -0.050396264 -0.100538984 0.049102522 -0.04073847 0.10493995 -0.13387716 -0.018052138
-0.049611703 -0.23021333 0.010186619 0.004537913 -0.39061353 0.0023153336 0.31214043 -0.11772769
0.004800643 -0.04786511 -0.21684851 -0.1403294 0.03152636 -0.07094717 0.2564693 0.046676997
-0.15326719 0.07066208 0.010969454 0.32621965 -0.13007312 -0.24655439 -0.009331584 -0.06000532
-0.18203932 0.2120749 -0.23601232 -0.16819811 0.26614934 0.15159558 -0.086307384 0.11836208
-0.33614242 -0.003496111 -0.19878194 -0.1257081 0.02629627 0.122816466 0.045528997 -0.12663612
-0.033299398 0.049249824 0.0058700964 0.15970273 -0.18745972 -0.21532223 -0.36113566 -0.03229981
0.018854536 -0.3137934 0.10034435 -0.004204028 0.13065703 -0.11723492 -0.13069443 0.12582883
-0.09553239 -0.2895963 0.062152423 0.19713907 0.3741831 -0.37713236 0.013504726 0.10523924
-0.1637233 0.23709154 0.21013689 -0.13988243 -0.3420364 -0.25218916 -0.08555629 -0.289154
0.28156745 -0.081162706 -0.105674855 0.022478584 -0.07874513 -0.02339616 -0.10169087 -0.5104429
-0.1290878 -0.11548595 -0.22994016 -0.0564619 0.15566401 -0.23131631 0.27265248 0.13356443
0.13435112 0.21518031 0.023932183 0.11871869 0.5093868 0.25852922 0.06579948 -0.07215757
0.051209826 -0.0836173 0.13490114 0.114603594 -0.0900137 -0.021991264 -0.24749926 0.1785088
-0.12077253 0.09946562 -0.1895651 0.058233395 -0.1644903 -0.14990401 0.20437197 -0.20795698
-0.17163421 0.22565308 -0.03335018 0.14157528 0.10259273 -0.28349003 0.26395574 -0.023218555
-0.27502805 -0.32300067 -0.15281175 -0.18408586 0.19351032 0.18044104 -0.22574449 0.037303958
0.42268202 -0.114095375 0.18451591 -0.15552875 -0.16165312 -0.040602572 -0.03717387 0.03851205
00000000: b3dd 0b3d 504d ca3e c521 9d3d 997c 52be
00000010: 599f 143e 423b abbd 3598 fb3d 1e59 803d
00000020: e8e6 083e 8f4a 49bd 700d 2a3e 9f8b 1c3e
00000030: f77d a33d 8d2f ffbd 74b1 ff3d ae4e 92bd
00000040: 7cdb 283d f235 223d 5221 3f3d 9a4f 143d
00000050: 4171 9a3d 2af4 873c ee76 943e 6301 68be
00000060: 398c 553c df23 253d c5ed 913b fe26 283e
00000070: 4716 253d 2d44 da3d 1fe2 063e 2484 c3bd
00000080: 6233 8a3c 9f1c 9b3e d78b c83b e53e 223e
00000090: b87d 53ba 7f1c 4c3e 2560 1a3f 7a45 a6bc
000000a0: bed1 e83d c271 a73d dd3e 7dbe b950 5f39
000000b0: a475 bcbe aeea 953e 4ffa f9bc eeeb c1bb
000000c0: 6d54 46be 4651 95bd d8a2 69be 7a77 11be
000000d0: 8c36 793e 0b33 efbd 57cf 253e 467e a6be
000000e0: 8f24 b53d 4f38 ca3d 575e acbd 98c7 0fbe
000000f0: 4f65 4b3d 35ab 483e 17df f0bd c8f7 80be
00000100: 7933 62be c27e 59bd a32f a8bd 0f00 1e3d
00000110: 5dce 313e d6e6 c03e 82d9 493d f84c b13d
00000120: 3b66 eabe 21b0 88be fe14 94be 540e 85bd
00000130: 37e2 633d a147 9ebd c815 d8bd a967 493e
00000140: b212 4e3d 0888 9e3e 6193 23bd 1bac a83d
00000150: 84bb d0bd c8a1 11bd dac0 6fbd 980a 43be
00000160: 22a8 0c3e eb47 a63e 094a 16be eaa4 893d
00000170: c1db 74be bf87 743e 416e f73d abfe 363e
00000180: 5b71 d1bb d9b7 fd3c 414a 6abe 8369 d13b
00000190: 8e1d 53be 702c 7fbe a6a6 b8bd 41c2 75bd
000001a0: efc4 0abc 2289 57bc 5561 723e 7b56 7ebd
000001b0: 53f2 693d 96a0 f8bc ad55 873e c959 13be
000001c0: c04c d6bb 506c 4ebd 62e7 cdbd ba1f 493d
000001d0: 62dd 26bd c2ea d63d 1817 09be 14e2 93bc
000001e0: a435 4bbd 0bbd 6bbe c7e5 263c c6b2 943b
000001f0: 7ffe c7be dabc 173b dfd0 9f3e 371b f1bd
00000200: b64e 9d3b 350e 44bd 890d 5ebe 83b2 0fbe
00000210: c921 013d c04c 91bd f24f 833e 6130 3f3d
00000220: 13f2 1cbe 48b7 903d 3ab9 333c 4306 a73e
00000230: e331 05be c178 7cbe 80e3 18bc 23c8 75bd
00000240: 8468 3abe 2a2a 593e 37ad 71be 203c 2cbe
00000250: ba44 883e df3b 1b3e edc1 b0bd d167 f23d
00000260: dc1a acbe 021f 65bb 7e8d 4bbe a0b9 00be
00000270: 466b d73c 3387 fb3d 9d7c 3a3d e6ac 01be
00000280: f364 08bd 2fba 493d f059 c03b 1d89 233e
00000290: 71f5 3fbe 6e7d 5cbe c6e6 b8be ce4c 04bd
000002a0: d474 9a3c 87a9 a0be 5781 cd3d f1c1 89bb
000002b0: f5ca 053e dd18 f0bd c3d4 05be 46d9 003e
000002c0: 7ca6 c3bd f745 94be 8a93 7e3d d3de 493e
000002d0: ed94 bf3e 7e17 c1be ed42 5d3c ac87 d73d
000002e0: 15a7 27be 20c8 723e 202e 573e 573d 0fbe
000002f0: 651f afbe f01e 81be 2338 afbd fe0b 94be
00000300: 9c29 903e a238 a6bd 0f6c d8bd 0225 b83c
00000310: 2045 a1bd 4ea9 bfbc 4e43 d0bd 63ac 02bf
00000320: 982f 04be e683 ecbd 6f75 6bbe 9844 67bd
00000330: 6366 1f3e 2fde 6cbe 1b99 8b3e 1dc5 083e
00000340: 5793 093e 3a58 5c3e 6d0d c43c c922 f33d
00000350: 2c67 023f f15d 843e e1c1 863d 59c7 93bd
00000360: 65c1 513d 8c3f abbd 8623 0a3e 4ab5 ea3d
00000370: 1a59 b8bd 0627 b4bc 7270 7dbe 03cb 363e
00000380: 9757 f7bd a2b4 cb3d 5b1d 42be 2486 6e3d
00000390: 2570 28be 7080 19be e346 513e adf2 54be
000003a0: e1c0 2fbe 9a11 673e 339a 08bd 1cf9 103e
000003b0: 231c d23d 9b25 91be 3525 873e d734 bebc
000003c0: 7ad0 8cbe 5860 a5be af7a 1cbe 0181 3cbe
000003d0: 9227 463e 89c5 383e 9029 67be 09cc 183d
000003e0: c769 d83e d6aa e9bd bdf1 3c3e ee42 1fbe
000003f0: 6588 25be e24e 26bd a143 18bd d0be 1d3d

lstm.weight_hh_l0 f4 [256, 64]
-0.11408732 -0.021201946 0.04364217 -0.06538642 -0.04891065 0.052050404 0.046543572 0.08178
-0.043930512 0.044460416 0.1427569 -0.0049369135 0.08115417 0.0148596885 -0.094238386 -0.09003228
-0.058406465 0.14541177 -0.102975525 -0.013738113 -0.01868963 0.05680941 0.03984061 -0.019627357
-0.09816673 0.08761163 -0.028118739 0.08263056 -0.17765278 0.0915863 -0.02191007 0.044072796
0.027429197 0.021223381 0.019585133 0.039822657 -0.05695565 -0.055423196 0.15006636 0.10481418
-0.0337659 -0.039189268 -0.032222264 0.119347 -0.119435854 0.05438131 0.028203147 0.035259053
0.02415864 -0.038844362 0.04906215 0.039754022 0.0008466124 0.004067842 0.014201662 -0.11407921
0.020427473 0.084771015 0.06423012 0.04633538 -0.049393754 -0.05677753 0.08556633 -0.032818668
-0.020363739 0.078073375 -0.031669177 -0.0039167735 0.04279321 0.04430706 -0.04471202 0.071014605
-0.06743889 -0.0459296 -0.045257688 0.09177276 0.010503576 0.16088375 0.014522978 0.041972842
-0.013396919 0.057327934 0.046069965 0.082009114 0.059861276 0.028028766 0.06421591 -0.00608838
-0.025167314 -0.06277923 -0.004493365 -0.0071247215 0.03153457 -0.1305652 -0.0045139166 -0.026334904
0.094918236 0.07345079 0.003053516 0.002737108 -0.0910616 -0.06431852 0.02695612 -0.05974324
0.09309436 -0.011492752 -0.036484476 0.055591978 -0.06323732 0.08657626 0.046673607 0.031401984
0.1501993 0.028740255 0.060052443 -0.010167455 -0.10931068 -0.05012062 -0.027107166 -0.030447148
0.0882479 0.02463878 -0.12474896 -0.018567804 -0.049585167 0.056420323 0.04370232 -0.10110296
-0.016140504 -0.00142079 0.0964832 -0.037094884 -0.032351226 0.042237177 0.06812492 -0.037514094
-0.002344028 0.03666343 -0.023180127 -0.11589107 -0.056224573 -0.009878094 0.04799756 -0.13637385
0.009578919 -0.038247555 -0.00014285785 0.16761021 0.19949919 0.19204746 -0.043096196 0.016261637
0.028174533 0.013557523 0.043304317 -0.027619502 0.008626159 0.048720136 -0.13944231 -0.016169814
0.0383913 -0.00708527 -0.02758868 0.067742124 0.047175504 -0.025798388 0.028789753 0.09212749
0.12931037 -0.07904195 0.02010206 0.09354144 0.01491233 0.035111867 -0.08581487 -0.12628224
0.062275752 0.13050583 0.06887918 0.05964661 0.00434173 0.028290402 -0.00017459899 -0.063345
-0.0566007 0.07234183 -0.006884932 0.02119011 0.041762855 -0.0015875988 0.018732406 0.061580136
-0.058967307 -0.046610296 -0.10111895 -0.07900268 -0.013163497 0.124412574 0.10196138 0.010381073
0.01954912 0.03127929 0.005798135 0.0022133726 -0.04790881 0.05725419 0.025699943 -0.03682954
0.014736027 0.05737806 -0.12584965 -0.020643821 -0.08809717 -0.032854464 0.030915387 -0.045673702
0.049968425 -0.053615917 -0.023346739 0.105321795 -0.028387908 0.010827213 0.09200491 0.1633681
-0.07368212 0.13439745 -0.10019456 -0.25718668 -0.058581695 -0.019411882 0.0609849 -0.012777442
-0.011080928 -0.031367518 -0.0031861681 0.14978103 0.04806186 0.035208933 -0.05115541 0.13439007
0.040587973 -0.06553067 0.076250285 0.16059418 0.050936684 0.09411263 0.08541942 -0.029482761
0.0025851203 0.04090257 -0.030068994 0.07181224 0.08201074 -0.009066705 0.13187604 0.08804911
00000000: 9da6 e9bd b4af adbc 22c2 323d 51e9 85bd
00000010: 8956 48bd ce32 553d 79a4 3e3d 467c a73d
00000020: 7bf0 33bd 201c 363d dd2e 123e d5c5 a1bb
00000030: 2834 a63d 0d76 733c 0e00 c1bd d862 b8bd
00000040: 9e3b 6fbd d3e6 143e d5e4 d2bd d315 61bc
00000050: ff1a 99bc fcb0 683d e82f 233d 8dc9 a0bc
00000060: a30b c9bd ba6d b33d 4559 e6bc 363a a93d
00000070: 9cea 35be 9991 bb3d bf7c b3bc ad85 343d
00000080: 32b3 e03c a8dc ad3c 0071 a03c 151d 233d
00000090: 544a 69bd 6f03 63bd ffaa 193e d1a8 d63d
000000a0: 1d4e 0abd ed84 20bd 7efb 03bd 336c f43d
000000b0: c99a f4bd f0be 5e3d 490a e73c cc6b 103d
000000c0: 57e8 c53c 441b 1fbd 65f5 483d 1dd5 223d
000000d0: 32ef 5d3a 884b 853b 16ae 683c 5ca2 e9bd
000000e0: 8457 a73c 6d9c ad3d 158b 833d 2bca 3d3d
000000f0: 1b51 4abd 8e8f 68bd 663d af3d de6c 06bd
00000100: dbd1 a6bc efe4 9f3d 8ab7 01bd 4758 80bb
00000110: ef47 2f3d 527b 353d f323 37bd 1b70 913d
00000120: 671d 8abd ad20 3cbd 2060 39bd 5bf3 bb3d
00000130: 3117 2c3c b6be 243e c9f1 6d3c b7eb 2b3d
00000140: c07e 5bbc b2d0 6a3d dcb3 3c3d 65f4 a73d
00000150: 1931 753d 959c e53c a283 833d 0881 c7bb
00000160: af2b cebc 6692 80bd 143d 93bb 7f76 e9bb
00000170: 652a 013d e2b2 05be 7ae9 93bb 4cbc d7bc
00000180: 7e64 c23d 5e6d 963d 7f1d 483b 0d61 333b
00000190: 817e babd 6eb9 83bd 15d3 dc3c 54b5 74bd
000001a0: 41a8 be3d 184c 3cbc bf70 15bd 6ab4 633d
000001b0: 9182 81bd e54e b13d d32c 3f3d 5e9f 003d
000001c0: d8cd 193e af70 eb3c 8df9 753d 6695 26bc
000001d0: 47de dfbd 474b 4dbd d90f debc 4c6c f9bc
000001e0: 51bb b43d 44d7 c93c 627c ffbd 821b 98bc
000001f0: d119 4bbd ff18 673d 3401 333d 120f cfbd
00000200: 1739 84bc cd39 baba fc98 c53d cef0 17bd
00000210: b882 04bd e400 2d3d 1485 8b3d 61a8 19bd
00000220: 449e 19bb 652c 163d 40e4 bdbc 4c58 edbd
00000230: bd4b 66bd bbd7 21bc 1799 443d 96a5 0bbe
00000240: e6f0 1c3c 78a9 1cbd 1dcc 15b9 03a2 2b3e
00000250: 8449 4c3e 17a8 443e a385 30bd 2037 853c
00000260: 47ce e63c 5f20 5e3c de5f 313d 4b42 e2bc
00000270: bc54 0d3c c48e 473d f7c9 0ebe 8f76 84bc
00000280: 3240 1d3d 8d2b e8bb a801 e2bc 62bc 8a3d
00000290: 1a3b 413d 2457 d3bc 7dd8 eb3c 56ad bc3d
000002a0: f069 043e bfe0 a1bd 13ad a43c a892 bf3d
000002b0: d852 743c 76d1 0f3d b5bf afbd 2250 01be
000002c0: dc14 7f3d 52a3 053e 8710 8d3d 0150 743d
000002d0: 1245 8e3b 46c1 e73c 8f14 37b9 06bb 81bd
000002e0: 23d6 67bd f427 943d ff9a e1bb e296 ad3c
000002f0: 870f 2b3d fa16 d0ba b474 993c 743b 7c3d
00000300: b487 71bd 70ea 3ebd 7417 cfbd 28cc a1bd
00000310: b5ab 57bc 05cc fe3d 21d1 d03d 6015 2a3c
00000320: 7a25 a03c b61e 003d 48fe bd3b 3b0e 113b
00000330: 073c 44bd 5f83 6a3d b088 d23c 92da 16bd
00000340: 616f 713c 4205 6b3d bbde 00be 3b1d a9bc
00000350: 4a6c b4bd 6792 06bd 4442 fd3c 5914 3bbd
00000360: b1ab 4c3d 5d9c 5bbd a941 bfbc f4b2 d73d
00000370: c28d e8bc 9f64 313c 126d bc3d f849 273e
00000380: a7e6 96bd 7c9f 093e ce32 cdbd f9ad 83be
00000390: 5cf3 6fbd ab05 9fbc 4dcb 793d 7a58 51bc
000003a0: c88c 35bc 3a7b 00bd 08cf 50bb 3360 193e
000003b0: 83dc 443d 3e37 103d 5688 51bd 8d9d 093e
000003c0: 933f 263d f234 86bd 1c29 9c3d cd72 243e
000003d0: fca2 503d 1fbe c03d 60f0 ae3d d585 f1bc
000003e0: 1f6b 293b 7489 273d 4053 f6bc 4c12 933d
000003f0: 3ff5 a73d 848c 14bc 830a 073e 1753 b43d

lstm.bias_ih_l0 f4 [256]
0.025573729 0.03649634 -0.0040847966 0.021768525 -0.009440469 0.06984639 -0.010958803 -0.053027164
0.011737474 0.02350524 -0.028565241 0.03789588 0.03843255 -0.006880658 0.03603958 0.012151529
0.054855254 0.007254264 0.09288443 0.05255706 0.0034177986 0.00047583514 0.027775053 0.032284096
-0.0136827445 0.0632053 0.039431382 0.056476206 0.008885656 0.08148409 -0.023462983 0.0029846698
0.05648152 -0.0263377 0.021068366 -0.014878161 0.099626124 -0.029975744 0.012357072 -0.009068564
0.0051123872 0.014177055 -0.009988524 0.034932844 0.04555026 0.018376555 -0.0014496647 -0.0041596107
-0.0003440813 -0.07356375 0.013927574 -0.020725897 0.019548586 -0.028552081 -0.029148713 -0.010510367
-0.019330991 0.0354135 0.032686956 0.0010216752 -0.0043387166 0.030230379 0.08423967 0.0036999704
0.021425012 0.03753272 0.034497887 -0.021580374 0.01970008 0.023574611 0.013328358 -0.010785291
0.021798179 0.051341232 0.014853464 0.031315207 0.05696098 0.0069710203 0.05224652 0.010689216
0.036089472 -0.003356916 0.09026556 0.06672287 0.025559505 0.015330684 0.00077841035 0.054753203
-0.0019057635 0.059877165 0.026753677 0.036501024 0.037056103 0.08111585 -0.0062297005 0.011223812
0.049144793 0.016443403 0.016261058 -0.016317505 0.056465086 -0.01792184 0.0048793936 -0.0011040024
0.0013057254 0.027728232 0.025982684 0.046162903 0.048098598 0.042102464 0.00412112 0.023672678
0.015177794 -0.027836535 -0.0062692813 0.012092169 0.026710067 -0.009710207 -0.023474695 -0.000608345
-0.011937784 0.028300606 0.018148594 0.043344777 0.026221152 0.052417103 0.0950002 -0.009806985
0.06276393 0.052885972 -0.03802824 -0.026845222 -0.062661044 -0.04415883 0.042634193 0.0077533945
-0.044301536 -0.06037128 0.01993971 -0.018217687 0.053043928 0.025564011 -0.046097927 0.028222669
0.04827088 0.0118125435 0.12599884 0.033109047 0.02989982 0.013738272 -0.005181567 -0.058516
-0.107353374 -0.07275546 -0.04877896 -0.058990482 0.047553238 0.04427853 -0.013656252 -0.004753638
0.0490583 -0.04338276 -0.0009441231 0.0120913545 0.04797185 -0.01728497 -0.027399968 -0.010784783
-0.007513786 0.025021603 -0.001411078 -0.07794281 -0.07728238 0.015016932 -0.019642968 -0.056293022
-0.017750338 0.010186149 -0.02624285 0.0022726937 -0.009159526 -0.0036666528 0.016164804 -0.061006732
0.013386519 0.03681167 -0.0706001 -0.028178278 0.044708606 0.035134275 -0.058710907 -0.07609721
-0.0005449249 0.029920503 0.027744215 0.03064561 -0.008886605 0.060122594 0.020439249 0.031011757
0.014316726 0.06452196 -0.010710198 0.057261672 0.032287538 0.004949064 0.042743843 0.013332323
0.042996377 0.0134008685 0.10749606 0.08027251 0.024233809 0.036784224 0.012962162 0.041899484
0.004823852 0.037131708 0.061607543 0.07031045 0.051744405 0.11677114 -0.018674055 0.012227627
0.06997641 -0.028801952 0.021257747 -0.023283336 0.12753692 -0.05154993 0.011301588 -0.009659133
0.0078908885 0.010794885 -0.0028295964 0.028423265 0.04155671 0.020087486 -0.00040134575 -0.008481938
0.007867455 0.0007688075 -0.01867351 0.010016195 0.054098025 -0.001282681 -0.045243237 0.013835983
-0.024326043 0.018626286 0.015804073 0.016788373 0.0152797755 0.03787184 0.1287236 -0.0059101046
00000000: ff7f d13c 307d 153d c2d9 85bb e853 b23c
00000010: 32ac 1abc a00b 8f3d 8d8c 33bc 0333 59bd
00000020: 894e 403c 108e c03c a701 eabc b638 1b3d
00000030: 736b 1d3d 2577 e1bb 3d9e 133d 3517 473c
00000040: e7af 603d 2db5 ed3b 313a be3d 1246 573d
00000050: 25fd 5f3b 8379 f939 8288 e33c 543c 043d
00000060: 972d 60bc c871 813d cd82 213d 9853 673d
00000070: 2495 113c 21e1 a63d 7135 c0bc 739a 433b
00000080: 2b59 673d 29c2 d7bc 9197 ac3c 88c3 73bc
00000090: c808 cc3d b18f f5bc 5175 4a3c 5094 14bc
000000a0: d085 a73b e146 683c e8a6 23bc be15 0f3d
000000b0: e992 3a3d 6e8a 963c ad02 beba 584d 88bb
000000c0: cf65 b4b9 97a8 96bd 7b30 643c 5bc9 a9bc
000000d0: 5b24 a03c 0ee6 e9bc 48c9 eebc ad33 2cbc
000000e0: 075c 9ebc bf0d 113d c2e2 053d bbe9 853a
000000f0: cb2b 8ebb b3a5 f73c d985 ac3d 347b 723b
00000100: 8283 af3c e9bb 193d a84d 0d3d 53c9 b0bc
00000110: 1062 a13c 8b1f c13c 2f5f 5a3c cab4 30bc
00000120: 1892 b23c 2f4b 523d f25b 733c 6044 003d
00000130: eb4f 693d 286d e43b 7200 563d d221 2f3c
00000140: 8ed2 133d b4ff 5bbb 26dd b83d 00a6 883d
00000150: 2b62 d13c 8d2d 7b3c 3c0e 4c3a e544 603d
00000160: d0ca f9ba c241 753d 872a db3c 1982 153d
00000170: 24c8 173d 1120 a63d 8422 ccbb 14e4 373c
00000180: 0d4c 493d 51b4 863c e935 853c 4aac 85bc
00000190: ef47 673d d3d0 92bc 52e3 9f3b 2cb4 90ba
000001a0: e024 ab3a 5126 e33c a3d9 d43c 5015 3d3d
000001b0: 0903 453d a273 2c3d 760a 873b 34ed c13c
000001c0: 48ac 783c 7209 e4bc 8b6e cdbb 3c1e 463c
000001d0: 12cf da3c 8f17 1fbc 014e c0bc 5879 1fba
000001e0: b296 43bc acd6 e73c 5cac 943c 4b8a 313d
000001f0: becd d63c 51b3 563d 778f c23d 7aad 20bc
00000200: 608a 803d f69e 583d 80c3 1bbd 83ea dbbc
00000210: 6f54 80bd e4df 34bd 31a1 2e3d 3010 fe3b
00000220: 8775 35bd e047 77bd 9a58 a33c 423d 95bc
00000230: 9744 593d 9e6b d13c 2ed1 3cbd 3a33 e73c
00000240: b0b7 453d 6689 413c d705 013e 5a9d 073d
00000250: 78f0 f43c 7d16 613c 22ca a9bb 79ae 6fbd
00000260: 16dc dbbd d100 95bd 72cc 47bd 01a0 71bd
00000270: 2fc7 423d 675d 353d 79be 5fbc 68c4 9bbb
00000280: 5bf1 483d 1fb2 31bd 077f 77ba d11a 463c
00000290: 217e 443d 3699 8dbc e675 e0bc a9b2 30bc
000002a0: 3536 f6bb 1bfa cc3c ecf3 b8ba 7ba0 9fbd
000002b0: 3946 9ebd 9409 763c 4aea a0bc 8393 66bd
000002c0: 2869 91bc cee3 263c 3ffb d6bc 79f1 143b
000002d0: d611 16bc 3a4c 70bb 0d6c 843c 32e2 79bd
000002e0: 2153 5b3c d5c7 163d c996 90bd 22d6 e6bc
000002f0: 5f20 373d f5e8 0f3d d97a 70bd dbd8 9bbd
00000300: 4ad9 0eba d81b f53c d647 e33c 810c fb3c
00000310: 1f99 11bc 1c43 763d 3670 a73c 5e0c fe3c
00000320: b390 6a3c 1724 843d d479 2fbc 378b 6a3d
00000330: f03f 043d c22b a23b 2b14 2f3d d16f 5a3c
00000340: f81c 303d 518f 5b3c e526 dc3d ea65 a43d
00000350: fb85 c63c 0eab 163d 3f5f 543c cb9e 2b3d
00000360: 6711 9e3b 6b17 183d 3158 7c3d edfe 8f3d
00000370: f1f1 533d b525 ef3d 55fa 98bc 6356 483c
00000380: cb4f 8f3d 12f2 ebbc ba24 ae3c b2bc bebc
00000390: 0a99 023e 0526 53bd 4c2a 393c 5741 1ebc
000003a0: c948 013c 08dd 303c c070 39bb e8d7 e83c
000003b0: 5e37 2a3d 838e a43c b76b d2b9 d4f7 0abc
000003c0: 7fe6 003c cc89 493a 30f9 98bc f71a 243c
000003d0: e495 5d3d a21f a8ba f950 39bd 52b0 623c
000003e0: 6947 c7bc 2796 983c 8b77 813c c587 893c
000003f0: 0658 7a3c 811f 1b3d 1fd0 033e 8da9 c1bb

lstm.bias_hh_l0 f4 [256]
0.025573729 0.03649634 -0.0040847966 0.021768525 -0.009440469 0.06984639 -0.010958803 -0.053027164
0.011737474 0.02350524 -0.028565241 0.03789588 0.03843255 -0.006880658 0.03603958 0.012151529
0.054855254 0.007254264 0.09288443 0.05255706 0.0034177986 0.00047583514 0.027775053 0.032284096
-0.0136827445 0.0632053 0.039431382 0.056476206 0.008885656 0.08148409 -0.023462983 0.0029846698
0.05648152 -0.0263377 0.021068366 -0.014878161 0.099626124 -0.029975744 0.012357072 -0.009068564
0.0051123872 0.014177055 -0.009988524 0.034932844 0.04555026 0.018376555 -0.0014496647 -0.0041596107
-0.0003440813 -0.07356375 0.013927574 -0.020725897 0.019548586 -0.028552081 -0.029148713 -0.010510367
-0.019330991 0.0354135 0.032686956 0.0010216752 -0.0043387166 0.030230379 0.08423967 0.0036999704
0.021425012 0.03753272 0.034497887 -0.021580374 0.01970008 0.023574611 0.013328358 -0.010785291
0.021798179 0.051341232 0.014853464 0.031315207 0.05696098 0.0069710203 0.05224652 0.010689216
0.036089472 -0.003356916 0.09026556 0.06672287 0.025559505 0.015330684 0.00077841035 0.054753203
-0.0019057635 0.059877165 0.026753677 0.036501024 0.037056103 0.08111585 -0.0062297005 0.011223812
0.049144793 0.016443403 0.016261058 -0.016317505 0.056465086 -0.01792184 0.0048793936 -0.0011040024
0.0013057254 0.027728232 0.025982684 0.046162903 0.048098598 0.042102464 0.00412112 0.023672678
0.015177794 -0.027836535 -0.0062692813 0.012092169 0.026710067 -0.009710207 -0.023474695 -0.000608345
-0.011937784 0.028300606 0.018148594 0.043344777 0.026221152 0.052417103 0.0950002 -0.009806985
0.06276393 0.052885972 -0.03802824 -0.026845222 -0.062661044 -0.04415883 0.042634193 0.0077533945
-0.044301536 -0.06037128 0.01993971 -0.018217687 0.053043928 0.025564011 -0.046097927 0.028222669
0.04827088 0.0118125435 0.12599884 0.033109047 0.02989982 0.013738272 -0.005181567 -0.058516
-0.107353374 -0.07275546 -0.04877896 -0.058990482 0.047553238 0.04427853 -0.013656252 -0.004753638
0.0490583 -0.04338276 -0.0009441231 0.0120913545 0.04797185 -0.01728497 -0.027399968 -0.010784783
-0.007513786 0.025021603 -0.001411078 -0.07794281 -0.07728238 0.015016932 -0.019642968 -0.056293022
-0.017750338 0.010186149 -0.02624285 0.0022726937 -0.009159526 -0.0036666528 0.016164804 -0.061006732
0.013386519 0.03681167 -0.0706001 -0.028178278 0.044708606 0.035134275 -0.058710907 -0.07609721
-0.0005449249 0.029920503 0.027744215 0.03064561 -0.008886605 0.060122594 0.020439249 0.031011757
0.014316726 0.06452196 -0.010710198 0.057261672 0.032287538 0.004949064 0.042743843 0.013332323
0.042996377 0.0134008685 0.10749606 0.08027251 0.024233809 0.036784224 0.012962162 0.041899484
0.004823852 0.037131708 0.061607543 0.07031045 0.051744405 0.11677114 -0.018674055 0.012227627
0.06997641 -0.028801952 0.021257747 -0.023283336 0.12753692 -0.05154993 0.011301588 -0.009659133
0.0078908885 0.010794885 -0.0028295964 0.028423265 0.04155671 0.020087486 -0.00040134575 -0.008481938
0.007867455 0.0007688075 -0.01867351 0.010016195 0.054098025 -0.001282681 -0.045243237 0.013835983
-0.024326043 0.018626286 0.015804073 0.016788373 0.0152797755 0.03787184 0.1287236 -0.0059101046
00000000: ff7f d13c 307d 153d c2d9 85bb e853 b23c
00000010: 32ac 1abc a00b 8f3d 8d8c 33bc 0333 59bd
00000020: 894e 403c 108e c03c a701 eabc b638 1b3d
00000030: 736b 1d3d 2577 e1bb 3d9e 133d 3517 473c
00000040: e7af 603d 2db5 ed3b 313a be3d 1246 573d
00000050: 25fd 5f3b 8379 f939 8288 e33c 543c 043d
00000060: 972d 60bc c871 813d cd82 213d 9853 673d
00000070: 2495 113c 21e1 a63d 7135 c0bc 739a 433b
00000080: 2b59 673d 29c2 d7bc 9197 ac3c 88c3 73bc
00000090: c808 cc3d b18f f5bc 5175 4a3c 5094 14bc
000000a0: d085 a73b e146 683c e8a6 23bc be15 0f3d
000000b0: e992 3a3d 6e8a 963c ad02 beba 584d 88bb
000000c0: cf65 b4b9 97a8 96bd 7b30 643c 5bc9 a9bc
000000d0: 5b24 a03c 0ee6 e9bc 48c9 eebc ad33 2cbc
000000e0: 075c 9ebc bf0d 113d c2e2 053d bbe9 853a
000000f0: cb2b 8ebb b3a5 f73c d985 ac3d 347b 723b
00000100: 8283 af3c e9bb 193d a84d 0d3d 53c9 b0bc
00000110: 1062 a13c 8b1f c13c 2f5f 5a3c cab4 30bc
00000120: 1892 b23c 2f4b 523d f25b 733c 6044 003d
00000130: eb4f 693d 286d e43b 7200 563d d221 2f3c
00000140: 8ed2 133d b4ff 5bbb 26dd b83d 00a6 883d
00000150: 2b62 d13c 8d2d 7b3c 3c0e 4c3a e544 603d
00000160: d0ca f9ba c241 753d 872a db3c 1982 153d
00000170: 24c8 173d 1120 a63d 8422 ccbb 14e4 373c
00000180: 0d4c 493d 51b4 863c e935 853c 4aac 85bc
00000190: ef47 673d d3d0 92bc 52e3 9f3b 2cb4 90ba
000001a0: e024 ab3a 5126 e33c a3d9 d43c 5015 3d3d
000001b0: 0903 453d a273 2c3d 760a 873b 34ed c13c
000001c0: 48ac 783c 7209 e4bc 8b6e cdbb 3c1e 463c
000001d0: 12cf da3c 8f17 1fbc 014e c0bc 5879 1fba
000001e0: b296 43bc acd6 e73c 5cac 943c 4b8a 313d
000001f0: becd d63c 51b3 563d 778f c23d 7aad 20bc
00000200: 608a 803d f69e 583d 80c3 1bbd 83ea dbbc
00000210: 6f54 80bd e4df 34bd 31a1 2e3d 3010 fe3b
00000220: 8775 35bd e047 77bd 9a58 a33c 423d 95bc
00000230: 9744 593d 9e6b d13c 2ed1 3cbd 3a33 e73c
00000240: b0b7 453d 6689 413c d705 013e 5a9d 073d
00000250: 78f0 f43c 7d16 613c 22ca a9bb 79ae 6fbd
00000260: 16dc dbbd d100 95bd 72cc 47bd 01a0 71bd
00000270: 2fc7 423d 675d 353d 79be 5fbc 68c4 9bbb
00000280: 5bf1 483d 1fb2 31bd 077f 77ba d11a 463c
00000290: 217e 443d 3699 8dbc e675 e0bc a9b2 30bc
000002a0: 3536 f6bb 1bfa cc3c ecf3 b8ba 7ba0 9fbd
000002b0: 3946 9ebd 9409 763c 4aea a0bc 8393 66bd
000002c0: 2869 91bc cee3 263c 3ffb d6bc 79f1 143b
000002d0: d611 16bc 3a4c 70bb 0d6c 843c 32e2 79bd
000002e0: 2153 5b3c d5c7 163d c996 90bd 22d6 e6bc
000002f0: 5f20 373d f5e8 0f3d d97a 70bd dbd8 9bbd
00000300: 4ad9 0eba d81b f53c d647 e33c 810c fb3c
00000310: 1f99 11bc 1c43 763d 3670 a73c 5e0c fe3c
00000320: b390 6a3c 1724 843d d479 2fbc 378b 6a3d
00000330: f03f 043d c22b a23b 2b14 2f3d d16f 5a3c
00000340: f81c 303d 518f 5b3c e526 dc3d ea65 a43d
00000350: fb85 c63c 0eab 163d 3f5f 543c cb9e 2b3d
00000360: 6711 9e3b 6b17 183d 3158 7c3d edfe 8f3d
00000370: f1f1 533d b525 ef3d 55fa 98bc 6356 483c
00000380: cb4f 8f3d 12f2 ebbc ba24 ae3c b2bc bebc
00000390: 0a99 023e 0526 53bd 4c2a 393c 5741 1ebc
000003a0: c948 013c 08dd 303c c070 39bb e8d7 e83c
000003b0: 5e37 2a3d 838e a43c b76b d2b9 d4f7 0abc
000003c0: 7fe6 003c cc89 493a 30f9 98bc f71a 243c
000003d0: e495 5d3d a21f a8ba f950 39bd 52b0 623c
000003e0: 6947 c7bc 2796 983c 8b77 813c c587 893c
000003f0: 0658 7a3c 811f 1b3d 1fd0 033e 8da9 c1bb

output_net.0.weight f4 [32, 64]
0.12790428 0.15954201 -0.02395976 0.056973886 -0.18012117 0.054813396 0.01744207 -0.019870851
-0.2504556 0.07984002 0.09391567 -0.31499064 0.06016111 0.15019268 0.11800179 0.00085420016
-0.12612307 -0.026150178 -0.10439781 0.098905675 0.35597843 0.36849347 0.09696579 -0.2521364
-0.06966284 -0.2264696 0.0398294 0.11339329 -0.15271913 0.0045888056 -0.26970664 0.005406582
0.14190698 -0.27411982 -0.00071037665 -0.20626721 0.24021518 0.0129417395 0.22139092 0.002816673
0.079999655 -0.02583002 -0.38975435 0.16487579 -0.043864388 0.19702408 0.17008364 0.13100179
-0.1557025 0.5082667 0.3558651 -0.061820704 -0.04803263 0.2910389 0.08081768 -0.08440254
0.09289728 -0.018097684 0.1188727 -0.20913337 -0.23192191 -0.16535918 0.10934685 -0.15160589
0.18849446 -0.053104356 -0.25642136 -0.16258107 0.32758546 -0.2560044 -0.060508676 0.23520517
-0.09261144 0.084343635 0.14350301 -0.10700943 0.29973018 0.14893948 -0.11151288 0.11841116
-0.07033248 -0.009989653 -0.041992605 0.345488 0.038879797 -0.113128416 0.1807044 0.12416251
-0.18105622 -0.044064984 -0.009553069 0.1114744 0.23329379 -0.21126916 0.20603247 -0.13793288
-0.035692953 -0.22092645 0.022959195 0.5128852 0.024417536 0.12171929 0.018770218 0.19293778
-0.076831006 0.13683076 -0.1538217 0.18814635 -0.2962138 0.1602611 -0.061922695 0.16294874
0.029578133 0.20280182 -0.03609393 -0.07402362 0.11434236 -0.111319736 -0.0001891434 0.10234051
-0.075243555 0.40518337 0.074496396 -0.10630198 0.07010215 -0.12022982 -0.17140764 0.21301019
-0.03466258 -0.030974826 -0.10436612 -0.18488802 -0.318637 -0.4240912 -0.08001895 0.23205872
-0.13293059 -0.044118587 -0.22181842 0.1391496 0.2199564 0.057280134 -0.20461647 -0.01930408
0.11883365 0.02039198 -0.08098749 -0.018188616 0.047756907 -0.041311875 0.05522449 0.12559694
-0.025000295 -0.12506898 0.22008362 -0.23588973 0.25416622 0.06742373 0.06317285 -0.18286517
0.22055832 -0.12506685 0.23347232 -0.07025476 0.34907028 -0.23917462 -0.0334168 0.09124599
-0.14271544 -0.011119864 -0.1597567 0.0036163935 -0.14723672 -0.008907829 -0.16917026 -0.032984424
0.16442727 0.04578715 -0.0221632 -0.24833466 0.047385942 -0.06238961 -0.422671 -0.07247805
-0.10428232 -0.22125673 -0.27873865 -0.2214416 0.041093685 -0.012998086 0.14347129 0.11201727
-0.109209105 0.4357509 0.10957547 0.014575341 -0.20404795 -0.08618542 -0.035446614 -0.2621643
0.05069403 0.12356466 0.24602391 0.13291493 0.2383492 -0.1583478 -0.101058364 0.119937524
0.005612516 0.11336684 0.04206569 0.1013728 0.14217852 0.24869697 -0.37568372 0.014193637
-0.31553185 0.078082316 0.124569766 0.43967617 -0.09133274 0.13255477 -0.17122483 0.24574968
-0.032392435 -0.0047510616 0.0013288817 -0.12028551 -0.12882853 -0.15244636 0.06498386 -0.018498627
0.13698535 0.14431003 -0.023089701 -0.12446108 0.063331924 0.09987845 -0.42498824 0.011102222
-0.26998627 0.20432328 -0.1324507 0.2979939 -0.032806672 0.18649943 0.08133484 -0.06466435
0.011425507 -0.12708701 -0.03743196 -0.13474241 0.04084532 0.18502927 -0.18056059 -0.034557056
00000000: 57f9 023e fb5e 233e 4247 c4bc 735d 693d
00000010: af71 38be 0384 603d ace2 8e3c 32c8 a2bc
00000020: b73b 80be 2a83 a33d dc56 c03d 7446 a1be
00000030: 7f6b 763d 1ccc 193e ecaa f13d 67ec 5f3a
00000040: 6826 01be e638 d6bc 85ce d5bd 0f8f ca3d
00000050: ce42 b63e 2dab bc3e 0096 c63d 0618 81be
00000060: 64ab 8ebd a6e7 67be 2724 233d be3a e83d
00000070: 6762 1cbe b15d 963b fd16 8abe b229 b13b
00000080: 1050 113e 6f59 8cbe 9238 3aba b637 53be
00000090: f8fa 753e 9709 543c 4db4 623e ee97 383b
000000a0: dcd6 a33d 7a99 d3bc e28d c7be 33d5 283e
000000b0: 25ab 33bd aec0 493e 682a 2e3e 5525 063e
000000c0: 7a70 1fbe c41d 023f f333 b63e b537 7dbd
000000d0: ddbd 44bd 0d03 953e bd83 a53d 3ddb acbd
000000e0: ee40 be3d 9841 94bc 8873 f33d 0f27 56be
000000f0: f07c 6dbe eb53 29be 3ef1 df3d 933e 1bbe
00000100: b104 413e f483 59bd a949 83be a77b 26be
00000110: 48b9 a73e 0213 83be f2d7 77bd a0d9 703e
00000120: 11ab bdbd 5bbc ac3d 74f2 123e c327 dbbd
00000130: 3c76 993e 9783 183e dd60 e4bd 8d81 f23d
00000140: 7a0a 90bd a4ab 23bc 7000 2cbd cee3 b03e
00000150: 6c40 1f3d dfaf e7bd 930a 393e ea48 fe3d
00000160: cd66 39be 7c7d 34bd 7a84 1cbc b14c e43d
00000170: 91e4 6e3e f156 58be 2dfa 523e 473e 0dbe
00000180: c632 12bd 8b3a 62be ec14 bc3c 724c 033f
00000190: 4907 c83c f747 f93d 00c4 993c 7b91 453e
000001a0: 9359 9dbd 5d1d 0c3e 7083 1dbe 70a9 403e
000001b0: 56a9 97be 7c1b 243e a7a2 7dbd 09dc 263e
000001c0: d74d f23c 48ab 4f3e 3bd7 13bd b299 97bd
000001d0: 542c ea3d 9afb e3bd cb54 46b9 e797 d13d
000001e0: 4b19 9abd 3274 cf3e 9191 983d dab4 d9bd
000001f0: b791 8f3d 0d3b f6bd 7c85 2fbe 581f 5a3e
00000200: 59fa 0dbd ebbe fdbc e8bd d5bd 4953 3dbe
00000210: 6424 a3be 7b22 d9be fae0 a3bd cda0 6d3e
00000220: f51e 08be b1b5 34bd 5e24 63be 3c7d 0e3e
00000230: 403c 613e 939e 6a3d fb86 51be 9723 9ebc
00000240: 0f5f f33d 150d a73c c5dc a5bd 4b00 95bc
00000250: bf9c 433d a436 29bd 1333 623d 7c9c 003e
00000260: 6bcd ccbc 1512 00be 9a5d 613e 148d 71be
00000270: 1322 823e 7415 8a3d c460 813d 0241 3bbe
00000280: 0ada 613e 8611 00be 5e13 6f3e bae1 8fbd
00000290: 57b9 b23e 31ea 74be 0ee0 08bd 2ddf ba3d
000002a0: ff23 12be 1730 36bc 4397 23be 0401 6d3b
000002b0: 39c5 16be 25f2 11bc f83a 2dbe ad1a 07bd
000002c0: 9f5f 283e 4e8b 3b3d 998f b5bc 714b 7ebe
000002d0: c317 423d 3f8c 7fbd 5568 d8be 5f6f 94bd
000002e0: f891 d5bd 2091 62be d5b6 8ebe 96c1 62be
000002f0: da51 283d edf5 54bc 23ea 123e 4f69 e53d
00000300: 06a9 dfbd be1a df3e 1b69 e03d 69cd 6e3c
00000310: f2f1 50be fb81 b0bd 7830 11bd 663a 86be
00000320: 8ba4 4f3d 780f fd3d b1ed 7b3e da1a 083e
00000330: d011 743e ed25 22be b0f7 cebd cea1 f53d
00000340: 32e9 b73b e02c e83d 134d 2c3d 8b9c cf3d
00000350: 3f97 113e 6baa 7e3e 9e59 c0be 6e8c 683c
00000360: 648d a1be 9fe9 9f3d 6f1e ff3d 3c1d e13e
00000370: a90c bbbd 70bc 073e 9055 2fbe cea5 7b3e
00000380: eead 04bd cbae 9bbb df2d ae3a 4058 f6bd
00000390: a0eb 03be e61a 1cbe 4216 853d 6f8a 97bc
000003a0: e345 0c3e 02c6 133e 9d26 bdbc 73e5 febd
000003b0: 2bb4 813d 138d cc3d 0f98 d9be 18e6 353c
000003c0: a43b 8abe 1f3a 513e 28a1 07be a892 983e
000003d0: 4a60 06bd b5f9 3e3e e192 a63d be6e 84bd
000003e0: 0d32 3b3c 1923 02be 4152 19bd eaf9 09be
000003f0: 6c4d 273d 5078 3d3e e0e4 38be b38b 0dbd

output_net.0.bias f4 [32]
-0.0085167065 -0.007532701 0.010627937 -0.0029073928 0.013169739 0.010223441 0.0042231553 0.00965399
-0.0084711965 -0.003690011 0.0010829122 -0.01211051 0.008258215 0.0050682607 0.022090133 -0.0060116556
-0.0064774137 -0.001078247 -0.0018678237 -0.0025076189 -0.01591799 -0.0071307304 -0.015326059 -0.008119854
0.0092693735 -0.005529926 0.007008737 -0.008082595 -0.0018487779 0.00095789874 -0.0025095646 0.0132801235
00000000: a889 0bbc e0d4 f6bb cc20 2e3c f589 3ebb
00000010: e4c5 573c 3880 273c 6562 8a3b c52b 1e3c
00000020: c6ca 0abc 1dd4 71bb 81f0 8d3a 296b 46bc
00000030: 774d 073c a713 a63b 5ef6 b43c 6cfd c4bb
00000040: 7c40 d4bb f753 8dba c3d1 f4ba dd56 24bb
00000050: 7266 82bc e7a8 e9bb 271a 7bbc 2309 05bc
00000060: 92de 173c 6234 b5bb 8ca9 e53b dc6c 04bc
00000070: b152 f2ba 7f1b 7b3a 8277 24bb e094 593c

output_net.1.weight f4 [32]
1.3303171 1.2919018 1.2569553 0.880052 1.2900506 1.346333 0.8411589 1.2240837
0.79999626 1.2324773 1.2041323 1.2504432 1.1016598 1.2081835 0.77482855 1.2665197
0.7862386 1.257644 1.2054771 0.8986215 1.1880388 1.2576292 1.2387757 1.1336043
1.3149797 1.0669149 1.2310367 1.3414798 1.2966263 1.129426 1.2315358 1.3186077
00000000: d547 aa3f 0a5d a53f e9e3 a03f 164b 613f
00000010: 6120 a53f a454 ac3f 3156 573f c6ae 9c3f
00000020: 8ecc 4c3f d1c1 9d3f 0221 9a3f 860e a03f
00000030: 3003 8d3f c2a5 9a3f 2a5b 463f 511d a23f
00000040: ef46 493f 7bfa a03f 134d 9a3f 0f0c 663f
00000050: a811 983f fef9 a03f 3490 9e3f f219 913f
00000060: 4151 a83f ab90 883f 9c92 9d3f 9cb5 ab3f
00000070: daf7 a53f 0891 903f f7a2 9d3f 23c8 a83f

output_net.1.bias f4 [32]
0.37025908 0.31412354 0.26888782 -0.10884647 0.30676475 0.34850213 -0.1787836 0.24676596
-0.20685163 0.25329256 0.22903563 0.26179612 0.21697867 0.23660912 -0.24613346 0.28541857
-0.2548729 0.29543263 0.23542395 -0.0888391 0.23364419 0.28891495 0.26181683 0.17823069
0.35839713 0.070414074 0.24928202 0.35301903 0.30594328 0.20003471 0.24980861 0.33631727
00000000: 9992 bd3e cdd4 a03e aaab 893e e6ea debd
00000010: 4510 9d3e df6e b23e 0c13 37be 37b0 7c3e
00000020: ead0 53be 90af 813e 5188 6a3e 240a 863e
00000030: a82f 5e3e a949 723e 690a 7cbe 6222 923e
00000040: b37e 82be f242 973e fa12 713e 46f1 b5bd
00000050: 6c40 6f3e a9ec 933e db0c 863e 1b82 363e
00000060: d47f b73e 4135 903d c943 7f3e e9be b43e
00000070: 99a4 9c3e e6d5 4c3e d4cd 7f3e c731 ac3e

output_net.1.running_mean f4 [32]
-0.6430788 -0.18653876 0.34601998 -0.02042466 0.12059724 0.1811153 0.21383214 -0.18407832
0.11469354 0.03125507 -0.1832525 -0.14541867 -0.03679111 0.4703713 0.23675412 -0.01763972
0.016587399 0.010392803 -0.7555548 -0.5521949 0.11282652 0.67399204 0.28406376 -0.15047105
-0.2038142 -0.43949118 -0.39855576 -0.25330335 0.037960425 1.2793188 0.22056511 -0.8607839
00000000: d0a0 24bf 0404 3fbe 8829 b13e 9e51 a7bc
00000010: b0fb f63d 4a76 393e d0f6 5a3e 077f 3cbe
00000020: 72e4 ea3d 5105 003d 8ba6 3bbe a2e8 14be
00000030: 46b2 16bd 82d4 f03e ac6f 723e 2d81 90bc
00000040: 4ce2 873c 9346 2a3c 0a6c 41bf a55c 0dbf
00000050: 9711 e73d be8a 2c3f ce70 913e 1515 1abe
00000060: abb4 50be fd04 e1be 800f ccbe fab0 81be
00000070: 647c 1b3d b8c0 a33f d2db 613e 555c 5cbf

output_net.1.running_var f4 [32]
0.39832887 0.56945074 1.0174655 0.1528631 1.0860434 0.82772917 0.175502 1.0611278
0.38225326 1.2567983 0.94645774 0.96152323 1.668585 0.95738536 0.20953232 0.6703477
0.36394653 1.6043012 0.5151109 0.21945657 0.648882 0.80710566 0.8923576 0.9506228
0.45651034 0.7305941 0.7813258 1.0456213 1.0999035 1.2018176 0.88976204 0.36147216
00000000: c3f1 cb3e 86c7 113f 4f3c 823f 2588 1c3e
00000010: 7803 8b3f 0fe6 533f ccb6 333e 09d3 873f
00000020: b3b6 c33e c4de a03f 0e4b 723f 6326 763f
00000030: 3194 d53f 3517 753f a48f 563e e89b 2b3f
00000040: 3357 ba3e be59 cd3f 4fde 033f 39b9 603e
00000050: 211d 263f 7a9e 4e3f 8c71 643f 045c 733f
00000060: b9bb e93e 3708 3b3f f804 483f ebd6 853f
00000070: a3c9 8c3f 29d5 993f 72c7 633f e112 b93e
