E2NN/Trained_models_h64_s10_20250726_160534/vanillafnn_model.pth (torch, 37956 bytes, 20 tensors)

net.0.weight f4 [64, 9]
0	0x3f627684	0.8846209
1	0xbf3f66ec	-0.7476642
2	0xbf166a0a	-0.5875555
3	0x3da0e6df	0.07856535
4	0x3ecdf398	0.4022491
5	0xbdc42f96	-0.09579389
6	0xbf3539e3	-0.70791453
7	0x3f0bddbc	0.54635215
8	0x3ede8289	0.43458965
9	0x3e7f4f54	0.24932605
10	0x3f5298d4	0.8226445
11	0x3f93bcb8	1.1541967
12	0xbd963ac9	-0.07335431
13	0x3f38ba44	0.7215922
14	0xbf28309d	-0.6569918
15	0xbdbff640	-0.0937314
16	0xbf1cc46d	-0.6123722
17	0xbeda5e68	-0.4265015
18	0x3eb0d30a	0.3453601
19	0x3ebb4b44	0.3658086
20	0x3f60cae7	0.87809604
21	0xbd96e654	-0.0736815
22	0xbf21fc73	-0.6327583
23	0x3f30db83	0.6908495
24	0x3f7fd90c	0.9994056
25	0x3c5a2bbe	0.013316093
26	0x3f36c3b4	0.7139237
27	0xbd1c794b	-0.03820161
28	0x3e1aa7b9	0.15103044
29	0xbebbd414	-0.3668524
30	0xbe796c1c	-0.24357647
31	0xbd070d58	-0.03297171
32	0xbde49d19	-0.111627765
33	0xbf25f32e	-0.6482419
34	0xbf013259	-0.5046745
35	0x3f51cf02	0.81956494
36	0xbe1d3b0d	-0.15354557
37	0x3b4f8d13	0.003166978
38	0x3ebb6b14	0.36605132
39	0xbf036aec	-0.51335025
40	0x3facd341	1.350197
41	0xbea2afbd	-0.31774703
42	0xbec38a0c	-0.3819126
43	0xbec15490	-0.3775983
44	0x3f262816	0.64904916
45	0x3dcf02d2	0.1010796
46	0x3e9a40b5	0.30127493
47	0xbd8b132c	-0.06790766
48	0xbd6d417d	-0.057923783
49	0x3e68e880	0.22744942
50	0x3ee9fbbd	0.45699874
51	0xbe00f416	-0.12593111
52	0xbeb95e1e	-0.36204618
53	0xbf840c61	-1.0316278
54	0x3d05280c	0.032508895
55	0x3ee2f371	0.44326356
56	0x3e9a719a	0.30164796
57	0xbf492a9a	-0.7858063
58	0x3f36bb0d	0.71379167
59	0xbe3aa06d	-0.1822526
60	0x3e0f2511	0.13978983
61	0x3eea8d4f	0.45810935
62	0x3e770db5	0.24126323
63	0xbf4de892	-0.80433
64	0x3f4adee5	0.7924636
65	0x3cd6bb6e	0.02621242
66	0xbe80bced	-0.2514414
67	0xbd2b6e97	-0.041853514
68	0xbf0be4f4	-0.5464623
69	0x3efd3986	0.4945795
70	0x3d33d4ad	0.043903995
71	0x3debd127	0.11514502
72	0xbf246b72	-0.6422645
73	0xbe207333	-0.15668945
74	0xbc0b8ad2	-0.008516984
75	0xbf02673f	-0.5093879
76	0x3e6af405	0.22944649
77	0xbef4341e	-0.47696012
78	0x3e41368c	0.18868464
79	0x3f3d45d5	0.7393468
80	0x3f0b9d56	0.5453695
81	0xbf271189	-0.6526113
82	0x3f58027c	0.8437879
83	0x3e880a16	0.26570195
84	0x3e8eb5fc	0.27873218
85	0x3e67a3c6	0.22621068
86	0xbef6d5c3	-0.48209962
87	0x3f7ea33d	0.9946783
88	0x3ed159ea	0.4088891
89	0x3e9621bd	0.29322615
90	0xbf87b2ec	-1.0601478
91	0x3f34803c	0.7050817
92	0x3e349b22	0.17637303
93	0xbf196342	-0.5991708
94	0x3ea06be4	0.31332314
95	0x3f03e0f3	0.5151512
96	0xbe602aa3	-0.21891265
97	0xbe9ec20f	-0.3100743
98	0xbe0680e4	-0.13135105
99	0xbf132661	-0.57480437
100	0x3eb72e05	0.35777298
101	0x3e966644	0.29374897
102	0x3f4de8bc	0.8043325
103	0xbf132fd1	-0.5749484
104	0xbe256e8d	-0.16155453
105	0xbec78ba2	-0.3897372
106	0x3e89cdd6	0.26914853
107	0x3f28c2c8	0.6592221
108	0xbf85fc3c	-1.0467601
109	0xbdfd4759	-0.12367124
110	0x3e5ed43d	0.2176065
111	0xbc62ca83	-0.013842228
112	0xbdae31e1	-0.085056074
113	0x3f5f49f6	0.8722223
114	0xbf0fdc0d	-0.56195146
115	0x3e039b6a	0.12852255
116	0xbead8cdc	-0.3389653
117	0x3f262682	0.6490251
118	0xbc3bb6d3	-0.011457163
119	0xbea8f8ed	-0.33002415
120	0x3ed3f2b5	0.41396108
121	0xbf1b5c6b	-0.60687894
122	0x3e9cc797	0.30621025
123	0x3daa757d	0.0832319
124	0xbf36d395	-0.714166
125	0x3f1ecfdd	0.62035924
126	0x3e727d9b	0.23680727
127	0xbf2c3a4e	-0.67276466
128	0xbe8aaedf	-0.2708654
129	0xbe86ddd1	-0.26341107
130	0x3eb47a96	0.35249776
131	0xbee7b555	-0.45255533
132	0xbe71c049	-0.23608507
133	0x3e881fc2	0.2658673
134	0xbec74965	-0.38923183
135	0xbe22bafe	-0.15891644
136	0xbfc7e04d	-1.5615326
137	0xbead47c0	-0.33843803
138	0x3f29cc12	0.6632701
139	0x3ef118d6	0.4708926
140	0x3ddd7e17	0.10815065
141	0xbf712e39	-0.94211155
142	0xbede8efc	-0.43468463
143	0xbe0a5875	-0.13510306
144	0x3eb6a02b	0.35669073
145	0x3da3d1bd	0.07998989
146	0xbdad7c13	-0.08470931
147	0x3e7f13ef	0.24909948
148	0xbf7b5b8b	-0.9818656
149	0x3d7785bf	0.060430285
150	0x3f15e6c1	0.5855523
151	0xbf9375bf	-1.1520308
152	0x3de3c9bb	0.111224614
153	0x3edabc55	0.4272181
154	0x3ea9aa4b	0.33137736
155	0x3f0378a5	0.51355964
156	0x3ccf4bfc	0.025304787
157	0xbede95ab	-0.43473563
158	0xbe201918	-0.15634573
159	0x3ec21fd6	0.37914914
160	0xbddf0f13	-0.10891547
161	0xbe3932db	-0.18085806
162	0xbe13c5ca	-0.1443092
163	0xbf2e984e	-0.6820115
164	0xbe0bda95	-0.13657601
165	0x3f1ae07b	0.6049878
166	0xbe1e4eb0	-0.15459704
167	0x3e037fbb	0.12841694
168	0xbefab6eb	-0.4896768
169	0x3f2b9fcc	0.67040706
170	0xbf149381	-0.58037573
171	0xbe2e748f	-0.17036651
172	0xbeb2444f	-0.3481774
173	0x3e925aec	0.28584993
174	0x3f51038b	0.8164603
175	0xbec3cc3e	-0.38241762
176	0xbf21d6bf	-0.632183
177	0xbeaafbbe	-0.3339519
178	0xbf1c2395	-0.60991794
179	0x3dae3710	0.08506596
180	0xbf40b1f1	-0.7527152
181	0xbf72e050	-0.94873524
182	0xbece5696	-0.40300435
183	0x3f40d8d0	0.7533083
184	0xbf094ef1	-0.5363608
185	0xbd0c8b06	-0.03431227
186	0xbf3f0596	-0.746179
187	0xbe8f2570	-0.2795825
188	0xbdc3c235	-0.095585264
189	0xbee2b7ce	-0.44280857
190	0x3eb3f74b	0.35149607
191	0x3f05b56e	0.52229965
192	0xbf66b645	-0.9012187
193	0x3e749fe7	0.23889123
194	0x3f173498	0.59064627
195	0x3cd00481	0.025392773
196	0x3e7fe440	0.24989414
197	0x3dbfafd0	0.093597054
198	0xbe2132d8	-0.15742052
199	0x3dd054ea	0.10172446
200	0xbf8bd4fe	-1.0924375
201	0x3d5cfc5a	0.0539516
202	0x3e54c942	0.20779899
203	0xbf288e4f	-0.65842146
204	0xbf705e79	-0.93894154
205	0xbf64827b	-0.892616
206	0xbed4da6b	-0.4157289
207	0x3e71f236	0.23627552
208	0xbddb9a48	-0.10722786
209	0x3f3f4078	0.74707747
210	0xbf05f8fe	-0.52333057
211	0x3e76de79	0.24108304
212	0xbea081a4	-0.31348908
213	0x3e9e7085	0.3094522
214	0xbf1a6f5c	-0.6032617
215	0x3f3d6817	0.73986953
216	0x3f2b3bbe	0.66888034
217	0xbc8224d1	-0.015886696
218	0x3f381311	0.71904093
219	0x3ef88c91	0.48544744
220	0x3e088543	0.13332085
221	0x3f3674ec	0.7127216
222	0xbe68fdda	-0.22753087
223	0xbea3a64a	-0.31962806
224	0x3e939877	0.2882726
225	0xbf518536	-0.8184389
226	0xbf6f8a30	-0.9357023
227	0xbf5c21b9	-0.85988957
228	0xbef42945	-0.47687736
229	0xbf32429c	-0.6963289
230	0xbf12cffb	-0.57348603
231	0xbe52ccbb	-0.20585911
232	0xbe260b01	-0.16215135
233	0x3e240fc9	0.16021647
234	0x3edda862	0.43292528
235	0x3e1878ed	0.1488988
236	0xbda41b1e	-0.08012985
237	0x3ec1eef5	0.37877622
238	0xbf037078	-0.5134349
239	0xbf2075f6	-0.62679994
240	0xbd480e3f	-0.04884171
241	0xbe3a1c63	-0.18174891
242	0xbe7588bc	-0.23977941
243	0x3c5296ad	0.012853307
244	0xbd8c0afd	-0.06838033
245	0xbe87a764	-0.26494896
246	0x3f1e3a15	0.61807376
247	0xbe83ae58	-0.2571895
248	0xbed93c7d	-0.4242896
249	0x3e44c3f8	0.19215381
250	0xbe2b747f	-0.16743658
251	0x3e0562d3	0.1302598
252	0xbe10eeeb	-0.1415364
253	0xbf1ac835	-0.6046174
254	0x3dace870	0.084427714
255	0xbecf2a19	-0.40461805

net.0.bias f4 [64]
0	0xbbd2636a	-0.0064205425
1	0xbb983f43	-0.0046462133
2	0xbb6f9059	-0.0036554544
3	0x3b17118c	0.002305123
4	0x3c0a0970	0.008425102
5	0xbbb86742	-0.0056275437
6	0xbb720d54	-0.0036934214
7	0x3b6622bc	0.0035115918
8	0x3ba414e7	0.0050073746
9	0xbc2368ba	-0.009973699
10	0x3ba4c702	0.0050286064
11	0xbb103738	-0.002200557
12	0x3b7a18ad	0.003816168
13	0x3bbed9e6	0.0058243154
14	0x3bd0e73c	0.0063752215
15	0xbc1c31c8	-0.009533353
16	0xbaf6765e	-0.0018803587
17	0xbc91a31d	-0.017777974
18	0xba2a4ed5	-0.0006496732
19	0x3bdd041d	0.006744875
20	0x3c1a2292	0.009407656
21	0x3b5bed17	0.0033558065
22	0xbb60ca04	-0.0034300098
23	0x3a3d4ba0	0.0007221047
24	0x3b158b87	0.002281876
25	0xbc95348f	-0.018213538
26	0x3c9996e0	0.0187487
27	0x3b0d7adc	0.0021588122
28	0x399186b3	0.00027756914
29	0xbbabeace	-0.0052464968
30	0x3b532a63	0.003222131
31	0xbb964810	-0.0045862272
32	0xba986910	-0.0011627991
33	0xbad5fb33	-0.0016325474
34	0x3ba63dd3	0.005073288
35	0xbc42f374	-0.011898864
36	0x3cf87104	0.030327328
37	0xbbb8d8fe	-0.005641102
38	0x3b00bd13	0.0019643947
39	0x3a9659e6	0.0011470884
40	0xbb605f2f	-0.0034236421
41	0xbbc8ead9	-0.0061315116
42	0x3c2a595d	0.010397282
43	0xbab1acc7	-0.001355552
44	0x3c2028e4	0.009775374
45	0x39b5da31	0.00034685576
46	0x3baad548	0.0052134134
47	0x3bf7014c	0.0075379964
48	0x3c5ff13a	0.013668353
49	0x3c092e44	0.008372847
50	0x3b3a6b3a	0.002844526
51	0xbc69404a	-0.014236519
52	0x3ad55ba8	0.0016277926
53	0x37bc4f43	2.2448256e-05
54	0xbc8a90da	-0.016914774
55	0x39d6566b	0.00040881647
56	0x3b035f2c	0.002004574
57	0x3a0924e8	0.0005231635
58	0xbcb20004	-0.021728523
59	0xbc66b73c	-0.014081772
60	0x3762c062	1.3515442e-05
61	0xbb8afa9f	-0.004241302
62	0x3a9a7079	0.0011782787
63	0x3b25376d	0.0025210038

net.1.weight f4 [64]
0	0x3f8246b4	1.0177827
1	0x3f965aff	1.174652
2	0x3f7ef609	0.9959417
3	0x3f6b47e6	0.91906583
4	0x3f701eca	0.9379698
5	0x3f80190a	1.0007641
6	0x3f7a948c	0.97882915
7	0x3f82a53f	1.0206679
8	0x3f7b17ec	0.98083377
9	0x3f836029	1.0263721
10	0x3f913419	1.1344024
11	0x3f7fb560	0.9988613
12	0x3f801027	1.0004929
13	0x3f7873ee	0.97051895
14	0x3f754816	0.9581312
15	0x3f7e7b1c	0.994066
16	0x3f6d2ed4	0.9264958
17	0x3f80ff4a	1.0077908
18	0x3f69cd4d	0.9132889
19	0x3f76973b	0.9632451
20	0x3f807d5d	1.0038258
21	0x3f818d97	1.0121335
22	0x3f83840b	1.0274671
23	0x3f74de92	0.95652115
24	0x3f81bc35	1.0135561
25	0x3f81358e	1.0094469
26	0x3f712ebc	0.94211936
27	0x3f711ae7	0.94181675
28	0x3f7300c7	0.9492306
29	0x3f77dcdc	0.9682138
30	0x3f6d8209	0.9277654
31	0x3f845a34	1.0340028
32	0x3f830e91	1.023882
33	0x3f76e562	0.9644376
34	0x3f7a5635	0.9778779
35	0x3f937a24	1.1521649
36	0x3f86cfbc	1.0532146
37	0x3f7460ab	0.95460004
38	0x3f74b375	0.9558633
39	0x3f842ce9	1.0326205
40	0x3f7cc2c1	0.9873467
41	0x3f7a4347	0.9775891
42	0x3f879ebe	1.0595319
43	0x3f79e1d2	0.976102
44	0x3f87070e	1.0549028
45	0x3f81715f	1.0112723
46	0x3f7d2fb4	0.98900914
47	0x3f75ca75	0.9601205
48	0x3f6d23f1	0.9263297
49	0x3f734e18	0.95041037
50	0x3f7a63ec	0.9780872
51	0x3f7362f4	0.95072865
52	0x3f898bb5	1.074576
53	0x3f9253c0	1.1431808
54	0x3f6894ed	0.9085224
55	0x3f745585	0.9544299
56	0x3f8abbc0	1.0838547
57	0x3f6ca66f	0.9244146
58	0x3f86bbcc	1.0526061
59	0x3f7ac4b9	0.97956425
60	0x3f7c09ca	0.98452437
61	0x3f7e5e3a	0.9936253
62	0x3f8073a1	1.0035287
63	0x3f7a8ce9	0.9787126

net.1.bias f4 [64]
0	0x3d734a60	0.0593971
1	0x3c90195e	0.017590221
2	0xbaf8c2b4	-0.0018978924
3	0xbd8087a3	-0.06275871
4	0xbdbae071	-0.0912484
5	0xbcaa7916	-0.020809691
6	0xbd6df826	-0.05809798
7	0x3c1f39e3	0.009718391
8	0xbc763386	-0.015026933
9	0x3c8b34c3	0.016992932
10	0x3d81da61	0.063404806
11	0xbc263efa	-0.010146851
12	0xbc455e3b	-0.012046392
13	0xbcd07a39	-0.025448905
14	0xbd72ed74	-0.059308484
15	0x3d83b944	0.06431821
16	0xbd6070a9	-0.05479494
17	0xbc3956d3	-0.011312204
18	0xbd423f1d	-0.04742347
19	0xbd537b09	-0.051631007
20	0x3bdf7e29	0.0068204594
21	0x3c399111	0.01132609
22	0x3d4c9ab5	0.049952228
23	0x3cc637ed	0.02419659
24	0xbca8b0c0	-0.020592093
25	0x3d2b548a	0.04182867
26	0xbd80ee02	-0.062953964
27	0xbdfdccc7	-0.12392574
28	0xbd45ecde	-0.048321597
29	0xb9fdf3db	-0.00048437607
30	0xbda6ea6b	-0.081501804
31	0x3d596bf8	0.053081483
32	0x3d760efb	0.06007288
33	0xbc177689	-0.00924457
34	0xbcedf255	-0.029046217
35	0x3e0c6216	0.13709292
36	0x3c6c34f0	0.014416918
37	0xbd0c858c	-0.034307048
38	0xbd756e4e	-0.059919648
39	0x3c034e4f	0.008014276
40	0x3d775901	0.060387615
41	0xbca12a57	-0.01967351
42	0x3dc1cfed	0.09463487
43	0xbd0af460	-0.03392446
44	0x3cfdf693	0.031001365
45	0xbcc51687	-0.024058593
46	0x3c609b2c	0.013708871
47	0x3cd25e87	0.02567984
48	0xbd260883	-0.04053546
49	0xbccdce3a	-0.02512275
50	0xba6c17ab	-0.00090062123
51	0xbd88aeff	-0.06674003
52	0x3d35ab69	0.044352923
53	0x3ddf5508	0.1090489
54	0xbd75d25c	-0.060015067
55	0xbdc15eeb	-0.09441932
56	0x3dcdf2d1	0.10056079
57	0xbd8ae378	-0.067816675
58	0x3dd675a5	0.10471658
59	0x3c8f30e7	0.017479373
60	0xbd2bc752	-0.041938134
61	0x3d12f77e	0.03588056
62	0x3c04ecc6	0.008113092
63	0xbd05bf2e	-0.032653026

net.1.running_mean f4 [64]
0	0xbf6a1b37	-0.91447777
1	0x400ad8d7	2.1694849
2	0x3fd479e8	1.6599703
3	0xbeb04a40	-0.34431648
4	0xbe617731	-0.22018124
5	0x3f0a7d55	0.5409749
6	0x3f1af1cc	0.605252
7	0x3ecf71fa	0.40516645
8	0xbf823ff6	-1.0175769
9	0x3f58e662	0.84726536
10	0xbe23c444	-0.15992838
11	0xbdb2e012	-0.08734144
12	0xbfa6072a	-1.2970936
13	0x3f1249e9	0.5714403
14	0xbf643061	-0.8913632
15	0xc028e702	-2.6390996
16	0x3f70abb0	0.94011974
17	0x3fb61b36	1.4227054
18	0xbfa3b2e9	-1.2788974
19	0xbe93b429	-0.2884839
20	0xc013ec3d	-2.3112938
21	0x3e30a8e3	0.17251925
22	0xbf55885a	-0.8341118
23	0x3f2f0444	0.68365884
24	0x3f839abe	1.0281599
25	0xc024880b	-2.5708034
26	0x3f4641bb	0.77444047
27	0xbd874abc	-0.06606051
28	0xbf60a1b0	-0.87746716
29	0x3f64d6f8	0.89390516
30	0x3e002aa2	0.12516263
31	0xbe3e3423	-0.18574576
32	0xbfb22a5c	-1.3919177
33	0xbf15e20a	-0.58548033
34	0xbdff7eda	-0.12475367
35	0xbeb59f7e	-0.35473245
36	0x3f411db5	0.75435954
37	0x3f961318	1.1724577
38	0xbe2e5df0	-0.17028022
39	0x3f286d69	0.65791947
40	0x3f3e155a	0.7425133
41	0x3f8b287d	1.0871731
42	0xbfba159f	-1.4537848
43	0xbfaf5fa6	-1.3701065
44	0x3fb6aa12	1.4270651
45	0xbeb2831d	-0.34865656
46	0x3e999ba7	0.30001566
47	0x3fd578a2	1.6677439
48	0xbfc7a8ed	-1.5598427
49	0x3f862044	1.0478597
50	0x3f970095	1.1797053
51	0xbdb61a7f	-0.088917725
52	0x3ffb1fe3	1.9619106
53	0x3fbc14fe	1.4693906
54	0xbe1e0625	-0.15432031
55	0x3eb795a4	0.35856354
56	0xbec4c95c	-0.38434875
57	0xbde52808	-0.11189276
58	0xbf412a72	-0.7545539
59	0xbd2bd69a	-0.041952707
60	0x3f8d52d3	1.1040901
61	0xbf6264fb	-0.88435334
62	0xbf90726e	-1.1284921
63	0xbe152b04	-0.1456719

net.1.running_var f4 [64]
0	0x40502f0f	3.2528722
1	0x3f22abda	0.63543475
2	0x415dc6ac	13.861004
3	0x40c12d2f	6.0367656
4	0x4081c6c7	4.055515
5	0x40950889	4.657292
6	0x3e7e18d8	0.24814165
7	0x3fb3325c	1.3999743
8	0x3e46d141	0.19415762
9	0x40354206	2.8321548
10	0x3f190177	0.5976786
11	0x3f4065f6	0.7515558
12	0x408c49c4	4.3840046
13	0x414e00fc	12.87524
14	0x409a2081	4.816468
15	0x3fe9cf4a	1.8266385
16	0x4188e984	17.114021
17	0x3ebe8ad5	0.37215295
18	0x417bd6f0	15.739975
19	0x3fac7287	1.3472451
20	0x3f8f6f35	1.1205813
21	0x3ebd534a	0.36977607
22	0x3f6df773	0.929557
23	0x41716f66	15.089697
24	0x3fcdf2f2	1.6089766
25	0x3edcbd67	0.43113253
26	0x3e135892	0.14389256
27	0x3f9755f5	1.1823107
28	0x409859d1	4.760964
29	0x3f09654e	0.53670204
30	0x4036c10c	2.8555326
31	0x4017b030	2.3701286
32	0x3f946a57	1.1594952
33	0x4088b0d7	4.271587
34	0x40184a9f	2.3795545
35	0x3ebb021a	0.3652504
36	0x3e19934c	0.14997596
37	0x3e7a29b0	0.24429965
38	0x411b436e	9.703962
39	0x3e81b834	0.25335848
40	0x3fabeeec	1.3432288
41	0x40d04231	6.50808
42	0x3f6e7a3c	0.93155265
43	0x4084632a	4.137105
44	0x3e85b073	0.26111183
45	0x41b570e0	22.680115
46	0x3f68e5cf	0.9097566
47	0x414d1900	12.8186035
48	0x4002f69c	2.0463018
49	0x3f335fae	0.7006787
50	0x40af21d1	5.472878
51	0x3f7264db	0.94685143
52	0x3f22a5f8	0.635345
53	0x3f0d861e	0.5528277
54	0x3f0b16ba	0.54331553
55	0x406b69a0	3.6783218
56	0x3f5dcba1	0.8663884
57	0x4217d627	37.959133
58	0x3df379cb	0.118884645
59	0x3fe48bd1	1.7855169
60	0x400c669f	2.1937635
61	0x3eae4003	0.34033212
62	0x4014fac3	2.3278053
63	0x40b6a863	5.708055

net.4.weight f4 [64, 64]
0	0xbb323236	-0.0027190573
1	0x3e347757	0.1762365
2	0x3c0340e3	0.008011076
3	0x3d6b7672	0.057486005
4	0x3e38e941	0.1805773
5	0x3ed17309	0.40908077
6	0xbd9921de	-0.07477163
7	0x3ed7897b	0.42097077
8	0x3e120fb8	0.14263809
9	0x3da04834	0.07826272
10	0xbd2a8d3b	-0.041638594
11	0x3d0205fd	0.031743992
12	0xbd852f61	-0.065031774
13	0x3e395942	0.18100455
14	0x3d799cf3	0.060940694
15	0x3e55d9e9	0.20883907
16	0xbc468fbe	-0.012119232
17	0x3d86d619	0.06583805
18	0xbdce59ba	-0.10075708
19	0x3d9f669e	0.077832446
20	0x3e1bc51d	0.15211911
21	0x3e06f304	0.1317864
22	0xbdce42db	-0.100713454
23	0xbd7a4197	-0.061097708
24	0x3eb4f48a	0.35342818
25	0x3e88f7cc	0.26751554
26	0xbe066156	-0.13123068
27	0xbd43720a	-0.047716178
28	0xbea678d9	-0.32514074
29	0x3e5de351	0.21668746
30	0x3e4f324b	0.20234029
31	0x3cac5b97	0.021039767
32	0xbd059609	-0.032613788
33	0xbc8dc774	-0.01730702
34	0x3d92dd3e	0.07171105
35	0x3d16f1c1	0.03685165
36	0x3c8b836c	0.01703044
37	0xbe6e3d98	-0.23265684
38	0xbda53a9b	-0.08067819
39	0x3d1b7b8b	0.037959617
40	0x3d944c82	0.07241155
41	0xbd249011	-0.040176455
42	0xbd1a2923	-0.037636887
43	0xbd8671d9	-0.065646835
44	0xbe06220c	-0.13098925
45	0x3e163bc1	0.14671232
46	0x3e96e255	0.29469553
47	0xbc7f4c54	-0.015582163
48	0xbd4edee9	-0.050505552
49	0x3df7617e	0.12079142
50	0xbdeb5086	-0.11489968
51	0x3e813012	0.25231987
52	0x3e9a07f4	0.30084193
53	0xbe2f3858	-0.17111337
54	0xbe011844	-0.12606913
55	0x3e83f44d	0.25772324
56	0xbe1863f0	-0.14881873
57	0xbdf15629	-0.11784012
58	0xbce12995	-0.027485648
59	0xbe1d42ee	-0.15357563
60	0xbd486614	-0.048925474
61	0xbf064939	-0.5245548
62	0x3e34e656	0.17665991
63	0x3ee32b68	0.44369054
64	0x3d936bb7	0.07198279
65	0x3cc4eefe	0.024039742
66	0x3dffa86c	0.12483296
67	0xbe137344	-0.14399439
68	0x3c988835	0.018619636
69	0x3ea6e5b2	0.3259712
70	0xbe42d2e5	-0.19025762
71	0xbca8aa2c	-0.020588957
72	0xbe7bc24e	-0.2458584
73	0x3dc11be2	0.09429146
74	0x3d612dd4	0.054975346
75	0x3e87fd19	0.26560286
76	0x3e849228	0.25892758
77	0x3ca281db	0.01983731
78	0x3e9f05b2	0.31059033
79	0x3d0d935d	0.034564365
80	0xbbedd4c4	-0.0072580297
81	0xbdef23ed	-0.11676774
82	0xbe9f178e	-0.31072658
83	0x3d8899c4	0.066699535
84	0x3b84bc94	0.0040508006
85	0x3e5570a3	0.20843749
86	0x3e3acd22	0.18242314
87	0xbe1a5f1f	-0.15075348
88	0x3e340912	0.17581585
89	0xbdd1501b	-0.10220357
90	0x3d87647c	0.06610963
91	0xbde8c13e	-0.11364983
92	0xbe07bc92	-0.13255528
93	0x3efe4b84	0.4966699
94	0x3e4e3464	0.20137173
95	0x3e567712	0.20943859
96	0xbe26de9a	-0.16295853
97	0xbe8ff65d	-0.28117648
98	0x3dd3fc46	0.10350852
99	0xbe1fdb5c	-0.15611023
100	0xbdb6abad	-0.08919463
101	0xbd77fc8c	-0.06054358
102	0xbdf90929	-0.1215995
103	0x3d9cb9eb	0.076526485
104	0xbea3ff99	-0.32030943
105	0xbb6b39a1	-0.0035892504
106	0x3cd00b0f	0.025395898
107	0x3e26ff08	0.16308224
108	0x3dd8b50c	0.10581407
109	0xbe24c410	-0.16090417
110	0xbd1c044e	-0.038090043
111	0xbdedeff1	-0.11618031
112	0xbe81ac45	-0.25326744
113	0xbca31b4c	-0.019910477
114	0x3e2ab897	0.16671978
115	0x3cbe6d2d	0.023245418
116	0xbe98abe9	-0.29818657
117	0x3d019284	0.03163387
118	0x3e810df9	0.25205973
119	0xbf08f9d9	-0.5350624
120	0xbe255e5d	-0.16149278
121	0xbd45ff4d	-0.048339177
122	0x3c6db8e9	0.014509418
123	0x3e1954de	0.1497378
124	0x3e94a34d	0.2903084
125	0xbda411fe	-0.08011244
126	0xbe81ae9b	-0.25328526
127	0x3ec001c5	0.3750135
128	0x3e56862a	0.20949617
129	0xbda2846d	-0.079354145
130	0xbdeeb47c	-0.116555184
131	0xbbb6ebdd	-0.0055823163
132	0xbe9ee278	-0.31032157
133	0x3caee19d	0.021347815
134	0x3e9d5ad1	0.3073335
135	0xbd008606	-0.031377815
136	0x3d87559b	0.06608125
137	0x3e1401ae	0.14453766
138	0xbc3f3caa	-0.011672178
139	0x3ddaba10	0.1068002
140	0x3eb6aff9	0.3568113
141	0x3c2dad55	0.010600408
142	0xbe8456e8	-0.25847554
143	0x3e68e7fb	0.22744744
144	0x3e0c23af	0.13685487
145	0x3d9d4f39	0.07681126
146	0xbdce32fa	-0.10068317
147	0x3d2228da	0.03958974
148	0x3e2a8e94	0.16655952
149	0x3dc97f0e	0.09838687
150	0xbd4effe0	-0.05053699
151	0x3e7aec3c	0.24504179
152	0x3d286666	0.04111328
153	0xbb8e5a60	-0.0043442696
154	0x3e9d95e0	0.30778408
155	0x3e055f03	0.13024525
156	0x3d7b7922	0.061394818
157	0xbd94726c	-0.07248387
158	0x3b0bb881	0.002131969
159	0xbee5ec02	-0.44906622
160	0xbe351e60	-0.17687368
161	0x3d56ef0a	0.05247406
162	0x3e793732	0.24337462
163	0xbd1197ce	-0.035545163
164	0xbe451bed	-0.19248934
165	0xbc001e20	-0.007819682
166	0x3da2fe45	0.07958654
167	0xbde4b581	-0.111674316
168	0x3eae7df6	0.34080476
169	0x3e9d29d9	0.3069599
170	0x3be2462f	0.006905339
171	0xbcab26f8	-0.020892605
172	0xbe3d8b95	-0.18510278
173	0x3e0bc9f2	0.13651255
174	0x3e0307b8	0.12795913
175	0xbd898477	-0.06714719
176	0x3e1c6142	0.15271476
177	0xbd6054f4	-0.054768518
178	0xbd624fcd	-0.055251885
179	0xbd4108a5	-0.047127385
180	0xbdd4b924	-0.10386875
181	0x3e6c6e41	0.23088934
182	0x3e3e0037	0.1855477
183	0xbe33181d	-0.17489667
184	0x3e352b23	0.17692237
185	0xbd3b45d6	-0.045720898
186	0x3de4875d	0.11158631
187	0xbddbda07	-0.10734945
188	0xbce78043	-0.028259402
189	0x3e28c42b	0.16481082
190	0xbd218ffd	-0.03944396
191	0x3e8ba153	0.27271518
192	0xbd2cc2f1	-0.042178098
193	0x3db1c900	0.08680916
194	0xbcc9c591	-0.02463034
195	0xbe5bfc45	-0.21482952
196	0x3db52467	0.08844834
197	0xbdbb5fe6	-0.091491506
198	0xbc81e645	-0.015856871
199	0x3d23c62b	0.03998391
200	0x3d8e31ee	0.06943117
201	0xbd94544b	-0.0724264
202	0x3db1df3d	0.086851574
203	0x3e592752	0.21206406
204	0xbe8bdbf9	-0.27316263
205	0x3d02f7ed	0.03197472
206	0xbd6e1981	-0.05812979
207	0xbceb1410	-0.02869609
208	0x3d9cccde	0.07656263
209	0x3d00f7d4	0.031486347
210	0x3d0fffd2	0.03515608
211	0x3d955c44	0.07292989
212	0x3d32489a	0.04352627
213	0x3d0bfdab	0.034177464
214	0x3dd04a55	0.10170428
215	0xbc21d299	-0.009876871
216	0x3e072378	0.13197124
217	0xbe4ee4b6	-0.20204434
218	0x3dc7207c	0.09722993
219	0xbcc5c782	-0.024142984
220	0xbc0a0148	-0.008423157
221	0x3b19b805	0.0023455631
222	0x3e13982b	0.14413516
223	0xbe5bfa3f	-0.2148218
224	0xbe46b190	-0.19403672
225	0xbd34a9e1	-0.04410732
226	0xbe3623a9	-0.17787041
227	0xbd64d5b5	-0.05586787
228	0x3bcd8cf7	0.006272908
229	0xbe29204f	-0.16516231
230	0xbe007dd5	-0.12548001
231	0xbd753dab	-0.059873264
232	0x3e267366	0.16254959
233	0xbd9e319f	-0.07724308
234	0xbda9ddc0	-0.082942486
235	0x3d6f678d	0.058448363
236	0x3dac816b	0.08423122
237	0xbde56e7f	-0.11202716
238	0x3df68f5a	0.12039061
239	0xbe0bc5d7	-0.13649689
240	0xbd201543	-0.039082777
241	0x3e381197	0.1797546
242	0x3e44ee13	0.19231443
243	0xbde8710b	-0.11349686
244	0x3e9abd73	0.30222663
245	0x3d979f73	0.074034594
246	0x3dc6e394	0.09711376
247	0xbe168a6f	-0.14701246
248	0xbe07c987	-0.1326047
249	0x3e2b96b6	0.1675671
250	0xbe0c6bb3	-0.13712959
251	0x3ec13470	0.3773532
252	0xbca77770	-0.020442694
253	0x3c54551d	0.012959746
254	0xbe8c7bab	-0.274381
255	0x3d9413a2	0.07230307

net.4.bias f4 [64]
0	0x3b57cd6c	0.0032928837
1	0xbaaa9f59	-0.001301746
2	0x3c5f7e0e	0.013640894
3	0x3a353839	0.000691298
4	0x3afae8ff	0.0019142925
5	0xb99665d0	-0.00028686086
6	0x3b9b0a55	0.0047314563
7	0xbac43260	-0.0014968626
8	0xbb669016	-0.0035181097
9	0x3bc22ee7	0.0059260014
10	0x3c0533c9	0.008130022
11	0x3b9119b4	0.004428113
12	0xbb3676f6	-0.0027841902
13	0x3ba698ed	0.005084148
14	0xbc0db436	-0.008648923
15	0xba1ce37d	-0.0005984826
16	0xbb09ecc7	-0.0021045671
17	0xba6535ef	-0.00087436935
18	0xba70028a	-0.0009155652
19	0x38e03d5b	0.00010692581
20	0x3ae82a5e	0.0017712822
21	0x3bd62d3a	0.006536153
22	0x3bc482c1	0.0059970324
23	0xbaec2390	-0.001801597
24	0x3a08f296	0.00052241364
25	0x3bb35bb4	0.0054735783
26	0x3c091125	0.008365904
27	0x3c0dce46	0.008655136
28	0x3b2f44aa	0.0026743808
29	0x3bd3fa24	0.006469028
30	0x3b4ad386	0.0030948832
31	0x3bb3b873	0.0054846345
32	0xbb8ff3f6	-0.004393096
33	0xbbbd3398	-0.0057739727
34	0x3b7dc9d6	0.003872504
35	0xbbd7d82c	-0.006587049
36	0xbbc794d7	-0.006090741
37	0x3c50b6dd	0.0127389105
38	0xbb1496dd	-0.002267293
39	0x3b40f624	0.0029443586
40	0xbb12ee16	-0.0022419742
41	0x3c1ce3cd	0.009575796
42	0xbb88463d	-0.0041587637
43	0xbbc922c8	-0.0061381795
44	0xbb0fa652	-0.0021919203
45	0xbb51072e	-0.0031895149
46	0xbbd87a6e	-0.0066063916
47	0xbbeba92d	-0.007191798
48	0xbc2104ce	-0.009827806
49	0xbbb99a91	-0.0056641777
50	0xbc0e5ade	-0.008688657
51	0xbb939a71	-0.004504495
52	0xba1f0ec6	-0.000606757
53	0xbb69a32f	-0.0035650244
54	0x3aefeb62	0.0018304402
55	0x3b184e63	0.0023240082
56	0xbb7a0057	-0.0038147175
57	0x3bb1fe18	0.0054319017
58	0x37bb7afe	2.234941e-05
59	0xbb12c0f9	-0.0022392853
60	0x3b0bc54f	0.0021327322
61	0x3c6edf68	0.014579631
62	0x3b1dcc7f	0.0024078188
63	0xbb074d59	-0.0020645468

net.5.weight f4 [64]
0	0x3f6311fa	0.88699305
1	0x3f711733	0.94176024
2	0x3f7b95f4	0.98275685
3	0x3f854725	1.0412337
4	0x3f81ce9d	1.0141178
5	0x3f6f1087	0.93384594
6	0x3f7a2318	0.977098
7	0x3f822889	1.016862
8	0x3f7fa4de	0.9986094
9	0x3f731a5a	0.94962084
10	0x3f6c3c57	0.9227957
11	0x3f6dd888	0.92908525
12	0x3f92d63e	1.1471632
13	0x3f7df984	0.99208856
14	0x3f7addd8	0.97994757
15	0x3f82a421	1.0206338
16	0x3f6e943b	0.9319493
17	0x3f81442b	1.0098928
18	0x3f7ee335	0.9956544
19	0x3f835814	1.0261254
20	0x3f735a90	0.9506006
21	0x3f8d49f5	1.1038195
22	0x3f83bb10	1.0291462
23	0x3f88567d	1.0651394
24	0x3f74cf67	0.9562897
25	0x3f7fe55e	0.9995936
26	0x3f63bea6	0.8896278
27	0x3f7bf689	0.9842306
28	0x3f724e17	0.94650406
29	0x3f682fc7	0.906979
30	0x3f796113	0.9741375
31	0x3f6a9316	0.91630685
32	0x3f92d1f7	1.1470326
33	0x3f812425	1.0089155
34	0x3f7b790e	0.9823159
35	0x3f8d20df	1.1025656
36	0x3f83d92b	1.030065
37	0x3f832926	1.0246933
38	0x3f7940b7	0.9736437
39	0x3f87e1bd	1.0615765
40	0x3f7e24c6	0.9927486
41	0x3f8953af	1.0728663
42	0x3f6d6504	0.9273226
43	0x3f8c0bd1	1.0941106
44	0x3f8a1804	1.0788579
45	0x3f7c32d7	0.98515075
46	0x3f6cc113	0.9248211
47	0x3f7aedc4	0.9801905
48	0x3f8565b9	1.0421668
49	0x3f772df3	0.9655449
50	0x3f8f3c6d	1.1190315
51	0x3f8e4af4	1.1116624
52	0x3f707558	0.9392905
53	0x3f80aff5	1.0053698
54	0x3f757dc9	0.9589506
55	0x3f86c6b1	1.0529386
56	0x3f6df410	0.92950535
57	0x3f61f75d	0.8826807
58	0x3f79bb9a	0.9755188
59	0x3f6da895	0.9283536
60	0x3f7dc6ef	0.99131674
61	0x3f928eab	1.1449789
62	0x3f7bf3c5	0.9841884
63	0x3f79f731	0.9764281

net.5.bias f4 [64]
0	0xbe236a97	-0.1595863
1	0xbd2f741f	-0.04283535
2	0x3cd913c3	0.026498681
3	0x3d8d8e7b	0.069119416
4	0xbcdca0fd	-0.026932234
5	0xbd3fd7c9	-0.046836648
6	0x3c87c9a8	0.01657565
7	0xbcca17e6	-0.024669599
8	0x3cdca13c	0.026932351
9	0xbdbde239	-0.09271664
10	0xbc052519	-0.008126521
11	0xbd8b7873	-0.06810083
12	0x3dfa8889	0.12233073
13	0xbd586737	-0.05283281
14	0xbcb9ddd9	-0.022688793
15	0xbc875c79	-0.016523587
16	0xbd4ea54f	-0.05045062
17	0x3d435d00	0.047696114
18	0xbc96b08d	-0.018394733
19	0x3d371d47	0.044705655
20	0xbc9c6934	-0.019093134
21	0x3dc7383a	0.09727521
22	0x3cdaa5e2	0.026690427
23	0x3e04b613	0.12960081
24	0xbd40e56c	-0.047093794
25	0xbbf14044	-0.0073623974
26	0xbdb48d08	-0.08815962
27	0xbc587d95	-0.013213535
28	0xbda5ed05	-0.081018485
29	0xbd6373f9	-0.055530522
30	0x3d408296	0.046999536
31	0x3c70d903	0.014700177
32	0x3d0a7062	0.033798583
33	0x3d3cd85d	0.046104778
34	0x3d0d6e1e	0.034528844
35	0x3d4ec2d2	0.050478764
36	0xbc5ea4d1	-0.0135891
37	0x3cda3f34	0.026641466
38	0xbbdc1a5b	-0.006717009
39	0x3c9a8425	0.01886184
40	0x3d35c5ea	0.0443782
41	0x3d27f94d	0.041009236
42	0xbdeed9e8	-0.11662656
43	0x3ddba620	0.10725045
44	0x3dbc152e	0.09183727
45	0xbc005bb3	-0.007834363
46	0xbd07077a	-0.032966115
47	0xbcfccbb5	-0.030858854
48	0x3d9073d1	0.0705334
49	0x3e088abc	0.13334173
50	0x3db42679	0.087964006
51	0x3d93f8b2	0.07225169
52	0x3ae6904f	0.0017590615
53	0x3cb08ba2	0.021550957
54	0xbdee6864	-0.11641005
55	0x3cff779f	0.03118497
56	0xbd095b2e	-0.03353422
57	0xbdd6119b	-0.10452577
58	0x3cf4ac04	0.02986718
59	0xbd67604a	-0.056488313
60	0x3cf29efd	0.029616827
61	0x3da481cb	0.080325685
62	0x3d8617d6	0.06547515
63	0x3d82384d	0.06358395

net.5.running_mean f4 [64]
0	0x3f7b07b6	0.9805864
1	0x3d2eb4a3	0.042652737
2	0x3f6b2f26	0.9186882
3	0xbd984367	-0.07434731
4	0x3f87f4ce	1.0621583
5	0x3f58c28c	0.84671855
6	0x3e70629b	0.23475115
7	0x3f8a2e6f	1.079542
8	0x3ea8db0c	0.3297962
9	0x3f06a01f	0.52588075
10	0x3ec75a55	0.38936105
11	0x3ea1bb00	0.31587982
12	0xbe9ca56d	-0.3059496
13	0x3e610192	0.21973255
14	0xbee3e1f9	-0.4450834
15	0xbce2c4b2	-0.027681682
16	0xbf46ebec	-0.7770374
17	0xbf7372f1	-0.9509726
18	0x3f9f0bcd	1.2425476
19	0x3f073dea	0.5282885
20	0xbf969dc0	-1.1766891
21	0xbeb1b475	-0.3470799
22	0xbf73416f	-0.9502172
23	0x3eb4184a	0.3517478
24	0x3f806b7c	1.0032802
25	0x3ee55e8e	0.44798702
26	0xbf1c0680	-0.6094742
27	0xbe872a00	-0.2639923
28	0xbec9bcde	-0.39401907
29	0xbeb8fe7b	-0.36131653
30	0xbf27e990	-0.65590763
31	0xbf3929e5	-0.7232955
32	0x3f744e0f	0.9543161
33	0xbdf86082	-0.121277824
34	0x3de8b4db	0.113626204
35	0x3e8698d8	0.26288486
36	0x3f3235be	0.69613254
37	0xbf326201	-0.6968079
38	0xbf627578	-0.88460493
39	0xbd58871f	-0.052863237
40	0x3ee6e1b8	0.45094085
41	0xbbca96c0	-0.0061825216
42	0x3e07a3a0	0.13246012
43	0xbf3e89b4	-0.7442887
44	0xbf0f614a	-0.56007826
45	0xbf3aa5ae	-0.7290906
46	0xbe4ae708	-0.19814694
47	0x3ec7aaca	0.3899749
48	0xbface936	-1.350867
49	0xbf096153	-0.5366413
50	0xbfa7f7fd	-1.3122555
51	0x3d3ada69	0.04561845
52	0xbb93fa76	-0.0045159413
53	0xbf7d3e5b	-0.9892327
54	0x3f36b479	0.7136913
55	0xbe1e28eb	-0.15445296
56	0xbe874748	-0.2642157
57	0xbed5b4f0	-0.41739607
58	0x3ec3019b	0.38087162
59	0x3f2336b8	0.6375537
60	0x3c0a1b84	0.008429412
61	0xbf17caab	-0.5929362
62	0xbf3add37	-0.729938
63	0xbd9c2d76	-0.076258585

net.5.running_var f4 [64]
0	0x3fab892b	1.3401235
1	0x403a0cee	2.9070392
2	0x3f298e2a	0.6623255
3	0x3f4ae27a	0.79251826
4	0x4001627c	2.021636
5	0x3ff5a089	1.9189616
6	0x3f9933e3	1.196896
7	0x3fcf6128	1.6201525
8	0x40482a33	3.1275756
9	0x3fbdbdbe	1.482353
10	0x3f476f9c	0.7790468
11	0x3f89df1d	1.0771214
12	0x3ffbd289	1.9673625
13	0x3fec1147	1.8442773
14	0x3f6d1a2b	0.92618054
15	0x3fafda80	1.3738556
16	0x40095b57	2.1462
17	0x4027af09	2.6200583
18	0x3ff28699	1.8947326
19	0x3fac5d82	1.3466036
20	0x3f8d3bb4	1.1033845
21	0x3fd1e225	1.6397139
22	0x3fad4f24	1.3539777
23	0x3fb52d52	1.4154456
24	0x3fd0446f	1.6270884
25	0x3faddbe0	1.3582726
26	0x3f88c505	1.0685126
27	0x3f98f7d5	1.1950632
28	0x3f7ee94b	0.99574727
29	0x3f755f0f	0.9584817
30	0x3f5c16f8	0.8597255
31	0x3ff08a1e	1.879215
32	0x3fc73962	1.5564387
33	0x3fbf9171	1.496626
34	0x3fdc6c6c	1.7220588
35	0x3ffc3155	1.9702555
36	0x3ffd7fb1	1.9804593
37	0x3fc98230	1.5742855
38	0x401e506e	2.473659
39	0x3fcbabcb	1.5911802
40	0x3f999d7c	1.2001185
41	0x3fb18189	1.3867656
42	0x3f591a53	0.8480579
43	0x401feabd	2.4987023
44	0x3fb3896a	1.402631
45	0x40091833	2.142102
46	0x3eea5139	0.45765093
47	0x3f24b985	0.6434558
48	0x3f7661dd	0.9624308
49	0x3fbf0846	1.49244
50	0x40391bb6	2.8923163
51	0x3fb3621c	1.4014316
52	0x4085c3a2	4.180131
53	0x3f6112a4	0.8791907
54	0x3fc57d85	1.542893
55	0x3f73ddf3	0.9526054
56	0x3f81f466	1.015271
57	0x3f3d4086	0.7392658
58	0x3fdcacea	1.7240269
59	0x3f5fe137	0.87453026
60	0x3fcbb00e	1.5913103
61	0x4018dd5f	2.3885114
62	0x40052a6f	2.080715
63	0x3f7f765f	0.99789995

net.8.weight f4 [32, 64]
0	0xbd5e7225	-0.054308075
1	0x3e01b6ba	0.12667361
2	0x3d9b4b2f	0.075826995
3	0xbd275f3d	-0.04086231
4	0xbdd5fd9c	-0.10448763
5	0xbd02cb33	-0.031932067
6	0xbddd0c0f	-0.107933156
7	0xbd3e6a4e	-0.0464881
8	0xbe18f865	-0.14938505
9	0x3df6cb24	0.12050465
10	0x3d22a3e1	0.03970707
11	0x3ebab969	0.36469582
12	0x3d07bbc4	0.03313805
13	0xbe0ce18f	-0.13757919
14	0xbd2e3c42	-0.042537935
15	0xbe25a8ea	-0.16177717
16	0xbe0ee2d0	-0.1395371
17	0x3c23289e	0.009958414
18	0xbd2b8291	-0.041872565
19	0xbe9f5aab	-0.31123862
20	0x3da27586	0.07932572
21	0xbe73d9dc	-0.23813576
22	0x3d0fc528	0.035100132
23	0xbdee8928	-0.11647254
24	0xbeb8b111	-0.3607259
25	0x3dde41dc	0.108524054
26	0x3e36ca96	0.17850718
27	0xbc998038	-0.018737897
28	0xbeb8cf6e	-0.36095756
29	0xbd0b999f	-0.03408205
30	0x3ef116b8	0.47087646
31	0x3e5f41ec	0.21802491
32	0xba940075	-0.001129164
33	0x3e186c28	0.14885008
34	0xbdfdf4ee	-0.12400232
35	0xbde8045d	-0.11328957
36	0xbdeac779	-0.11463828
37	0xbdfa7df6	-0.122310564
38	0x3da30d15	0.079614796
39	0x3e5721ae	0.21008942
40	0x3cf493f1	0.0298557
41	0x3cbba4bd	0.022905702
42	0x3d9268ac	0.07148871
43	0x3ee051fb	0.43812546
44	0x3e388f6d	0.18023463
45	0xbdd3f04c	-0.10348567
46	0x3e217433	0.15766983
47	0xbc34f57d	-0.011044857
48	0x3e443c2c	0.19163579
49	0x3e040f3b	0.12896435
50	0xbe6b4be9	-0.22978176
51	0x3dab9365	0.08377723
52	0x3d96a185	0.07355026
53	0x3e8e1272	0.27748448
54	0xbe558c98	-0.20854414
55	0xbeb09abc	-0.34493053
56	0x3e585744	0.21127039
57	0x3d820d65	0.06350211
58	0x3e2b8afe	0.1675224
59	0xbd015013	-0.031570505
60	0x3e3732ca	0.17890468
61	0xbef4403e	-0.47705263
62	0x3d53802a	0.0516359
63	0x3cedb77a	0.029018153
64	0xbea6bd1f	-0.32566163
65	0x3d8e6514	0.06952873
66	0xbd112aa3	-0.035441052
67	0x3e86ae11	0.26304677
68	0xbd631029	-0.055435333
69	0xbae5ab59	-0.0017522379
70	0x3eb3aeac	0.35094202
71	0x3e2b6303	0.16736989
72	0x3e8ab199	0.2708862
73	0xbd63acdf	-0.055584785
74	0x3ce23c26	0.027616572
75	0x3e381641	0.17977239
76	0x3e3b6f13	0.1830409
77	0xbe4103a2	-0.18849042
78	0xbd53c959	-0.051705692
79	0x3e8a36b5	0.26994863
80	0x3d463bd9	0.04839692
81	0xbd995c4e	-0.07488309
82	0x3d2f50da	0.042801715
83	0xbdd4eacf	-0.10396349
84	0x3c9ffad8	0.019528791
85	0xbe9486b8	-0.29009032
86	0xbe4df97c	-0.20114702
87	0xbe15c400	-0.1462555
88	0x3c5f5bd8	0.013632737
89	0x3e647e32	0.22313765
90	0xbd9c0395	-0.07617871
91	0xbc3347c2	-0.010942401
92	0xbe3640f5	-0.17798217
93	0x3e01b514	0.12666732
94	0xbc9c46c2	-0.019076709
95	0xbd0eea1f	-0.034891244
96	0xbe1d1460	-0.15339804
97	0x3ea65078	0.32483268
98	0xbeb98760	-0.36236095
99	0x3e98262f	0.29716632
100	0x3e75b101	0.23993303
101	0x3e239d68	0.15978014
102	0xbd8c8e55	-0.06863085
103	0xbdd88ce2	-0.10573746
104	0x3e1d188f	0.153414
105	0x3e2f1b2a	0.17100206
106	0xbd7f2eef	-0.06230062
107	0xbe024e33	-0.12725143
108	0x3f0f0830	0.5587187
109	0x3be14b0a	0.0068754004
110	0x3dddc0d9	0.108277984
111	0x3da7a6e6	0.0818613
112	0x3e9fdc00	0.31222534
113	0x3d8043e9	0.06262953
114	0xbe675049	-0.2258922
115	0x3d0a3372	0.03374047
116	0x3e69e250	0.22840238
117	0x3e3b2a9b	0.18277971
118	0x3d28fbbb	0.041255694
119	0xbdb24264	-0.08704069
120	0xbe4270f6	-0.18988404
121	0x3d76887c	0.060188755
122	0xbcd09e21	-0.025466027
123	0x3e435b18	0.19077718
124	0x3cc3b3ee	0.023889508
125	0xbeeb4620	-0.4595194
126	0x3e78eecc	0.24309844
127	0x3e1b7fad	0.15185423
128	0x3d195593	0.037435126
129	0xbd23f113	-0.04002483
130	0x3e10bcf8	0.14134586
131	0xbdae24c8	-0.08503109
132	0xbdfb5285	-0.12271599
133	0xbd23155d	-0.039815295
134	0xbd04ca58	-0.032419533
135	0x3e28927f	0.16462134
136	0x3ce57ba2	0.028013054
137	0xbe15104d	-0.14557
138	0x3d7e55cb	0.062093537
139	0xbe09c0d4	-0.13452464
140	0xbdec3fef	-0.11535632
141	0x3e137ce6	0.14403114
142	0x3cfc09d9	0.030766414
143	0xbde31435	-0.110878386
144	0x3b5c64f4	0.0033629509
145	0xbcf687fb	-0.030094137
146	0xbc9417e8	-0.018077806
147	0xbe1d48e6	-0.1535984
148	0xbdb53e53	-0.08849778
149	0x3d54a37e	0.05191373
150	0xbdecfbee	-0.11571489
151	0x3e021f19	0.12707175
152	0x3e18aace	0.14908907
153	0xbe163f10	-0.14672494
154	0x3e583052	0.21112183
155	0xbda486c6	-0.080335185
156	0xbde4a9c2	-0.11165191
157	0x3de1841d	0.11011527
158	0xbe8b35fe	-0.2718963
159	0x3ebeee26	0.37291068
160	0xbd291e8e	-0.041288905
161	0x3d7605a1	0.060063962
162	0x3e2ef820	0.1708684
163	0xbd6ff350	-0.05858165
164	0xbe4d515e	-0.2005057
165	0xbd9bb32f	-0.07602536
166	0xbe3c4a22	-0.18387654
167	0xbdb9c640	-0.09071016
168	0x3dce6c0e	0.100792035
169	0xbe86ad44	-0.26304066
170	0xbeaf3289	-0.34218243
171	0xbe3b9c23	-0.1832128
172	0x3de40813	0.111343525
173	0x3e0ffbb4	0.14060861
174	0xbdd2d09d	-0.10293696
175	0x3e098533	0.13429718
176	0x3d1041b7	0.03521892
177	0xbe6e7e63	-0.232904
178	0xbae38ea9	-0.0017361242
179	0xbe38c05e	-0.18042132
180	0xbda10241	-0.07861758
181	0xbeb58445	-0.35452476
182	0x3e21ba00	0.1579361
183	0xbd0c8d66	-0.034314536
184	0x3e631f98	0.22180021
185	0xbdd92fc5	-0.106048144
186	0xbe0232b3	-0.12714653
187	0xbd12fa91	-0.03588349
188	0x3e1c1c1b	0.15245096
189	0x3e7ac32b	0.24488513
190	0x3e1f8cfc	0.15581125
191	0xbe9f99ef	-0.3117213
192	0xbe2ed068	-0.17071688
193	0xbd243ce2	-0.040097125
194	0x3ec015f2	0.37516743
195	0xbd84447b	-0.06458374
196	0xbeab2df2	-0.3343349
197	0xbb773d3b	-0.0037725705
198	0x3d890667	0.06690674
199	0x3d4982d0	0.04919702
200	0xbeaa4cf9	-0.3326185
201	0x3e621604	0.22078711
202	0xbe9868c0	-0.29767418
203	0x3e0ab8f9	0.13547124
204	0xbe332302	-0.17493823
205	0xbcb402b8	-0.021973953
206	0xbc8c09a8	-0.017094448
207	0x3de6b4f5	0.112649836
208	0xbec66ce3	-0.3875495
209	0xbdd3425e	-0.10315393
210	0x3e0d5f4d	0.13805886
211	0xbea0dd51	-0.3141885
212	0xbe239cef	-0.15977834
213	0xbc3b4fe2	-0.01143262
214	0x3e8910d8	0.26770663
215	0x3e5fda00	0.21860504
216	0x3eb47fd2	0.3525377
217	0x3e0ab5f2	0.13545969
218	0xbdd1234e	-0.10211812
219	0x3d8f50fd	0.06997869
220	0x3dbb0595	0.09131924
221	0xbdf98b61	-0.121847875
222	0x3cc875ca	0.024470229
223	0xbe5beb62	-0.2147651
224	0xbbd69855	-0.006548921
225	0x3d0de85c	0.034645423
226	0xbddc079b	-0.10743638
227	0x3ef5d9cf	0.48017737
228	0xbd2e7c2b	-0.042598885
229	0x3e59dd96	0.21275935
230	0x3d6b5579	0.05745456
231	0x3d5b9bf2	0.053615518
232	0x3c733d1e	0.014846114
233	0xbe84ed1b	-0.25962147
234	0xbe03e4fd	-0.12880321
235	0xbe00805d	-0.12548967
236	0xbe00888a	-0.12552086
237	0x3e7676ff	0.24068831
238	0x3e4d4fe9	0.20050015
239	0xbb1a7ad6	-0.002357175
240	0xbe9443a9	-0.2895787
241	0xbb681a2b	-0.0035415988
242	0x3ddd4e94	0.10806003
243	0xbbb6dc82	-0.005580486
244	0x3ed623c6	0.41824168
245	0x3dfd07c3	0.12354996
246	0x3d5a9083	0.053360473
247	0xbe1d18b8	-0.1534146
248	0x3e0cc971	0.13748719
249	0xbd606e5a	-0.05479274
250	0xbf007eed	-0.50193673
251	0x3e5f2287	0.21790515
252	0xbdebbce3	-0.11510637
253	0x3e3e583c	0.18588346
254	0x3beb3786	0.00717825
255	0xbe782a9f	-0.24235009

net.8.bias f4 [32]
0	0xbca9ac0b	-0.02071192
1	0xbc08a350	-0.008339718
2	0x3b7a4cdc	0.0038192784
3	0x3c26f29e	0.01018968
4	0xbc842efc	-0.016135685
5	0xb9adaeb2	-0.0003312729
6	0x3c85d421	0.016336503
7	0x3b3e18e8	0.0029006545
8	0xbc06c34d	-0.008225274
9	0x3c0cba66	0.008589363
10	0x3b62f943	0.0034633435
11	0x3c8ceabf	0.01720178
12	0xbb669b52	-0.0035187793
13	0x3c5e3a0f	0.013563647
14	0xbc3d193c	-0.011541661
15	0x3acd2421	0.0015651026
16	0xbc530f83	-0.012882116
17	0x3aff0943	0.0019457716
18	0xbb95e174	-0.0045739952
19	0x3cae44f1	0.021273108
20	0xbc0a3286	-0.008434897
21	0xbb1fd26d	-0.0024386898
22	0x38a08a9f	7.655215e-05
23	0x3c21a0ae	0.009864969
24	0xba2571e4	-0.00063112215
25	0xbcdb5211	-0.02677253
26	0xbb4566e4	-0.0030121142
27	0x3c7e8203	0.015533927
28	0xbc000163	-0.007812831
29	0x3c776599	0.015099906
30	0x3b57ff9f	0.0032958759
31	0xbc0ed6c5	-0.008718197

net.9.weight f4 [32]
0	0x3fa4b2ef	1.2867106
1	0x3fa74585	1.3068091
2	0x3fa34d06	1.2757881
3	0x3f7924bb	0.9732167
4	0x3fa95132	1.3227904
5	0x3f8d80aa	1.105489
6	0x3fa04388	1.2520609
7	0x3f5f150c	0.8714149
8	0x3fa38f02	1.2778018
9	0x3fa87d56	1.316325
10	0x3fa3df80	1.2802582
11	0x3fad600e	1.3544939
12	0x3f8f8bad	1.1214501
13	0x3fa3a1f0	1.2783794
14	0x3faa4110	1.3301105
15	0x3f8bf3ff	1.0933837
16	0x3faaba3d	1.3338085
17	0x3fa11b02	1.2586367
18	0x3f543d84	0.82906365
19	0x3fa2f115	1.2729822
20	0x3fa1bf81	1.2636567
21	0x3f613317	0.8796858
22	0x3f74fcd1	0.9569827
23	0x3faf644e	1.3702486
24	0x3f6e4d2d	0.9308651
25	0x3fa14fc2	1.2602465
26	0x3f6917a9	0.9105173
27	0x3faf0250	1.3672581
28	0x3f57507e	0.84107196
29	0x3fb2a0b1	1.3955289
30	0x3f70f494	0.94123197
31	0x3f5a51d5	0.85281116

net.9.bias f4 [32]
0	0x3eaab224	0.33339036
1	0x3eb21fde	0.34789938
2	0x3e98aa35	0.29817358
3	0xbcad20bb	-0.021133771
4	0x3eaeb669	0.34123543
5	0x3e2e56f2	0.17025355
6	0x3e8cbbab	0.2748693
7	0xbde88ba1	-0.11354757
8	0x3e9706c0	0.29497337
9	0x3eacd790	0.3375821
10	0x3e9761c1	0.29566768
11	0x3ec02ce6	0.37534255
12	0x3e348035	0.17627032
13	0x3e92685e	0.2859525
14	0x3ebbe30f	0.3669667
15	0x3e1e9f6f	0.15490507
16	0x3eb12ce7	0.3460457
17	0x3e8b51c0	0.27210808
18	0xbe325fbe	-0.17419335
19	0x3e931fa4	0.28735077
20	0x3e93239b	0.28738102
21	0xbdc37a9a	-0.09544869
22	0xbd1155b2	-0.035482116
23	0x3ed27a05	0.4110872
24	0xbd1b5fa6	-0.037933014
25	0x3e9b7ddc	0.3036946
26	0xbd9b84db	-0.075936995
27	0x3ed158b5	0.4088799
28	0xbe1bf89d	-0.15231557
29	0x3ed5ef04	0.41783917
30	0xbcd71776	-0.026256304
31	0xbe18d7cc	-0.1492607

net.9.running_mean f4 [32]
0	0xbd08884b	-0.033333104
1	0x3f5cf91c	0.8631761
2	0xbf3758f2	-0.71620095
3	0xbd63ac3f	-0.05558419
4	0xbfa28406	-1.269654
5	0xbf0daf70	-0.5534582
6	0xbf1ac2a3	-0.6045324
7	0x3e1e2c38	0.15446556
8	0xbf5563b9	-0.8335529
9	0xbf24c1d8	-0.6435828
10	0xbffd0efb	-1.9770197
11	0xbfa3db76	-1.2801349
12	0xbf8cd570	-1.1002636
13	0xbf31c328	-0.6943841
14	0xbf6f4768	-0.9346833
15	0xbf94c496	-1.1622493
16	0xbfa0c343	-1.2559589
17	0xbf831493	-1.0240654
18	0x3ead5ca0	0.3385973
19	0xbf2f022b	-0.68362683
20	0xbfa817a1	-1.3132211
21	0xbf189daf	-0.59615606
22	0x3e975f98	0.2956512
23	0xbfe4a73b	-1.7863535
24	0x3e8609c4	0.26179326
25	0xbf86c428	-1.0528612
26	0xbef05105	-0.46936813
27	0xbfb3dd15	-1.4051844
28	0x3d324974	0.04352708
29	0xbf2a168f	-0.6644067
30	0xbe4fc2f4	-0.20289212
31	0xbda59344	-0.08084729

net.9.running_var f4 [32]
0	0x403b8eec	2.9305983
1	0x40c57db1	6.171593
2	0x40187c5c	2.3825903
3	0x3f796add	0.97428685
4	0x40657aa7	3.585611
5	0x4053f69f	3.3119276
6	0x40be6e9a	5.951001
7	0x3fcef7a2	1.6169322
8	0x4099ce19	4.8064084
9	0x3fbeacc3	1.4896473
10	0x3fea90e6	1.832547
11	0x40091c93	2.142369
12	0x3f6e33e9	0.9304796
13	0x40333e62	2.8006825
14	0x40797540	3.8977814
15	0x4000296e	2.0025287
16	0x401cdfa4	2.45115
17	0x408f8274	4.4846745
18	0x4001bd52	2.0271802
19	0x402acceb	2.6687572
20	0x403ddcc2	2.966599
21	0x3fa8b645	1.3180624
22	0x3fc34f0d	1.5258499
23	0x3f8d64a1	1.1046335
24	0x3fc9425d	1.5723377
25	0x409731ea	4.724843
26	0x3f8e8ecb	1.1137327
27	0x3f7dc23c	0.99124503
28	0x3f19205c	0.59815
29	0x40081ba9	2.1266882
30	0x3fde2980	1.7356415
31	0x3f723db3	0.94625396

net.11.weight f4 [3, 32]
0	0xbf155d00	-0.5834503
1	0xbf50b16d	-0.8152073
2	0xbef247e9	-0.47320488
3	0xbe1fda9a	-0.15610734
4	0xbf09f399	-0.53887326
5	0xbe7fe373	-0.24989109
6	0xbf11854f	-0.5684404
7	0xbbcea401	-0.006306172
8	0xbf11979e	-0.56871974
9	0xbe96d8b1	-0.29462197
10	0xbec60907	-0.38678762
11	0xbf117d58	-0.56831884
12	0xbe2879c5	-0.16452701
13	0xbefa69ea	-0.4890893
14	0xbebd55c5	-0.369795
15	0xbe15537f	-0.14582632
16	0xbecc1105	-0.39856735
17	0xbeea69a4	-0.45783722
18	0x3de8f7cd	0.11375389
19	0xbefbeff7	-0.49206516
20	0xbf1d97a4	-0.6155951
21	0xbcbd0e1b	-0.023078015
22	0xbe193ad5	-0.14963849
23	0xbec3f9c2	-0.38276488
24	0xbd9fb31f	-0.077978365
25	0xbf483b07	-0.7821507
26	0xbdea082e	-0.114273414
27	0xbedd574f	-0.43230674
28	0x3d05f774	0.032706693
29	0xbede216e	-0.4338488
30	0xbda0b067	-0.07846146
31	0x3d09c55f	0.033635493
32	0xbe615d3f	-0.22008227
33	0x3e423e4e	0.1896908
34	0xbea430e6	-0.32068557
35	0x3d2e813a	0.04260371
36	0x3dd5bfa1	0.10436941
37	0xbd451fff	-0.048126217
38	0xbece8e31	-0.40342858
39	0xbe920b8a	-0.2852443
40	0xbe0757bb	-0.1321706
41	0xbdf181e0	-0.1179235
42	0xbec841c2	-0.3911267
43	0x3e515250	0.20441556
44	0xbe961042	-0.2930928
45	0xbe92f896	-0.2870528
46	0x3d1a754c	0.03770952
47	0xbeb29a65	-0.3488342
48	0xbe5c05f8	-0.21486652
49	0xbeb9bb90	-0.3627591
50	0xbe3851dd	-0.17999978
51	0xbeac8a8a	-0.33699447
52	0xbe79e50d	-0.24403782
53	0xbe43987b	-0.19101135
54	0x3db1c052	0.0867926
55	0xbe113925	-0.14181955
56	0xbe378cd5	-0.17924817
57	0xbeb29c47	-0.34884855
58	0x3e163a01	0.14670564
59	0x3d7ec19a	0.06219635
60	0x3c4d3382	0.012524487
61	0xbdcc9624	-0.099895746
62	0xbe7f7490	-0.24946809
63	0x3e289a6d	0.16465159
64	0x3e6e56f8	0.23275363
65	0x3d45999a	0.04824219
66	0x3dd0faa7	0.10204058
67	0xbceb08c7	-0.028690709
68	0x3e871ebe	0.26390642
69	0x3ecf0c2a	0.40438968
70	0x3d2757dd	0.040855277
71	0xbe779a54	-0.24179965
72	0xbe0d5702	-0.13802722
73	0xbe62dcf9	-0.22154607
74	0xbca50594	-0.020144261
75	0x3de88df8	0.113552034
76	0xbdbb4916	-0.091447994
77	0xbdcd5baf	-0.10027253
78	0x3df8df24	0.12151936
79	0x3dffe47c	0.12494752
80	0xbe4a57f1	-0.1976011
81	0xbea38cd4	-0.3194338
82	0xbe61c3a0	-0.22047281
83	0xbd720dbc	-0.05909513
84	0x3e55bc4e	0.20872614
85	0xbe163959	-0.14670314
86	0xbe28637f	-0.16444205
87	0xbd8aad85	-0.067713775
88	0xbd320c4b	-0.043468755
89	0xbf019037	-0.5061068
90	0x3c49660d	0.012292397
91	0x3d950563	0.07276418
92	0x3e098d29	0.13432755
93	0x3c043068	0.008068182
94	0x3e5a86dc	0.21340507
95	0x3e56b93c	0.20969099

net.11.bias f4 [3]
0	0xbebfb9f7	-0.37446567
1	0xbe543f5e	-0.20727298
2	0xbd58026d	-0.05273669
