RNN/torque_model.pth (torch, 226690 bytes, 12 tensors)

lstm.weight_ih_l0 f4 [256, 3]
000000 ac 63 2f 3e 42 69 73 3d 19 d4 b3 bd 82 b8 33 3e
       0.17127866 0.059426554 -0.08780689 0.17550853
000010 7c 0a aa bd 23 2b b1 bd b1 dc 94 3c ba ad ba bd
       -0.08302781 -0.08650806 0.01817164 -0.09115167
000020 e7 18 c1 bd ba 6f 0d be 45 5d 78 3d 23 4b d6 3d
       -0.09428578 -0.13812152 0.060635824 0.1046355
000030 0d 0b 4f 3e 3e df 96 3c 27 d8 03 be 4c a5 d5 3d
       0.2021906 0.018416997 -0.12875424 0.104319185
000040 20 9e 67 3d 8a 04 b3 3d 3f 22 ce 3c b7 a5 e3 3d
       0.056547284 0.087411 0.025162814 0.11115592
000050 30 d3 ac 3c a9 d9 0b be 61 ef c9 bc 04 ac 96 bc
       0.021096796 -0.1365725 -0.024650278 -0.01839257
000060 b4 74 48 3e 75 de 77 3c b6 51 26 3d b6 51 7c 3b
       0.19575769 0.0151287215 0.04060527 0.0038500852
000070 a0 5e 8d 3e 6a 17 39 3e 9f e9 00 3d cf 3b d3 3c
       0.27611256 0.18075338 0.0314728 0.025785355
000080 7f a1 fd 3d e4 32 0b be 91 70 19 3e d4 60 2f 3e
       0.123843186 -0.13593632 0.14984347 0.17126781
000090 65 0a ba bd 9b 44 4b 3e 95 5c 17 bd bc 28 0e be
       -0.09084014 0.1985039 -0.036953527 -0.13882726
0000a0 ba 10 bd 3d 43 bd ae 3d 66 e2 9b bd 4d fd 99 bb
       0.09231706 0.085321926 -0.076115415 -0.0046993853
0000b0 bd c5 bb 3d f9 12 e5 bc c6 4f 5f 3d ca 8d 5a 3d
       0.09168575 -0.027963148 0.054519437 0.053357877
0000c0 41 9e 57 3e 01 c9 9e bd 7b fd 14 bd fe 5d 27 3d
       0.21056463 -0.07753182 -0.03637455 0.040861122
0000d0 9b 9a 53 3e b2 52 f1 3c 04 e8 de bc 4f 67 1c bc
       0.20664446 0.029458378 -0.027210243 -0.009546115
0000e0 17 ba 04 be ac 8a fd bd d1 b9 cd 3c 33 ca 42 3e
       -0.12961613 -0.12379965 0.025113018 0.19022445
0000f0 63 f3 2a 3b f7 65 04 bd 72 5f f6 3d 04 ad fe bd
       0.0026085011 -0.032323804 0.120299235 -0.12435344
000100 75 1d ec 3d db 68 e3 bc 0d 48 49 3d a0 e3 65 be
       0.11529056 -0.02775996 0.04914098 -0.22450113
000110 49 4d 80 bd 92 73 f4 bd 5b b7 05 bd c6 67 9a 3d
       -0.06264741 -0.11936106 -0.032645565 0.075393245
000120 25 73 73 3d be 07 bd 3d 91 14 0c be f6 a2 75 be
       0.059435982 0.09229992 -0.1367972 -0.23987946
000130 6f 91 11 3e a0 98 f0 bd 7e ec 91 3c e6 43 99 bd
       0.14215635 -0.11747861 0.017812964 -0.07483654
000140 11 75 5f bd 9d 18 0b 3e 0c b3 26 3b 16 f8 b9 3d
       -0.054555003 0.13583608 0.002543631 0.09080522
000150 d2 26 66 3e 7c 7a af 3d 3d 97 c5 bc 69 a6 8d bb
       0.22475746 0.08568284 -0.024119968 -0.004322816
000160 3e c2 25 be cc 1c 23 be c7 44 85 3d df c9 1a 3e
       -0.16187379 -0.15928954 0.06507259 0.1511607
000170 8e fd 64 3d b6 d7 5a 3e df 54 79 3d 51 cb e0 3b
       0.05590587 0.2137135 0.060871955 0.0068601747
000180 c3 0e 16 3e b5 8c 29 3e ee 26 4a bd 66 a8 1b 3e
       0.14654069 0.16557582 -0.049353532 0.15200958
000190 5a 95 6b bd c6 ce 41 3c a2 92 64 3e 1b 72 c4 bd
       -0.05751548 0.011829084 0.22321561 -0.095920764
0001a0 bc b1 2e bc cc ab 37 3d e4 c6 8e 3d 8c 7a 19 3d
       -0.010662492 0.044841573 0.06971529 0.037470385
0001b0 4d 08 09 ba c3 b3 59 be ac 1e a1 bd f0 40 16 3e
       -0.0005227372 -0.2125998 -0.07867178 0.14673209
0001c0 e3 07 74 be ec 2a b7 bc 86 58 a2 bd 46 30 1a 3e
       -0.23831134 -0.022359334 -0.07927041 0.15057477
0001d0 4b 13 56 3d 8d bd d8 3d 60 f4 81 3d b4 e3 17 bd
       0.052264493 0.10583029 0.06345439 -0.03708239
0001e0 c3 04 0b 3e 70 66 5e bc de de d7 3d 57 c4 40 3c
       0.13576035 -0.013574228 0.105405554 0.011765561
0001f0 3d 4e 48 be f9 38 50 be 57 57 6f 3c 10 08 ac bc
       -0.19561096 -0.20334233 0.014608226 -0.020999938
000200 86 7c e3 3c ab 2a dd 3b 30 68 aa 3c f2 62 65 3d
       0.027769338 0.006749471 0.020801634 0.056002565
000210 13 f6 dc bd e6 07 a7 3d 0d 2a 49 3d f0 c0 e3 3d
       -0.107891224 0.081558034 0.04911237 0.11120784
000220 00 38 b9 3d ca 6a da 3d 87 a8 ba bd 00 cd 39 be
       0.09043884 0.106649 -0.09114175 -0.18144608
000230 25 5d 01 3d d9 4b a9 3d 9b 81 0b bd 5d 27 cc bd
       0.03158297 0.0826642 -0.03405915 -0.099684455
000240 e1 c0 cb 3c 6e c8 4e bd f7 09 0f bc 3f 7d 91 bd
       0.024872245 -0.050484113 -0.008730403 -0.07103967
000250 15 a4 48 3d 5f e5 81 bd d9 16 06 be d9 57 8b bd
       0.048984606 -0.06342577 -0.13094653 -0.06803865
000260 20 6c 51 bd 8a 7d 33 bc 9c b5 5b be 5e 6c 53 bd
       -0.051128507 -0.010955224 -0.21455997 -0.05161702
000270 81 88 a1 be 5a ca 67 3d 0b fc c6 bc 45 2d 80 bd
       -0.31549457 0.056589462 -0.024290105 -0.062586345
000280 53 45 b2 3d 31 3f 17 3d cc da c2 3d a2 26 6e 3d
       0.08704629 0.0369255 0.095143884 0.058142312
000290 c9 f3 c0 3d 6d d9 63 bd e1 fe d0 3c 9e 1b 8d bc
       0.09421498 -0.055627275 0.02551216 -0.017225083
0002a0 69 04 b0 3d 12 fd 4a 3d 3f 66 69 bd f7 83 44 3e
       0.08594591 0.049557753 -0.056982275 0.19190966
0002b0 bf 49 22 3d b7 6c 95 3d 27 1f 11 be b5 a2 5e 3d
       0.03962111 0.07296126 -0.1417204 0.05435439
0002c0 5c 09 08 3e 45 a4 da 3d 2d 80 be bd bd 83 dc bc
       0.1328482 0.10675863 -0.09301791 -0.026918286
0002d0 2b b4 21 3d 34 69 d9 bc 0e 02 71 bc 95 53 7e 3c
       0.039478462 -0.026539423 -0.0147099625 0.015522857
0002e0 d0 6f c9 bd ec cf 8e bd 4f ad 2e bd 49 f6 dc bd
       -0.0983578 -0.06973252 -0.04264575 -0.10789163
0002f0 b7 0b 04 be f2 b8 17 3d 5f e7 12 be 5f 89 aa bd
       -0.12895094 0.037041612 -0.14346074 -0.08326983
000300 3e 77 31 3d 72 08 5f bc 9d 43 72 bd 81 7f c7 3d
       0.04332661 -0.013612853 -0.059146512 0.09741116
000310 77 af 05 bc b8 36 f6 bd fc 60 21 3c 68 ea 5d bd
       -0.00815951 -0.120221555 0.009849783 -0.054178625
000320 92 b4 fc bd 30 de fb bd c9 20 42 3c b6 b7 20 3d
       -0.123391286 -0.12298238 0.011848637 0.0392377
000330 68 0f bb 3d e7 22 bc bd 77 b7 0e be bc bb ef 3d
       0.09133798 -0.091863446 -0.13937174 0.11705729
000340 0e 4b 3a 3e 33 5f 64 3e ea c1 a8 bd b6 2c 1d 3e
       0.18192694 0.2230194 -0.08240111 0.15349087
000350 0a 70 de 3d ba 8c 3b be 58 32 a5 3c 0c 29 0d bd
       0.108612135 -0.18315402 0.020165607 -0.034462973
000360 d5 d9 22 3e 00 02 d2 bb ba ed 76 3d 5a 10 df bd
       0.15903409 -0.00640893 0.060285307 -0.10891791
000370 56 91 99 3e 66 b3 4b 3e af 10 0b be 06 54 a7 bd
       0.29993695 0.19892654 -0.13580583 -0.08170323
000380 67 73 c3 3d 45 bc 64 be 8f 07 30 3e 7f 3b 48 3e
       0.095434956 -0.22337444 0.17190383 0.19553946
000390 2e 90 6f bd 08 1f 3e 3d 69 df ce 3c 3c b2 16 be
       -0.05848711 0.046416312 0.025253015 -0.14716429
0003a0 e7 fb 80 bc 61 e7 ab 3d 27 9b cc bd 01 bb f0 3c
       -0.015745116 0.083937414 -0.099905305 0.029386045
0003b0 30 ba b6 bc dd 0e 3d 3d c1 32 34 3e 37 c3 f9 3d
       -0.022305578 0.046156753 0.17597486 0.121954374
0003c0 31 85 f3 3d d4 b1 53 bc 71 c8 8b bd 4d 86 4f 3c
       0.118906386 -0.0129208155 -0.068253405 0.012666297
0003d0 34 1b 3f 3e dd a3 00 bc 15 d4 0f bd 42 66 a7 bd
       0.18662721 -0.007851568 -0.035114367 -0.08173801
0003e0 14 6d 76 3d e7 2e 09 be 3b 9f 13 3d 44 91 4f 3d
       0.06016262 -0.13396798 0.036040526 0.050675645
0003f0 0e 30 d4 3d 5a 94 33 3e 02 9e 80 bd e4 d7 13 be
       0.10360728 0.1753706 -0.062801376 -0.14437824

lstm.weight_hh_l0 f4 [256, 64]
000000 36 41 88 3d 0b 9c 51 3d 76 f1 05 be fb 7b 37 3d
       0.06653063 0.051174205 -0.13080391 0.04479597
000010 86 24 1b 3e 3a 06 85 3d 2b 45 9b 3d 2d 8c 34 bc
       0.15150651 0.06495328 0.07581552 -0.011019749
000020 4c 1d 9d bc a4 72 9a 3d 01 4d bf 3d a4 23 fe bd
       -0.019179009 0.07541397 0.09340859 -0.12409142
000030 7d 79 d4 3d cc 89 94 3c 69 17 a1 3d f2 ca 66 be
       0.103747346 0.018132113 0.07865793 -0.22538355
000040 c2 ef e5 bd aa ee eb bc bc 31 f3 3d 33 b7 16 be
       -0.11227371 -0.028800327 0.118747205 -0.14718322
000050 15 5f 95 3d 18 2d 97 3c 07 f6 0d bd 73 8b b0 bc
       0.07293526 0.01845412 -0.034658458 -0.02155087
000060 b5 67 6d 3c 91 a7 84 3c 68 39 79 bd 07 55 f1 bd
       0.014490058 0.016193183 -0.060845762 -0.11783796
000070 1f c5 3a be b4 80 6d bd f3 a4 c6 3c 3e 75 1e bd
       -0.18239258 -0.05798407 0.024248576 -0.03868603
000080 77 df 51 bd 9f 83 b9 bd ff c8 0c bd 14 c7 a2 bc
       -0.051238503 -0.09058308 -0.034371372 -0.019870318
000090 47 da a7 3d 0e c0 97 bc 26 3b 01 be f9 26 04 be
       0.0819593 -0.018524196 -0.1262022 -0.12905492
0000a0 9c 7f 0f 3d 44 34 de bd 9a 9f 14 3e 7e 69 87 3d
       0.035033807 -0.108498126 0.14514008 0.06611918
0000b0 9a be e7 3d 52 92 01 be 2c 2f e6 3a a0 5b 57 3b
       0.11315651 -0.12653473 0.0017561666 0.003286101
0000c0 61 cb ba bd 18 18 6a bc 4e fe 6e 3d 6f 1a 86 bd
       -0.09120823 -0.014287971 0.058347993 -0.065480106
0000d0 bf e9 2c 3e 62 a6 0c 3d db 9e 0c 3e b2 ed e8 3d
       0.16886042 0.034338363 0.13732474 0.11373462
0000e0 24 fc 62 bd 51 59 85 3c cd 1b 27 bd 47 16 63 3c
       -0.05541624 0.016277941 -0.040797997 0.013860292
0000f0 95 e7 9f bd 7c 01 bd 3d 01 90 fc 3c 5b ff ea 3d
       -0.07807843 0.09228799 0.030830385 0.114744864
000100 3e 91 0e be cb 65 89 bd e6 73 75 3d 00 b8 87 3d
       -0.13922593 -0.067088686 0.059924982 0.06626892
000110 ee c0 e0 3d f2 9e 51 3e 3b ac ce 3d 5d 21 59 bd
       0.109742984 0.20470789 0.10091444 -0.053010333
000120 71 c1 bb bc 11 82 1f be 7b b1 16 3e 60 ee 01 bd
       -0.022919388 -0.1557696 0.14716141 -0.031721473
000130 8b ec b5 3d 2a 62 21 3b d3 1d 84 bd 36 e1 9b bd
       0.088830076 0.002462516 -0.06451001 -0.07611315
000140 90 24 18 3d 55 77 15 be 14 8a c5 3d b3 8d ff bd
       0.037144244 -0.14596303 0.09645477 -0.12478199
000150 ca 7f 58 bd 7c cc 22 3e 72 61 28 bd d0 61 40 bd
       -0.052856244 0.15898317 -0.041108556 -0.04696828
000160 75 ec c8 3c 98 15 e4 bd 7e 97 19 bd 9a 77 0c bd
       0.024526814 -0.11136931 -0.03749799 -0.03429375
000170 94 3d 40 3d c1 a4 f6 bc c2 bb ac bd 63 7f 03 3d
       0.046933725 -0.030107858 -0.084342495 0.032103907
000180 2e d8 3b 3d e0 63 9e 3d 75 9e 0a bd eb c8 06 3e
       0.045860462 0.077338934 -0.033842523 0.13162582
000190 a0 70 d6 3d af 89 79 bc f5 3a 90 3d ad bd 91 be
       0.104707 -0.01523058 0.07042495 -0.28465024
0001a0 57 79 c0 bd f8 e9 38 3b 4d 55 a5 3d 15 23 d7 bd
       -0.09398144 0.0028215628 0.080729105 -0.10504738
0001b0 e6 f5 61 bd 56 82 65 be a7 b3 08 3b af 6d d8 bd
       -0.055166148 -0.22413 0.0020859034 -0.105677955
0001c0 f6 c1 bc bd 2f 4d 3d 3d 82 82 17 3e 21 11 b2 3d
       -0.092166826 0.046216186 0.14795879 0.08694673
0001d0 e6 18 f9 3d bd 50 da bd 1c 6c f7 3d 40 1d ec bd
       0.12162952 -0.10659931 0.12081167 -0.115290165
0001e0 4c a0 bd bd 19 3c f4 3d a9 b1 27 3c f5 05 92 3d
       -0.0925909 0.11925525 0.010235229 0.071300425
0001f0 17 f6 83 3d d9 35 8a bd ef 51 9c 3d ef 10 d0 3d
       0.06443422 -0.06748552 0.07632815 0.1015948
000200 4f 0b 3c bd 8a 9a 08 bd 68 87 05 3c a6 2a 9f bd
       -0.045909222 -0.033350505 0.008149959 -0.077718064
000210 13 99 36 3e 30 fc e9 3d 61 b5 9d 3d 30 56 52 bd
       0.1783183 0.11425054 0.07700611 -0.051351726
000220 f0 87 61 3d d8 e4 fa 3b 54 55 f4 bc a4 d9 36 bd
       0.05506128 0.007656675 -0.029825844 -0.044641152
000230 28 01 2f bd c9 90 9a bc 07 0b d8 3d c3 88 9d bd
       -0.042725712 -0.018867867 0.10548978 -0.07692101
000240 ae d4 0a 3d 4e 92 07 be 78 3a 03 3e 79 92 88 3d
       0.033894233 -0.13239405 0.12815273 0.066685624
000250 06 05 80 bc ef c1 0d be 45 72 26 3d 43 73 46 3c
       -0.015627395 -0.13843511 0.04063632 0.0121124415
000260 bc f9 85 bb 90 3c e2 3d 4c 2a c8 3b d9 c9 c2 bd
       -0.0040886085 0.11046708 0.006108558 -0.09511156
000270 a8 0c e7 bd ef f2 c3 bd e9 53 22 3d 7e fc 38 3e
       -0.11281711 -0.0956782 0.039630804 0.18065068
000280 11 69 f9 3c e8 86 e5 bb b9 66 0e 3e fa 38 f5 ba
       0.030445607 -0.0070046075 0.13906373 -0.0018708997
000290 1a 0b dd 3d 41 c4 df bc 4c 5d af bd c4 e1 1f 3c
       0.10793133 -0.02731526 -0.08562717 0.009758417
0002a0 5c 4f 4a 3a 7e 2b 3f bd 81 fd aa 3d 88 5c a6 3d
       0.0007717514 -0.046672337 0.08349133 0.08123118
0002b0 0e 42 b5 bd c5 b9 0b be 99 37 4b 3d 5c 75 52 bd
       -0.088504896 -0.13645084 0.04961357 -0.051381454
0002c0 0b 40 be 3d 74 ef c4 bc e2 38 b7 bd 83 7d d0 3d
       0.09289559 -0.024039961 -0.089463964 0.101801895
0002d0 f4 85 80 3d 48 49 6f 3c 23 f7 26 3d 0f 87 02 3e
       0.062755495 0.014604874 0.04076303 0.12746833
0002e0 aa 17 ae bc 2b bc ac 3d 8e ad e4 bd f6 ce 13 3e
       -0.021251518 0.08434328 -0.111659154 0.14434418
0002f0 da a1 6e bd ba d3 ac 3b 1b 6d 7e 3b 43 e0 85 bc
       -0.058259822 0.005274263 0.0038822356 -0.016342288
000300 b0 82 b1 3d 41 c6 5f bd 17 c9 48 bd 36 25 70 bd
       0.08667505 -0.05463243 -0.0490199 -0.058629237
000310 9a ba f5 bd cb 0a 1f be 0b f8 6a bd c0 34 5b 3e
       -0.11998482 -0.15531461 -0.05736546 0.21406841
000320 38 63 9e bb 94 07 65 3e 52 e8 ed 3c 09 47 82 bd
       -0.004833605 0.22366172 0.029041443 -0.06361205
000330 1e f3 63 3d 8d 04 11 be 01 51 f8 3c e1 83 dc bc
       0.055651776 -0.14161892 0.030312063 -0.026918354
000340 97 6b a5 3d 13 3d 91 3d df cd fa 3d 82 65 d5 3d
       0.08077162 0.07091727 0.12246298 0.10419752
000350 b1 23 ad 3c a8 c0 25 be e1 ee e3 3b 2c 47 74 bc
       0.021135183 -0.16186774 0.006955967 -0.014909547
000360 05 39 0a be bd 45 2e 3e e8 f7 de 3c b0 5a e4 bd
       -0.13498314 0.1701879 0.02721782 -0.1115011
000370 ce a2 de 3d 79 5e 18 be 87 04 4e 3d 19 c2 b2 bd
       0.10870896 -0.14879788 0.050297286 -0.087284274
000380 0e f6 2e be ec ae 0d be 72 d6 fd 3c 25 f1 92 bd
       -0.1708605 -0.13836259 0.030986045 -0.07174901
000390 c2 94 33 bc dd a3 03 3c f3 d0 5a 3d 6d db ea 3d
       -0.01096076 0.0080346735 0.053421926 0.114676334
0003a0 ac b1 70 bd 2e c3 6c bd dc 76 ea bc 8e b8 b4 3d
       -0.05876319 -0.057803325 -0.02862113 0.088242635
0003b0 3d ec 04 bc 49 03 eb 3d d8 2e cc 3d 6b bf 65 bd
       -0.008112964 0.11475236 0.09969872 -0.056090754
0003c0 7c 2c 5c 3d b3 8a 88 bc f4 db 77 bd 4b 75 b7 bd
       0.05375336 -0.0166677 -0.060512498 -0.08957919
0003d0 5b f5 a5 bd 45 cf f3 3d 78 14 4e 3c c9 13 a1 3d
       -0.081034385 0.11904768 0.012578122 0.07865102
0003e0 25 ea 5c 3d 42 42 d3 bb df a0 1f be a1 27 76 bd
       0.053934235 -0.0064471075 -0.15588711 -0.060096387
0003f0 f9 68 3b bc 05 5d fb bd c7 cc 35 be f6 8f b9 3d
       -0.011438602 -0.122736014 -0.17753898 0.090606615

lstm.bias_ih_l0 f4 [256]
000000 65 3b b3 3d 57 ca 22 3c c4 3a 9e 3d fb aa f8 3d
       0.08751563 0.009935937 0.077260524 0.12141987
000010 b7 4c d5 3d 21 85 82 3e 7b 4d 17 3e c6 30 c4 bd
       0.10415023 0.25492194 0.1477565 -0.09579615
000020 b3 c3 13 bc 05 e3 58 bd 77 20 d0 bd 72 bd 3e 3e
       -0.009018826 -0.052950878 -0.10162442 0.18626955
000030 13 74 25 3d ff 69 a9 3d c7 c6 fe bc 2c 19 a9 bd
       0.0403939 0.0827217 -0.031100644 -0.08256754
000040 91 88 c3 bd b6 68 54 3d 3b 82 53 bd 28 ec 24 3e
       -0.09547532 0.051857673 -0.05163787 0.16105711
000050 8d e9 8b 3d 4f 3e 79 3d 9d 2e 45 bc bb 40 8e 3d
       0.06831656 0.060850438 -0.012035039 0.0694594
000060 19 8b 9f 3d 0a 04 05 be ae 7c 61 bd 0e 4f c6 bd
       0.07790203 -0.12989822 -0.055050544 -0.09683047
000070 84 8d 1d 3d d2 f5 5d bc e5 37 09 bd ca f2 b2 bd
       0.038465038 -0.013547378 -0.03350057 -0.087377146
000080 fc 30 51 3c 14 fa a9 bd 5b 95 92 3d 1b 13 f7 bc
       0.012768026 -0.08299652 0.071573935 -0.030160477
000090 4f 01 30 3d e8 91 9c 3d 25 8b 67 3d 2f db cc 3d
       0.042969998 0.07645017 0.056529183 0.100027435
0000a0 04 61 db bb b1 18 01 3d 7e 07 ee 3d 66 23 c0 bd
       -0.006694915 0.03151769 0.11622523 -0.09381752
0000b0 6e 9d 91 3d db e8 b7 3d 83 01 ea 3d 67 e3 a4 3d
       0.071101055 0.089799605 0.114260696 0.08051186
0000c0 9b e6 a6 3c bb 39 3f bd ae 17 e5 bb af 87 38 bb
       0.020373633 -0.046685915 -0.006991348 -0.0028157046
0000d0 1b 2d e6 3d 2c a8 f4 bb 53 e9 f2 3d c0 70 56 3d
       0.11239072 -0.0074663367 0.11860909 0.05235362
0000e0 05 57 85 bd 4c d9 39 bc 0d fe 3e bd 50 5e 05 3d
       -0.06510738 -0.0113433115 -0.046629 0.032560647
0000f0 5b 12 02 3e f6 23 1b be d2 f3 86 3d ba 15 02 bd
       0.12702315 -0.15150437 0.06589474 -0.031759
000100 40 6c 39 3d 0c cb 2e be c0 93 52 bd 5b 36 10 bd
       0.04526925 -0.17069644 -0.051410437 -0.035208087
000110 f4 fd 20 bd 41 66 6f 3e c3 92 ef 3d 3a f6 b8 bd
       -0.03930469 0.2337885 0.116979145 -0.09031339
000120 69 00 85 3c 8c ca 4f 3e c6 ad 2c 3c 55 49 dd 3d
       0.016235547 0.20292109 0.010539478 0.108050026
000130 96 d0 66 3d 3e 25 d8 3d e3 01 cd bb 96 7f 31 3c
       0.056351267 0.105539784 -0.0062563284 0.0108336415
000140 9e 45 ed bd 1b d3 92 3c 96 b0 00 3e d0 17 4a 3e
       -0.11585544 0.017922929 0.12567362 0.19735646
000150 5c fb 34 3d 1f 43 59 bd 35 e4 a7 bd 19 e7 d6 3d
       0.044185027 -0.053042527 -0.08197824 0.10493297
000160 d4 98 1c 3d 1e 87 5d bc 32 ef 1f bd 77 aa 2b bd
       0.038231686 -0.013520984 -0.039046474 -0.041910615
000170 c2 6f 45 bc 4e ff dd bb 93 2f 41 3e 01 93 a7 3c
       -0.012050571 -0.0067748195 0.18865804 0.02045584
000180 20 7f fd 3d 51 a8 13 bd eb 3f e9 bc 10 f6 ca bb
       0.12377763 -0.03604919 -0.028472861 -0.0061938837
000190 02 fd 01 3e 9a 87 4c 3d 9f 31 a7 3d 3b 43 b5 bc
       0.12694171 0.049934007 0.08163761 -0.022126785
0001a0 56 fb 8b bd 89 97 9d bb db 93 af bd 76 90 19 bd
       -0.06835048 -0.004809324 -0.08573123 -0.037491284
0001b0 31 ea 93 3e 80 34 74 3d f9 17 2e 3e 70 41 31 3d
       0.2888961 0.05962038 0.17001332 0.043275297
0001c0 f1 02 08 bd 7b 2d 08 3d d8 26 d0 3d 25 44 86 bd
       -0.03320593 0.0332465 0.10163659 -0.06555966
0001d0 ee 94 2b 3e a2 ea 05 3e 91 5c e6 3d 00 50 5b 3c
       0.16756031 0.13077787 0.112481244 0.013385773
0001e0 ee 44 81 bd d4 ee 55 3c 11 43 21 3d ec 64 07 bd
       -0.063119754 0.013057429 0.0393706 -0.03305523
0001f0 91 34 21 3e 10 1d 21 be 99 e1 39 3e 6b ad fd 3c
       0.15742709 -0.15733743 0.18152465 0.030966481
000200 5e 76 92 3d 43 0d b1 3d 3d e9 17 3d 3a ef 0e be
       0.07151483 0.086451076 0.037087668 -0.13958445
000210 54 ca b1 3c 9e 5b de 3d 7b 08 a9 bb 59 f7 26 be
       0.021702923 0.10857318 -0.0051584817 -0.16305293
000220 19 a2 63 3d c7 12 c6 ba fe 8e b1 3d 09 83 ec 3d
       0.05557451 -0.0015111797 0.08669852 0.115484305
000230 7b 57 d4 bd 14 7b 1f 3e c4 b5 06 be d6 4b 84 3d
       -0.10368248 0.15574294 -0.13155276 0.06459777
000240 e8 67 78 3d b5 2a 8f bd ee ec 94 3d 53 86 24 be
       0.060645968 -0.069905676 0.07271753 -0.16066866
000250 7b 16 b6 3c 9a 12 d4 bd 79 10 e8 3d cc cd 29 bd
       0.022227516 -0.103551105 0.11331267 -0.04145603
000260 fe e3 c8 3d ae 3b 2c bc 49 b6 2a bd e5 c8 af 3c
       0.09809111 -0.010512276 -0.041677747 0.021458099
000270 29 40 2c 3d d0 d9 2a bd ca 0e 3e 3d 0a 1a 9f bd
       0.042053375 -0.04171163 0.046400823 -0.077686384
000280 b1 ce 32 3d e5 fa dd bc 45 72 00 3d 39 e7 8e bd
       0.043654148 -0.027097175 0.031358976 -0.06977696
000290 5b c8 3e 3d 40 6d 67 3d 38 c4 70 3c aa 59 54 bc
       0.046577793 0.056500673 0.01469522 -0.012960831
0002a0 62 a7 02 be fe 39 31 3d ed 13 d6 bc 87 d6 c7 3d
       -0.12759164 0.043268196 -0.026132548 0.09757715
0002b0 06 42 02 be f0 2f f8 bc e3 12 a6 3d 6e 03 69 3c
       -0.12720498 -0.030296296 0.08109071 0.014222009
0002c0 6f 92 34 bd 91 d1 1a be 17 2c 0d 3d f7 4a fd bd
       -0.044084962 -0.15119006 0.034465875 -0.12367814
0002d0 aa bc 0d be 6e 50 d3 3d 38 a5 6e 3d b6 79 66 bd
       -0.13841501 0.10318075 0.058263034 -0.056268416
0002e0 0e 9c eb bd ed 13 2c bc 90 94 af 3d 7e b4 ef bd
       -0.115043744 -0.010502798 0.08573258 -0.11704348
0002f0 0b 49 64 bd 05 27 b8 bc df ed 91 bd be e3 e3 bd
       -0.05573372 -0.022479543 -0.071254484 -0.11127423
000300 8b f5 7f 3c 38 cf 74 3d 48 57 b8 bd d1 ce b3 3d
       0.015622507 0.05976793 -0.090010226 0.087796815
000310 ec 4e fa 3d b1 67 71 3e 2d 79 6f bd 44 74 db 3d
       0.122220844 0.23574711 -0.05846517 0.10715535
000320 45 03 cd 3d c1 83 c2 3d e0 a4 79 bd cf 55 2f 3e
       0.10010389 0.09497786 -0.060948253 0.17122577
000330 7b d9 d5 3d 2e 6a 0f bd e5 78 4e 3a df 9b 93 3d
       0.10441872 -0.03501337 0.0007876291 0.072074644
000340 32 1a be bc d2 5a 09 3d 85 9a 9a 3b a9 51 20 3e
       -0.02320585 0.03353388 0.004718127 0.15656151
000350 32 1c b1 3c 5b e7 13 3e cb e1 b4 bd 5b a0 76 3e
       0.02161989 0.14443724 -0.08832129 0.24084608
000360 15 9f 1d 3d d4 65 94 bd 3e a1 a6 3d 7f ab 0b be
       0.03848179 -0.07245985 0.08136223 -0.1363964
000370 85 d1 01 bd c9 82 42 bd 37 8f 0e 3d ab e5 1a 3e
       -0.031693954 -0.047488008 0.03480455 0.15126674
000380 e8 25 6b 3d c0 f0 ff 3d 96 0a 8e 3c 8d b4 8a bd
       0.057409197 0.12497091 0.017339032 -0.067727186
000390 ea 43 85 3d 68 52 9c 3d 70 d0 69 bd e6 15 db 3d
       0.06507094 0.07632905 -0.057083547 0.10697536
0003a0 6b 54 06 3e cf 4e f4 3c 34 40 9c bd 34 8d 2d 3d
       0.1311814 0.029822735 -0.07629433 0.04237099
0003b0 f6 1b 50 3e 37 f2 f6 3d eb 6e 77 bd 0c d9 99 bc
       0.20323166 0.120579176 -0.060408514 -0.018780254
0003c0 52 f0 5d 3d 28 51 b8 3d 84 55 22 3e 42 6d 8b 3b
       0.054184265 0.08999854 0.15852934 0.004254968
0003d0 ad 5e 5a 3e 99 40 41 3b 16 5a 19 3e 60 74 8c 3d
       0.21325178 0.0029487966 0.14975771 0.06858134
0003e0 71 aa 03 3d 19 15 1a 3e 73 cc cf 3d 82 f5 b9 bb
       0.032144967 0.1504711 0.101464175 -0.0056750188
0003f0 ef 54 dc 3b e6 b5 94 bd ab 89 f1 3d e5 b6 22 3d
       0.006723992 -0.07261257 0.11793836 0.039725203

lstm.bias_hh_l0 f4 [256]
000000 97 d0 ba bd b3 56 28 bd 43 77 eb bc c0 14 52 3d
       -0.091218166 -0.041098308 -0.028743392 0.05128932
000010 d0 ab 0d bb 63 bd 8d 3e 51 54 76 3d 89 12 15 bd
       -0.00216173 0.27683553 0.060139004 -0.03639463
000020 99 d8 5f bd 3a 65 b8 3d a9 66 dd bd 86 03 b4 bb
       -0.054649923 0.090036824 -0.108105965 -0.005493584
000030 8f f5 31 3e 90 8d ea bc 13 b7 fc 3d df cf 39 3d
       0.1737883 -0.028631955 0.12339606 0.045364257
000040 74 8a ed bc 70 6d 40 3d 0b 12 ed bd c0 31 13 3e
       -0.028996684 0.046979368 -0.11575707 0.14374447
000050 b3 68 67 3e 16 2c 9c 3d a9 46 d9 3c e3 77 22 3e
       0.22598533 0.07625596 0.026522951 0.15866046
000060 65 16 69 bd 63 f6 d6 bb c2 a2 1a 3d d7 75 05 3c
       -0.056906123 -0.0065601333 0.037752874 0.008145771
000070 27 5b fd bd 14 99 79 3d 6f 34 ea 3d da 43 db 3d
       -0.123709016 0.060937002 0.11435782 0.10706301
000080 13 ec 62 bd 7f 99 35 bd c1 5f a9 3d dd 79 43 3d
       -0.05540092 -0.04433584 0.08270217 0.04772364
000090 bd 27 51 3d 48 ff 87 3d 96 7a b4 3d 27 48 30 3e
       0.051063288 0.06640488 0.08812444 0.17215024
0000a0 1c 8a 99 3d 31 77 36 3c 80 a1 8e 3d 70 79 ea bd
       0.074970454 0.011136816 0.069643974 -0.114489436
0000b0 4b 3f 98 3e 46 45 6c 3d 82 25 86 3d ad 4b e5 3d
       0.2973579 0.05768325 0.06550123 0.11196075
0000c0 69 a2 e9 3c cf bc ee 3c ef c5 64 3d 98 70 9a 3d
       0.028519826 0.029142765 0.055852827 0.07541007
0000d0 29 16 4c 3e 27 d3 03 3d ef fd 40 3d 91 a1 a0 bd
       0.19930328 0.032183792 0.04711717 -0.07843316
0000e0 81 5b b9 3c 2f 22 23 bd 81 fe 59 bd 2c ec e7 3d
       0.02262664 -0.039827522 -0.05322123 0.11324343
0000f0 5b 24 ee 3d be 1d 38 be 81 c6 70 bd 13 1d 99 bc
       0.11628028 -0.17980096 -0.058783058 -0.018690621
000100 22 0c be bd d5 f4 b8 bc cc 0c 51 bd 63 8e b6 3d
       -0.09279658 -0.022577683 -0.051037595 0.08913877
000110 f0 23 49 3d 49 01 9e 3e 01 bd a4 bd 61 e6 1d 3d
       0.04910654 0.30860355 -0.08043862 0.038549785
000120 fd 44 ce 3d 9c 9f 34 3d f4 e7 c9 3d bb 11 3f 3e
       0.10071752 0.044097528 0.09858695 0.18659107
000130 d9 47 1e 3d 1e 58 de 3d b5 20 06 3e 15 b7 37 3d
       0.038642738 0.10856651 0.13098414 0.044852335
000140 53 e2 a4 3c 69 16 ac bc 17 da c5 3d 96 ff 6a 3e
       0.020127451 -0.02100678 0.09660738 0.22949061
000150 1c e1 d4 bb 46 02 ee 3c 91 73 68 3d dc aa 24 3e
       -0.0064965617 0.029053818 0.056750838 0.16080803
000160 6f 79 e0 3d 7d 4c 25 be 5b da dd 3d da 52 ae bd
       0.109606616 -0.16142459 0.108326636 -0.085118964
000170 42 0c 96 3c ad 29 ba bd 6b af ca 3c 63 a1 b1 3d
       0.018316392 -0.0908998 0.024741849 0.0867336
000180 21 f7 8f 3d 7b 95 12 3d 59 71 bb 3d cd da 86 bd
       0.07029558 0.035787087 0.09152479 -0.06584702
000190 c3 ae 0e 3e 3e 66 87 3d d1 bb db 3d 70 db 8b 3d
       0.13933854 0.06611298 0.107291825 0.06828964
0001a0 83 65 82 3d d3 84 03 bd db dd f6 3d 4d 2d 05 be
       0.06367018 -0.032109093 0.12054034 -0.13005562
0001b0 90 af 88 3e dd ef 10 3e 72 86 f5 bc 46 fc 22 3d
       0.26696444 0.14154 -0.029971335 0.039791368
0001c0 ba 2c c8 3d 1c 12 95 3d d0 00 0b 3e 44 e6 eb bd
       0.09774156 0.07278845 0.13574529 -0.11518529
0001d0 ac fa c5 3d 0a b8 46 3e 37 04 2c 3e 67 ee 3b bd
       0.096669525 0.19406143 0.16798483 -0.045881655
0001e0 4c 71 9b 3c 8c 58 15 3d 9b 33 60 bd 37 6e 5e 3d
       0.018974923 0.036461398 -0.054736715 0.054304328
0001f0 c4 79 dd 3c 93 7f f3 bd bb 53 b6 3d 58 d0 4d 3d
       0.027035601 -0.11889567 0.08902689 0.05024752
000200 7e f5 94 3c bf 81 5c bd 29 db 1a 3d 9a dc 4e bc
       0.018183466 -0.053834673 0.037806664 -0.012625838
000210 b7 bd 8e bd bd 3b 13 3e 6b 96 2e be 2e 07 97 3d
       -0.06969779 0.14378257 -0.17049567 0.07374416
000220 25 de ca bd 17 77 28 bd d4 92 10 3d 25 12 e2 3d
       -0.09905652 -0.041129198 0.035296276 0.11038617
000230 9b af d3 bd 21 08 a7 bd e1 ab 9f bb 36 92 d8 3d
       -0.103362285 -0.08155847 -0.0048727845 0.105747625
000240 94 47 89 bc b7 03 a8 bd 2e 25 b3 3d 26 98 f1 bd
       -0.016757764 -0.082038336 0.08747326 -0.11796598
000250 29 df 2c 3e 47 29 01 3e fd 62 d7 3d ca 2b 11 be
       0.16882004 0.12613402 0.105169274 -0.1417686
000260 14 1b 9a 3d 28 9c d3 3c b7 a0 e3 3d 17 87 88 3c
       0.07524696 0.025831297 0.11114638 0.016665978
000270 c1 31 2f bd 9c 50 5e bd 82 a4 cc bd 32 d9 80 bd
       -0.04277206 -0.054276094 -0.09992315 -0.06291427
000280 31 42 17 3d b7 76 82 3d e8 94 7a 3d b1 a1 e9 3a
       0.03692836 0.06370299 0.061177164 0.0017824677
000290 a2 4b d6 bd 51 b2 0b 3e d6 fe 82 3d 1f 5d 85 3d
       -0.104636446 0.13642241 0.06396262 0.06511902
0002a0 75 c4 a5 3d e0 4c 12 3e bf a6 c7 bc 32 a8 83 bc
       0.08094112 0.14287138 -0.024371503 -0.016071413
0002b0 b6 5a 1d be 1c fc 05 bd f2 58 22 3e 2e 16 0b 3d
       -0.15366635 -0.032711133 0.15854242 0.0339567
0002c0 50 f0 df bd 33 c8 64 3d fc 1e a5 bd 40 3c 3a 3c
       -0.10934508 0.055854987 -0.080625504 0.011366904
0002d0 ff f2 a9 bc 85 ad 1d 3d da 1d e2 3d 26 05 61 3d
       -0.020745752 0.03849556 0.1104085 0.05493655
0002e0 be f2 eb 3d 03 52 bb bd 32 aa ad 3d c6 42 ed bd
       0.11520909 -0.09146502 0.08479728 -0.11585002
0002f0 8b a8 31 3d f7 21 82 3d 48 74 7a bd 71 01 fe 3d
       0.043373626 0.063541345 -0.06114605 0.12402619
000300 07 5e b6 bd 14 06 bc bd fe 24 a9 bb 77 af dd 3c
       -0.08904653 -0.09180847 -0.0051618805 0.027061207
000310 a8 b8 ee 3d 22 a8 4f 3d 9d 8b 25 bd da 2f 65 bd
       0.11656314 0.050697453 -0.04041635 -0.055953838
000320 3f 78 05 3e 31 d8 15 3c 5d d5 c4 3d a3 a7 df 3d
       0.13034151 0.009145782 0.09611008 0.10920646
000330 d7 9f dc 3d da c3 dd 3d 44 e8 f0 3d bc c3 77 3c
       0.107726745 0.10828371 0.11763051 0.01512235
000340 79 2b ef bc 00 f7 21 3e b9 69 54 3c e1 64 46 3e
       -0.029195534 0.1581688 0.012964659 0.1937442
000350 bd 9a 10 3d ea ea 62 3c ed 7e 31 bd 07 e0 bf 3d
       0.03530382 0.013849953 -0.043333936 0.09368902
000360 95 4a a8 bd 3b 57 67 bd 36 41 73 3d f0 2a ef bd
       -0.082173504 -0.056479674 0.059388362 -0.116781116
000370 10 0f b4 3d b6 6a cd 3d 8a ab 49 3b ab a9 89 bd
       0.087919354 0.10030119 0.0030772411 -0.06721815
000380 d5 ee e6 3d 61 5d fe 3d 9f b0 0f bd 36 d0 10 3e
       0.11276022 0.12420154 -0.03508055 0.14141926
000390 56 3c 8c 3d 87 01 44 3c e6 9f 96 3d a1 e1 57 bd
       0.06847446 0.011963255 0.07354717 -0.05270541
0003a0 f0 8a b1 bd 7f fa e3 bd 5c d3 b9 3b d8 35 23 be
       -0.08669078 -0.11131763 0.005670948 -0.15938509
0003b0 22 fb 12 3e c3 3a 82 3b e1 19 29 bd 6d bd 90 bd
       0.14353612 0.00397429 -0.041284446 -0.0706738
0003c0 0c da 39 3e ef 3d 03 3e 56 ed 92 bd 5f 56 9d 3d
       0.18149585 0.12816595 -0.071741745 0.076824896
0003d0 77 0d fe 3c b9 1b 21 3e 4f 8e 28 3d cc 96 a5 3d
       0.03101228 0.15733232 0.04115134 0.08085403
0003e0 4b 21 da 3d 5f 53 d4 bc 0d 84 8c bc fe 1d 27 bd
       0.106508814 -0.02591866 -0.01715281 -0.040800087
0003f0 74 a2 8d 3d b8 46 2c be 9c a9 3f bd fc 18 6f bc
       0.06915751 -0.16823852 -0.04679261 -0.014593359

lstm.weight_ih_l1 f4 [256, 64]
000000 fc 18 61 3e aa 12 09 3d 3f 36 10 3e ba 92 52 3d
       0.21982187 0.033465065 0.14083193 0.05140946
000010 2c 27 c1 bd 73 3d c3 3d 31 09 05 bd 3d 1e c9 bc
       -0.094312996 0.09533205 -0.03247947 -0.024550552
000020 94 93 50 be 63 e8 87 bd 97 6d 2a bd 26 d2 44 3e
       -0.20368797 -0.06636121 -0.04160842 0.1922079
000030 80 43 1e be e0 31 bb bc 6d e1 3e be 9a 93 79 3c
       -0.15455437 -0.02285093 -0.1864068 0.015232945
000040 e0 46 1d 3e 36 a5 ae 3b 5f d6 43 3d a0 e6 b4 bd
       0.15359068 0.0053297533 0.047811862 -0.08833051
000050 c6 86 8a 3e 4b 00 81 3d c0 19 2f 3d 77 9c b0 bd
       0.2705595 0.06298884 0.042749166 -0.08623593
000060 f4 45 b0 3d 0c 71 5b bd 9f 6f 11 3e b9 3e 4b be
       0.086070925 -0.053574607 0.14202736 -0.19848146
000070 4d a8 48 3c b4 5f dd bd 7c 0e 75 3b 54 cc a6 3d
       0.012247157 -0.108092695 0.0037392667 0.08144441
000080 5f 05 07 be 29 1a aa bd 51 4c 30 be 43 b5 5b 3d
       -0.13185643 -0.08305771 -0.17216612 0.05363966
000090 f2 5f 6a be c6 cc 84 3d 88 21 06 bd 20 95 92 bd
       -0.22888163 0.0648437 -0.03274682 -0.071573496
0000a0 83 3f 0f 3e 37 ea 64 3e 2d 6a 28 3d c9 a3 70 bb
       0.13989072 0.22354971 0.041116882 -0.0036718717
0000b0 d0 d0 23 be 8b 01 0f be 99 72 5d bd 97 61 81 3d
       -0.15997624 -0.13965432 -0.054064367 0.06317442
0000c0 e6 98 16 be 01 29 20 be 69 44 7c bd 8c ff 33 be
       -0.14706764 -0.15640642 -0.06158868 -0.17577952
0000d0 45 65 b1 bd d4 8b 53 3e 6b af a5 3d fe 3b dc 3d
       -0.08661894 0.20658809 0.08090099 0.1075363
0000e0 31 a0 d6 bd 19 1a 5f 3d 24 a2 92 3d 39 45 e3 bd
       -0.10479773 0.054468248 0.07159832 -0.110971875
0000f0 e9 0b 02 3e 39 19 09 3e 72 68 e8 bd 49 ca 66 3b
       0.12699856 0.13388528 -0.11348046 0.0035215786
000100 f0 32 72 3e 81 6e 11 3d b9 d7 19 3e 80 5e e8 3c
       0.23652244 0.035505775 0.15023698 0.028365374
000110 35 57 63 3d 09 d5 35 bd 6b d0 6d 3e ea b6 5d 3e
       0.05550309 -0.04439262 0.23224036 0.21651807
000120 9a cd be be a3 e2 d7 bd 7d e4 5e 3d 57 dd 45 be
       -0.37266237 -0.105412744 0.054417122 -0.19322716
000130 9b c1 58 3e 6c f7 e9 bd 5b c2 94 3d 13 c7 52 be
       0.21167605 -0.11424145 0.07263633 -0.20583753
000140 1b 75 5f 3e 71 e4 9b 3d d6 25 21 3d b2 60 d1 3d
       0.21822016 0.07611931 0.039342724 0.10223521
000150 0d 7c 2e bd a2 bd cc 3c 79 78 15 3e 8d 9b 00 3e
       -0.042598773 0.024992768 0.14596738 0.12559338
000160 a7 9c 2f bd 58 8f ab 3d 91 ec 0a 3e e1 0b 0a 3d
       -0.042874005 0.0837695 0.13566805 0.033702735
000170 b7 3e 06 3e 0f 62 aa 3c fa 34 b1 bd 9f 9f 83 bd
       0.13109861 0.020798711 -0.086526826 -0.0642693
000180 4e f8 7e be d4 19 82 be 07 0d e3 bd 7f d8 cc bd
       -0.24899408 -0.2541033 -0.11086469 -0.10002231
000190 3a e4 40 bc c3 7a 83 3e e4 d1 bc be 6d 19 a6 3d
       -0.011773163 0.25679597 -0.36878884 0.08110318
0001a0 cc 9b 1c 3e 04 71 2a 3d 44 d7 5d bd 54 22 98 bd
       0.15293807 0.041611686 -0.05416037 -0.074284226
0001b0 3a a3 80 3e 73 d1 d0 3d c4 bd 59 3d 20 b9 12 3e
       0.25124532 0.10196199 0.05315949 0.14328432
0001c0 ab b5 49 bd 1c 63 b4 3d 7a af 45 be da 11 85 bd
       -0.049245518 0.08807966 -0.1930522 -0.064975455
0001d0 b9 60 14 3e 94 82 04 3d c1 7d 2e 3c 41 38 6e 3e
       0.14490022 0.03235109 0.010650099 0.23263647
0001e0 e1 5f 04 3e e5 17 a4 be 07 8d 51 be f1 94 44 be
       0.129272 -0.3204948 -0.20463954 -0.19197442
0001f0 36 5b a8 3e 66 8e 8e 3c 8a d0 0f 3d bc 14 0a 3e
       0.32882088 0.017401885 0.035110988 0.13484472
000200 4b 70 7d 3c 47 d8 9b bd 9c 15 ab bd 0b 6f 0e be
       0.015468667 -0.07609611 -0.08353731 -0.13909547
000210 de aa a9 bb d6 ec 57 bd d5 25 6e bd aa 5c 47 3e
       -0.0051778397 -0.0527161 -0.05814155 0.19468942
000220 45 03 cb bc 0e d0 6c 3d 64 76 29 bd e6 4e 94 bc
       -0.024781832 0.057815604 -0.04137267 -0.018104028
000230 fb 1a e2 3d 93 b9 ab bd 98 5c 99 3d 32 26 49 bb
       0.11040302 -0.08385005 0.07488364 -0.0030692932
000240 49 97 bd bd 72 40 0b 3e ec 19 2b 3e 22 0c 13 bd
       -0.09257371 0.13598803 0.16709107 -0.035900243
000250 5b 30 22 3c 3d fd 85 be 76 25 07 3e c6 28 0b 3e
       0.009899224 -0.26169768 0.13197884 0.13589773
000260 67 4b a6 3d 46 01 83 3e b5 ad 40 bd c1 95 3d be
       0.081198506 0.2558691 -0.04704066 -0.18514158
000270 96 68 68 3d 10 9c fd bd 2d ca f0 3d fb 9e d6 3c
       0.056740366 -0.12383282 0.11757312 0.026198855
000280 fe 67 3e be 05 ca 46 bd 9f c3 cd bd 8c ee 39 be
       -0.18594357 -0.048532505 -0.100470774 -0.18157405
000290 d5 97 95 bd ea b3 e0 3d d7 2b 25 be d6 89 1a 3e
       -0.0730435 0.10971816 -0.16130005 0.15091643
0002a0 e4 21 b3 3c bf 13 21 3e 9d aa aa bd fd ba 16 3d
       0.021866746 0.15730189 -0.08333323 0.03679942
0002b0 26 eb 8b 3d 19 08 f6 3b 1f 62 13 be 1c 40 81 3e
       0.068319604 0.0075082895 -0.14392899 0.25244224
0002c0 e5 ff 3a 3d ce fd 66 3d fb 3b bc bd ec f1 98 be
       0.045654196 0.05639439 -0.09191128 -0.29872072
0002d0 0c 95 9b 3d cb 03 eb bd ca 6b 2f be ec 09 09 3e
       0.07596788 -0.11475333 -0.17130962 0.13382691
0002e0 9c 96 a4 3d 4f f0 28 bd 40 f9 fb 3c c1 51 ff bc
       0.08036539 -0.0412448 0.0307585 -0.031166913
0002f0 d0 33 26 3e e2 71 8b bd a4 33 44 be 0e 11 bc 3d
       0.16230702 -0.06808831 -0.19160324 0.091829404
000300 ab 3f 1f be 7a d9 5b bd 0a 72 36 bd a6 b5 a1 bd
       -0.15551631 -0.0536742 -0.04454235 -0.07895975
000310 24 ef 2b 3e 14 00 15 3d 88 20 e0 3d eb 9b 55 bd
       0.16790444 0.036377028 0.10943705 -0.052150648
000320 fd 2a 0d 3d f8 78 dc bd a2 5f b8 3d fc cb 2a bd
       0.034464825 -0.107652605 0.090026155 -0.04169844
000330 4f e6 33 3d eb dc 03 3e 25 16 d9 3d f3 ee 16 3d
       0.04392081 0.12877242 0.10599927 0.036848973
000340 08 58 01 be c3 c2 c3 bd 9b e0 93 3d 5d ca 0a bd
       -0.12631238 -0.09558632 0.072205745 -0.033884395
000350 77 ca 32 3d b1 ae 28 3e f8 92 a4 bd 47 f1 8d bc
       0.043650117 0.1647289 -0.080358446 -0.017326964
000360 ba d4 87 3a a2 4c 91 3d fe af f7 3d 53 b4 c7 3b
       0.001036308 0.07094695 0.12094115 0.0060944944
000370 03 5e eb 3d fc d4 99 bd bc fb 6f be 70 03 1e 3c
       0.11492541 -0.07511327 -0.23435873 0.009644374
000380 55 1f 15 bd ec f5 b4 bc b0 3e 02 bd 62 83 5a bc
       -0.036406834 -0.022089921 -0.031798065 -0.013336988
000390 e7 13 43 3d 1a b9 11 be d0 5a e4 bd 6d 25 81 be
       0.047626402 -0.14230767 -0.111501336 -0.25223866
0003a0 52 1a 87 3d 7d c6 50 3c 2f b8 c1 3c 34 7e 8d 3d
       0.06596817 0.012742636 0.023647396 0.06908837
0003b0 dc 36 b8 bd 8f b2 f4 bd dd ec 11 be a7 92 1f be
       -0.089948386 -0.1194812 -0.14250512 -0.15583287
0003c0 3b 66 0c 3e e3 93 e2 3b 97 2f 1a 3e a1 6c ab 3d
       0.13710873 0.006914602 0.15057217 0.08370329
0003d0 25 16 f0 bd 7a f3 4a bc ae 3d d2 3a a7 62 c5 bc
       -0.11722974 -0.012387151 0.001604011 -0.024094893
0003e0 83 5a 24 bc 2b 44 73 bd 53 72 db bc d2 e6 24 bd
       -0.010031345 -0.059391182 -0.026787912 -0.04025919
0003f0 8d c4 b1 3c 1f c5 b4 bd bb b4 8a 3e e0 dc a4 3c
       0.021700168 -0.0882666 0.2709101 0.020124853

lstm.weight_hh_l1 f4 [256, 64]
000000 dd a3 71 bc 8d e1 80 3d 98 c8 2d bd 31 5d 10 bd
       -0.014748541 0.062930204 -0.04242763 -0.035245124
000010 e6 d3 19 be de d5 8e 3c 02 6a d8 bc 1f 99 21 3d
       -0.15022239 0.017435964 -0.026417736 0.03945267
000020 9f 6e bf bc 36 62 1d be 75 28 b9 bc d2 2b 89 3d
       -0.023368178 -0.15369496 -0.0226023 0.06697811
000030 b7 ab b7 bd bc 92 03 3d 8d 49 62 3e 43 90 0c bd
       -0.08968299 0.03212236 0.2209837 -0.034317266
000040 fa e0 21 be 3b 4b 0d be cb 31 a7 bd 44 0a 10 be
       -0.15808478 -0.1379823 -0.08163794 -0.14066416
000050 34 30 0e be c2 2d c4 bd 80 ed 74 3c b8 b6 e9 3d
       -0.13885576 -0.0957904 0.014949203 0.11411804
000060 b7 e3 81 3e 10 56 36 3e 90 e7 34 3d e0 fa e2 bb
       0.25369045 0.17806268 0.044166148 -0.0069268793
000070 75 72 82 be ac 79 97 3d 55 5a d3 bd f6 b9 46 3c
       -0.2547795 0.07396254 -0.10319964 0.0121292975
000080 d4 83 04 be 28 a1 e9 bd ef bf 07 3e c5 07 12 3e
       -0.12940913 -0.11407691 0.1325681 0.14260776
000090 80 43 4f be a1 69 90 3d b9 cb 14 3e 68 24 01 3d
       -0.20240593 0.07051397 0.14530839 0.03152886
0000a0 a6 7d 59 bd 87 69 ad 3d a4 45 97 3d c1 76 3d 3d
       -0.053098343 0.08467393 0.0738633 0.04625583
0000b0 a7 8f 3a be 1b 04 2b bc 28 cd 52 3c 76 c9 9e bc
       -0.18218862 -0.010437991 0.012866296 -0.019383173
0000c0 0d 4d 93 bd 54 34 47 3d 63 ec 1a 3e bd 14 93 3d
       -0.07192431 0.04863389 0.15129237 0.0718169
0000d0 3b ba 96 bd 59 3d da bd c9 9d 2f 3e 03 90 be 3c
       -0.073597394 -0.106562324 0.17150034 0.02326203
0000e0 32 52 35 3d 6b 60 33 3d 70 be a2 3d 53 fb e3 bd
       0.04426784 0.043793123 0.07946479 -0.11131921
0000f0 57 eb 75 3d 72 d4 b7 3d 23 d9 59 3e 64 1a 79 3e
       0.06003889 0.089760676 0.21274237 0.24326473
000100 57 2c 9d 3c 51 2b 79 3e 54 db 4d bb b7 5f 55 3d
       0.019186182 0.2433293 -0.0031411247 0.052093234
000110 03 f6 04 be c5 4d 28 3e 3e c6 52 3d fe 33 b2 3c
       -0.12984471 0.16435917 0.05145859 0.021753307
000120 c2 62 be bd c5 1a 03 bd 53 ea 76 3e 93 75 9b bd
       -0.0929618 -0.03200795 0.24112825 -0.07590785
000130 3c d5 f4 bd 30 62 5b bd db 8f 5e 3e 5f b1 1f be
       -0.11954734 -0.053560436 0.21734564 -0.15595005
000140 1b 7f 26 bb fe d1 70 be 41 9d 8c bd 62 4c b7 bd
       -0.002540535 -0.23517606 -0.06865931 -0.08950116
000150 23 59 99 bd 21 e2 11 3e 4f 70 c6 3d 57 9b 72 bd
       -0.074877046 0.14246418 0.0968939 -0.059230175
000160 c3 2b 28 3e 4b 84 d5 3c f6 b9 cf bd 79 77 9e 3d
       0.16422944 0.026064059 -0.10142891 0.07737631
000170 1b 11 aa bd d1 e2 63 3e af 81 49 be 6b a3 4d 3d
       -0.08304044 0.22254492 -0.19678377 0.050204676
000180 23 79 28 be 53 ba e6 bc 21 a7 71 3d 96 9c 00 3d
       -0.1645246 -0.028165018 0.058997277 0.031399332
000190 40 33 fe bd 42 ab 1e 3e 52 c2 9c 3c a1 bf 99 bc
       -0.12412119 0.15495017 0.019135628 -0.018768134
0001a0 90 99 f0 bb c6 c5 52 3d 79 4d d5 3d 9e f8 a1 3c
       -0.007342525 0.051458143 0.10415167 0.01977187
0001b0 83 da 05 be a8 cc 05 3e 20 7b 47 be 33 88 a1 bc
       -0.13071637 0.13066351 -0.19480562 -0.019718265
0001c0 89 f3 af bc 19 d6 e5 bc d8 1c f2 3c a1 3c 19 bd
       -0.021478431 -0.028056191 0.02955477 -0.037411336
0001d0 b2 56 08 3e 48 8c 71 3b ff 92 57 3e 3a 7e a5 3d
       0.13314322 0.0036857296 0.21052168 0.080807164
0001e0 6d 5f 0b 3e c5 3a 9b 3d f0 67 09 3e 4c 06 a8 bc
       0.13610621 0.07579569 0.13418555 -0.020510815
0001f0 cb b8 01 3e c0 d7 50 3e f9 66 21 3d 71 80 be bd
       0.12668149 0.20394802 0.039404843 -0.09301842
000200 52 91 1d be ec c7 89 3d 1a ad 33 be a3 e2 39 3d
       -0.15387467 0.06727585 -0.17546502 0.045382153
000210 50 8c 01 3e 78 71 2d 3e ae 1d 12 be 7d 8d 0e 3d
       0.12651181 0.16937816 -0.14269134 0.034802902
000220 d6 fb ab bc 76 a7 10 3d 26 2f b3 bd 0d a1 00 bd
       -0.020994108 0.035315953 -0.08749227 -0.03140359
000230 4a d2 d1 bd ed 43 42 be 12 53 a6 3b de 55 ac 3e
       -0.102451876 -0.18971224 0.0050758207 0.3365926
000240 0d 43 cd 3d 65 2f c6 bc e8 86 63 be 44 97 40 3c
       0.100225545 -0.024192521 -0.22219431 0.011754815
000250 bb 61 81 3d b6 3d 2c be 7f f6 86 3e e7 db 62 bc
       0.06317469 -0.16820416 0.26359937 -0.013846374
000260 c1 fc a8 3d f1 05 50 3e bd 58 23 3e a5 0d 17 3e
       0.08251334 0.20314766 0.1595182 0.14751299
000270 41 d1 45 bd 31 7b c1 3d 40 ea 3f be 06 73 89 bd
       -0.048295263 0.09447325 -0.18741703 -0.06711392
000280 01 31 2f be 29 2f 17 bc b3 d7 1d bd f5 f2 b8 3c
       -0.17108537 -0.009227552 -0.038535785 0.022576788
000290 02 f2 bb 3d cc 64 ff 3b c7 ae 3d 3e b5 8f 98 bc
       0.09177019 0.0077939983 0.18523704 -0.018623212
0002a0 e2 44 22 3d 40 8e 3e 3e f3 83 1d 3d 55 b4 91 bd
       0.039616473 0.18608952 0.038455915 -0.07114474
0002b0 dd b5 da bb 06 8e 50 bc c7 47 94 3e d8 2c ea 3d
       -0.006674512 -0.0127291735 0.28961012 0.114343345
0002c0 6b 99 0a be 45 09 94 bd 25 a9 f4 bd 74 26 43 be
       -0.13535087 -0.072283305 -0.11946324 -0.19057637
0002d0 5e ba 5c be 8b 9c 57 3d 60 48 bc bd 61 c1 03 be
       -0.21555468 0.052639525 -0.09193492 -0.12866737
0002e0 37 7b 15 3e 05 f7 21 bc cc d7 41 3e 8d c3 3d 3d
       0.14597784 -0.009885554 0.18929976 0.04632907
0002f0 53 2c 3b 3d 04 99 c6 bd 91 52 ee 3d db 51 b8 bc
       0.045696568 -0.09697154 0.11636842 -0.02249997
000300 b1 5f fe 3c d9 13 20 bd bf 81 1b 3d 6b 30 c6 bd
       0.031051489 -0.03908143 0.037965532 -0.09677204
000310 5b 53 01 3d db ce f6 bc d6 5a 3e 3e c7 0e 61 3d
       0.031573635 -0.030127933 0.18589339 0.054945733
000320 75 86 8e bd 4f 4a 82 bd 6f 4f ad bc 59 e2 ff 3c
       -0.069592394 -0.063618295 -0.021156041 0.03123586
000330 c9 d7 23 3e a3 0e 10 3e 67 8d 78 be 3c 48 1b bd
       0.16000284 0.14068083 -0.2427269 -0.037910685
000340 c6 28 82 bd ec 33 81 bd cf c9 f4 3c 06 e5 e6 ba
       -0.06355433 -0.063087314 0.029881386 -0.0017615862
000350 dc 3f a8 3d 3a 25 78 bd d1 9b b6 bd 95 27 af bd
       0.08215305 -0.060582377 -0.08916438 -0.085524715
000360 fb 2a 3d bd f3 5d 88 bd 24 d1 c7 bd 90 22 14 be
       -0.046183567 -0.066585444 -0.09756687 -0.1446631
000370 0b 61 88 3d 48 31 ee 3d 5a 6a 0a 3e e8 2c 09 be
       0.066591345 0.116304934 0.13517132 -0.13396037
000380 31 a0 75 bd 02 ed 24 bd 3b cf 95 bd 16 94 80 39
       -0.059967224 -0.04026509 -0.07314917 0.00024524395
000390 ef e6 bd bd 67 2f ee bd b0 32 1e be 60 d1 d6 3c
       -0.09272563 -0.11630135 -0.15449023 0.026222885
0003a0 9a cf 33 bd 48 22 b6 3c 3a d5 f8 bd 0e b5 1e 3c
       -0.043899156 0.022233143 -0.12150045 0.0096867215
0003b0 ca 1a 0c 3e a3 90 f9 3d bc b5 4e be b6 38 3c 3d
       0.13682094 0.121857904 -0.20186514 0.04595252
0003c0 3a a6 1c 3e bf a7 85 3d 06 ad 65 bd ea f4 5a 3d
       0.15297785 0.06526136 -0.05607321 0.053456225
0003d0 14 ac bd 3d 55 a3 02 3e 77 21 bd bd 32 b2 bb 3d
       0.09261337 0.12757619 -0.092348985 0.091648474
0003e0 a4 0b 1c 3e 3a 47 40 bd 13 40 e7 3c 4a 9c e4 bd
       0.15238816 -0.046942927 0.028228795 -0.11162622
0003f0 79 fd 25 be 7e 6f 38 3d 6f c6 30 3e c5 92 24 be
       -0.16209973 0.045028202 0.17263196 -0.16071613

lstm.bias_ih_l1 f4 [256]
000000 d2 a5 9a 3d 6d 58 e2 3d b0 e2 92 3d ef 1b 8f bd
       0.07551159 0.11052022 0.071721435 -0.0698775
000010 14 6b cb 3d 68 4b e4 bb d0 bd 1c bd 00 05 ef 3d
       0.09932533 -0.006966997 -0.038266957 0.116708755
000020 70 4a ab 3b f3 9b 67 bc 91 25 03 3d 93 1e 23 3e
       0.0052273795 -0.014136302 0.032018248 0.15929632
000030 38 32 f0 bd 19 54 6b 3b 98 62 8f 3d b9 9b 32 3d
       -0.117283285 0.003590828 0.07001227 0.04360554
000040 9d 63 a8 3d e2 69 54 3d 71 8f 84 3d 74 29 0c bd
       0.08222125 0.05185879 0.06472672 -0.03421922
000050 3b 33 95 bc 84 b7 d4 bd 2b fb e6 bc 87 ce a1 bd
       -0.018212905 -0.10386565 -0.028195938 -0.0790072
000060 f0 56 89 3e 1d 05 87 3d 4a 9c 10 3e 08 35 60 bc
       0.2682414 0.06592772 0.1412212 -0.013684519
000070 5d fd 14 3d e0 7d e0 3d 38 ea ec 3d d2 0f 05 3b
       0.03637444 0.10961509 0.11568111 0.002030362
000080 f0 df 35 3e 02 91 bb 3d e8 49 96 bd 31 6b cb 3d
       0.17761207 0.091585174 -0.07338315 0.099325545
000090 00 c9 d8 3d 0b 01 9b bc 81 38 92 3d 51 87 5b 3e
       0.10585213 -0.018921396 0.071396835 0.21438338
0000a0 63 07 1c 3e f6 68 09 3e 82 33 d9 3d fe 35 79 3d
       0.15237193 0.13418946 0.106055275 0.060842507
0000b0 b1 73 fe 3b 5f 14 28 3c 34 c1 68 3e 5a 23 7f 3d
       0.0077652563 0.010258763 0.22729951 0.062289573
0000c0 dc 61 ae 3d 72 a4 5f bd 1a b5 c4 3d b7 53 8b bd
       0.08514759 -0.054600187 0.09604855 -0.06803077
0000d0 a8 fb d1 3b ce cc 45 bd 30 5c d4 bd 3b 6f 78 bd
       0.0064081736 -0.04829102 -0.10369146 -0.060652953
0000e0 37 80 b2 3d 2e f3 a6 bd 00 c0 4b 3d 4a 74 e4 bd
       0.08715861 -0.081518516 0.049743652 -0.11154993
0000f0 59 55 37 3c 5b ef 48 3d 1a ba 7b 3e 28 df 28 3e
       0.011189782 0.049056392 0.24582711 0.16491377
000100 7c 9b 89 bd 24 12 27 3e 82 23 23 3d 96 d2 80 3d
       -0.067191094 0.16315514 0.039828785 0.06290166
000110 80 2f b5 3d c4 fe ed 3d e0 8f 02 3e b5 0a f3 3d
       0.088469505 0.11620858 0.12750196 0.118672766
000120 12 ab db bd 9b 41 88 3b 7d 0b eb bd f4 0d 19 3e
       -0.107259884 0.0041582114 -0.114768006 0.14946729
000130 81 70 65 3d fa 2c 12 3e e1 3c 09 bd 5e e9 1b 3e
       0.056015495 0.1427497 -0.033505324 0.15225741
000140 f7 aa a5 bd 6c bf 38 3e 54 59 26 bd 50 72 57 3c
       -0.080892496 0.18041772 -0.040612534 0.013149813
000150 3e da bb 3d 34 e5 b3 ba 17 44 37 3e cf c9 8c bd
       0.09172486 -0.0013724924 0.17897068 -0.068744294
000160 ba 77 d4 3d 07 ee 26 3d 17 b3 1d 3c b2 85 dd 3d
       0.103743985 0.040754344 0.009625218 0.10816516
000170 09 05 a9 bc a9 bd b4 bd cb 0f 12 bd 28 9b 02 be
       -0.020632284 -0.08825237 -0.035659593 -0.127545
000180 1e c4 13 3e 3d 1f 17 be 71 d9 9b bd f2 cf eb 3d
       0.14430282 -0.1475801 -0.07609833 0.11514272
000190 b2 2c cc bd f4 3d 85 3d 83 70 e4 bd 8b ee 98 3d
       -0.099694625 0.06505957 -0.111542724 0.074673735
0001a0 c0 57 22 3e 39 74 a3 3c f2 5d ba 3d d3 ed 24 3e
       0.15853786 0.01995288 0.0909995 0.16106348
0001b0 d6 36 99 3d cf b2 dc 3d 78 41 3f 3e a4 a0 9e bc
       0.07481162 0.107762925 0.18677318 -0.019363709
0001c0 23 23 f6 3d b8 96 ef 3d 0a 0c 40 3d 1d cf 0e 3d
       0.120184205 0.11698669 0.04688648 0.034865487
0001d0 17 2f 63 3c 2c c8 c5 bd 7e 92 15 bd c9 3e 5d bd
       0.013866208 -0.096573204 -0.03651666 -0.054014955
0001e0 65 15 70 3c 01 d5 80 3d b8 fa 6b 3e 8a f4 75 3d
       0.014653538 0.06290627 0.2304486 0.060047664
0001f0 4f c8 39 3b b6 dc c0 3d dc 30 fe 3d 86 95 fd 3d
       0.0028348153 0.09417097 0.12411663 0.12382035
000200 38 d6 58 3d 55 93 89 3c 5c 55 a2 bd 4a 3d 0b 3e
       0.05293867 0.016793886 -0.07926437 0.13597599
000210 d7 94 ff bd 79 34 c6 3d a3 d1 d1 bc 0e cb 4b bd
       -0.12479561 0.09677977 -0.025612658 -0.049754195
000220 6c bd c0 bd 70 61 63 3d 78 ca 9b 3d 02 a2 62 bd
       -0.09411129 0.055512846 0.07606977 -0.055330284
000230 29 ce 65 bd a0 6f 93 3d 15 ed 2a 3c 50 91 0b bd
       -0.056104813 0.07199025 0.010432501 -0.034074128
000240 7d 7e 03 3d be 4e cf bd 92 6b e1 3c 1c 44 f4 bd
       0.03210305 -0.10122441 0.027517114 -0.11927053
000250 03 60 81 bd c9 40 d5 3d fa b7 87 bb 76 a7 ac 3d
       -0.06317141 0.104127474 -0.0041418048 0.08430378
000260 c2 7d 53 3d b9 2e be 3d a6 ec 09 bd e9 51 c9 3d
       0.051633604 0.092862554 -0.03367295 0.09830076
000270 88 f1 0c bd 84 03 03 3e ec f3 10 be f0 de 09 bc
       -0.03441003 0.1279431 -0.14155549 -0.008414969
000280 36 a5 96 bc 12 56 0b 3d 84 aa 00 3e 67 1a f7 3c
       -0.018389326 0.03401763 0.12565047 0.030163957
000290 7f 46 3c be 53 aa 17 3a db 60 26 bd 51 52 9a bd
       -0.18386267 0.0005785573 -0.040619712 -0.07535232
0002a0 a0 00 f5 bd b2 d4 85 3d b9 c2 95 bc 4d f4 cf 3b
       -0.1196301 0.06534709 -0.018281328 0.0063462616
0002b0 05 ff be bd 77 49 21 bc df 58 d1 bd d7 de ab bc
       -0.09325985 -0.009844176 -0.10222029 -0.020980282
0002c0 15 cf 8c 3c 27 19 6b bd 32 de f4 3d c8 70 67 bd
       0.017188588 -0.057397034 0.11956443 -0.05650404
0002d0 a0 ee 49 bd 84 9c f9 bc a7 76 cd 3b ae 54 0a 3d
       -0.049299836 -0.03047014 0.006270248 0.033772163
0002e0 a8 b7 b6 bd 80 9a 44 3c 67 c5 be 3b 93 77 04 3e
       -0.089217484 0.011999726 0.005821872 0.12936239
0002f0 33 05 1b 3d 97 c1 03 3e 6e f8 21 3e 21 43 22 3d
       0.037846755 0.12866817 0.15817425 0.0396148
000300 2f 1d bd 3c 3a c7 e7 bb 06 e2 3c 3a 82 9f 87 bd
       0.023085205 -0.00707331 0.0007205311 -0.066222206
000310 8b dc 5c bc a6 55 a8 bb 29 c0 c3 3d 84 31 17 3d
       -0.013480316 -0.005137163 0.09558136 0.036912456
000320 88 dc 69 bd 93 f8 2f 3d 13 f0 ad bd 4f 15 9b bc
       -0.05709508 0.04296167 -0.08493056 -0.01893106
000330 5a 65 10 be d6 9d 2f 3d 0b c0 37 3d a4 25 c8 3c
       -0.14101163 0.042875133 0.04486088 0.024432011
000340 5d d3 8e 3c 0c e9 3e ba d5 ae 11 3d cb 98 9c bd
       0.01743477 -0.00072826515 0.035567123 -0.076463304
000350 15 cc ac bd 63 c1 15 3e a2 3d 16 3e 09 cb bb 3d
       -0.08437363 0.14624552 0.14671949 0.09169585
000360 72 29 3d 3e 1f 40 9b 3d 36 ec 17 3e b6 3f 0d bd
       0.18472841 0.075805895 0.14836201 -0.034484588
000370 ae a1 e1 bd 09 6a 07 bd fc 81 9e bc 93 cb 97 bd
       -0.11017166 -0.033060107 -0.01934909 -0.074118756
000380 16 f0 98 3b e6 d6 8f bd f8 bb 1a be c1 15 a3 3d
       0.0046672923 -0.070234105 -0.15110767 0.079631336
000390 c5 5b 43 3d 82 3a 0c 3d b0 f0 60 3c da 35 0a 3e
       0.04769494 0.034235485 0.013729259 0.13497105
0003a0 36 a3 97 bd 10 bc 28 bd 27 7e e2 bb 10 49 13 3e
       -0.07404177 -0.041194975 -0.006912011 0.1438334
0003b0 30 10 be bd 5d ab 1c 3e d8 48 de 3d c4 78 53 bd
       -0.09280431 0.15299745 0.108537376 -0.051628843
0003c0 77 30 b7 bd e9 49 8e 3d fb 6a 2f 3d 8e c1 8d 3c
       -0.08944791 0.06947691 0.042826634 0.017304208
0003d0 0c 7a 02 be c2 cb d4 3d 9a 45 6b bd b8 eb 0f 3d
       -0.1274187 0.10390426 -0.057439424 0.03513691
0003e0 74 0e b0 3d 6d c1 6b 3d 50 10 3d 3e 31 be 71 bc
       0.08596507 0.057557512 0.18463254 -0.014754818
0003f0 05 de 86 3d 79 3f b3 bd b5 63 f8 3d fd 59 08 3e
       0.065853156 -0.08752341 0.121283926 0.13315578
