E2NN/Trained_models_h64_s10_20250726_155156/e2nn_model.pth (torch, 128994 bytes, 42 tensors)

inertial_net.net.0.weight f4 [64, 3]
0.0026789277 -0.011516399 -0.024427755 0.0019104615 -0.0055859718 0.019336889 0.01551986 -0.023564609
-0.031853803 0.009220002 -0.006915655 -0.027113313 -0.0019565509 -0.012856909 -0.036802925 -0.0020451734
0.024051469 0.03518524 0.010027511 0.006288167 -0.015271643 -0.023636205 -0.0069930684 0.042652313
-0.03320772 0.027796373 0.044165216 0.004814465 0.0037217117 0.011920742 0.0022024019 0.007294997
-0.0038289907 0.010655955 -0.011615873 -0.048402213 0.0005434044 0.027743086 -0.029401734 -0.030492205
0.017753374 0.010511692 -0.00806153 0.011937447 0.023114303 -0.0270593 0.021365965 -0.0020475013
0.034638375 -0.0033141717 -0.035482615 0.03318061 -0.0296684 -0.022299817 0.01871798 -0.010255029
0.007712572 0.0067996355 -0.040423106 -0.0014963255 0.028580053 0.00087568385 -0.050896548 0.01337503
-0.030748803 -0.006556776 -0.004590635 0.022786433 0.008586569 -9.832602e-05 -0.030128349 0.011420939
0.042395394 -0.017193751 -0.051707152 -0.03300986 0.015546557 0.021193206 0.033320744 -0.029047018
0.004839299 -0.0038419587 0.027018871 -0.012068536 0.008672873 -0.010239116 -0.021926867 -0.001220697
-0.005633393 -0.03227128 -0.009404481 0.026624717 0.017343024 -0.0016337992 -0.009425938 -0.004142666
-0.017702777 0.016288081 0.005173336 -0.009612586 0.025064442 0.018316183 -0.0004515145 0.014041044
-0.0054345685 -0.001761517 0.0026685733 -0.011212428 -0.030095514 0.007519657 0.023117011 0.024551094
-0.047082316 -0.016181877 0.002152307 0.0060700024 -0.035645317 -0.0068365834 0.0137053495 0.029084941
0.007840618 -0.033417422 0.0069754594 -0.0028318828 0.006889429 0.0028273105 0.007809776 0.015373554
-0.011030168 0.012332023 -0.03200286 -0.029959003 0.02440636 -0.016696647 -0.018236099 -0.05074034
0.011132307 0.052427284 -0.03187203 0.01565252 0.044471152 0.011710109 -0.011408171 0.013983841
-0.0024993778 -0.01684184 -0.012359625 0.010753981 -0.0009985272 0.0007849699 0.036834776 -0.03315142
-0.011358623 -0.003631904 0.014077539 0.0060186237 -0.0057760994 0.021792931 0.009018136 -0.0036046822
0.027511168 0.018370137 0.018034292 -0.02995939 -0.03352791 -0.004434529 0.005621464 -0.020114211
-0.017368605 0.0416884 0.042035118 0.034359083 -0.022884808 -0.00437966 0.004461835 0.00842694
0.0078975605 0.017866457 -0.03704595 -0.026373317 -0.014999479 -0.0031631514 0.011194368 0.050410144
-0.033838317 -0.034815934 -0.009054874 -0.0060162055 0.007575407 0.0018465003 0.022061184 -0.015447052
00000000: f390 2f3b 47af 3cbc b71c c8bc 7368 fa3a
00000010: 870a b7bb 6568 9e3c 0347 7e3c 910a c1bc
00000020: 2279 02bd 7e0f 173c b89c e2bb bd1c debc
00000030: 7a39 00bb c9a5 52bc aabe 16bd 5108 06bb
00000040: 9607 c53c 661e 103d 6e4a 243c f80c ce3b
00000050: ea35 7abc b7a0 c1bc 1c26 e5bb 31b4 2e3d
00000060: d104 08bd 38b5 e33c 96e6 343d a9c2 9d3b
00000070: f6e7 733b 374f 433c 2c56 103b df0a ef3b
00000080: ceef 7abb 5196 2e3c 8150 3ebc 6641 46bd
00000090: 4173 0e3a 7845 e33c e8db f0bc caca f9bc
000000a0: 866f 913c 3b39 2c3c 8214 04bc 4895 433c
000000b0: 355a bd3c 77ab ddbc ad07 af3c 5f2f 06bb
000000c0: f8e0 0d3d 9332 59bb 3856 11bd 64e8 073d
000000d0: 250b f3bc 1bae b6bc 7356 993c b604 28bc
000000e0: beb9 fc3b 7acf de3b b392 25bd 5a20 c4ba
000000f0: b720 ea3c 268e 653a e678 50bd f122 5b3c
00000100: eae4 fbbc 39da d6bb 0a6d 96bb 9daa ba3c
00000110: aeae 0c3c 6134 ceb8 bacf f6bc e41e 3b3c
00000120: cba6 2d3d e9d9 8cbc e1ca 53bd 5935 07bd
00000130: fcb6 7e3c 609d ad3c 557b 083d 03f4 edbc
00000140: fb92 9e3b 5fc9 7bbb ae56 dd3c 1cbb 45bc
00000150: aa18 0e3c f7c1 27bc f99f b3bc cbff 9fba
00000160: 5398 b8bb e42e 04bd 4115 1abc 141c da3c
00000170: f512 8e3c 3425 d6ba 406f 1abc 33bf 87bb
00000180: 6a05 91bc 956e 853c 1685 a93b 1c7e 1dbc
00000190: f253 cd3c d20b 963c 40b9 ecb9 680c 663c
000001a0: 7714 b2bb b4e2 e6ba 3be3 2e3b 55b4 37bc
000001b0: de8a f6bc 7467 f63b e35f bd3c 601f c93c
000001c0: 63d9 40bd db8f 84bc b80d 0d3b dfe6 c63b
000001d0: d300 12bd 6b05 e0bb 678c 603c 8b43 ee3c
000001e0: ef75 003c b5e0 08bd 6592 e43b 1c97 39bb
000001f0: b8c0 e13b 664a 393b 26e9 ff3b 5ce1 7b3c
00000200: e1b7 34bc 410c 4a3c 6e15 03bd 956c f5bc
00000210: d9ef c73c 68c7 88bc df63 95bc 1ad5 4fbd
00000220: 4864 363c febd 563d 3f8c 02bd b739 803c
00000230: 6227 363d c2db 3f3c 56e9 3abc 7b1c 653c
00000240: 9acc 23bb e6f7 89bc 0680 4abc 7731 303c
00000250: 03e1 82ba 70c6 4d3a 10e0 163d c9c9 07bd
00000260: 8519 3abc 3d05 6ebb 7aa5 663c e037 c53b
00000270: 6f45 bdbb 1787 b23c cec0 133c 883c 6cbb
00000280: 1a5f e13c f87c 963c a7bc 933c 656d f5bc
00000290: 9054 09bd 874f 91bb 4234 b83b 8fc6 a4bc
000002a0: 9b48 8ebc 75c1 2a3d 042d 2c3d 1cbc 0c3d
000002b0: ec78 bbbc 4083 8fbb 9634 923b 2611 0a3c
000002c0: c564 013c ad5c 923c 7ebd 17bd db0c d8bc
000002d0: 60c0 75bc e04c 4fbb 9568 373c de7a 4e3d
000002e0: 0c9a 0abd 279b 0ebd e55a 14bc 9723 c5bb
000002f0: 1f3b f83b 4506 f23a a8b9 b43c a215 7dbc

inertial_net.net.0.bias f4 [64]
0.010663302 0.00019969455 0.0001729661 0.0075264117 0.015910994 -0.010975582 0.0019786581 -0.0013749119
-0.015158005 -0.005830703 0.0052695856 0.0032473453 0.0011874124 -0.0054717576 0.0029507957 -0.005614919
-0.0044602114 0.022127118 0.0056080003 0.012998482 0.002696072 0.0003086252 -0.009285593 0.008011438
0.016474664 -0.01114418 -0.003333389 -0.0018054395 -0.0052220756 -0.0016460114 0.0013980007 -0.008078383
-0.016628629 -0.0035761155 -0.013348176 -0.0056510856 -0.0061893496 -0.005210436 0.005078272 -0.007049109
0.008346044 -0.0055937385 -0.0068760314 0.008225166 0.0051621147 -0.008281185 -0.017314617 0.0016451499
0.012425519 -0.0066579627 0.017642375 0.0016588047 -0.0067883832 -0.009837582 -0.005412075 0.002774321
0.0023975363 0.0018581669 -0.008278265 0.00052242394 0.0051288293 0.008735661 0.0003535232 0.0006287084
00000000: 21b5 2e3c 1965 5139 3c5e 3539 1ea0 f63b
00000010: c657 823c edd2 33bc 60ac 013b 6336 b4ba
00000020: 4859 78bc 7b0f bfbb 7dac ac3b 6ad1 543b
00000030: f3a2 9b3a 6e4c b3bb 2362 413b 5bfd b7bb
00000040: f726 92bb ee43 b53c 51c3 b73b 96f7 543c
00000050: 95b0 303b f9ce a139 9a22 18bc 6842 033c
00000060: e0f5 863c 1496 36bc fd74 5abb 7fa4 ecba
00000070: f21d abbb fabe d7ba 1f3d b73a 325b 04bc
00000080: c338 88bc 435d 6abb 4fb2 5abc be2c b9bb
00000090: 07d0 cabb 4ebc aabb a267 a63b 36fc e6bb
000000a0: d9bd 083c ae4b b7bb 5550 e1bb d9c2 063c
000000b0: f526 a93b cfad 07bc 62d7 8dbc 12a2 d73a
000000c0: 6794 4b3c 0a2b dabb be86 903c 406c d93a
000000d0: 1671 debb cf2d 21bc c757 b1bb 62d1 353b
000000e0: fc1f 1d3b bc8d f33a 8fa1 07bc 47f3 083a
000000f0: bd0f a83b 0520 0f3c 1559 b939 e8cf 243a

inertial_net.net.1.weight f4 [64]
1.0078808 0.9786898 1.0101959 0.9810416 0.98972243 1.0087104 0.9923812 0.997119
1.0189474 0.9987898 0.99202627 1.0004454 1.001288 1.0125701 0.99999094 1.0007648
0.9826959 1.0299238 0.99286485 1.0150987 1.0121616 0.98581886 0.994 0.996106
1.0670846 1.0268064 0.99071664 1.0052285 1.0039762 1.0013943 1.036685 0.98076975
1.0026091 0.98399794 1.0045545 0.96506757 1.0117644 1.0463159 0.9810699 0.99519044
0.9973656 1.0050414 1.0068263 1.0096072 0.9943365 1.0509075 1.0664485 0.9955015
0.9840629 0.9749767 1.0253824 0.98974264 0.9990745 1.0021706 1.017385 0.98217905
1.09117 0.9993581 0.99648696 1.0254135 0.9921138 1.061293 0.99512905 0.9862789
00000000: 3d02 813f 6a8b 7a3f 194e 813f 8b25 7b3f
00000010: 735e 7d3f 6c1d 813f b20c 7e3f 3143 7f3f
00000020: de6c 823f b0b0 7f3f 6ff5 7d3f 980e 803f
00000030: 352a 803f e69b 813f 68ff 7f3f 1019 803f
00000040: f591 7b3f 8bd4 833f 642c 7e3f c1ee 813f
00000050: 838e 813f a05e 7c3f c976 7e3f ce00 7f3f
00000060: 3a96 883f 646e 833f 9b9f 7d3f 54ab 803f
00000070: 4b82 803f b02d 803f 18b2 843f ba13 7b3f
00000080: 7f55 803f 4ae7 7b3f 3e95 803f ab0e 773f
00000090: 7f81 813f aeed 853f 6627 7b3f cdc4 7e3f
000000a0: 5a53 7f3f 32a5 803f afdf 803f cf3a 813f
000000b0: d68c 7e3f 2384 863f 6281 883f 30d9 7e3f
000000c0: 8ceb 7b3f 1398 793f bb3f 833f c65f 7d3f
000000d0: 59c3 7f3f 2047 803f ac39 823f 1670 7b3f
000000e0: 75ab 8b3f efd5 7f3f c519 7f3f c040 833f
000000f0: 2cfb 7d3f 73d8 873f c7c0 7e3f c67c 7c3f

inertial_net.net.1.bias f4 [64]
0.013563733 -0.0031225884 0.0029599902 -0.0025823845 0.008300918 -0.00012989368 0.002295325 0.01025925
-0.008281137 -0.010491385 0.0054025366 0.0037600745 0.0015575611 0.00844728 0.0138764065 0.010204978
-0.018255157 0.016050212 0.00567792 -0.0058941264 -0.013802846 -0.007862363 -0.012031529 0.0069045476
-0.008492746 0.011119422 -0.014170303 -0.001707419 -0.0045328536 0.0068552084 0.008904074 0.00038258143
-0.009939324 0.0009937587 -0.008658503 -0.0014327342 0.009453732 -0.0070327506 0.0037248281 -0.005793344
0.016070755 -0.0077221747 -0.001570184 -7.918849e-05 -0.0073030405 0.015785791 0.014106915 0.00079187384
0.025047133 -0.006647253 0.0023654485 0.0024767749 -0.003743163 -0.0137982555 -0.0003721928 -0.0002997296
0.005435351 -0.009639164 -0.006739343 0.0065413523 0.0058837906 -0.0124327205 0.0011015562 0.0040342594
00000000: 6b3a 5e3c 57a4 4cbb 65fc 413b 393d 29bb
00000010: 9300 083c 1234 08b9 2a6d 163b 6a16 283c
00000020: 9bad 07bc 0fe4 2bbc c307 b13b 956b 763b
00000030: 1427 cc3a 7666 0a3c de59 633c c832 273c
00000040: d78b 95bc bc7b 833c d80d ba3b 8423 c1bb
00000050: 5525 62bc 24d1 00bc e41f 45bc 8b3f e23b
00000060: 2925 0bbc 3c2e 363c 8f2a 68bc 7acb dfba
00000070: 5588 94bb a8a1 e03b 65e2 113c 3695 c839
00000080: 8cd8 22bc 0241 823a 65dc 0dbc 95ca bbba
00000090: d3e3 1a3c fd72 e6bb 3f1c 743b 18d6 bdbb
000000a0: d1a6 833c 4c0a fdbb a2ce cdba ff11 a6b8
000000b0: 584e efbb 3451 813c b120 673c c195 4f3a
000000c0: a52f cd3c 33d1 d9bb a405 1b3b 6351 223b
000000d0: db4f 75bb 1412 62bc df22 c3b9 0725 9db9
000000e0: 071b b23b 96ed 1dbc b5d5 dcbb d758 d63b
000000f0: d0cc c03b 9cb2 4bbc 1862 903a d231 843b

inertial_net.net.4.weight f4 [64, 64]
0.022709819 -0.00038820304 -0.023560744 -0.01572275 0.00575661 0.0095071625 0.0037081547 0.009652786
0.014398836 0.010309898 0.010395601 -0.018235864 -0.0013397095 0.019940527 -0.0019830537 -0.0041564982
-0.0016941698 -0.012210235 -0.0010593422 0.0041489806 -0.023719031 -0.02977164 0.018985666 -0.007360013
-0.034803733 0.04221264 -0.014497377 0.008307289 0.010340641 0.0063483967 0.027468046 -0.005295954
0.0033194993 -0.011083482 0.00014751595 0.0063806293 0.017005509 -0.020855466 -0.0022036536 0.013228484
-0.010133612 0.02103692 -0.010466954 -0.00097003975 -0.013205846 0.016583117 0.046147678 0.019065065
-0.013899109 0.024274943 -0.0223366 0.018453613 -0.0037611653 0.019725006 -0.014260262 0.0011594538
0.00596399 0.009346479 -0.009783243 0.012681018 -0.010223875 -0.026506234 0.00046554077 -0.009181771
0.01523295 0.012969128 0.004834507 0.00018016384 0.011504825 -0.012256274 0.02789405 -0.012352568
-0.038894422 0.00075251353 0.0047518197 -0.0087648425 -0.0064210366 -0.024081806 -0.0069330907 0.0032962442
0.0072058095 0.03433082 0.025360897 0.008367807 0.028928945 0.011033827 -0.022874888 0.002295084
0.05686893 -0.025154214 0.022531794 0.003620851 0.014947877 0.004824459 -0.059120927 0.012840577
-0.025986893 -0.0038400108 -0.006818278 -0.0070879655 -0.056945875 0.04079773 0.0019498906 -0.002292939
0.0060284757 -0.006036869 0.013967691 0.01901128 0.040190287 -0.07525214 -0.060193524 0.010704597
-0.0123958355 -0.011363054 0.005823616 0.001240583 -0.016520508 -0.020396657 0.037931792 -0.01808264
-0.023860572 -0.00037022613 -0.012625784 0.00064375537 -0.012032135 0.0518694 -0.012331941 -0.00940081
-0.023419559 -0.0060569434 -0.011517384 0.0010661787 -0.0026088264 0.01817734 -9.330801e-05 -0.006654554
0.0054239724 -0.00018551882 -0.0334099 -0.011651529 0.004867265 0.027784204 0.012462689 0.020682383
-0.031194407 -0.0047869333 0.0047809966 -0.004142917 -0.006088292 0.012714741 0.013808693 0.00044662142
-0.026410237 0.03590598 -0.01664257 -0.008073393 -0.008347333 -0.006092907 0.006224399 0.0045894743
0.024715355 0.01589921 -0.0036453127 0.00023199512 0.018076858 -0.008805972 0.0077413428 -0.010289456
-0.007104478 -0.0032647133 0.000513018 -0.0034906804 -0.03953231 0.02321174 0.052064545 -0.018535955
0.0033657025 0.0002706278 -0.039652303 -0.008816927 0.014873105 0.00674295 -0.010705604 -0.0038131843
0.03692237 -5.371588e-06 -0.0123053705 -0.015952682 0.00042921503 -0.025343958 0.0014359817 -0.006753592
-0.025851825 0.009030974 -0.023229934 -0.010909515 -0.013003789 0.021046009 0.030572165 -0.008449899
0.0101822615 -0.00021343681 0.0042804494 -0.01424606 -0.0009809018 0.0014398803 0.005270026 -0.008302563
0.00018335786 -0.0091956565 0.011619193 -0.023289384 -0.005311893 -0.0073580835 0.013071308 -0.0082556065
0.0075473334 0.0030643707 0.0021744287 0.0021532062 -0.01696617 -0.01587569 0.0048665274 -0.010290086
0.01783871 0.010324698 -0.00013281222 -0.0031172957 -0.02618686 -0.008266508 0.004210838 0.032522455
-0.02050916 0.016120866 0.017353075 -0.03096826 -0.030745039 0.015648093 0.008711837 9.579719e-05
-0.015440236 0.0047772294 0.0027226203 -0.0039380207 0.00785037 0.03963972 -0.026051927 -0.019822953
0.052002124 0.0021153342 0.027100785 -0.014980916 0.019305477 -0.034643535 -0.0132179605 0.0057514943
00000000: f109 ba3c bb87 cbb9 7602 c1bc ffcc 80bc
00000010: f2a1 bc3b eec3 1b3c 8304 733b b826 1e3c
00000020: 18e9 6b3c d9ea 283c 5052 2a3c 6163 95bc
00000030: 3199 afba 515a a33c 1ff6 01bb 3c33 88bb
00000040: e80e deba 700d 48bc a0d9 8aba 2cf4 873b
00000050: 6a4e c2bc a8e3 f3bc d487 9b3c 442c f1bb
00000060: 5c8e 0ebd 29e7 2c3d 6886 6dbc 4c1b 083c
00000070: cb6b 293c 3606 d03b ab04 e13c af89 adbb
00000080: f58b 593b 7e97 35bc 83ae 1a39 9914 d13b
00000090: 234f 8b3c 15d9 aabc 2c6b 10bb 49bc 583c
000000a0: 7307 26bc 9e55 ac3c 967d 2bbc 444a 7eba
000000b0: 555d 58bc 51d9 873c 5905 3d3d 572e 9c3c
000000c0: 17b9 63bc 3fdc c63c 3ffb b6bc 082c 973c
000000d0: e27d 76bb 5696 a13c e0a3 69bc d0f8 973a
000000e0: 936d c33b f921 193c e549 20bc 0bc4 4f3c
000000f0: 0a82 27bc 9a23 d9bc d313 f439 246f 16bc
00000100: a093 793c 777c 543c c96a 9e3b 5dea 3c39
00000110: bc7e 3c3c 8ace 48bc 1082 e43c 6d62 4abc
00000120: c24f 1fbd 5444 453a 27b5 9b3b 6a9a 0fbc
00000130: 8f67 d2bb 3547 c5bc fb2e e3bb cd05 583b
00000140: b61e ec3b 799e 0c3d a8c1 cf3c 2019 093c
00000150: 65fc ec3c 3ac7 343c 1e64 bbbc 1f69 163b
00000160: 65ef 683d 3610 cebc 9994 b83c cd4b 6d3b
00000170: f1e7 743c 7f16 9e3b c928 72bd 4961 523c
00000180: 77e2 d4bc b1a8 7bbb dd6b dfbb 2a42 e8bb
00000190: 1440 69bd 851b 273d 7993 ff3a 2245 16bb
000001a0: 858a c53b edd0 c5bb bed8 643c 8bbd 9b3c
000001b0: 929e 243d cb1d 9abd 7c8d 76bd 5662 2f3c
000001c0: e717 4bbc 1a2c 3abc 08d4 be3b 0f9b a23a
000001d0: 0456 87bc e416 a7bc 5e5e 1b3d 0b22 94bc
000001e0: 3f77 c3bc e91a c2b9 60dc 4ebc b1c1 283a
000001f0: 6f22 45bc 0275 543d e90b 4abc db05 1abc
00000200: 60da bfbc 5379 c6bb 69b3 3cbc 05bf 8b3a
00000210: d8f8 2abb a5e8 943c 5bae c3b8 720e dabb
00000220: 94bb b13b d487 42b9 d2d8 08bd 0ee6 3ebc
00000230: 947d 9f3b b39b e33c 4e30 4c3c 1a6e a93c
00000240: 6a8b ffbc b5db 9cbb e8a9 9c3b 4fc1 87bb
00000250: 4c80 c7bb 7d51 503c db3d 623c 8328 ea39
00000260: 485a d8bc 2612 133d 0056 88bc 4446 04bc
00000270: 41c3 08bc 02a7 c7bb 0bf6 cb3b 4d63 963b
00000280: db77 ca3c 0f3f 823c 33e6 6ebb b743 7339
00000290: eb15 943c ec46 10bc 17ab fd3b 1b95 28bc
000002a0: aecc e8bb cdf4 55bb 0e7c 063a e6c3 64bb
000002b0: a2ec 21bd 8c26 be3c a241 553d b7d8 97bc
000002c0: 1e93 5c3b 0ce3 8d39 746a 22bd df74 10bc
000002d0: 53ae 733c f7f3 dc3b 8f66 2fbc 9ee6 79bb
000002e0: e93b 173d 973d b4b6 779c 49bc 33af 82bc
000002f0: 4408 e139 229e cfbc 8d37 bc3a 3c4d ddbb
00000300: 35c7 d3bc a6f6 133c b44c bebc d3bd 32bc
00000310: d80d 55bc ae68 ac3c 7a72 fa3c 7271 0abc
00000320: 80d3 263c 02ce 5fb9 0343 8c3b 4e68 69bc
00000330: 9a91 80ba 5eba bc3a 2fb0 ac3b 7907 08bc
00000340: c043 4039 61a9 16bc 6d5e 3e3c 61c9 bebc
00000350: 630f aebb 141c f1bb 0a29 563c 8642 07bc
00000360: 9f4f f73b 9cd3 483b dc80 0e3b ce1c 0d3b
00000370: a3fc 8abc bc0d 82bc 6477 9f3b c097 28bc
00000380: 7d22 923c ec28 293c 8243 0bb9 8b4b 4cbb
00000390: d385 d6bc 3f70 07bc 12fb 893b 4436 053d
000003a0: d302 a8bc e80f 843c 0928 8e3c 26b1 fdbc
000003b0: 05dd fbbc 6e30 803c 18bc 0e3c bae6 c838
000003c0: 0bf9 7cbc 4e8a 9c3b fd6d 323b 830a 81bb
000003d0: d79e 003c 425d 223d da6a d5bc bf63 a2bc
000003e0: 2e00 553d 6ba1 0a3b 7702 de3c 8472 75bc
000003f0: 8526 9e3c 61e6 0dbd 2590 58bc 0877 bc3b

inertial_net.net.4.bias f4 [64]
0.0052176504 -0.0007686392 0.0008385141 0.0068829632 0.0065832674 0.0053776614 -0.008809201 -0.00037563147
0.0036326188 0.006186133 0.006308415 -0.008681784 0.0012437218 0.0012624764 -0.004609409 0.0014064198
-0.0022317267 0.009319085 0.00047845952 0.013189111 -0.004808884 -0.008785489 -0.009173926 -0.008765975
0.0011841173 -0.001963043 -0.007316414 -0.0061453115 -6.166578e-05 -0.0063633835 0.0017471823 0.004609509
-0.001405366 0.009814242 0.009619331 -0.008049859 0.014358642 0.015788367 0.0003361251 0.0045516016
-0.0019871246 -0.0018610912 0.009021294 -0.017833045 0.0049917777 0.007994377 -0.012332413 0.0007586678
0.0028657822 0.011847636 -0.0020771972 0.0017617726 -0.009951752 -0.0011481412 0.004066168 -0.00163954
0.002523169 0.0016551764 0.0019668718 -0.004853623 -0.0048426245 -0.0042540627 0.008063311 -0.0033376608
00000000: d3f8 aa3b 817e 49ba bbcf 5b3a 7b8a e13b
00000010: 73b8 d73b 1837 b03b 7854 10bc 67f0 c4b9
00000020: 3b11 6e3b 0bb5 ca3b d2b6 ce3b 0b3e 0ebc
00000030: 6104 a33a ae79 a53a 860a 97bb 9e57 b83a
00000040: 2942 12bb 13af 183c c0d9 fa39 2417 583c
00000050: d893 9dbb 03f1 0fbc 3c4e 16bc 2a9f 0fbc
00000060: 6234 9b3a 65a6 00bb 87be efbb 9c5e c9bb
00000070: 9052 81b8 ee83 d0bb b601 e53a 5d0b 973b
00000080: 4234 b8ba eacb 203c 669a 1d3c 8ee3 03bc
00000090: 8240 6b3c 9b56 813c f239 b039 9a25 953b
000000a0: 6b3a 02bb dcef f3ba 0dce 133c 9b16 92bc
000000b0: 1192 a33b d9fa 023c e40d 4abc 56e1 463a
000000c0: d9cf 3b3b 961c 423c 9621 08bb 47eb e63a
000000d0: ac0c 23bc 3a7d 96ba 7d3d 853b d5e5 d6ba
000000e0: c05b 253b 81f2 d83a a2e6 003b 240b 9fbb
000000f0: e1ae 9ebb aa65 8bbb fa1b 043c a8bc 5abb

inertial_net.net.5.weight f4 [64]
1.0111351 1.0558995 1.0023304 1.0120057 1.0105498 0.9910306 1.0102738 0.9753331
1.0419118 1.0091153 1.0263543 1.023265 1.0471178 0.98875797 0.9845836 0.98254967
1.0215316 1.0012015 0.9887525 1.0095307 1.0215719 1.0123982 1.0040561 1.0145547
1.0506545 0.9768317 1.0170825 1.0130762 0.9958093 0.9977779 0.9795862 0.9893826
1.0028217 1.0117421 1.0124499 1.0007111 1.0213122 1.0040507 1.0441043 1.0134776
1.0716293 0.9739194 0.99396497 0.99781257 1.0058784 1.0137511 1.0348562 1.0278054
0.98525584 1.0163696 0.97587204 1.0377197 0.9966905 1.0080284 1.0321537 1.0111152
0.98998606 1.0086356 1.013689 0.9932204 1.0020871 0.99334174 0.9835734 1.0026301
00000000: e06c 813f b727 873f 5d4c 803f 6789 813f
00000010: b259 813f 2eb4 7d3f a750 813f 6eaf 793f
00000020: 5e5d 853f b12a 813f 945f 833f 59fa 823f
00000030: f507 863f 3e1f 7d3f ac0d 7c3f 6088 7b3f
00000040: 8cc1 823f 5f27 803f e21e 7d3f 4d38 813f
00000050: dec2 823f 4496 813f e984 803f eedc 813f
00000060: d97b 863f a411 7a3f c22f 823f 7bac 813f
00000070: 5ced 7e3f 5f6e 7f3f 29c6 7a3f 2e48 7d3f
00000080: 765c 803f c480 813f f597 813f 4d17 803f
00000090: 5cba 823f bc84 803f 36a5 853f a2b9 813f
000000a0: 262b 893f c852 793f 7d74 7e3f a570 7f3f
000000b0: a0c0 803f 99c2 813f 2b76 843f 218f 833f
000000c0: ba39 7c3f 6618 823f c0d2 793f 00d4 843f
000000d0: 1c27 7f3f 1307 813f 9d1d 843f 396c 813f
000000e0: ba6f 7d3f f91a 813f 90c0 813f b143 7e3f
000000f0: 6444 803f a54b 7e3f 77cb 7b3f 2f56 803f

inertial_net.net.5.bias f4 [64]
0.014391454 -0.005409346 0.0074669747 0.023069749 0.008408677 0.015228905 -0.022404028 -0.010318069
0.010240473 0.008063286 0.019630121 -0.011398846 0.009462552 0.0030416285 -0.0061139422 0.010826713
0.010916999 0.016840287 0.002875642 0.021667061 -0.008710291 -0.01446283 -0.018733727 -0.017342787
0.008949481 -0.0042018034 -0.015311962 -0.008699499 0.00015896822 -0.015779722 0.0044412976 0.008431938
-0.0013710172 0.015472204 0.016145913 -0.009612275 0.026772397 0.025734104 -0.00491288 0.008452863
-0.0070585418 0.0012301925 0.018242106 -0.03428064 0.0045905807 0.017979655 -0.02386721 -0.010932182
0.0010620244 0.03083249 -0.0023412877 -0.009373499 -0.013296467 -0.012528192 0.018904382 -3.7045178e-05
0.0005057074 0.011141042 -0.013052127 -0.017361281 -0.015924733 -0.014951031 0.009479794 -0.012494858
00000000: 22ca 6b3c e240 b1bb 86ad f43b c5fc bc3c
00000010: 8cc4 093c a882 793c a788 b7bc 1e0d 29bc
00000020: a8c7 273c df1b 043c 59cf a03c 3ac2 3abc
00000030: d208 1b3c 0f56 473b 7757 c8bb 8762 313c
00000040: 36dd 323c a4f4 893c 4475 3c3b 1f7f b13c
00000050: 9cb5 0ebc 81f5 6cbc 7977 99bc 7612 8ebc
00000060: d8a0 123c 48af 89bb 06df 7abc 5888 0ebc
00000070: b5b0 2639 7a44 81bc 4e88 913b 1c26 0a3c
00000080: b4b3 b3ba 217f 7d3c 6f44 843c ce7c 1dbc
00000090: c951 db3c 54d0 d23c 39fc a0bb e17d 0a3c
000000a0: 574b e7bb 693e a13a 7870 953c db69 0cbd
000000b0: 956c 963b 124a 933c 2b85 c3bc e51c 33bc
000000c0: a033 8b3a 6b94 fc3c 4a70 19bb 4e93 19bc
000000d0: 6dd9 59bc 0c43 4dbc 5ddd 9a3c f560 1bb8
000000e0: 7391 043a eb88 363c 97d8 55bc 3f39 8ebc
000000f0: 9674 82bc 2bf5 74bc 2351 1b3c 3cb7 4cbc

inertial_net.net.8.weight f4 [64, 64]
-0.019688949 0.009802476 0.0130094 -0.012144769 -0.038823336 0.0034321232 0.022316659 0.014719833
-0.029411389 -0.02128465 -0.021750722 0.053276975 -0.019821009 -0.011545564 0.016706316 0.0007849965
-0.0032031504 -0.009241772 0.01166163 0.012986716 0.033506118 -0.0073404596 0.006037701 0.03319235
-0.02513498 -0.009326277 0.01423611 0.005379757 -0.008914509 0.016254114 0.017276946 0.005230313
0.0058649457 0.007840098 -0.021869434 0.0044458113 -7.099552e-05 -0.014684622 0.007893651 -0.00010633961
0.031019276 0.0034292652 -0.0029979707 -0.0033734064 -0.023467321 -0.014515311 -0.00034957915 0.010579636
-0.022157036 0.0029548756 -0.018521389 0.022393234 0.012581427 0.0058054663 -0.005146718 0.027926272
-0.020349648 -0.024655664 0.0074664857 0.027433293 0.007997825 -0.010646928 -0.00028817274 -0.007872316
0.017047666 -0.03228121 0.014878199 0.016587626 0.014964896 -0.0027497201 -0.013164212 0.015682427
0.02387049 0.015094791 0.0029009276 -0.02449314 0.02661359 0.021453578 -0.012036484 -0.026991166
0.0060334476 -0.013531106 0.019812457 -0.0013664565 -0.019411622 -0.022433728 -0.01306112 -0.029276611
0.02980411 -0.014681776 -0.019006036 -0.024303358 0.043754824 0.007888833 -0.0012424698 -0.018311866
-0.040795412 0.034516227 0.0016258623 -0.034691606 0.021064155 0.012959356 -0.035229374 0.024409471
-0.031929992 -0.012818641 0.010941468 0.040449288 0.024812255 0.014025624 -0.041808307 -0.0036164622
-0.008563701 0.007034229 0.031115375 0.0040421607 -0.041221127 -0.004722421 0.038217828 -0.0071546645
0.025927179 -0.00043370458 -0.016610838 -0.0042185215 -0.026690295 -0.0107264845 -0.011698389 -0.011651589
-0.008957903 0.03460973 -0.009142093 -0.014244266 -0.028095413 -0.018083198 0.01286262 0.003567828
-0.051908113 -0.013182715 -0.03683632 0.031892978 -0.028127713 -0.019602688 0.013324389 -0.0073031397
-0.026482001 -0.03225154 0.017734487 0.002754435 0.01606272 0.011144723 0.009688628 0.035357956
-0.031493995 -0.008347589 0.008938669 0.013677571 -0.0055756457 0.024511306 0.00050813897 0.0064220536
0.0035066735 -0.001250727 -0.020912644 0.021520797 0.0054570856 -0.023923779 0.0076789386 -0.0050886236
0.057581097 0.010624149 -0.037682775 -0.008494307 -0.008392331 -0.043434806 0.006882436 0.0064370967
0.012330596 -0.013849819 0.007624469 0.03783581 0.016979037 -0.008403979 0.0021124615 0.020788431
-0.009037781 0.014027133 -0.012594818 0.024130791 0.0056504947 0.012189084 -0.0043689045 0.032771554
0.026401749 -0.016181009 0.019205276 0.022319999 -0.010375493 0.013008147 -0.019186571 0.009148316
0.042176314 0.012306428 0.003850576 -0.010426645 0.024197197 0.0005879007 0.0040925727 0.024699463
0.030372184 0.007866037 9.4693576e-05 -0.00048176947 -0.008401354 0.005699291 -0.011417267 -0.005279768
0.0077327187 -0.011097593 -0.030515091 -0.0006491737 0.0023296573 -0.010031489 0.014063188 0.019896243
0.0111108245 -0.0010209684 -0.003280683 -0.013182683 0.031054279 0.019746065 -0.0030879227 -0.0010825355
-0.029079007 -0.0003408645 -0.00058297993 0.01777145 0.004878052 0.018203706 0.0005799068 -0.04616038
0.009109503 0.019871116 -0.0006349085 -0.01637748 -0.021009803 -0.01890856 -0.0064360686 -0.008362923
-0.010427103 -0.0009877888 0.013695953 -0.017220436 -0.022089614 -0.027178977 -0.005388436 0.004471153
00000000: b84a a1bc 909a 203c 6125 553c dafa 46bc
00000010: 3805 1fbd 79ed 603b 6dd1 b63c 742b 713c
00000020: 27f0 f0bc 255d aebc 922e b2bc f538 5a3d
00000030: ab5f a2bc 9b29 3dbc afdb 883c 39c8 4d3a
00000040: f2eb 51bb cd6a 17bc 6c10 3f3c 3cc6 543c
00000050: b63d 093d 3d88 f0bb e8d7 c53b b4f4 073d
00000060: e0e7 cdbc 3ecd 18bc 933e 693c ac48 b03b
00000070: 290e 12bc 5927 853c 6288 8d3c 0c63 ab3b
00000080: bb2e c03b c173 003c 8727 b3bc 2bae 913b
00000090: 6ee3 94b8 c597 70bc 5f54 013c a502 dfb8
000000a0: 231c fe3c 86bd 603b 9a79 44bb 5e14 5dbb
000000b0: 8a3e c0bc a1d1 6dbc b847 b7b9 3656 2d3c
000000c0: ac82 b5bc 96a6 413b 2bba 97bc 0472 b73c
000000d0: 5422 4e3c c83b be3b cda5 a8bb a3c5 e43c
000000e0: 4eb4 a6bc adfa c9bc 6ca9 f43b c9bb e03c
000000f0: 4f09 033c 7470 2ebc e415 97b9 e3fa 00bc
00000100: 8ca7 8b3c 4d39 04bd b1c3 733c c6e2 873c
00000110: 532f 753c a634 34bb b5ae 57bc 6f78 803c
00000120: 0c8c c33c 2450 773c 7d1d 3e3b d6a5 c8bc
00000130: be04 da3c 6abf af3c ac34 45bc 941c ddbc
00000140: 3ab4 c53b 92b1 5dbc bc4d a23c ac1a b3ba
00000150: 1f05 9fbc f0c6 b7bc 4ffe 55bc 81d5 efbc
00000160: c027 f43c d58b 70bc 8cb2 9bbc d617 c7bc
00000170: 4238 333d 2a40 013c 5eda a2ba c402 96bc
00000180: 1719 27bd e360 0d3d e31a d53a c918 0ebd
00000190: bc8e ac3c 7b53 543c ad4c 10bd 5ff6 c73c
000001a0: 06c9 02bd 4705 52bc d843 333c 27ae 253d
000001b0: 1243 cb3c bbcb 653c 303f 2bbd 2b02 6dbb
000001c0: c44e 0cbc 647f e63b ace5 fe3c 1a74 843b
000001d0: 7cd7 28bd 8abe 9abb 4c8a 1c3d ad71 eabb
000001e0: 3c65 d43c d862 e3b9 7413 88bc 863b 8abb
000001f0: 9ba5 dabc 23be 2fbc 9aaa 3fbc 4ee6 3ebc
00000200: 2bc4 12bc efc2 0d3d b8c8 15bc c860 69bc
00000210: 5a28 e6bc 3723 94bc bdbd 523c 39d2 693b
00000220: 9a9d 54bd 50fc 57bc aee1 16bd 36a2 023d
00000230: 176c e6bc d195 a0bc 8a4e 5a3c 2d4f efbb
00000240: c8f0 d8bc 311a 04bd ea47 913c c083 343b
00000250: f795 833c 5b98 363c 0dbd 1e3c 81d3 103d
00000260: d9ff 00bd 53c4 08bc 7f73 123c e417 603c
00000270: e8b3 b6bb efcb c83c a134 053a 1770 d23b
00000280: 38d0 653b 6fef a3ba fe50 abbc 624c b03c
00000290: 5ad1 b23b cdfb c3bc 9b9f fb3b 78be a6bb
000002a0: 28da 6b3d e910 2e3c 4159 1abd b52b 0bbc
000002b0: fd7f 09bc b2e8 31bd 0f86 e13b 48ee d23b
000002c0: 4506 4a3c 5aea 62bc afd6 f93b b9f9 1a3d
000002d0: 9f17 8b3c d8b0 09bc 3971 0a3b 804c aa3c
000002e0: 3313 14bc 0fd2 653c 7f5a 4ebc f0ad c53c
000002f0: c927 b93b b9b4 473c 0729 8fbb 773b 063d
00000300: 7b48 d83c 098e 84bc 6254 9d3c 6ed8 b63c
00000310: f9fd 29bc 1f20 553c 282d 9dbc d2e2 153c
00000320: 12c1 2c3d e6a0 493c f259 7c3b 85d4 2abc
00000330: 3339 c63c 591d 1a3a fd1a 863b 8756 ca3c
00000340: 16cf f83c 8de0 003c 3a96 c638 0196 fcb9
00000350: d5a5 09bc 1ec1 ba3b 7d0f 3bbc e701 adbb
00000360: bf62 fd3b aed2 35bc c9fa f9bc 4f2d 2aba
00000370: 2aad 183b 1d5b 24bc 4969 663c 72fd a23c
00000380: 2d0a 363c 04d2 85ba ba00 57bb 2efc 57bc
00000390: 8b65 fe3c 80c2 a13c bf5e 4abb dde3 8dba
000003a0: 1937 eebc 0fb6 b2b9 1fd3 18ba 6f95 913c
000003b0: 11d8 9f3b f01f 953c e304 183a ab12 3dbd
000003c0: 0640 153c c0c8 a23c fd6f 26ba 112a 86bc
000003d0: c01c acbc 20e6 9abc a8e5 d2bb a404 09bc
000003e0: 71d6 2abc b178 81ba fe64 603c df11 8dbc
000003f0: 47f5 b4bc 72a6 debc 7a91 b0bb c082 923b

inertial_net.net.8.bias f4 [64]
-0.003618044 0.019820072 -0.008296621 0.0010815908 -0.016801238 -0.014484647 -0.0028087357 -0.003939183
0.0074103023 0.00078486704 0.003826885 0.011012129 0.019282643 -0.0052239415 0.0031200543 -0.02245881
-0.020091454 0.012667292 0.0031518762 -0.0088974545 0.026860507 -0.012114589 0.00052050065 0.014985998
0.010149826 -0.00903559 -0.007440053 0.0077899112 0.0038707515 0.005689541 -0.012154243 0.0003545806
0.0069209062 -0.009255598 -0.0069042817 -0.015268641 -0.0035395052 -0.001029916 0.018004693 0.0006263088
0.005832051 -0.008378776 0.0036513046 -0.00044720227 -0.009588133 0.0034922159 -0.0044457493 0.0013227154
0.0028479355 0.004511549 -0.0044648345 0.0067738774 -0.003482899 -0.0023893504 -0.0013969924 -0.021776702
0.020031752 0.013986833 0.023345852 -0.021182228 -0.0048737656 0.011524693 -0.0060751047 -0.010263616
00000000: b51c 6dbb b45d a23c 8dee 07bc 2ac4 8d3a
00000010: c0a2 89bc 0351 6dbc c412 38bb 4314 81bb
00000020: 1fd2 f23b 89bf 4d3a 7acc 7a3b 376c 343c
00000030: a2f6 9d3c 992d abbb d379 4c3b 8afb b7bc
00000040: d596 a4bc 798a 4f3c b58f 4e3b a1c6 11bc
00000050: 910a dc3c 457c 46bc 3572 083a d587 753c
00000060: 754b 263c 030a 14bc b0cb f3bb 8342 ff3b
00000070: 6fac 7d3b 546f ba3b 9722 47bc 01e7 b939
00000080: c5c8 e23b cba4 17bc 503d e2bb 5229 7abc
00000090: 0bf7 67bb 3ffe 86ba 947e 933c df2e 243a
000000a0: ca1a bf3b 2247 09bc ba4a 6f3b 7976 eab9
000000b0: 8b17 1dbc a9dd 643b a6ad 91bb f75e ad3a
000000c0: 6ea4 3a3b 9ed5 933b bf4d 92bb 67f7 dd3b
000000d0: 5941 64bb a696 1cbb 491b b7ba 0e65 b2bc
000000e0: a119 a43c 0829 653c cd3f bf3c 5a86 adbc
000000f0: 1cb4 9fbb 11d2 3c3c ac11 c7bb ba28 28bc

inertial_net.net.9.weight f4 [64]
1.0629197 1.0880948 1.1016854 1.0863371 1.0766345 1.0865176 1.0538834 1.0663753
1.0700656 1.087424 1.0903113 1.0348041 1.1115571 1.076264 1.0156049 1.0705245
1.0987487 1.1045833 1.0792704 1.0768101 1.108269 1.0946704 1.0918362 1.063377
1.0385928 1.0883098 1.0945876 1.1065663 1.0815343 1.0499791 1.013239 1.0196035
1.0578538 1.0717124 1.0967865 1.0821418 1.0144317 1.0431273 1.0844873 1.0805318
1.0507768 1.0767789 1.0433301 1.0268844 1.1033264 1.0732338 1.0244042 1.0971061
1.0483272 1.0708344 1.0633672 1.0667548 1.0410262 1.0450253 1.0652747 1.0978687
1.0600076 1.0854357 1.0994275 1.1040264 1.0900962 1.0947227 1.0543284 1.0415933
00000000: c10d 883f b146 8b3f 0704 8d3f 180d 8b3f
00000010: 29cf 893f 0213 8b3f a7e5 863f fc7e 883f
00000020: e9f7 883f b630 8b3f 528f 8b3f 7674 843f
00000030: 8147 8e3f 05c3 893f 57ff 813f f206 893f
00000040: cca3 8c3f fc62 8d3f 8825 8a3f ead4 893f
00000050: c2db 8d3f 291e 8c3f 4ac1 8b3f bd1c 883f
00000060: 9cf0 843f bc4d 8b3f 721b 8c3f f7a3 8d3f
00000070: b76f 8a3f b765 863f d1b1 813f 5e82 823f
00000080: c167 873f df2d 893f 8063 8c3f 9f83 8a3f
00000090: e6d8 813f 3285 853f 7bd0 8a3f de4e 8a3f
000000a0: db7f 863f e4d3 893f d78b 853f f370 833f
000000b0: cd39 8d3f ba5f 893f ad1f 833f f96d 8c3f
000000c0: 962f 863f 1a11 893f 6b1c 883f 6c8b 883f
000000d0: 5940 853f 64c3 853f ec5a 883f f686 8c3f
000000e0: 54ae 873f 8fef 8a3f 0aba 8c3f bd50 8d3f
000000f0: 4688 8b3f e01f 8c3f 3cf4 863f ee52 853f

inertial_net.net.9.bias f4 [64]
-0.061125394 0.08634811 0.06243097 -0.06459084 -0.075333215 0.060598254 -0.046480536 0.05078576
0.059682142 0.06364138 -0.05535683 -0.018507956 0.102795295 -0.06637367 0.022185914 -0.06839665
-0.09055748 -0.07515915 0.06807856 -0.07158189 0.11586541 0.06507506 0.059798613 0.06131577
0.04204573 0.05051411 0.056415766 -0.06969476 -0.06284875 0.04853868 -0.028290253 0.026747175
-0.04660825 -0.053167902 0.07273274 0.030670704 -0.016602395 0.042684257 0.07741744 0.0717399
-0.02130024 -0.063418604 -0.026633058 0.0106180245 0.0766425 -0.04374207 -0.029948307 -0.055197466
-0.028593361 0.04864565 0.05255556 -0.045421895 -0.034320462 -0.022002826 0.04597632 -0.09578413
0.068603806 0.092327476 0.11492669 -0.09210373 0.06225917 0.09183844 -0.04773184 -0.043272976
00000000: 9f5e 7abd 47d7 b03d 9eb7 7f3d 3448 84bd
00000010: 4d48 9abd e035 783d 6062 3ebd bb04 503d
00000020: 4375 743d 6956 823d d8bd 62bd ff9d 97bc
00000030: 5786 d23d ebee 87bd 3cbf b53c 8b13 8cbd
00000040: 3376 b9bd 0aed 99bd c66c 8b3d 8799 92bd
00000050: d84a ed3d 1346 853d 64ef 743d 3f26 7b3d
00000060: 2538 2c3d e2e7 4e3d 3814 673d 20bc 8ebd
00000070: d8b6 80bd 7fd0 463d f6c0 e7bc e41c db3c
00000080: 4be8 3ebd 96c6 59bd e7f4 943d 2141 fb3c
00000090: bf01 88bc b0d5 2e3d 098d 9e3d 5eec 923d
000000a0: d77d aebc 9de1 81bd 922d dabc 39f7 2d3c
000000b0: bef6 9c3d e32a 33bd 2756 f5bc bd16 62bd
000000c0: a03c eabc a940 473d 8044 573d 4f0c 3abd
000000d0: 9d93 0cbd 453f b4bc aa51 3c3d 782a c4bd
000000e0: 2780 8c3d 3016 bd3d af5e eb3d e1a0 bcbd
000000f0: 7903 7f3d cb15 bc3d 7682 43bd 013f 31bd

inertial_net.net.11.weight f4 [9, 64]
0.06469717 -0.067413576 -0.10084986 0.06028511 0.056120314 -0.06696022 0.07111102 -0.07936846
-0.09925389 -0.09052943 0.082919344 0.039646823 -0.09234522 0.05756206 -0.05658504 0.07326727
0.0902776 0.08936005 -0.039061923 0.09268313 -0.06920155 -0.08140222 -0.09824626 -0.09011362
-0.07809409 -0.08922233 -0.08406264 0.07549308 0.086421914 -0.07817455 0.0454933 -0.03792529
0.050360475 0.07621571 -0.10397523 -0.079135224 0.03713304 -0.04736673 -0.10086848 -0.06537763
0.07518074 0.10303547 0.07423702 -0.07245162 -0.061144464 0.11373169 0.0479166 0.09273051
0.034490068 -0.08652703 -0.07141034 0.06920432 0.10004028 0.0866229 -0.073905945 0.078799136
-0.093956105 -0.07204313 -0.055477012 0.0838499 -0.076911174 -0.08452672 0.09252722 0.07570155
-0.013622271 0.014283122 -0.000664152 -0.029421868 -0.019509092 0.0223025 0.00092737767 0.0028715127
0.00810927 0.007725074 -0.009475441 -0.026930653 0.025004841 -0.027955603 -0.018650947 0.0051111854
0.0016151336 -0.01613876 0.05691188 0.012818155 0.022761617 0.026966194 -0.0005947954 0.03974894
0.028853733 0.0017328426 0.050357517 -0.02787424 -0.0025034999 -0.009547936 -0.002061274 0.008087976
-0.017854339 -0.01705798 0.007768948 0.018730707 -0.0076966956 0.019506643 0.01884774 0.04074939
-0.052648205 0.008915327 -0.0090203 0.023630416 0.03356909 -0.008830161 -0.013778637 -0.011943274
-0.037546795 -0.003568047 0.0077383462 -0.016309328 -0.04597652 -0.02472296 0.018643701 -0.01625829
0.010227049 0.009129685 0.0387433 -0.008782696 0.011121015 0.0039138533 -0.0150196515 -0.018439017
-0.03438324 0.03092433 0.021166543 -0.03082149 -0.022970969 0.025173513 -0.037733465 0.011964746
0.02363604 0.05031968 -0.034637585 -0.03547742 0.029098041 -0.021765372 0.031460803 -0.021325914
-0.015505689 -0.03568089 0.03660433 -0.027989257 0.01600539 0.025793627 0.014896938 0.0188773
0.0078068944 0.0097340895 0.045154803 -0.026490705 -0.039146453 0.024538219 0.0010108851 0.030562386
-0.030160602 -0.01660864 0.039478946 0.00179183 -0.04922591 0.033778466 0.012367382 0.026828596
-0.021499878 -0.027022554 -0.058662727 -0.021430839 0.034958005 -0.009915552 -0.029492192 -0.044456877
-0.038441077 0.009549405 0.032039728 -0.042575557 -0.024777582 -0.0051718443 0.034672257 -0.021259237
0.00081224047 0.028198954 0.030327657 -0.022675395 0.03504904 0.011208845 -0.015377401 -0.0061839656
0.022451589 -0.015140597 -0.03553753 0.029122684 0.03535562 -0.010180273 0.034370735 -0.026969047
-0.03437343 -0.020154124 0.010870031 0.010108833 -0.01325884 0.05127617 -0.029827926 0.044536624
0.03529057 0.032286886 -0.031996977 0.037047718 -0.00394303 -0.03542353 -0.031773277 -0.00095293776
-0.039103817 -0.014731506 -0.03174652 0.018986065 0.027358152 -0.021352336 -0.002216214 -0.021696564
0.020142373 -0.00039785932 -0.041181576 -0.023840994 -0.0077627893 0.0045057693 0.00800114 -0.029080085
0.043963194 0.029796118 0.03963129 -0.014798661 -0.026859595 0.0014923409 0.0080821365 0.027541216
0.010964309 -0.015925651 0.0045698923 0.007517799 0.016922817 0.019838698 -0.013382148 0.005781577
-0.009356412 -0.03018751 -0.01512857 0.021360394 -0.044929966 -0.02849119 0.04535952 0.015814008
00000000: f37f 843d 2110 8abd 5f8a cebd 85ed 763d
00000010: 6ade 653d 7122 89bd a8a2 913d ee8b a2bd
00000020: a045 cbbd 7e67 b9bd 9ed1 a93d b564 223d
00000030: 7e1f bdbd 32c6 6b3d b7c5 67bd 270d 963d
00000040: 76e3 b83d 6702 b73d 65ff 1fbd a7d0 bd3d
00000050: 8bb9 8dbd 35b6 a6bd 5635 c9bd 7d8d b8bd
00000060: cbef 9fbd 32ba b6bd 0929 acbd 1e9c 9a3d
00000070: f9fd b03d fa19 a0bd 2f57 3a3d 8d57 1bbd
00000080: c946 4e3d fb16 9c3d f7f0 d4bd a611 a2bd
00000090: d118 183d 9e03 42bd 2294 cebd b5e4 85bd
000000a0: 5cf8 993d 4304 d33d 9409 983d 8461 94bd
000000b0: 9e72 7abd 29ec e83d 3244 443d 7ee9 bd3d
000000c0: 7545 0d3d 1535 b1bd 963f 92bd ffba 8d3d
000000d0: ebe1 cc3d 5967 b13d 005c 97bd 7161 a13d
000000e0: 0f6c c0bd 598b 93bd dd3b 63bd 7fb9 ab3d
000000f0: 9b83 9dbd 581c adbd e97e bd3d 6a09 9b3d
00000100: f22f 5fbc c103 6a3c 7c1a 2eba 2106 f1bc
00000110: 88d1 9fbc bcb3 b63c 431b 733a fd2f 3c3b
00000120: bedc 043c 9e22 fd3b e13e 1bbc ac9d dcbc
00000130: f4d6 cc3c 2603 e5bc dfc9 98bc bb7b a73b
00000140: e4b2 d33a 6f35 84bc 6e1c 693d 3d03 523c
00000150: 9276 ba3c 35e8 dc3c 0bec 1bba c9cf 223d
00000160: aa5e ec3c 8d20 e33a af43 4e3d 8558 e4bc
00000170: c211 24bb f26e 1cbc 7016 07bb 6e83 043c
00000180: 4343 92bc 2dbd 8bbc a992 fe3b 2471 993c
00000190: 9034 fcbb 65cc 9f3c 9366 9a3c d5e8 263d
000001a0: a5a5 57bd 9711 123c e1c9 13bc 9394 c13c
000001b0: be7f 093d 61ac 10bc cbbf 61bc b9ad 43bc
000001c0: abca 19bd e5d5 69bb f491 fd3b 249b 85bc
000001d0: e051 3cbd ce87 cabc adba 983c 1b30 85bc
000001e0: 5a8f 273c ad94 153c 4bb1 1e3d 4ce5 0fbc
000001f0: eb34 363c c83f 803b fc14 76bc 6c0d 97bc
00000200: 71d5 0cbd 0555 fd3c 7565 ad3c 597d fcbc
00000210: 9d2d bcbc af38 ce3c 688e 1abd c807 443c
00000220: 5ea0 c13c 021c 4e3d 24e0 0dbd c550 11bd
00000230: 045f ee3c 4b4d b2bc 0bdd 003d afb3 aebc
00000240: 930b 7ebc 2026 12bd 6cee 153d ba49 e5bc
00000250: bc1d 833c 284d d33c 4912 743c 91a4 9a3c
00000260: fad0 ff3b bb7b 1f3c 3ef4 383d 0903 d9bc
00000270: 0858 20bd 6004 c93c ad7f 843a f85d fa3c
00000280: 5e13 f7bc d80e 88bc adb4 213d d6db ea3a
00000290: 1ca1 49bd 4a5b 0a3d 8fa0 4a3c a5c7 db3c
000002a0: 8320 b0bc 675e ddbc 5448 70bd ba8f afbc
000002b0: 2030 0f3d d774 22bc 9c99 f1bc 6a18 36bd
000002c0: 6474 1dbd 1c75 1c3c 173c 033d b563 2ebd
000002d0: 5bfa cabc 9378 a9bb 7f04 0e3d da27 aebc
000002e0: 89ec 543a 7e01 e73c b571 f83c c0c1 b9bc
000002f0: 958f 0f3d 4ea5 373c 7ff1 7bbc dda2 cabb
00000300: 65ec b73c 4410 78bc cd8f 11bd b292 ee3c
00000310: 0ed1 103d 29cb 26bc 54c8 0c3d 31ee dcbc
00000320: 27cb 0cbd 431a a5bc 3718 323c 859f 253c
00000330: 9b3b 59bc f606 523d b259 f4bc 096c 363d
00000340: d88c 103d 413f 043d 430f 03bd 59bf 173d
00000350: 8834 81bb 4318 11bd b224 02bd 92ce 79ba
00000360: 532b 20bd 6a5c 71bc a408 02bd aa88 9b3c
00000370: 341e e03c 18eb aebc e73d 11bb febc b1bc
00000380: 9e01 a53c c697 d0b9 03ae 28bd 304e c3bc
00000390: ff5e febb 22a5 933b 3717 033c 5c39 eebc
000003a0: c012 343d fd16 f43c 6b54 223d 1576 72bc
000003b0: a708 dcbc a79a c33a f06a 043c 1e9e e13c
000003c0: a5a3 333c 8376 82bc 09bf 953b de57 f63b
000003d0: b8a1 8a3c c484 a23c cc40 5bbc 6273 bd3b
000003e0: a34b 19bc cc4b f7bc d2dd 77bc fefb ae3c
000003f0: 7c08 38bd 5b66 e9bc e7ca 393d 618c 813c

inertial_net.net.11.bias f4 [9]
-0.07533251 0.015049042 0.013744323 -0.036613204 0.0032988763 0.0010799491 -0.028929269 0.009244382
-0.005380938
00000000: ee47 9abd 4290 763c de2f 613c baf7 15bd
00000010: f631 583b 148d 8d3a 13fd ecbc c075 173c
00000020: 9452 b0bb

coriolis_net.net.0.weight f4 [64, 6]
-0.011979673 0.019598886 -0.041311488 0.024241991 -0.009392716 -0.07769968 0.0031167758 -0.021162106
0.011368675 -0.017910507 -0.014099586 0.019761752 -0.016053976 -0.004971028 0.0008674148 0.04736193
-0.02347537 -0.015169429 0.018064095 -0.028522797 0.010067207 0.0277139 -0.03580956 -0.046762284
0.033475243 0.021732979 0.013326652 -0.002869482 0.0016587827 -0.003830289 0.004328675 -0.017100275
-0.004458068 0.030907398 0.00234595 0.019545047 0.0015757058 0.014470762 0.028949225 -0.00066533376
-0.043836635 0.067904994 0.044299763 -0.0043865605 -0.0119332345 0.058348384 -0.03503318 0.019226035
0.008814707 -0.014686748 -0.00057903596 0.04126973 -0.013457948 -0.038786646 0.0002318598 -0.009052405
0.0011407927 0.026655316 0.024594171 -0.0015101762 0.0012351858 -0.019550595 0.01880591 -0.046428747
-0.0013429997 0.028814651 -0.020506853 0.022209002 -0.0027540491 -0.029463844 0.008044733 0.034426987
-0.02068464 -0.007784287 0.019649807 0.009133685 0.0009831289 0.032628965 -0.027859574 -0.020133879
0.003188826 -0.02963981 -0.008032813 0.0015832555 -0.023252472 -0.015478994 0.00016217763 -0.029582988
-0.0066188225 0.004086814 0.031555075 -0.004078956 0.009330404 -0.04250186 0.00436378 -0.0061582895
0.0062540383 -0.0005201818 0.028316367 -0.052584138 0.024003962 0.020477867 0.015050816 -0.018922001
-0.007595985 -0.0005565685 -0.026053164 -0.01222915 0.02748023 0.0020689024 0.016261874 -0.0062813
-0.012935849 -0.037808463 -0.00073169847 0.01139295 0.015155263 -0.021951254 0.03513723 0.033668138
0.03624624 0.008825175 -0.007059912 -0.0021797642 -0.0018395026 -0.0177757 -0.009437024 -0.0017980785
0.002856991 -0.047507912 0.042342905 -0.001004353 -0.002373967 -0.035624146 0.0013831479 -0.032450873
0.01699243 0.038871236 0.0016580198 0.012222325 0.024379892 -0.06921768 0.0386202 0.019538738
0.012718103 -0.0058586034 -0.01850544 0.02841893 -0.0085543925 -0.018077372 0.0059600784 -0.0043611913
0.0034473827 0.06807312 0.0010057745 -0.027818607 0.011574085 -0.0043895096 -0.0040800553 0.075267255
-0.02711723 0.01605608 0.010023591 -0.0067545245 0.015412726 -0.028846677 -0.014659548 0.030070469
-0.0003443731 0.010011667 -0.019077035 -0.025507031 -0.030859342 0.009884289 0.011659335 0.003733667
-0.00034927516 0.051310167 -0.031999364 -0.030670376 -0.0047147144 -0.020577176 -0.0087316735 0.004512328
-0.0004897354 0.0034162588 0.01547205 -0.004034725 0.009360794 0.04908642 -0.0059372736 -0.02714581
-0.009250755 0.029566845 0.01950335 -0.0007945046 0.034894265 -0.01775375 0.045809098 -0.031279474
-0.025055034 -0.018071504 0.027744655 -0.0305393 0.021083139 0.011384028 0.0011805224 0.0148495585
0.00061989075 0.006295458 0.0035373091 -0.00064086006 0.0004892152 -0.040352445 0.034894314 -0.02541804
-0.033010263 -0.021666428 0.0033397186 -0.017555835 -0.0014627987 0.022429593 0.006701422 0.00023470206
0.0043368293 -0.04680467 0.0473364 0.017810687 0.011515207 -0.013692763 -0.0006534512 0.035885148
-0.04092291 -0.026098287 -0.019526163 -0.004034919 0.008271339 -0.031075463 0.028600862 -0.067746185
0.015349641 -0.0048549026 -0.02941006 0.02763845 -0.009522719 -0.060198568 -0.012845856 0.014455186
-0.03323843 0.060472604 -0.017315371 -0.08293979 0.0141638545 -0.005331518 0.022499416 -0.005995821
00000000: 6446 44bc d88d a03c 3c36 29bd 2497 c63c
00000010: e8e3 19bc 0321 9fbd d242 4c3b 275c adbc
00000020: ae43 3a3c 0eb9 92bc f301 67bc 66e3 a13c
00000030: a183 83bc 01e4 a2bb 3963 633a 95fe 413d
00000040: 6b4f c0bc 3289 78bc 27fb 933c a4a8 e9bc
00000050: edf0 243c 4308 e33c 0cad 12bd cf89 3fbd
00000060: 561d 093d 5c09 b23c 0858 5a3c eb0d 3cbb
00000070: 836b d93a 9605 7bbb 8fd7 8d3b e015 8cbc
00000080: fc14 92bb 8331 fd3c 83be 193b ef1c a03c
00000090: ea87 ce3a c616 6d3c ed26 ed3c cb69 2eba
000000a0: 0b8e 33bd c611 8b3d ab73 353d 23bd 8fbb
000000b0: 9d83 43bc b7fe 6e3d f47e 0fbd eb7f 9d3c
000000c0: 906b 103c b0a0 70bc 72ca 17ba 730a 293d
000000d0: ba7e 5cbc bfde 1ebd 641f 7339 8a50 14bc
000000e0: a786 953a 405c da3c b779 c93c 1bf1 c5ba
000000f0: f5e5 a13a 9228 a0bc da0e 9a3c 122c 3ebd
00000100: 9807 b0ba b40c ec3c fdfd a7bc a7ef b53c
00000110: 477d 34bb 295e f1bc 0ece 033c 5003 0d3d
00000120: d672 a9bc 5513 ffbb a2f8 a03c 74a5 153c
00000130: 55dc 803a f3a5 053d c339 e4bc ceef a4bc
00000140: 9ffb 503b 30cf f2bc 0f9c 03bc 3d85 cf3a
00000150: f87b bebc 9b9b 7dbc 3a0e 2a39 0658 f2bc
00000160: b5e2 d8bb aeea 853b e53f 013d c3a8 85bb
00000170: 8dde 183c 6e16 2ebd 0afe 8e3b 7acb c9bb
00000180: adee cc3b cf5c 08ba baf7 e73c 7762 57bd
00000190: f5a3 c43c 33c1 a73c b397 763c 5002 9bbc
000001a0: bee7 f8bb aee6 11ba 726d d5bc c65c 48bc
000001b0: 381e e13c 6c96 073b 9f37 853c 5dd3 cdbb
000001c0: e2f0 53bc 0cdd 1abd 74cf 3fba 7fa9 3a3c
000001d0: c84d 783c 1ed3 b3bc 0eec 0f3d 9ae7 093d
000001e0: f076 143d 7897 103c d656 e7bb 60da 0ebb
000001f0: 771b f1ba 589e 91bc bf9d 1abc 81ad ebba
00000200: 5b3c 3b3b a897 42bd c16f 2d3d 7fa4 83ba
00000210: 8f94 1bbb a0ea 11bd be4a b53a 35eb 04bd
00000220: b533 8b3c 7237 1f3d ea51 d93a 2640 483c
00000230: 57b8 c73c 00c2 8dbd 3730 1e3d b40f a03c
00000240: 975f 503c 87f9 bfbb b898 97bc d1ce e83c
00000250: b927 0cbc ff16 94bc c34c c33b 53e8 8ebb
00000260: 7ced 613b ec69 8b3d 31d4 833a d9e3 e3bc
00000270: 3ba1 3d3c e0d5 8fbb fcb1 85bb b825 9a3d
00000280: f424 debc 0a88 833c fd39 243c 0f55 ddbb
00000290: a985 7c3c de4f ecbc 9a2e 70bc 5856 f63c
000002a0: fa8c b4b9 fa07 243c 7147 9cbc 1ff4 d0bc
000002b0: bbcc fcbc b6f1 213c cc06 3f3c 8ab0 743b
000002c0: eb1e b7b9 9c2a 523d c411 03bd 7140 fbbc
000002d0: e47d 9abb 7791 a8bc 4b0f 0fbc 27dc 933b
000002e0: 9661 00ba 50e3 5f3b 7b7e 7d3c ba35 84bb
000002f0: 045e 193c d80e 493d 768d c2bb e460 debc
00000300: 7b90 17bc 2b36 f23c 7dc5 9f3c 4d46 50ba
00000310: 4aed 0e3d 5070 91bc 52a2 3b3d e81e 00bd
00000320: 3740 cdbc b10a 94bc c248 e33c 8e2d fabc
00000330: 8cb6 ac3c 1384 3a3c c2bb 9a3a 904b 733c
00000340: 2a80 223a 214a ce3b 33d2 673b 64ff 27ba
00000350: ad3e 003a 9b48 25bd 57ed 0e3d 7e39 d0bc
00000360: c535 07bd cb7d b1bc 2edf 5a3b 41d1 8fbc
00000370: 61bb bfba 44be b73c 9a97 db3b 5b1a 7639
00000380: f61b 8e3b 41b6 3fbd d0e3 413d b8e7 913c
00000390: 47aa 3c3c 9c57 60bc 5e4c 2bba 4efc 123d
000003a0: c89e 27bd 13cc d5bc 55f5 9fbc 5b37 84bb
000003b0: 8384 073c f891 febc 5b4c ea3c 83be 8abd
000003c0: 107d 7b3c e015 9fbb 5eed f0bc 086a e23c
000003d0: 2e05 1cbc c692 76bd 6d77 52bc 72d5 6c3c
000003e0: 0525 08bd 1fb2 773d f7d8 8dbc 56dc a9bd
000003f0: 830f 683c 04b4 aebb b250 b83c 9878 c4bb

coriolis_net.net.0.bias f4 [64]
-0.0086137075 0.0035213032 0.0063403933 -0.0023695175 0.0041124965 -0.009941227 0.0020519325 0.00879888
-0.0024727471 -0.00188853 -0.006526434 0.006805758 -0.0013053353 -0.004560946 0.0017307844 0.015269295
-0.002295521 -0.0038762204 0.010823859 0.0020959415 0.0069357883 -0.002012083 -0.0069364584 0.0015035009
-0.003172019 0.005829794 0.003571351 0.0043268204 -0.0007234856 0.007272425 -0.008523616 0.007706274
-0.00037696835 -0.0029220385 0.0073268902 -0.0027135469 -0.006294184 0.0014734126 0.0018705651 -0.009126552
-0.004387734 -0.005774102 0.010319412 0.00028496617 -0.0047749295 -0.006531718 0.002308834 0.006803092
0.00021851862 -0.00046065793 0.0081174085 -0.007615769 0.0052262144 0.007013384 0.01886237 0.0031887149
0.007259092 0.010000005 -0.005259161 0.0009110376 0.005344384 0.0034967698 -0.018282084 0.00074862235
00000000: 8220 0dbc aac5 663b 13c3 cf3b e849 1bbb
00000010: 1fc2 863b 87e0 22bc b779 063b 2d29 103c
00000020: d00d 22bb 8d88 f7ba b2db d5bb d602 df3b
00000030: c917 abba fd73 95bb 7ddb e23a 112c 7a3c
00000040: 7470 16bb 3008 7ebb 8e56 313c 105c 093b
00000050: 9c45 e33b 27dd 03bb 3b4b e3bb 1e11 c53a
00000060: a6e1 4fbb db07 bf3b 540d 6a3b 00c8 8d3b
00000070: 4ca8 3dba 864d ee3b a3a6 0bbc e984 fc3b
00000080: d6a3 c5b9 ac7f 3fbb 6916 f03b c3d5 31bb
00000090: 713f cebb 861f c13a c02d f53a 8987 15bc
000000a0: fbc6 8fbb ae34 bdbb c012 293c 8367 9539
000000b0: 0377 9cbb 0608 d6bb cf4f 173b 79ec de3b
000000c0: 2522 6539 7684 f1b9 e1fe 043c b38d f9bb
000000d0: aa40 ab3b 87d0 e53b 4285 9a3c c2f9 503b
000000e0: addd ed3b 10d7 233c 0a55 acbb b3d2 6e3a
000000f0: f11f af3b 102a 653b 4fc4 95bc 323f 443a

coriolis_net.net.1.weight f4 [64]
1.0161219 0.9895683 0.96488935 1.0140617 1.019302 0.99489915 1.0412325 1.0018541
1.0299418 0.973403 0.9891963 1.0000124 0.9765078 0.99946713 0.98740804 0.9895295
1.007006 0.9942926 1.0092045 1.0193242 0.99814904 0.9836045 1.0117617 1.0350018
0.9944201 0.99604774 1.0060596 0.9915384 0.97951144 1.0095657 1.0106812 0.9977049
1.0216053 1.0284202 0.98275316 1.0059745 1.023356 1.0008955 0.99089426 1.0162597
1.012458 1.0320855 1.000575 0.9740963 1.0169082 1.019238 1.0115644 1.0083132
0.993448 0.99375135 1.0109489 0.98068506 1.0361753 0.9963076 0.9874838 0.97861797
1.0066472 0.9906315 0.9984681 1.0258436 0.9888577 1.000171 0.99230665 1.010253
00000000: 4810 823f 5954 7d3f fd02 773f c6cc 813f
00000010: 7d78 823f b6b1 7e3f 1b47 853f c13c 803f
00000020: 22d5 833f f030 793f f83b 7d3f 6800 803f
00000030: 6afc 793f 14dd 7f3f c6c6 7c3f ce51 7d3f
00000040: 93e5 803f f689 7e3f 9d2d 813f 3779 823f
00000050: b286 7f3f 81cd 7b3f 6881 813f f07a 843f
00000060: 5192 7e3f fcfc 7e3f 90c6 803f 76d5 7d3f
00000070: 43c1 7a3f 7339 813f 005e 813f 9769 7f3f
00000080: f6c3 823f 46a3 833f b695 7b3f c6c3 803f
00000090: 54fd 823f 581d 803f 3fab 7d3f cc14 823f
000000a0: 3998 813f 611b 843f d712 803f 605e 793f
000000b0: 0c2a 823f 6476 823f f17a 813f 6810 813f
000000c0: 9c52 7e3f 7d66 7e3f c666 813f 2d0e 7b3f
000000d0: 64a1 843f 040e 7f3f bdcb 7c3f b586 7a3f
000000e0: d1d9 803f 079a 7d3f 9b9b 7f3f d84e 833f
000000f0: c725 7d3f 9a05 803f cf07 7e3f f84f 813f

coriolis_net.net.1.bias f4 [64]
-0.0023075433 0.0027162626 0.008539633 -0.003291472 0.020265795 -0.009869293 -0.006903633 0.0017825274
-0.00022600096 0.003968651 -0.0054484988 0.009784126 0.0022732883 -0.012596172 0.0037898289 0.016177878
-0.0038099005 -0.0022444197 0.013399048 -0.0011467678 0.0070024 0.001831205 -0.013682671 0.008187664
-0.003597874 0.0037563753 -0.0017074476 0.0027486167 -0.00223903 0.00602296 -0.0098990295 0.005766993
-0.0021694612 0.003308582 0.0024020025 0.0033399768 -0.027151285 0.003497957 -0.00019984898 -0.0018089315
0.0006731429 -0.004713297 0.0061274613 0.0036447104 0.0008847531 -0.013635182 0.006908769 0.017453136
0.0007758003 0.005896821 0.00010935933 -0.008632022 0.0008234302 0.012007849 0.016778367 0.0065111015
0.008658443 -0.0028179637 -0.004845842 -0.0025549566 0.013262833 0.004730977 -0.01998584 0.0028534855
00000000: 273a 17bb 5303 323b d1e9 0b3c bdb5 57bb
00000010: 7404 a63c d1b2 21bc df37 e2bb b2a3 e93a
00000020: acfa 6cb9 750b 823b 5289 b2bb 994d 203c
00000030: 73fb 143b 2d60 4ebc c75e 783b 7887 843c
00000040: 86af 79bb 1d17 13bb ae87 5b3c 244f 96ba
00000050: 6374 e53b 0b05 f03a 482d 60bc 8d25 063c
00000060: 4fca 6bbb 852d 763b 6fcc dfba 2322 343b
00000070: b1bc 12bb 405c c53b 8a2f 22bc 0bf9 bc3b
00000080: 852d 0ebb cbd4 583b ea6a 1d3b 83e3 5a3b
00000090: 5f6c debc fb3d 653b 8d8e 51b9 ab19 edba
000000a0: db75 303a 0072 9abb dfc8 c83b 18dc 6e3b
000000b0: c7ee 673a 1966 5fbc f462 e23b e1f9 8e3c
000000c0: 145f 4b3a 1f3a c13b d857 e538 536d 0dbc
000000d0: 77db 573a 92bc 443c c972 893c 145b d53b
000000e0: 24dc 0d3c 96ad 38bb dec9 9ebb 0f71 27bb
000000f0: 5a4c 593c 5006 9b3b 58b9 a3bc 8b01 3b3b
