E2NN/Trained_models_h64_s10_20250726_155156/vanillarnn_model.pth (torch, 152754 bytes, 18 tensors)

input_net.0.weight f4 [64, 9]
00000000: 0909 c73e 7934 423d d99c 353f 302f 42be
00000010: 40d7 d33d 0191 81bf 3b71 11bd 6e4e dcbd
00000020: 8b0e f5be 4648 4bbf c436 d43e 95cd 87bf
00000030: 9eee 1b3f c6ca 653d eaa2 39bf 3e53 4dbd
00000040: 4b56 24bf 191f cf3d a9f1 013f cbb7 6a3e
00000050: 49e3 1aba ec4f 63be da72 7a3e 03de 5ebb
00000060: 1029 923e d0c9 26bf 100c 91be 70cc 61be
00000070: 3a53 adbe 69e2 9d3e 4142 4e3d f7ff edbe
00000080: 3085 29bf 72d5 5fbc aaae 2fbe 1007 673e
00000090: 98e1 63be 66b5 793e 0dc1 84bf e238 953d
000000a0: 2ba9 76bc 3c60 1d3f 8361 393e d279 dabe
000000b0: 5071 ea3d c976 07bf 25c4 da3d 3f29 823e
000000c0: d899 d53e f78a 973e 11e3 153e 41db b53e
000000d0: afd2 5e3f fe0b 17bf 0094 103c 5cd6 e83e
000000e0: 230f b1be 83f8 2fbf 8cb2 6c3e fe38 7f3e
000000f0: e1e9 cd3e 0c87 bcbd cbdb 2a3e 60dc f6be
00000100: bcc8 55be fe26 8cbe 2df4 8c3e dffb 4d3f
00000110: 3b29 40bf 7905 e9be dfc3 1a3e 9a52 3f3d
00000120: b550 ad3e 3aa0 96bf c8a4 023f 2694 ff3e
00000130: ade3 7dbd 3a3d 16be 55bb 23bf 27b8 9ebe
00000140: 2843 3c3e 6421 bcbd 3927 4fbf 52b8 223e
00000150: d0b8 f1be 0d1b 5d3f 74aa d7bd 17cc 6bbe
00000160: 0b45 77be d2b5 4bbe efae f93e 254e c4bd
00000170: 0f11 3abf 6399 5c3f 3de0 a3be e6e7 8b3d
00000180: 1ee2 803e 5223 cc3d f565 04bf a24c f2be
00000190: 7fc9 a43e 1663 15be a180 423e 7d79 7fbf
000001a0: a0f3 13be d0cb a53e a943 e23e e1a1 b73d
000001b0: f573 ab3d 4dbf be3d 479c 8e3e 6bba 3bbf
000001c0: fb47 043f 0fba c5be 9430 14bf 6434 1c3f
000001d0: 8e9e 6bbe a4f0 0dbf 059d ec3d ea86 a9bf
000001e0: 82f7 353d 2d3a 67be 7b1a ac3e 58de a13e
000001f0: 8f4d 373f 8547 3a3f 9f0a da3e 37bf 8f3d
00000200: 04b7 de3e afb2 c6bd 674e 56bf 5f1d f33d
00000210: 6084 d9be 86da d1bd 2dc4 84be c9ce 2bbe
00000220: 3040 2cbe 34c8 bcbe 2b84 e53e 9bdb e4be
00000230: 80b6 0a3f ba71 5ebe 44f4 113f 2559 a7be
00000240: d256 c1be df5c c0bf 8346 7cbe ca8c 46bf
00000250: 0c48 b93e 6ef3 ef3d 1478 01be 750b 8dbe
00000260: 678a 7bbf 4c75 03bf aa25 063f 50d4 2abe
00000270: 398e 0ebf 965a 2e3f 150d 773f 3de7 b83e
00000280: 01f5 8cbd bef9 d73e 2f65 f43e 57e3 273f
00000290: 3287 143f 76fa 3fbf ba00 473f 5dac bf3e
000002a0: d38f 85bd d269 7f3f e87b 173f 4888 5cbf
000002b0: d6ab e73c c6fc 11be b718 3bbf bd07 9f3e
000002c0: 1089 b33e e7ff a83f 4646 babe b172 18bf
000002d0: 904e 22bf 219c 81bf 91b7 2abf 79de 39bf
000002e0: 0fc4 cc3d d277 74bf d12a 00bf 0d70 91be
000002f0: 2b9d 153e 98b9 fcbd 9f08 66bf 8ed9 91be
00000300: 4a17 bebe 86b7 103f 8029 9e3f 9e44 45bf
00000310: 9da1 07bd a5bd 2c3f f386 b83c fbe7 903d
00000320: a7b9 55be edc1 333f bd27 24bf 9fd5 93be
00000330: ad8a 9dbe 72e5 9abe 1fa6 99bd 99fb b63e
00000340: e8a4 cfbc 8f40 833e fa4b 51be 37f4 2bbf
00000350: ff6d 28bf d5a3 1bbf 6af3 173f 20bf b9bd
00000360: 3df8 e2be 1992 443f ab46 47be 8858 68bf
00000370: 81a7 9b3e 40f5 1c3f 5f91 f63e a9bf f4bc
00000380: 052a 8abd 4d11 84bd 5899 90be a595 cd3e
00000390: 5f1a 08be 0636 d23d 2e25 9bbf afb6 84bf
000003a0: 8c4f 01bc b977 a83e 51e2 bd3e 7fcb 743e
000003b0: 8ff2 be3e acd5 d03e 86ff 843e 7b5f b9bf
000003c0: 7795 0c3f 272b babe 190f 99be 0c7c 5a3e
000003d0: 65a0 b03f 8b27 51bf 6342 fa3e 22b0 b2be
000003e0: 7df4 dc3d 55fd 86be e166 df3e d0fc 4ebf
000003f0: a5c6 bcbe 37f5 6ebd dbcc d6bd 544c d63d
0.3887408 0.047413323 0.70942456 -0.18963313 0.1034379 -1.0122377 -0.035508376 -0.10757147
-0.47862658 -0.79407156 0.41448033 -1.0609614 0.60910976 0.056101583 -0.7251421 -0.050128214
-0.6419417 0.10113353 0.5075937 0.22921674 -0.0005908502 -0.22198457 0.24457875 -0.003400684
0.28546953 -0.6515169 -0.28329515 -0.22050643 -0.3385256 0.308368 0.050356153 -0.46484348
-0.66218853 -0.013661729 -0.17156473 0.22561288 -0.22254026 0.24385604 -1.0371414 0.0728624
-0.015054981 0.61474967 0.18103604 -0.42671067 0.11447394 -0.52915627 0.10681943 0.25422093
0.41718936 0.2959821 0.146374 0.3551884 0.8704023 -0.59002674 0.008824348 0.45476043
-0.3458186 -0.68738574 0.23114985 0.24924085 0.40217498 -0.09205446 0.16685407 -0.48215008
-0.20877355 -0.273735 0.2753004 0.8046245 -0.7506291 -0.45511988 0.15113781 0.046709634
0.33850637 -1.1767647 0.51032686 0.49917716 -0.061984707 -0.14671794 -0.6395772 -0.30999872
0.18384993 -0.09186056 -0.80919224 0.15890625 -0.47211313 0.863694 -0.10530558 -0.23027073
-0.24147432 -0.19893578 0.48766276 -0.095852174 -0.7268228 0.8617155 -0.32007018 0.068313405
0.25172514 0.09967674 -0.51718074 -0.4732409 0.3218498 -0.1458858 0.1899438 -0.9979475
-0.14448404 0.3238206 0.44192246 0.08966423 0.083717264 0.093138315 0.27853605 -0.73331326
0.51672333 -0.38618514 -0.57886624 0.6101744 -0.23009703 -0.55445313 0.115533866 -1.3244298
0.044425495 -0.22580786 0.33613953 0.31614947 0.7160272 0.7276538 0.42586228 0.07018893
0.43499005 -0.0970205 -0.8371338 0.118708365 -0.42483807 -0.10246758 -0.2593092 -0.16778101
-0.1682136 -0.36871493 0.448274 -0.44698796 0.5418472 -0.2172307 0.57013345 -0.326852
-0.3776155 -1.5028342 -0.24636273 -0.7755858 0.3618778 0.117163524 -0.12643462 -0.27547804
-0.9825806 -0.51350856 0.5240122 -0.16682553 -0.55685765 0.68106973 0.96504337 0.3611392
-0.06882668 0.42182726 0.47733447 0.6558127 0.5801879 -0.7499155 0.77735484 0.3743619
-0.06521573 0.99770844 0.5917344 -0.8614545 0.02828018 -0.14256582 -0.73084587 0.3106059
0.35065508 1.3203095 -0.3638174 -0.59550005 -0.63401127 -1.0125772 -0.6668635 -0.7260509
0.09998333 -0.9549533 -0.5006533 -0.284058 0.14610736 -0.12340087 -0.89856905 -0.28486294
-0.37127143 0.56530035 1.2356415 -0.77057827 -0.03311311 0.67476875 0.022525286 0.07075497
-0.20871602 0.7021778 -0.64123136 -0.28873917 -0.30769864 -0.30253178 -0.07502388 0.3573883
-0.025347188 0.25635192 -0.20439139 -0.6716952 -0.6579284 -0.6079686 0.59355795 -0.09069657
-0.44330016 0.7678543 -0.19460551 -0.9076009 0.30401233 0.6131172 0.48157784 -0.029876547
-0.06746296 -0.06448612 -0.28241992 0.40153232 -0.1329131 0.102642104 -1.2120721 -1.0368251
-0.007892501 0.3290384 0.37086728 0.23905753 0.37294433 0.4078802 0.259762 -1.4482263
0.54915565 -0.36361048 -0.2989433 0.21336383 1.3798949 -0.8170096 0.48878774 -0.34900004
0.1078882 -0.26365152 0.43633178 -0.8085451 -0.36870304 -0.058339324 -0.10488292 0.10463777

input_net.0.bias f4 [64]
00000000: 0bf8 06ba 541c 24ba d31b a63c 0290 10bc
00000010: 79fd e6ba 5e38 dbbb b12e 50bc dd94 c63b
00000020: 7ceb b03b d39d d9ba a621 523b 214d a7bc
00000030: a4cb fcbb e088 98bc 9de7 553c 01f6 563b
00000040: 1b03 98bb d028 e6bb d15d 833c bc9c 0a3c
00000050: 29cd f0bb d954 ce3b af09 9c3b 2556 45bb
00000060: 6cc7 cb3b cddb 363b 481a 3d3c 02a6 313b
00000070: 2ab4 183c 67b9 de3b dd69 18bc 3c6d 9ebc
00000080: 01d3 39ba dc05 2e3c 5226 bd3a fb1e 8ebc
00000090: 07ce d0ba f99d 7b3a ca4d d4bb d728 caba
000000a0: 86d5 693b 10fa a83a 904e 163c 5276 41bc
000000b0: 1b85 57bc 2739 56ba c0d3 8bbc 5027 4d3c
000000c0: 809d a13b fe91 023b 522c 06bc caad 813b
000000d0: 72ff 69b8 536a 34bb 3398 09bc 5b11 9c39
000000e0: 9d0e 1fbb 8b3a febb 5d12 c7bb c7cd f0ba
000000f0: a2e0 67ba 60e8 6bbd e835 673c 4468 8e3b
-0.00051486556 -0.0006260325 0.02027694 -0.008823397 -0.0017623148 -0.006690069 -0.012706445 0.0060602264
0.0053991657 -0.0016602821 0.0032063513 -0.02042252 -0.0077147055 -0.018619955 0.013055709 0.0032800438
-0.004639042 -0.007023908 0.016035946 0.00846022 -0.0073486757 0.0062967357 0.0047618966 -0.003011116
0.0062188413 0.0027902008 0.0115419105 0.0027107005 0.009320298 0.006797004 -0.0093025835 -0.019339196
-0.0007088632 0.010621514 0.0014430976 -0.017348757 -0.0015930542 0.000959843 -0.0064789997 -0.0015423548
0.0035680248 0.0012891907 0.009174004 -0.011807995 -0.013154293 -0.00081719685 -0.017068744 0.01252158
0.0049321055 0.0019923444 -0.008189278 0.003957485 -5.578943e-05 -0.0027529194 -0.0083981035 0.0002976757
-0.0024270185 -0.0077584437 -0.006075187 -0.0018371873 -0.00088454236 -0.057594657 0.014111973 0.0043459255

input_net.1.weight f4 [64]
00000000: 9264 7a3f a396 7b3f 3ce4 753f 4f78 733f
00000010: 7bfa 823f 9f2c 803f a72d 7b3f 0528 803f
00000020: cd42 833f 3431 793f 6eed 723f fd02 833f
00000030: 44b7 7e3f 8d1f 833f 7c72 7d3f e2d5 7a3f
00000040: 36bf 793f b8e7 793f 2f75 833f fbec 853f
00000050: 15e6 7f3f 1d48 743f bf7b 863f 30f8 7b3f
00000060: 0426 833f bf9b 7a3f 67a3 713f e0a8 743f
00000070: d994 773f 346c 793f dc55 723f 1dbe 7f3f
00000080: 7ce1 713f 1564 753f 5711 7f3f 13eb 793f
00000090: 3af6 7d3f 7944 793f 07bb 7c3f 4e20 7b3f
000000a0: 8211 833f b14f 753f f637 813f 1569 833f
000000b0: b54d 763f a496 813f 62c3 763f 82c0 853f
000000c0: 45dd 813f 44b9 7c3f 7b88 783f 1032 833f
000000d0: 451b 7a3f 8ba6 743f b646 773f cd67 723f
000000e0: 7d37 7c3f 593e 7c3f 532b 863f d46b 7b3f
000000f0: be96 773f ae2b 873f 941a 723f 28c6 7a3f
0.9780971 0.9827673 0.96051383 0.9510545 1.023269 1.0013617 0.98116535 1.0012213
1.0254761 0.97340703 0.9489354 1.0235287 0.9949839 1.0244004 0.99002814 0.9798261
0.9755739 0.976192 1.0270137 1.0462946 0.9996045 0.95422536 1.0506514 0.9842558
1.0245976 0.978939 0.9438996 0.9557018 0.967115 0.9743073 0.9466226 0.99899465
0.94484687 0.9585584 0.99635834 0.9762432 0.99203837 0.97370106 0.9872288 0.9809617
1.0239718 0.95824724 1.0095203 1.0266443 0.9621232 1.0124097 0.9639188 1.0449374
1.0145651 0.9872019 0.9708325 1.0249653 0.9769786 0.95566624 0.9659227 0.9468964
0.9852217 0.98532635 1.0481972 0.9821141 0.9671439 1.0560205 0.94571805 0.9795861

input_net.1.bias f4 [64]
00000000: 77a2 0cbd ea88 463c 0249 82bd 0514 b0bb
00000010: bd35 1a3d 28dd 983c de03 eebc c762 d43c
00000020: 19cc a83d 5cc2 843c 48d3 d7bc 502e ac3c
00000030: 2e19 03bd 87bd 873d 8386 a0bc c42a fbba
00000040: 20cc 65ba e2c7 dbbc 3983 4c3a 4df4 1ebc
00000050: 32a2 143d 4792 4cbc eef5 9b3d 4a6b c5bc
00000060: b0f9 43bc 9c3b c8bc ad51 71bd 490c c7bb
00000070: d1ac 8abb f1ba c0bc 2ce5 7abc c21c 9c3c
00000080: 297d 22bd 8105 dcbc b358 123d 70ca e3bc
00000090: 8b91 c93c 1351 f6bc bd5d 94bc c26a 6ebc
000000a0: 549b f93c 3ced 4abd 1326 ef3b 83e2 063d
000000b0: a0b8 23bd 4e5b 9bbc e7c1 38bd ef62 2e3d
000000c0: 4ec9 f2b9 56fd 4dbc 11bb babc b39d d2bc
000000d0: 628f 943c 1d5d 65bc f4eb b33a 1b53 60bd
000000e0: 15bd 37bc ef48 d23b 9ca4 dabb 4380 dabb
000000f0: 2884 7ebc 588a b33c 5eee 28bd ff8a eebc
-0.034334626 0.012117604 -0.063615814 -0.0053734803 0.037648905 0.018660143 -0.029054578 0.025926007
0.082420535 0.016205959 -0.026345864 0.021018177 -0.032006435 0.06627946 -0.01959539 -0.0019162525
-0.0008766074 -0.02682871 0.0007801536 -0.0097018005 0.036287494 -0.012486047 0.07615267 -0.024099011
-0.011961386 -0.024442486 -0.058915783 -0.0060744626 -0.004232027 -0.02352664 -0.015313428 0.019056682
-0.039670143 -0.026858093 0.03572912 -0.02780649 0.024605533 -0.030067956 -0.018111104 -0.01455182
0.030469574 -0.04954265 0.00729824 0.032930862 -0.039970994 -0.018964436 -0.045106795 0.04257482
-0.0004630782 -0.012572607 -0.022794278 -0.025709962 0.018134777 -0.013999251 0.0013726936 -0.054766756
-0.011214514 0.006417386 -0.006672455 -0.006668122 -0.015534438 0.021916553 -0.04124295 -0.029119013

input_net.1.running_mean f4 [64]
00000000: aa90 8a3f ee6c 4fbf e143 873f 8ccc babe
00000010: d021 08bf a6a5 2cbe 7157 cc3e e472 92bf
00000020: 0bc5 7ebf 2c5d 92bf 80f3 e93d e124 bebc
00000030: 7e91 313d c313 bcbf 4b9a 503f 2eff 38bf
00000040: c1dd 18c0 ca8a 90bd a33f a13f f43f b6be
00000050: c680 21c0 4ce5 02c0 5f16 873d ec61 993e
00000060: 1aaf f93e e913 02bf 3d06 af3f 05a9 bc3f
00000070: 2060 4fbf 26d7 dbbe 749f 28be c0a8 fa3b
00000080: 7a87 ec3d c42e 4cbe c441 cebf 94a0 de3e
00000090: 1e8c 1d3e d9ff a2be 940c f0bd e419 e73f
000000a0: 5098 2ebe 2f04 953f 044e dcbe c0a5 453f
000000b0: 5321 aebe c5b5 d2bf e7d7 ab3f 2172 cfbf
000000c0: 1c6e ca3f 623b 57bb bf39 cb3e 30ef 233f
000000d0: a01c d9be 7d42 243e 2a1f c43e 00e9 03bf
000000e0: 687b cabf 032f aa3e f28d 923e b513 903f
000000f0: a9e3 05bd 2442 a23f a32f 823f fc2a 87bf
1.0825398 -0.8102559 1.056759 -0.36484182 -0.53176594 -0.16860065 0.39910462 -1.1441312
-0.99519414 -1.1434684 0.11423397 -0.023210945 0.043351643 -1.4693531 0.8148543 -0.72264373
-2.3885348 -0.07057722 1.2597545 -0.35595667 -2.5234847 -2.0452452 0.06596064 0.2995752
0.48766404 -0.5081163 1.3673779 1.4739081 -0.8100605 -0.42937583 -0.16467077 0.007649511
0.115492776 -0.19939715 -1.611382 0.43481886 0.15385482 -0.3183582 -0.11721149 1.8054776
-0.1705029 1.1641902 -0.4302827 0.7720604 -0.340098 -1.6461722 1.3425263 -1.6206704
1.5814853 -0.0032841791 0.39692494 0.64036846 -0.42404652 0.16040988 0.38305026 -0.51527405
-1.5818911 0.33238992 0.2862392 1.1256014 -0.032687817 1.2676435 1.0170788 -1.0559993

input_net.1.running_var f4 [64]
00000000: 7df3 be3f e4d8 3340 548a e33f 4f1a 6f3f
00000010: 2a3a 3540 c95d 1a41 236c eb3f ba48 b43f
00000020: bb4f 233f 5b94 6c3e 6faa e23f e9cf 3e3e
00000030: 9f45 1c41 8e84 723f f362 9e3f e262 c940
00000040: 8077 a740 cfed 7940 bf85 a43f 6cef 8740
00000050: fc75 e23e 1c4c be3f 5ce7 ad3d 346a ed40
00000060: 6e7d 7f3f 51c9 fe3f 36d9 873f 9797 4c41
00000070: 7230 b43f 03dd 0d41 ec99 bb40 956c 7440
00000080: 4cdf b740 609e 5b40 1ca3 5941 e800 8740
00000090: 4f26 0d40 c816 873e ceef fc40 5c41 0540
000000a0: 53e1 4b3e 8497 cd3f 2468 5940 501c 133e
000000b0: 7f61 ed3e eb27 be40 935c 663f 232c 423f
000000c0: 8c44 f23f bc1f 8b3d f23e 873f ccb3 933e
000000d0: 2db8 a240 3699 2940 0a68 9440 65b9 3340
000000e0: 4748 1341 b62d 963f 59b9 0a3e bf75 7840
000000f0: d700 6d3e 5c34 e93d 4fde a43e a452 fd3f
1.4918057 2.810113 1.7776589 0.9339952 2.831675 9.647897 1.8392376 1.4084694
0.63793534 0.23103468 1.7708262 0.18633999 9.766997 0.9473351 1.2373947 6.2933207
5.2333374 3.9051397 1.2853316 4.2479763 0.4423064 1.4866977 0.08491394 7.4192142
0.99800766 1.9905187 1.0613163 12.787009 1.4077284 8.866458 5.8625393 3.8191273
5.746008 3.4315414 13.602322 4.2188606 2.2054632 0.26384568 7.904273 2.0821142
0.19910173 1.6061864 3.3969812 0.14366269 0.46363446 5.942373 0.8998501 0.758486
1.8927169 0.06793162 1.0566084 0.28848112 5.0849824 2.6499763 4.6377 2.8081906
9.205146 1.17327 0.13547267 3.8821867 0.23144852 0.1138694 0.32200858 1.9790845

lstm.weight_ih_l0 f4 [256, 64]
00000000: 5e72 493e ad95 b6bd b056 13bd ee25 583e
00000010: a5f8 10bd 7e37 923d a391 a33e ec19 5d3e
00000020: 5bbe a6be 1543 7a3e 5bae 4d3d 4455 0cbe
00000030: 040e f63d 2f54 503e 061a babd 0f86 173d
00000040: 59e7 afbd 06d6 2d3e 5c40 a8bd 3f1d 3bbd
00000050: b79a 1e3e 3804 edbd 29f3 9abd 0ff6 97be
00000060: 119d 673e 93f1 5c3d 12bd c1be ef54 853e
00000070: 3e97 b8be 8f03 b6be 8971 493d 516a a7be
00000080: a7cb 38bd 7a9b c0be 8b09 15be 9073 733e
00000090: 9951 213e 32c2 093e f83c d73d b934 94bd
000000a0: daf0 9fbd 1622 a9bd a76b ff3d 7b0c 0c3e
000000b0: 7220 a53e 5881 833d 6bf8 01be ba1f 85be
000000c0: 74e7 3d3e b489 2ebe b0de 02be c2da 853e
000000d0: d988 a83d 906a 97be f01c 61bd 950e 213e
000000e0: fb79 12be 07ab 293e 7bf1 9d3e feef 663d
000000f0: 6b0c 00be 18e3 07be d53a d6be ef25 713d
00000100: 06f1 fdbd e7e5 3a3d 3b96 213d bd4b 3c3e
00000110: 9c7d 333e 540d b23d 9e54 16bd d6ba 28bd
00000120: 42ac 0b3e 0b97 473e e9e7 0cbd 00a0 c73c
00000130: 6de0 2c3e 41ba 6dbe 99f4 a4be 83eb 93bd
00000140: 08b5 83bc 10bf 0f3e 29a6 9c3c 5c50 1f3e
00000150: 0657 fe3d e414 a2bd 0218 6a3e 9a48 0bbb
00000160: b347 35bd c5cb ff3d 37e8 93be b6a2 5abd
00000170: f6e4 2bbd 91dc 55be 72dd 18bd 413c adbc
00000180: 75ed 04bd 0a4d 923e 78ce 27be a908 1d3e
00000190: 4913 8cbd 76b8 c33d 3ebb 07be b32d 51be
000001a0: 02a8 9f3d 53f3 98bc c26d ba3d 67c6 993e
000001b0: e959 c03c 375f b4bd 6f2f 77be bc11 833d
000001c0: bf07 7a3e ef50 213d 704e d8bd 0e93 c3bd
000001d0: d202 463e ee0a 563d 821d f93d f638 6dbe
000001e0: 82da b3bd ff72 493e 88d6 7bbe 3f70 053e
000001f0: 0c88 19bd 8db5 c03e 83ec d23d cda2 92bd
00000200: 84a1 99be cd07 9a3e c59d 92bd 3df6 70bd
00000210: 13d1 d3bc 6261 a6bd bd75 863d 011d 343d
00000220: 8147 3bbe 942d 473e 322c 8fbd c992 aabd
00000230: 2590 d93d 0f14 3dbc 857c a1be 9a92 2d3d
00000240: 7544 19bd 3d80 20bd a147 d63d 9e02 a3bd
00000250: 2a63 a63d 763c 48bc ad5a 4b3d cbd1 a8bd
00000260: 2bb4 9c3d 2409 2d3e 22be 4ebc cd43 863d
00000270: 735c b43d 76aa 1d3e db7e 0b3c a75d bf3d
00000280: f7a2 b23d ed02 5e3e 002f 3c3b 2121 58bd
00000290: c1d2 3d3d 2911 55bc cc9f 103e a025 58bd
000002a0: 662c cabd 6a88 083e 2f88 8abc ace0 f03c
000002b0: 183f 05bf f011 953d 3cb7 bfbe 841e 083c
000002c0: 2ff2 80bd 6f1f 6c3e 8cc9 123d 0cb7 b73e
000002d0: 28bb 683d 98ae 073d 26e9 29be 59c0 7bbe
000002e0: fba4 9c3c 57e5 8f3d c94c 94bd f58e fc3d
000002f0: e4e5 4cbd 2ce1 c83d e96f 8a3e c81c 743e
00000300: 4f57 303e 8604 753e d39f 78be 7462 6e3d
00000310: e186 5f3d 0752 b63d b2f4 333d e5a6 bbbd
00000320: 6746 6e3e 90dd b3be 256d 4fbe 8154 8fbe
00000330: b3e9 173d a84e 56bc a56d 033f 114b 3bbe
00000340: e8f1 553d 0654 80be aeb0 e8bd bd59 24bb
00000350: a237 863e acd5 22be 45b6 cdbe f038 353e
00000360: 99d6 bc3d 9857 3a3e d461 633e ab04 6f3d
00000370: d2b1 383e 8f41 dfbe 66af 0e3e 050b 263e
00000380: 9c56 9f3e abef b93d e885 883e 7828 4e3d
00000390: c94a 7bbe 2a49 03be 9df0 453c 1190 ffbd
000003a0: bcbb 9ebc fdc3 933e ccad e0bd b6d1 04bf
000003b0: 036c 7fbe 4a69 68bd ee04 fdbd 3a86 d8be
000003c0: 3206 bd3d 52bd 1bbe eecf b53d 5378 d2bc
000003d0: 72ab 24be f171 e6bd 6887 fdbd 3573 663e
000003e0: f210 043d 4ff8 96be a921 adbc e775 d23d
000003f0: c620 19be 39c6 e9bd 5588 65be 232c 14bd
0.19672534 -0.08915267 -0.035971344 0.21108219 -0.035393376 0.071394905 0.3194705 0.2159192
-0.32567105 0.24439652 0.050215106 -0.13704401 0.12014392 0.20344613 -0.09086995 0.036993083
-0.08589048 0.16976175 -0.082154006 -0.045682188 0.15488707 -0.1157307 -0.0756591 -0.29679915
0.2261851 0.05394132 -0.37839562 0.26041362 -0.3605289 -0.3554959 0.04918054 -0.326983
-0.045116093 -0.3761862 -0.14554422 0.23774552 0.15753783 0.13452986 0.10509676 -0.072366185
-0.07809611 -0.082584545 0.12471705 0.13676636 0.32251316 0.06421155 -0.1269242 -0.26000768
0.18545324 -0.17044717 -0.12780261 0.2614346 0.082292266 -0.29573488 -0.054959238 0.15728219
-0.14304344 0.16569148 0.30848297 0.056381218 -0.12504737 -0.13270223 -0.4184176 0.058874067
-0.12399487 0.04562941 0.03944991 0.18388267 0.17528385 0.086939484 -0.03670179 -0.041193806
0.1363993 0.19491212 -0.034400854 0.024368286 0.16882487 -0.23215581 -0.32217863 -0.07222655
-0.016077533 0.14037728 0.0191222 0.15557998 0.12418942 -0.07914141 0.22860721 -0.002125299
-0.04425783 0.12490038 -0.28888103 -0.05337783 -0.0419664 -0.2088492 -0.03732056 -0.021146895
-0.03245302 0.285744 -0.16387355 0.15335335 -0.06839616 0.095566675 -0.13255021 -0.20427589
0.07795717 -0.018670714 0.09102966 0.3003418 0.023480373 -0.08807223 -0.24139188 0.06399867
0.24417017 0.039383825 -0.10561836 -0.09549533 0.19337013 0.052256517 0.12163831 -0.2316626
-0.087819114 0.19672774 -0.24593556 0.130311 -0.03748326 0.37638512 0.10299017 -0.07159958
-0.3000604 0.30084077 -0.071589984 -0.05882858 -0.02585653 -0.08124043 0.065654255 0.043972973
-0.18288995 0.1945098 -0.069908515 -0.08328778 0.106231965 -0.011540427 -0.31540313 0.04237614
-0.0374188 -0.039184798 0.10462881 -0.079594836 0.08124383 -0.012221446 0.049647022 -0.0824314
0.07651552 0.16898018 -0.012618573 0.06555901 0.08806696 0.15397057 0.008514131 0.09344035
0.08722489 0.21680804 0.0028714538 -0.05276597 0.04634357 -0.01300458 0.14123458 -0.052770257
-0.098717496 0.13333288 -0.01691064 0.029404007 -0.520494 0.07278812 -0.37444484 0.008308057
-0.06296193 0.23058866 0.03583674 0.3588184 0.05681911 0.03312549 -0.16592845 -0.24585094
0.019121638 0.07026165 -0.07241208 0.123319544 -0.05002393 0.09808573 0.27038506 0.23839104
0.17220806 0.23927507 -0.24279718 0.05819936 0.05457199 0.08902364 0.04393453 -0.09162692
0.23269044 -0.35129976 -0.20256479 -0.2799416 0.037088107 -0.013080277 0.5133918 -0.18290354
0.052232653 -0.25064105 -0.11361824 -0.0025077902 0.2621432 -0.15901822 -0.40178123 0.17697501
0.09220619 0.18197477 0.22205287 0.05835406 0.18036583 -0.43604705 0.13934097 0.16215141
0.31120765 0.09078916 0.26664662 0.050331563 -0.24540247 -0.12820879 0.012081292 -0.1247865
-0.019376628 0.28860465 -0.10970649 -0.51882493 -0.24943547 -0.056741036 -0.12354456 -0.42289907
0.09229697 -0.15208939 0.0887755 -0.02569214 -0.16081026 -0.11252201 -0.12379342 0.22504885
0.032242723 -0.2948632 -0.021134214 0.10276394 -0.14953908 -0.11414761 -0.22415288 -0.036174905

lstm.weight_hh_l0 f4 [256, 64]
00000000: 56c2 a5bb f338 b03d 9aaf d53c 9890 083d
00000010: 0740 83bb 89c0 6c3c 8b66 02be 7355 6fbd
00000020: 12bb e4bb 550a 4f3d 58df 483c a822 0dbe
00000030: 984c bd3c b56f 89bb d6d9 2abd aab3 013e
00000040: f371 d23c 4728 04bd 8064 f136 3bfd 2cbc
00000050: 3817 853d dcfb 0e3c 58b5 7ebd a9a7 3c3c
00000060: c14c 043d e220 bfbc 1b40 9a3d 0d44 5c3d
00000070: be62 653d 10fc c43d 1154 16be ce8d 27bd
00000080: f1ab 103d 9ace 8e3d a267 be3d 47f9 c3bc
00000090: 5c35 abbc 457b f53c c7a3 f0bc b684 c6bd
000000a0: 13e1 443d 503a 213e 6a84 9a3b a9e2 12bd
000000b0: 0263 88bd 5252 0f3d f7bc 693d ddda 133d
000000c0: 51ed 8cbd 70fb a3bd 4051 d3bd 0104 8ebd
000000d0: 2c8b 803d bdd2 a73d 6a49 6b3d ef8c 82bc
000000e0: dd91 c8bd 530c 953c c56e acbc 0150 973d
000000f0: daa0 1b3d 6cb4 803c 3e1f 013e e5d9 d5bc
00000100: d6b6 e53d 4535 333e 83a2 273c 222d 5b3d
00000110: 08bc 8dbd 8760 aebc 6fd0 32bd 4e24 84bd
00000120: a465 083d 69ce 813d 4c58 5bbd 8628 5dbd
00000130: 3ef8 3b3c ff81 003d a1a5 d23d 10b4 fe3c
00000140: caa1 74bd d1e5 cfbc 134e 9d3c a06c 43bd
00000150: caa6 3c3d 7cc6 5cbd 3e1b 91bc 57b9 8d3d
00000160: 0397 12bd 6a63 893c 31e6 04bc 4d3b d83c
00000170: b8a9 0dbe e1eb 0cbd d399 ff3c 2174 803d
00000180: a4d1 bb3d 546f fe3c 1a70 0dbd 1eea b13d
00000190: e303 cabd 783a 97bc 1187 4c3d 19d4 6a3d
000001a0: 444e 033d d073 34bc abb1 efbb b04b 35bc
000001b0: 0865 e4bd 7733 2bbd a208 1f3e 755f cc3c
000001c0: 03c2 f63c be6d 863d f25d 83ba b1f2 86bd
000001d0: 9626 79bd 9fb1 223d 75bf 3939 22cb eb3d
000001e0: 3000 85bd 47c0 0c3d c764 523c c7fd 91bd
000001f0: c486 76bc 805e 2abd 16ed 6c3d aa76 e9bd
00000200: 7ad3 c0bd c615 993d a746 343e 3230 a0bd
00000210: a382 75bd 00ee b4bd fd53 153e 9fb6 efbc
00000220: 0db9 3c3d 5257 b43b e934 813d b1bc af3c
00000230: e895 163c 5b26 123d 0a5c c33d 19f5 9938
00000240: 1772 9a3d f614 52bc 1fa8 18be 0a5b a63c
00000250: 7943 7dbd 66c2 1e3c 86b1 1c3c 0f36 913b
00000260: 4623 8cbd ffd4 d93d e6ed 1cbe ee16 21bd
00000270: 652d fe3d 5579 b3bb 9a05 44bd 768a 613c
00000280: f107 b8bd 9cd5 be3c 3aee 463e b265 4b3d
00000290: d697 bfbd 10bb 96bc e534 0fbd acd9 96bd
000002a0: 91ba c13c 8d1a 833d 9019 ad3d 5147 d73d
000002b0: 1e3c d53d 9fcf 673d 1eaf f73c ded8 90bd
000002c0: 3890 9fbb 7897 803d 44f1 eb3d cb53 2c3d
000002d0: 6bbd ae3c 43b3 c5bc 374b 74bd bc6b 6c3d
000002e0: cfd8 f83c 306b a1bd ec60 203c 2d82 223d
000002f0: 6d0f 0a3d e097 d6bd f6ff 933d d5a0 603d
00000300: 3994 bebd f089 c2bc 7da8 623d c708 2d3e
00000310: f892 0d3d 6155 d7bd c5ed 2dbd 480a 473d
00000320: 0115 52bd d3f6 aa3d 1f8a 99bd b76f 9dbd
00000330: e563 9e3c c997 89bc f094 e9bb 89af f93c
00000340: 059f a53d 0ed0 bd3b 33f3 b7bd a096 7a3d
00000350: 5404 403e 06ba 2bbd 6c44 e53d 5059 c93c
00000360: 5074 22bc d526 81bd 1914 a4bd 8c40 333d
00000370: c4d7 8b3d ebf3 34bd f749 2c3d ceef 94bd
00000380: c941 8abd 68f3 95bb 720b b73c c859 8e3d
00000390: aa1a be3b d666 d5bc 39ba ab3d 3e7f d1bc
000003a0: 6ce6 d4bc ffff 273d 7f8b 283d e636 573c
000003b0: d3ef 763d e1f7 b2bc 3192 71bd 9bd7 853d
000003c0: 8727 543e 3066 4abd 2b9f 0f3e 321d fa3c
000003d0: edf6 66bd 3973 f93c 7ec7 91bc 39eb c0bd
000003e0: bfbb 213b 82a1 9b3d a325 9ebd b62b bf3c
000003f0: 696a 9fbc f46f d73d 14f4 36bd b80e 52bd
-0.005058567 0.08604612 0.02608471 0.03334102 -0.0040054354 0.014450201 -0.1273443 -0.0584311
-0.0069803083 0.050546963 0.012260281 -0.13782752 0.023107812 -0.0041942247 -0.04171165 0.12666193
0.0256891 -0.032264974 7.1940594e-06 -0.010558422 0.06498569 0.00872704 -0.06218466 0.011514583
0.03229976 -0.02333111 0.075317584 0.053775836 0.05600237 0.096183896 -0.14680506 -0.04090672
0.035320226 0.06973 0.0929711 -0.023922576 -0.020899467 0.029966006 -0.02937497 -0.09693281
0.04806621 0.157449 0.004715492 -0.03586069 -0.06659509 0.034990616 0.057064977 0.036097396
-0.06881202 -0.08006942 -0.103182316 -0.069343574 0.06276545 0.08194492 0.05744306 -0.015936343
-0.09793446 0.018194353 -0.021048913 0.073883064 0.037995197 0.015711032 0.12609574 -0.026104877
0.11216514 0.1750079 0.010231617 0.05350984 -0.0692063 -0.021286262 -0.04365581 -0.06452237
0.033300057 0.06338198 -0.053551003 -0.053993724 0.01147276 0.031373974 0.102854975 0.03109172
-0.059724607 -0.02537814 0.019202268 -0.047711015 0.0460575 -0.053900227 -0.017713185 0.069201164
-0.035788547 0.016771037 -0.0081115225 0.026395464 -0.13834274 -0.03440464 0.031201279 0.0627215
0.09170845 0.031058945 -0.034530737 0.086872324 -0.098640226 -0.018460497 0.049933497 0.05733118
0.03205706 -0.01101394 -0.007314881 -0.011065409 -0.11152083 -0.041797128 0.15530637 0.024947861
0.030121809 0.065639004 -0.0010022505 -0.065892585 -0.060827814 0.039720174 0.00017714298 0.11513354
-0.064941764 0.034363057 0.01284141 -0.07128482 -0.015046779 -0.04159403 0.05784329 -0.113995865
-0.09415336 0.07474856 0.17605077 -0.078216925 -0.059939038 -0.088344574 0.1458282 -0.029261885
0.046074916 0.0055035735 0.0630892 0.02145228 0.009191014 0.03568111 0.095390394 7.3412615e-05
0.07541292 -0.01282238 -0.14907883 0.020307083 -0.061831925 0.009689903 0.009563809 0.004431493
-0.068426654 0.10636329 -0.15325126 -0.039328508 0.12411002 -0.0054771104 -0.047856905 0.013765922
-0.0898589 0.023295216 0.19426814 0.04965753 -0.09355132 -0.018399745 -0.034962554 -0.07365736
0.023648532 0.064015485 0.08452141 0.105116494 0.10411857 0.056594487 0.03023487 -0.07072614
-0.004869487 0.0627889 0.11520627 0.0420721 0.021330556 -0.02413333 -0.059642043 0.05771993
0.03037682 -0.078817725 0.009788733 0.039674927 0.033706117 -0.104781866 0.07226555 0.05484088
-0.09305615 -0.023747414 0.055336464 0.1689788 0.03456399 -0.105143316 -0.042463083 0.04859379
-0.051289562 0.08347859 -0.07497048 -0.076873235 0.019334743 -0.01679601 -0.0071283504 0.03047921
0.08086971 0.0057926243 -0.089819334 0.061178803 0.18751651 -0.041925453 0.11194691 0.02457872
-0.009915426 -0.06306235 -0.08011646 0.04376273 0.068282634 -0.04417793 0.042062726 -0.072723016
-0.06750829 -0.0045761354 0.022344325 0.06950718 0.0058015184 -0.026050013 0.083851285 -0.02557337
-0.02598878 0.04101562 0.04114866 0.013135647 0.060287308 -0.021846713 -0.05897731 0.06535264
0.20718203 -0.04941386 0.14025562 0.0305315 -0.05638783 0.03045045 -0.01779532 -0.09419865
0.0024678556 0.075991645 -0.077220224 0.023336273 -0.01945992 0.105194 -0.044666365 -0.05128357

lstm.bias_ih_l0 f4 [256]
00000000: 1225 5c3c dad6 b73c c35a 163d 7bf2 6d3c
00000010: e35d 1ebd 0e82 8dbc b0b2 77bd 7778 03bd
00000020: 4dc0 e9bc d128 473b 0291 483d 83f9 a13d
00000030: b138 233d 1536 4abd ad51 9ebb 1b2f 32bd
00000040: 27dc 0c3e 578d 873d eeeb 453d 2dfc bc3b
00000050: 3f9d f03c 7872 cdbc b29c 4d3b a8f1 fe3c
00000060: 201a 95bc 9adc 24bd 86e6 a23d 9e02 c33c
00000070: 118b 023d c174 323b 249b 67bd c46f fcbc
00000080: a76c e53d af22 b03d 915c 5f3d e02a c13c
00000090: acc8 ca3b 3aae 473c bb28 cb3b 8131 09bb
000000a0: 0759 433d 12a0 77bd d8e0 f2bb d09c 913b
000000b0: ff6b 4abc 2f33 7a3b 9356 4cbc f620 bc3c
000000c0: e00a 60bc d2e6 e7bc 1cd6 813d 4c3b 5a3d
000000d0: fd19 b7bc dc8d f83c b35f 82bd 803e 80bb
000000e0: bd31 abbc 75c4 f53b b2a4 49bc 4808 17bc
000000f0: 5870 afbc ffb5 203d 4b58 12bd d7f0 163d
00000100: a991 e53c 7d0b 0b3c a613 893d c4e0 243d
00000110: a61b fabc 6032 efbc a51c 34bd 312b a9bb
00000120: 3cd0 33bc 2eec 7b3c fab5 863d 59ee b93d
00000130: 3039 1a3d 0b5a 69bc 6077 23bc cf0a d63c
00000140: 10b8 0c3e 3845 9a3d 065d b13c b31b a5bc
00000150: 9613 5c3d 91c1 2e3c 7ddc 95bb ab1a 303d
00000160: 783e 11bc 55f2 cabc a0d2 273d 7b2a 593b
00000170: 3a50 403d 4fae 82bc af00 02bc e0b9 7e3c
00000180: 03bf 053e 9ccd d33d d6d8 473d dace 3a3d
00000190: b71d 853b dcfd 883c 4172 d73c 9818 55bc
000001a0: ea5d dc3d d22f c0bc 3ff7 823c 2f02 8a3d
000001b0: 3fde 0cbc 8d99 26bb 80c2 87bc ecee dc3c
000001c0: 0a23 e0bc 218a 883c bec2 593d c2d9 473c
000001d0: 1121 2ebb 0c6f 7d3d 62f1 a63c 3d56 ee3b
000001e0: c6c0 493b 9ba1 6a39 f2bb 1bbc 0765 3cbb
000001f0: 18e0 22bc 241c e73c 0b42 c0bc d3c7 9c3d
00000200: 89ef fbbc c9de 093d f681 88bc 9b37 ee3c
00000210: 5107 c6bc 3abd 353c 8369 df3b c9bb 993b
00000220: d4f1 dc3b f5c0 d93b db93 8e3d 510e 08bd
00000230: 28bd 2e3c 4e77 bab9 14bc 99bc a6aa d03c
00000240: 7771 86bd 601f 33bd 2878 883d eaf7 46bd
00000250: 089f aabd 623b 0fbc 6004 55bd 97a3 0fbd
00000260: bf3b ab3b ee93 b93b bd35 4c3d 415e 02bc
00000270: a850 6fbd b20e 5d3b a4f0 b73c f226 80bc
00000280: 87ab 8e3c c7f9 243d 89fa 8bbd 1d98 98bb
00000290: f4e7 28bd 88cf 63bb 5eff 2b3d 68d2 cf3c
000002a0: 4dbc 7dbc b7d7 e03c 467f 0a3d fd21 343d
000002b0: 556e d33c ef69 bcbc 21d3 28bd 2065 abbc
000002c0: 3dca 68bc 1643 863c 82f3 8fbc e1f2 dfbc
000002d0: 85a5 f03c 54af 29bd 6168 153c d436 cc3c
000002e0: 01d6 ea3c 030a 77bc 4a00 273d 6d9b dd3c
000002f0: 2940 b03c 45c4 7dbc 814a e4bc b180 efbc
00000300: 2d9e af3b 7f42 22bc 78a8 4c3d ad6a f0ba
00000310: 8b55 98bc d0d4 1cbc 2835 4ebd 50f3 19bb
00000320: aded f8bc ad94 f53c f23b 4d3d e360 bf3d
00000330: 9b4d 3d3d 7a3d 693b 15a7 dfbb 1870 713d
00000340: 4fbd eb3d 7da0 703d a0ae ac3c f734 a03b
00000350: 5a27 973d b37f fc3c 88d5 303c 32e5 c13c
00000360: 5cfc b6bc 9aa7 b5bc f0a9 a93d 7a4b e83c
00000370: 4f7f cd3c 7b67 d03b c62a f63c b66a 1ebc
00000380: c955 a83d 2d01 ee3d 906c 8e3d dc26 5d3d
00000390: 1ef2 14bc 3f7e 973c fe0a f03c 4684 14bc
000003a0: fcb3 dc3d e4a7 1c3c 4c0d edbb e798 173d
000003b0: 3272 9b3b 98c2 f13a 8102 93bc 4150 fe3c
000003c0: c36d 58bc 2251 1ebd 66cf 423d 28be 973d
000003d0: a9b8 9cbc d1ab e83d 5d96 a83c ac48 cdbb
000003e0: b492 b0bc 6470 8dbb 2492 973b 36e3 f13c
000003f0: c12b ad3c 7776 c93c 171a fabc ddbc a33d
0.013436573 0.022441316 0.03670765 0.014523144 -0.038663756 -0.017273929 -0.060473144 -0.032097306
-0.028534079 0.0030389319 0.048966415 0.07908919 0.039848987 -0.049367983 -0.004831514 -0.043501955
0.13755856 0.06618755 0.048320703 0.0057673664 0.029371856 -0.025078997 0.0031373915 0.03112109
-0.018200934 -0.040249445 0.07954125 0.023804959 0.031870905 0.0027230235 -0.056544438 -0.030815013
0.112023644 0.08600365 0.054531638 0.023580015 0.0061884727 0.012187535 0.006199924 -0.0020934048
0.047692325 -0.06045539 -0.0074120574 0.0044437423 -0.01235485 0.003817748 -0.012471813 0.022964936
-0.013674468 -0.028308306 0.06339666 0.053279206 -0.02235126 0.030341081 -0.063659094 -0.0039137006
-0.02089774 0.007500226 -0.012307333 -0.009218283 -0.021415874 0.039236065 -0.035728734 0.036850777
0.028023558 0.008486626 0.06693201 0.040253416 -0.030530762 -0.029198825 -0.04397263 -0.0051626195
-0.01097494 0.015376134 0.06577678 0.09078664 0.037652194 -0.014242659 -0.009977192 0.0261282
0.1374209 0.07532734 0.021650802 -0.02015481 0.053729616 0.010666267 -0.0045734034 0.042994183
-0.008864991 -0.024773756 0.040972352 0.0033136893 0.04695151 -0.015952257 -0.007934733 0.015547246
0.13061146 0.10341951 0.048790775 0.045607425 0.00406238 0.016722612 0.026299598 -0.013006352
0.107601 -0.023460303 0.015987037 0.06738698 -0.0085979095 -0.0025421113 -0.016572237 0.026969396
-0.027360458 0.016667427 0.053164236 0.012197914 -0.0026570002 0.06187348 0.020378772 0.007273464
0.0030785068 0.00022376182 -0.009505259 -0.002874674 -0.009941123 0.02821166 -0.023468992 0.07655301
-0.030753868 0.03365973 -0.016663533 0.02907925 -0.02417341 0.011092478 0.006817998 0.004691575
0.0067426953 0.0066453167 0.06961795 -0.03321678 0.010665216 -0.00035565573 -0.01876644 0.025471997
-0.065646105 -0.043731093 0.06663543 -0.048576273 -0.08331114 -0.008742185 -0.052006125 -0.03506812
0.005225628 0.0056633865 0.049855936 -0.007957042 -0.05842653 0.0033730683 0.022453614 -0.01564357
0.017415775 0.04027727 -0.06834895 -0.004656805 -0.041236833 -0.003476115 0.041991584 0.025368884
-0.015486789 0.02744661 0.033812784 0.043977726 0.025809446 -0.022999732 -0.041216973 -0.020922244
-0.014208374 0.016389411 -0.017572168 -0.027337493 0.0293758 -0.04142697 0.009119124 0.024928488
0.028666498 -0.015078071 0.04077176 0.027051652 0.021514969 -0.015488689 -0.027867557 -0.02923617
0.005359432 -0.009903549 0.04996535 -0.0018342339 -0.018595478 -0.009572223 -0.050343663 -0.0023490973
-0.03038677 0.02997812 0.050105996 0.093446516 0.04621659 0.0035589621 -0.0068253377 0.05894479
0.11510717 0.058746804 0.021079361 0.0048891264 0.073805526 0.03082261 0.010793097 0.02366886
-0.022337131 -0.022174645 0.08284366 0.028356303 0.02508512 0.006359992 0.030049693 -0.009668997
0.08219487 0.11621318 0.069543004 0.053992137 -0.009090928 0.018492816 0.029302116 -0.00906474
0.10776517 0.009561513 -0.007234251 0.037011053 0.0047438378 0.0018444834 -0.01794553 0.031044127
-0.013209763 -0.038651593 0.04756107 0.07409316 -0.019131022 0.113608964 0.020579511 -0.0062647667
-0.021554329 -0.0043163765 0.0046255756 0.029527288 0.021139028 0.024592621 -0.030530019 0.07995007

lstm.bias_hh_l0 f4 [256]
00000000: 1225 5c3c dad6 b73c c35a 163d 7bf2 6d3c
00000010: e35d 1ebd 0e82 8dbc b0b2 77bd 7778 03bd
00000020: 4dc0 e9bc d128 473b 0291 483d 83f9 a13d
00000030: b138 233d 1536 4abd ad51 9ebb 1b2f 32bd
00000040: 27dc 0c3e 578d 873d eeeb 453d 2dfc bc3b
00000050: 3f9d f03c 7872 cdbc b29c 4d3b a8f1 fe3c
00000060: 201a 95bc 9adc 24bd 86e6 a23d 9e02 c33c
00000070: 118b 023d c174 323b 249b 67bd c46f fcbc
00000080: a76c e53d af22 b03d 915c 5f3d e02a c13c
00000090: acc8 ca3b 3aae 473c bb28 cb3b 8131 09bb
000000a0: 0759 433d 12a0 77bd d8e0 f2bb d09c 913b
000000b0: ff6b 4abc 2f33 7a3b 9356 4cbc f620 bc3c
000000c0: e00a 60bc d2e6 e7bc 1cd6 813d 4c3b 5a3d
000000d0: fd19 b7bc dc8d f83c b35f 82bd 803e 80bb
000000e0: bd31 abbc 75c4 f53b b2a4 49bc 4808 17bc
000000f0: 5870 afbc ffb5 203d 4b58 12bd d7f0 163d
00000100: a991 e53c 7d0b 0b3c a613 893d c4e0 243d
00000110: a61b fabc 6032 efbc a51c 34bd 312b a9bb
00000120: 3cd0 33bc 2eec 7b3c fab5 863d 59ee b93d
00000130: 3039 1a3d 0b5a 69bc 6077 23bc cf0a d63c
00000140: 10b8 0c3e 3845 9a3d 065d b13c b31b a5bc
00000150: 9613 5c3d 91c1 2e3c 7ddc 95bb ab1a 303d
00000160: 783e 11bc 55f2 cabc a0d2 273d 7b2a 593b
00000170: 3a50 403d 4fae 82bc af00 02bc e0b9 7e3c
00000180: 03bf 053e 9ccd d33d d6d8 473d dace 3a3d
00000190: b71d 853b dcfd 883c 4172 d73c 9818 55bc
000001a0: ea5d dc3d d22f c0bc 3ff7 823c 2f02 8a3d
000001b0: 3fde 0cbc 8d99 26bb 80c2 87bc ecee dc3c
000001c0: 0a23 e0bc 218a 883c bec2 593d c2d9 473c
000001d0: 1121 2ebb 0c6f 7d3d 62f1 a63c 3d56 ee3b
000001e0: c6c0 493b 9ba1 6a39 f2bb 1bbc 0765 3cbb
000001f0: 18e0 22bc 241c e73c 0b42 c0bc d3c7 9c3d
00000200: 89ef fbbc c9de 093d f681 88bc 9b37 ee3c
00000210: 5107 c6bc 3abd 353c 8369 df3b c9bb 993b
00000220: d4f1 dc3b f5c0 d93b db93 8e3d 510e 08bd
00000230: 28bd 2e3c 4e77 bab9 14bc 99bc a6aa d03c
00000240: 7771 86bd 601f 33bd 2878 883d eaf7 46bd
00000250: 089f aabd 623b 0fbc 6004 55bd 97a3 0fbd
00000260: bf3b ab3b ee93 b93b bd35 4c3d 415e 02bc
00000270: a850 6fbd b20e 5d3b a4f0 b73c f226 80bc
00000280: 87ab 8e3c c7f9 243d 89fa 8bbd 1d98 98bb
00000290: f4e7 28bd 88cf 63bb 5eff 2b3d 68d2 cf3c
000002a0: 4dbc 7dbc b7d7 e03c 467f 0a3d fd21 343d
000002b0: 556e d33c ef69 bcbc 21d3 28bd 2065 abbc
000002c0: 3dca 68bc 1643 863c 82f3 8fbc e1f2 dfbc
000002d0: 85a5 f03c 54af 29bd 6168 153c d436 cc3c
000002e0: 01d6 ea3c 030a 77bc 4a00 273d 6d9b dd3c
000002f0: 2940 b03c 45c4 7dbc 814a e4bc b180 efbc
00000300: 2d9e af3b 7f42 22bc 78a8 4c3d ad6a f0ba
00000310: 8b55 98bc d0d4 1cbc 2835 4ebd 50f3 19bb
00000320: aded f8bc ad94 f53c f23b 4d3d e360 bf3d
00000330: 9b4d 3d3d 7a3d 693b 15a7 dfbb 1870 713d
00000340: 4fbd eb3d 7da0 703d a0ae ac3c f734 a03b
00000350: 5a27 973d b37f fc3c 88d5 303c 32e5 c13c
00000360: 5cfc b6bc 9aa7 b5bc f0a9 a93d 7a4b e83c
00000370: 4f7f cd3c 7b67 d03b c62a f63c b66a 1ebc
00000380: c955 a83d 2d01 ee3d 906c 8e3d dc26 5d3d
00000390: 1ef2 14bc 3f7e 973c fe0a f03c 4684 14bc
000003a0: fcb3 dc3d e4a7 1c3c 4c0d edbb e798 173d
000003b0: 3272 9b3b 98c2 f13a 8102 93bc 4150 fe3c
000003c0: c36d 58bc 2251 1ebd 66cf 423d 28be 973d
000003d0: a9b8 9cbc d1ab e83d 5d96 a83c ac48 cdbb
000003e0: b492 b0bc 6470 8dbb 2492 973b 36e3 f13c
000003f0: c12b ad3c 7776 c93c 171a fabc ddbc a33d
0.013436573 0.022441316 0.03670765 0.014523144 -0.038663756 -0.017273929 -0.060473144 -0.032097306
-0.028534079 0.0030389319 0.048966415 0.07908919 0.039848987 -0.049367983 -0.004831514 -0.043501955
0.13755856 0.06618755 0.048320703 0.0057673664 0.029371856 -0.025078997 0.0031373915 0.03112109
-0.018200934 -0.040249445 0.07954125 0.023804959 0.031870905 0.0027230235 -0.056544438 -0.030815013
0.112023644 0.08600365 0.054531638 0.023580015 0.0061884727 0.012187535 0.006199924 -0.0020934048
0.047692325 -0.06045539 -0.0074120574 0.0044437423 -0.01235485 0.003817748 -0.012471813 0.022964936
-0.013674468 -0.028308306 0.06339666 0.053279206 -0.02235126 0.030341081 -0.063659094 -0.0039137006
-0.02089774 0.007500226 -0.012307333 -0.009218283 -0.021415874 0.039236065 -0.035728734 0.036850777
0.028023558 0.008486626 0.06693201 0.040253416 -0.030530762 -0.029198825 -0.04397263 -0.0051626195
-0.01097494 0.015376134 0.06577678 0.09078664 0.037652194 -0.014242659 -0.009977192 0.0261282
0.1374209 0.07532734 0.021650802 -0.02015481 0.053729616 0.010666267 -0.0045734034 0.042994183
-0.008864991 -0.024773756 0.040972352 0.0033136893 0.04695151 -0.015952257 -0.007934733 0.015547246
0.13061146 0.10341951 0.048790775 0.045607425 0.00406238 0.016722612 0.026299598 -0.013006352
0.107601 -0.023460303 0.015987037 0.06738698 -0.0085979095 -0.0025421113 -0.016572237 0.026969396
-0.027360458 0.016667427 0.053164236 0.012197914 -0.0026570002 0.06187348 0.020378772 0.007273464
0.0030785068 0.00022376182 -0.009505259 -0.002874674 -0.009941123 0.02821166 -0.023468992 0.07655301
-0.030753868 0.03365973 -0.016663533 0.02907925 -0.02417341 0.011092478 0.006817998 0.004691575
0.0067426953 0.0066453167 0.06961795 -0.03321678 0.010665216 -0.00035565573 -0.01876644 0.025471997
-0.065646105 -0.043731093 0.06663543 -0.048576273 -0.08331114 -0.008742185 -0.052006125 -0.03506812
0.005225628 0.0056633865 0.049855936 -0.007957042 -0.05842653 0.0033730683 0.022453614 -0.01564357
0.017415775 0.04027727 -0.06834895 -0.004656805 -0.041236833 -0.003476115 0.041991584 0.025368884
-0.015486789 0.02744661 0.033812784 0.043977726 0.025809446 -0.022999732 -0.041216973 -0.020922244
-0.014208374 0.016389411 -0.017572168 -0.027337493 0.0293758 -0.04142697 0.009119124 0.024928488
0.028666498 -0.015078071 0.04077176 0.027051652 0.021514969 -0.015488689 -0.027867557 -0.02923617
0.005359432 -0.009903549 0.04996535 -0.0018342339 -0.018595478 -0.009572223 -0.050343663 -0.0023490973
-0.03038677 0.02997812 0.050105996 0.093446516 0.04621659 0.0035589621 -0.0068253377 0.05894479
0.11510717 0.058746804 0.021079361 0.0048891264 0.073805526 0.03082261 0.010793097 0.02366886
-0.022337131 -0.022174645 0.08284366 0.028356303 0.02508512 0.006359992 0.030049693 -0.009668997
0.08219487 0.11621318 0.069543004 0.053992137 -0.009090928 0.018492816 0.029302116 -0.00906474
0.10776517 0.009561513 -0.007234251 0.037011053 0.0047438378 0.0018444834 -0.01794553 0.031044127
-0.013209763 -0.038651593 0.04756107 0.07409316 -0.019131022 0.113608964 0.020579511 -0.0062647667
-0.021554329 -0.0043163765 0.0046255756 0.029527288 0.021139028 0.024592621 -0.030530019 0.07995007

output_net.0.weight f4 [32, 64]
00000000: 782d 1cbe 7793 0cbe 03f5 18be 29d0 cabd
00000010: 6dac 143f 1942 323d 5803 25bd c93b 4e3e
00000020: 2591 3b3e 3351 a33e bc34 1e3e fb36 42be
00000030: 0799 773c 8638 44bd 8730 d2bd 3396 cfbd
00000040: a20a 4bbd 8ef8 163e 491e 0b3e 08c2 42be
00000050: 37e6 fdbd df51 27be 845a 50be 5516 c7bc
00000060: 8a7a 12be 88c5 85bd d7a7 c7be 4ec0 233e
00000070: 7d93 77bd 935a 0e3e d3f6 a23e 5bbc 033d
00000080: 98e7 4cbe 7f39 63bd 5576 363e ab1a 70bd
00000090: 0039 9ebe 2c25 39be 4f9a 0a3e 641b 46be
000000a0: a851 4f3d 6e44 60bd e24f 0dbd 13c3 9abc
000000b0: 8bc6 8a3e 9c9a 533e 15c6 a23e b840 84bc
000000c0: 778d 973d 4f1f a13d 817a d6bd 0058 133e
000000d0: 0d2f 12bc 5964 88be ce1c 90be 4626 b73e
000000e0: c5dc 6b3c 19b7 24be 9913 24be a271 06be
000000f0: 6503 5ebe 1873 2c3e 1448 8dbd ce64 263e
00000100: f6d1 053e adf7 073e 24f7 263e 75e7 eb3b
00000110: f7ab 57be 4af0 963d 4a50 e5bb 14a0 5bbe
00000120: c0b7 49be cf8c 18be e5f7 ac3e 3a9c 093e
00000130: 4372 08be 281f 483e ad30 693e 4459 8bbc
00000140: 1ff7 15be 5106 7d3e d61e 213e f3af a3be
00000150: 8f59 28be f7a5 3cbd bb5f 90be e55f 87be
00000160: 1640 aebe 5651 af3c 9529 ab3d e9e6 9b3e
00000170: 180c 193e f3c2 dcbd bb23 07be c9ad ae3d
00000180: 1b84 e03d bcb5 083f 20b4 503d d3f8 323d
00000190: 2c89 cebd 4911 dc3d 91d6 9b3c 1d69 5dbe
000001a0: 4928 10be c596 783d 26c5 7c3e 3077 413d
000001b0: 9c66 abbc e098 2f3e 8924 aebd 518a fd3d
000001c0: be97 47be 91c5 2ebd 64f0 e13c 8c30 2f3e
000001d0: 56e7 1e3e 5351 d23b fb1a 75bd 19d2 6bbd
000001e0: 0e8a 6b3c baae 063d 79f6 f83c 4864 a23d
000001f0: 6769 923d 5b57 0f3e 619b 163d 6247 2d3d
00000200: da70 5d3d ce3a 76bd db88 f33b f2f3 563d
00000210: ff67 5abe 44df 8bbd 44a0 4abe 46c1 de3c
00000220: ae80 743e bb99 a5bd 6398 0dbe da04 9abe
00000230: c7e4 033d 4ff1 08be 2611 bf3c 0d07 d3be
00000240: a24a 373e a80f 65bd c16a 9f3d c4ca 373e
00000250: a0ef 16bd c427 033e a209 d6be e549 b83d
00000260: 1b05 67bd 9892 983c 4710 c13d c4f4 cb3c
00000270: 615d 94be b792 33bd 8c04 20be 7a79 923e
00000280: 32cc 82bd c393 16be 3d42 dfbd e240 96bd
00000290: 7107 613c c011 e13b fbb3 153e 7583 0fbe
000002a0: b3ce 3ebd 0aae edbd 0e0a cf3e 82c2 d33c
000002b0: 63ae c43c b339 9d3d 19ce aa3c 32d8 50bd
000002c0: 2560 fcbd 8d32 d83e 3d28 0e3e d914 61be
000002d0: eb5d 743b 6389 d3bc 71b0 4c3e 5a50 383d
000002e0: 6f62 b33e 3ad4 473e 31bb c93c 0c3a 4bbe
000002f0: d883 e5bd 5f6c a8be a2be 8dbd da64 d3bd
00000300: 9043 90be 4e77 94be 52a0 c23d e9e6 39be
00000310: cd0c a13e c449 84bc 541f febd 7936 223d
00000320: 9593 58be 6be0 e4bd 5519 b63e b8ad c9bc
00000330: 7f10 a7bd dc1f da3d 9197 1e3e 72b4 d33d
00000340: c4cc ebbd 74f6 1ebe 4745 28bd 408b 7ebe
00000350: a689 0bbe 408c df3d eeb2 08be d2dc bcbe
00000360: 93e1 fb3e 2491 cc3e 7c17 0e3e f0af 59bd
00000370: f2e5 393d d150 a2bd 06c5 77be 21df 983e
00000380: 44e6 9abc ab94 943d 28ed 97be aa7f f13d
00000390: 8167 fb3d 9de1 8fbe 749c dbbd a106 1abd
000003a0: f4ad bf3d 3b56 0cbd 3d84 c9be 0e9c edbd
000003b0: ad60 b5bd 9bac bebd f236 30be 13a8 7cbd
000003c0: cde7 11be 77ad 5abc f73e 00be 2393 043e
000003d0: 8ccb afbd a322 90be 093b 723e b1e7 02be
000003e0: b17e d7bc 8fb5 a3be 5282 293e e8e7 cbbe
000003f0: a619 df3d 7d47 083d 00c1 423d 3547 fabd
-0.1525172 -0.13728128 -0.14937215 -0.09902985 0.580756 0.043520067 -0.040286392 0.20139994
0.18317087 0.31897888 0.15449804 -0.18966286 0.015112168 -0.047905467 -0.10263162 -0.1013607
-0.049570687 0.14743254 0.13585772 -0.1901933 -0.123974256 -0.16339825 -0.20347029 -0.02430264
-0.14304557 -0.06531817 -0.3899524 0.15991327 -0.06044339 0.13901739 0.31828937 0.03216205
-0.20010221 -0.055474754 0.17818578 -0.058619183 -0.30902863 -0.18080586 0.13535427 -0.19346386
0.050614983 -0.05475276 -0.03450001 -0.018891847 0.271046 0.20664448 0.3179175 -0.016144142
0.07400029 0.078673 -0.104725845 0.14389038 -0.008922351 -0.2663906 -0.28146976 0.35771388
0.014395897 -0.16085471 -0.16023101 -0.13129285 -0.21680982 0.1684078 -0.068985134 0.16249391
0.13068375 0.13278075 0.16305214 0.0071992227 -0.21061693 0.0737005 -0.0069980966 -0.21447784
-0.19699001 -0.14897464 0.3378288 0.13438502 -0.13324837 0.19543135 0.22772475 -0.017010339
-0.1464505 0.24709441 0.15734419 -0.31970176 -0.16440414 -0.046056714 -0.28198037 -0.2644035
-0.3403327 0.021401089 0.083575405 0.30449608 0.1494602 -0.10779371 -0.13197224 0.08529241
0.10962697 0.53402305 0.05095303 0.04369433 -0.10084757 0.107454844 0.019023212 -0.21622129
-0.14077868 0.06069066 0.24684581 0.047232807 -0.020922951 0.17148161 -0.08503062 0.123798974
-0.19491479 -0.042668883 0.027580447 0.17108363 0.15517935 0.006418386 -0.059840184 -0.05757341
0.0143761765 0.032881476 0.030390965 0.079292834 0.0714901 0.13998167 0.036769275 0.042304404
0.0540627 -0.060114674 0.007432086 0.052478738 -0.21328734 -0.06829694 -0.19787699 0.02719177
0.23877212 -0.080859624 -0.13827662 -0.30081826 0.0322006 -0.13373302 0.023323607 -0.41216317
0.17899564 -0.055923134 0.077840336 0.17948443 -0.036849618 0.12808138 -0.41804224 0.08998469
-0.056401353 0.018624589 0.09426933 0.024896987 -0.28977492 -0.04384109 -0.15626734 0.28608304
-0.063866034 -0.14704804 -0.10901306 -0.07336594 0.013734684 0.006868571 0.14619438 -0.1401499
-0.046583842 -0.11605461 0.4043736 0.025849584 0.024008935 0.07677021 0.020850228 -0.05098743
-0.123230256 0.42226067 0.13882537 -0.21980609 0.0037287425 -0.025822347 0.19989182 0.044998504
0.35036036 0.19514552 0.024625393 -0.19846362 -0.11206788 -0.3289518 -0.06921126 -0.1032197
-0.28176546 -0.28997272 0.09503235 -0.18154491 0.3145508 -0.016148455 -0.12408319 0.03960273
-0.21150048 -0.11175617 0.35566202 -0.024618968 -0.08157443 0.10650608 0.15487505 0.103371516
-0.11513665 -0.15523702 -0.041081693 -0.24857807 -0.13626727 0.109154224 -0.13349506 -0.36887223
0.49195537 0.39954484 0.13876146 -0.053146303 0.04538531 -0.07925571 -0.24196252 0.29857734
-0.018908627 0.07254919 -0.29673123 0.11791928 0.12275601 -0.28101817 -0.107232004 -0.037603978
0.09359351 -0.034261923 -0.39358702 -0.11602031 -0.0885633 -0.09310266 -0.1720846 -0.061683726
-0.14248581 -0.013347021 -0.12524019 0.12946753 -0.08583745 -0.28151426 0.23655333 -0.12783696
-0.026305528 -0.31974456 0.1655362 -0.39825368 0.10893564 0.0332713 0.04754734 -0.12220613

output_net.0.bias f4 [32]
00000000: b153 253c 9c77 253c f9eb 86bb 1bba efbc
00000010: 14c1 08bb b43b 76bc 7335 913c 16c9 c8bb
00000020: d462 803c 2542 373b 24bf aebb 6b05 393c
00000030: 887c ffbb 76b3 1ebb b418 913c a5e6 51bb
00000040: 158c 303c 547d 2abc 812e bcbc 50bd 6fbb
00000050: aad8 46bb b097 733c 106a b83b b38b cfbb
00000060: 9997 cbba dfd5 b5bc 0ca0 18bc 2272 90bc
00000070: 2d6a e3b9 7b42 f4b9 ea52 dc3b 8521 1d3c
0.010090754 0.010099318 -0.0041174856 -0.029263547 -0.0020867037 -0.015028883 0.017725682 -0.006127487
0.015672125 0.002796301 -0.0053328443 0.011292796 -0.0077968277 -0.0024215854 0.017711975 -0.0032028344
0.010775586 -0.010405857 -0.022971394 -0.0036581345 -0.0030341544 0.014867708 0.005627878 -0.006333792
-0.001553285 -0.022196708 -0.009315502 -0.017632548 -0.0004337592 -0.00046588838 0.0067237513 0.009590511

output_net.1.weight f4 [32]
00000000: c479 493f 7b57 ad3f 0a9d 4b3f 011c 9d3f
00000010: f689 613f 7622 b23f 181f a43f 3e15 9f3f
00000020: dd3a a43f 8a82 713f 6c2c a73f 5932 573f
00000030: bc95 ae3f 118a a53f 5e6c a53f d01d b03f
00000040: e043 a33f 4280 5d3f 2af7 993f 1fcd a93f
00000050: 0c94 9f3f 0408 a13f 39f6 963f be1e 983f
00000060: 52b0 713f a009 5d3f b64a 9d3f fba1 9a3f
00000070: 959d 543f 4851 4b3f a339 9d3f 4fac ae3f
0.78701425 1.3542322 0.795365 1.2274171 0.88101137 1.3916767 1.2821989 1.2428358
1.2830464 0.9433981 1.3060431 0.840612 1.3639445 1.293276 1.2923696 1.3759098
1.2755089 0.8652383 1.2028553 1.3265723 1.2467055 1.2580571 1.1793891 1.1884382
0.9440967 0.8634281 1.2288425 1.2080683 0.8305295 0.794209 1.2283214 1.3646334

output_net.1.bias f4 [32]
00000000: c5de 71be cf44 c43e 4fba 78be 30a0 843e
00000010: 99bb d7bd 6e72 ce3e 2d58 a03e 3edf 863e
00000020: 76a4 a73e 2e6e 84bd 71b1 9c3e bf8b 28be
00000030: 4e97 c43e 2422 ba3e c619 a93e 379e d33e
00000040: c204 963e 12e8 febd 2d24 773e e4b8 bd3e
00000050: 59fb 8f3e 3910 9f3e 78ff 3f3e aba4 543e
00000060: 3a4f 24bd 26bb 03be 05cc 843e 633f 813e
00000070: 542a 32be c111 73be aad5 783e 58c6 d53e
-0.23620136 0.38333747 -0.24289821 0.25903463 -0.10533828 0.40321678 0.31317273 0.26342195
0.3274266 -0.064663276 0.30604127 -0.16459559 0.38396686 0.36354172 0.33027476 0.41331646
0.29300505 -0.12446608 0.24134894 0.37055123 0.2812145 0.31067064 0.18749797 0.20765941
-0.04011462 -0.1286436 0.25936905 0.25243673 -0.1739896 -0.23737241 0.24300256 0.41752887

output_net.1.running_mean f4 [32]
00000000: 49e4 c7bd 46c7 12be cd91 293e ddc3 09be
00000010: ec26 0ebf a37e 16be 6f98 a1be 940f 803d
00000020: 70e6 ee3c 4ee3 4ebe f7b2 3cbe 3b0d 633d
00000030: f74f f23c 2280 a8bd ca1d 4f3e 0d0d 1e3e
00000040: cf13 703d 3826 14bf 2299 efbe b617 843e
00000050: 49c0 0d3d a426 b6bd 6ad1 1fbf e2c4 3abd
00000060: 9ee0 db3e b3b6 d0be 7e0d ffbd 2083 04bf
00000070: e87b 013e 38bd 8c3e 5adc d73d 9090 33be
-0.09760339 -0.1433383 0.16559525 -0.13453622 -0.5552814 -0.14696746 -0.3156161 0.06252971
0.029162616 -0.20203897 -0.18427645 0.05543254 0.029579146 -0.082275644 0.20226207 0.15434666
0.05861264 -0.5787082 -0.4679652 0.2579934 0.034607206 -0.08894089 -0.62428916 -0.04559792
0.42944807 -0.40764388 -0.12453745 -0.5176258 0.12644923 0.27488112 0.105400756 -0.17535615

output_net.1.running_var f4 [32]
00000000: 9e10 2f3e d05a 1a3f 4ada b63e 7e8c e63f
00000010: 6675 8b3e 5b4e 3c3f 766c 063f 4dfa 543f
00000020: 7cd7 0c40 426d d93e 07de a63f b21b 9f3e
00000030: d533 563f 7c7d 0e3f c142 7a3f 9f65 593f
00000040: 2736 c93f 782b ea3e eb59 0c3f 70c3 7d3f
00000050: e19b 6d3f f6b7 273f 33c1 313f ba2d af3f
00000060: 9b28 563f d6d0 f73d 0db0 1c40 94d8 613e
00000070: 1101 8f3e ad4e e93e fa7f 0c40 c720 873e
0.17096183 0.6029482 0.35713416 1.8011625 0.27238005 0.7355706 0.5250925 0.8319443
2.2006521 0.4246617 1.3036507 0.31075817 0.8367284 0.55660224 0.9775811 0.84920686
1.5719651 0.4573629 0.54824704 0.9912634 0.9281598 0.6551508 0.69435424 1.368583
0.8365571 0.12100379 2.4482453 0.22055274 0.279305 0.45567837 2.195311 0.26392195
