E2NN/Trained_models_h64_s10_20250726_155156/vanillafnn_model.pth (torch, 37956 bytes, 20 tensors)

net.0.weight f4 [64, 9]
00000000: ee9a 1dbf 319e 3a3f 6350 56be 68b3 16be
00000010: 7010 60bf 4d07 be3d edc7 ce3d e10e 053f
00000020: 424d 753f aaae 653e cf78 f23d 5989 0bbd
00000030: 50fc 203f 4260 81bf 451c d4bd 3813 e53d
00000040: 9f59 6c3f 597d f6bd 4a3c 44bf 2b58 aebe
00000050: 16d9 7bbf 5e52 fabe f83e e23c 1227 373f
00000060: d85f 0ebf 7e06 763e fda0 81bf a45b 8ebe
00000070: e234 4b3f 57e0 1a3f 9874 3bbf c62f 7e3c
00000080: 1e1c 30bf 39a0 9f3e d4d6 a33e e428 d83d
00000090: 49ba 7ebd 19d2 453d 1f87 00bf 4b4c 203d
000000a0: 7b1f 02bf 86a6 b03e 8e78 7bbe 5832 c8be
000000b0: 8cc3 6bbe de67 13bf 984b 4d3f da7b d5bd
000000c0: f989 063e c2c3 03bf b8fb 983e 1551 e13c
000000d0: bc0c 49bf b5cb 17bf baa8 b8be 622b 293f
000000e0: 99b8 323f 35a0 8d3e 1cab 553b ce57 023e
000000f0: 76c2 833e ebbb a73e 5058 f13c a6e8 50bf
00000100: ee2b 69be 4d02 24bf 9d47 bcbe 5b16 87bf
00000110: 7ca4 19bf 84d0 ce3e 0161 3e3e 94cc b1be
00000120: 6b55 a938 033c 373f 8f65 55be 7701 c5be
00000130: 0679 e73e f78e 403f 6265 8dbe c001 cebe
00000140: 975b 34be dbb0 7dbf 670a 6d3e 9767 cd3e
00000150: dd51 92bf cb60 44be 923d cdbe 793b d83e
00000160: 56cf e1be 267e c2be 1653 fe3e 5fed 0ebf
00000170: 9a49 a03c 7248 d53e d7bc 4a3f f023 80bf
00000180: d488 77bd a763 9d3e b94e 373e 14b6 0c3f
00000190: a08f b73e 1937 1cbf e506 96be d90a c03e
000001a0: 2736 91bf 73bd c8be 32c8 553f 57f4 f93e
000001b0: b04a 27bf 306a 8d3f 2bd6 ba3e be8c 47bf
000001c0: 75ea f63e 743d b23c 1e94 60be d4ce d93e
000001d0: 5ce4 023f 748e 0ebf 2e7a 57be 81ce efbe
000001e0: 8b8c bc3e 4fbb 5dbf 6e78 da3e 2b20 883e
000001f0: c036 943f d599 1d3b 00d7 423f 477d a7be
00000200: ff5d 33bf 505f b83e e03d 9e3e 759c 313f
00000210: 4fb5 193e 3a99 acbe 83f5 a6be ce0d a8be
00000220: 127b 213f 4937 c23e 18cc 02bf aa33 0b3f
00000230: 4e0c cbbe 349d 8d3e 7f1c 8b3f c23e a43e
00000240: 25c9 4ebd 4a2c 7f3e c69d af3e 0ab0 f03e
00000250: 9ef9 0fbf 1b8b 6abf 09f0 173f aaf5 30be
00000260: c725 503f 09ad f7be 36c6 3abe f30e ae3e
00000270: 16df 423e adb9 87be e8c4 e33c 1e8f 633e
00000280: 185d 07be b943 c6be 5e84 54be 3720 f43d
00000290: 8072 30bf f415 203d 57ad 873e 8091 80bf
000002a0: 7d3e a93e 17f7 933f 855b a0be 3133 793e
000002b0: dfc7 12bf 073f 643e 74db 473e 7505 a4be
000002c0: 3abd 30bf 56ce 92bc a525 643f a245 753e
000002d0: c056 0b3f a629 4c3e 48ae e83e 343e c3be
000002e0: e130 04be a789 61bf 05e8 ec3e 3b67 5a3e
000002f0: 84e9 3f3e 2763 003e 35b3 e23d 0c1f 3f3f
00000300: 772d 9d3e 5653 9dbe 7d1e aebe 5647 78be
00000310: 67b8 c73e d1cc 2cbf 87a7 54bf e66d edbd
00000320: 9e22 aabe 636c d5be 1cac 04bf 1aa5 d7be
00000330: 01d4 cebe 4217 50bf df53 823f b41a 313e
00000340: 2738 1b3f 2f6c a23e 5aee c7bc 8d00 4b3f
00000350: 8e9e dabe 7b46 4cbf 67df a7bf 4309 c7be
00000360: 2eff 5e3f d5f6 cfbe 69b0 cbbd c54c dfbe
00000370: dfd5 3c3e 01ad 00bf 046b 1ebf b99d dd3e
00000380: e8a7 153e 5a72 22bc b546 2d3f 613c 5dbf
00000390: 2ea0 2fbf 36ae 263f 840e a83f 2495 333e
000003a0: 993a 75bf 0d1a df3e e8b7 cdbe ace6 413e
000003b0: 806c 93be 6537 493f 6072 ea3b 0515 cbbd
000003c0: 12b2 473e 07ae 3ebf c6e4 023f 1b52 3dbf
000003d0: 20b8 4d3e fc28 d93e dc92 8abe 4b8a 263e
000003e0: 89c5 d53d ac90 b43e bc02 9c3f c9e6 d73d
000003f0: 6c34 40bf c3f9 b93e 1393 ef3e d910 e3be
-0.6156453 0.7289763 -0.20929103 -0.14716876 -0.8752508 0.09278736 0.100967266 0.5197583
0.9582101 0.2242991 0.11839449 -0.03406653 0.62885 -1.01075 -0.103569545 0.11185306
0.9232425 -0.12035627 -0.76654494 -0.34051642 -0.9837812 -0.48890966 0.027617916 0.7154399
-0.55614996 0.24025914 -1.0127255 -0.2780429 0.7937757 0.60498565 -0.7322478 0.01551432
-0.68792903 0.31176928 0.31999838 0.10554674 -0.062189374 0.048296068 -0.5020618 0.03913526
-0.50829285 0.34502047 -0.24557707 -0.3910091 -0.23023814 -0.57580364 0.8019347 -0.104240134
0.1313857 -0.5147058 0.29879546 0.027504483 -0.78535056 -0.5929521 -0.36066228 0.6608182
0.69812924 0.2766129 0.003260321 0.12728807 0.257343 0.32760558 0.029461056 -0.81604993
-0.22770664 -0.6406601 -0.36773387 -1.0553697 -0.6001661 0.4039346 0.18591692 -0.34726393
8.074458e-05 0.71575946 -0.20839523 -0.3847768 0.4520952 0.7521815 -0.2761641 -0.4023571
-0.17613064 -0.99097985 0.231485 0.40118095 -1.1431233 -0.19177549 -0.40086037 0.42232874
-0.44103497 -0.3798687 0.49672765 -0.5583095 0.019566346 0.41656834 0.79194397 -1.0010967
-0.060433224 0.3074009 0.17901124 0.5496533 0.35851765 -0.6102157 -0.29302135 0.37508276
-1.1344651 -0.39207038 0.835086 0.4881923 -0.6534834 1.1048031 0.36491522 -0.7794913
0.48225752 0.021757819 -0.21931502 0.4254061 0.511297 -0.55686116 -0.21042702 -0.46837237
0.36825976 -0.86613935 0.42670006 0.26587042 1.1579208 0.002404799 0.76109314 -0.32712767
-0.700653 0.36010218 0.30906582 0.6937936 0.1501057 -0.33710653 -0.32609186 -0.32823032
0.63078415 0.37932804 -0.5109267 0.5437571 -0.39657825 0.27659 1.0868071 0.3207913
-0.050484795 0.24919239 0.3430006 0.47009307 -0.5624026 -0.9161851 0.5935064 -0.17281213
0.81307644 -0.48374203 -0.18239674 0.3399578 0.19030413 -0.26508847 0.027803853 0.22222564
-0.13219106 -0.38723543 -0.20753619 0.11920207 -0.68924713 0.039083436 0.26499435 -1.0044403
0.33055487 1.1559781 -0.31319824 0.24335934 -0.5733623 0.22289668 0.19517308 -0.32035413
-0.69038737 -0.017920654 0.8911994 0.23952344 0.54429245 0.19937763 0.45445466 -0.38133395
-0.12909271 -0.88100666 0.46270767 0.21328442 0.18741423 0.12537824 0.11069337 0.7465675
0.3069875 -0.30727643 -0.34007636 -0.24245963 0.39007875 -0.67500025 -0.83068126 -0.11593227
-0.33229536 -0.41684255 -0.5182512 -0.4211815 -0.4039612 -0.8128549 1.0181845 0.17295343
0.60632557 0.31723163 -0.024405647 0.79297715 -0.42699093 -0.79795045 -1.3115052 -0.38874254
0.87108123 -0.40618005 -0.09945757 -0.43613258 0.1844096 -0.50263983 -0.6188204 0.43284395
0.14614832 -0.009914959 0.67686015 -0.86420256 -0.6860379 0.65109575 1.312943 0.17537361
-0.9579254 0.43574563 -0.40179372 0.1893565 -0.28793716 0.7860015 0.007154748 -0.099161185
0.19501522 -0.74484295 0.5113033 -0.7395341 0.2008977 0.4241408 -0.2706517 0.16263692
0.104380675 0.35266626 1.2188334 0.10542066 -0.7507999 0.36323366 0.46791896 -0.4434879

net.0.bias f4 [64]
00000000: 5f43 92bb 3d1b 6a3a e35d e93b cecb 90ba
00000010: ae4c 733c cbae cb3b 7915 d63b a307 c8ba
00000020: 3be5 293c 85c7 54bb 778b 0dbc 242d 8bba
00000030: 363d 49bc 96bc 06bb d261 1f3b 5c23 dcbb
00000040: a337 6ebb 828e 96bc f536 55bb ac04 2a39
00000050: bbae c0bb ae54 943b 5791 5a3b cde7 2ebc
00000060: 192f e83a dc1b 88bb c633 1bbb fafb 99bb
00000070: 45ae 403c 55b7 233b 00b7 98bc 6864 b93a
00000080: fbbf b2bb ba9a 0239 d655 95bb a0b9 74bc
00000090: b900 6dba 0dc3 413c 76ed 453c 2e52 a13b
000000a0: 04fb e1bb fd46 153c 2626 5a3a 2595 80bb
000000b0: a64f 34b9 aa35 843c 4234 debb d1db a83b
000000c0: a29b b43b 0399 d1bb 7c9e a3bb cc6f 4ebc
000000d0: d11d b7ba de81 c43b d9e6 1dbb a641 8e3c
000000e0: 7f25 203a 6121 353c d6fa 94bc c72c 793c
000000f0: 982e f1bb f912 483c cc7f 06bc 4f14 653b
-0.0044635977 0.00089304504 0.007121788 -0.0011047067 0.014849825 0.0062159053 0.0065333215 -0.0015261065
0.010369594 -0.0032467556 -0.008639208 -0.0010618311 -0.01228266 -0.0020559183 0.002431978 -0.0067180824
-0.003634908 -0.0183785 -0.0032533978 0.00016214204 -0.0058802045 0.004526696 0.003335079 -0.010675383
0.0017714232 -0.0041537117 -0.0023681982 -0.0046992274 0.011760299 0.00249811 -0.018641949 0.0014144303
-0.0054550148 0.00012455406 -0.0045573516 -0.014936835 -0.000904094 0.011826289 0.012080541 0.0049231267
-0.0068963785 0.009111163 0.00083217246 -0.0039240294 -0.00017195809 0.01613887 -0.006781132 0.0051531573
0.005511717 -0.0063964142 -0.004993258 -0.012599897 -0.0013970678 0.0059969267 -0.0024093895 0.017365288
0.0006109103 0.011055321 -0.018186014 0.01520843 -0.0073602907 0.012211555 -0.00820918 0.0034954732

net.1.weight f4 [64]
00000000: 1df2 783f 0610 743f 51d9 783f c2e6 903f
00000010: bb44 813f 21d3 913f 31e0 803f a490 7b3f
00000020: 98cd 8f3f 7b9a 873f 2890 773f 5346 733f
00000030: cdd1 8f3f a73f 783f 39ae 803f 1db9 773f
00000040: 0b51 743f 46cf 7f3f 522b 683f 0a4d 753f
00000050: 40e6 7e3f a8b3 6b3f f13f 753f 508b 7e3f
00000060: 084b 833f 7378 663f 20ec 723f 5b76 6d3f
00000070: b007 753f 2985 6c3f 56e5 7d3f 1cd7 793f
00000080: 15a3 933f 691c 763f 514c 743f f6a8 813f
00000090: 294e 6d3f 2cb4 893f 58d3 973f 48c9 813f
000000a0: 7ac8 773f 8f77 733f 28e0 7d3f a346 773f
000000b0: b94f 7f3f 0d9b 803f bb21 7e3f 6606 713f
000000c0: 904d 6d3f 8fdc 883f 2ce0 793f 28de 883f
000000d0: 0249 7a3f d1e6 7c3f 58e9 753f e515 8c3f
000000e0: 388f 723f 265a 6d3f 25df 883f 4793 6e3f
000000f0: 73e4 6f3f a2b0 7c3f 7b4c 7f3f f728 853f
0.97244436 0.9533695 0.972066 1.1320422 1.00991 1.1392556 1.0068418 0.9826758
1.1234617 1.0594019 0.9670434 0.9502918 1.1235901 0.96972126 1.0053169 0.96766835
0.9543616 0.9992565 0.906911 0.9582068 0.99570084 0.9207101 0.9580069 0.99431324
1.0257273 0.9002754 0.9489155 0.9275872 0.95714855 0.92390686 0.99178064 0.97593856
1.1534144 0.961371 0.9542895 1.0129688 0.9269739 1.0758109 1.1861372 1.0139551
0.9679028 0.95104307 0.9917016 0.9659216 0.9973102 1.0047318 0.9927022 0.9415039
0.92696476 1.0692309 0.97607684 1.0692797 0.9776765 0.987897 0.9605918 1.0944182
0.94749784 0.9271568 1.0693098 0.9319348 0.9370796 0.9870702 0.99726075 1.0403126

net.1.bias f4 [64]
00000000: 4475 41bd 0eab 9bbd 6445 b3bd f228 383e
00000010: 90ea 76bd 4173 d53d d509 043d 2b14 72bd
00000020: 6eb0 923d 5d0f ae3d 74f8 463a f484 eabb
00000030: c835 883e 074a 83bd 2680 cb3b 617c 443c
00000040: 5722 f5bc aa8b 173d e85a d3bd 1d96 aebd
00000050: e507 39bd ae49 13bd 9201 c4bc 68fe 423b
00000060: 6837 4bbd 440b 91bd 89ee 43bd ce42 66bd
00000070: 21a3 89bc 8173 abbd 94ea 1dbc 641f ddbc
00000080: 3762 0f3e 2511 bcbd b8bd a1bd 344e 173d
00000090: 858f 87bd 95ab c53d 83b8 5a3e f576 06be
000000a0: c0a6 8dbd 406c 80bd 815c 8abd 88bb ae3c
000000b0: e4f7 343d 2a64 bfbd 9663 bebc 768d 91bd
000000c0: 1e7c 5dbd 4fe7 173d d513 61bc 8ebd 9c3d
000000d0: 686a 553c 79ce 9ebd 53fd 2bbd 69be 063e
000000e0: d4f8 86bc 7fc6 00be 4ce1 4b3c d243 cbbb
000000f0: a769 ddbd 231d 2fbc 9a9e c6bc 5541 4c3c
-0.047230974 -0.076009855 -0.087534696 0.1798437 -0.06028229 0.104223736 0.03223594 -0.059101265
0.071625575 0.08499024 0.0007590123 -0.0071569625 0.26603532 -0.06410604 0.006210345 0.011992545
-0.029923601 0.03699843 -0.10320073 -0.085247256 -0.045173544 -0.03595894 -0.02392653 0.0029753689
-0.049613386 -0.07082227 -0.047834907 -0.056216054 -0.016801419 -0.0837164 -0.009638447 -0.026992507
0.1400231 -0.091829576 -0.07897514 0.036939815 -0.06619171 0.09651867 0.21359448 -0.13131316
-0.06916571 -0.06270647 -0.06755925 0.021329656 0.04418172 -0.09345277 -0.023240846 -0.0710706
-0.054073445 0.037085827 -0.0137376385 0.07653342 0.0130258575 -0.07754225 -0.041989636 0.13158573
-0.016476072 -0.1257572 0.012443852 -0.006203153 -0.10811167 -0.010688099 -0.024245549 0.012466748

net.1.running_mean f4 [64]
00000000: e2b6 b8bc 4375 013f 995a edbf 6623 923f
00000010: 6f40 83be 3651 1e3f 2de7 753f 6afa 9abf
00000020: 22b5 223f 10d1 74be 1505 84be 3646 b33e
00000030: 0580 1d3f 0bee 89bf 2816 31bc 34be 083f
00000040: d98f 1f3f a389 a0be efc9 c9be eebe b5be
00000050: 76db 9b3f d37e 693f 855e b6bf 15e4 883f
00000060: 27e6 9a3d bc59 733d 15da a2be d620 a0be
00000070: 943e 823d 297b 933f 482e efbf adcd 44be
00000080: 07b3 bd3f fcaa 8d3e f28a 5fbd e8c1 353f
00000090: 8abb ed3f 0007 c6ba 2285 233f 325d 103f
000000a0: b331 823d 2698 2abe bc01 743f 1fbe 143f
000000b0: 521a 983e f2fa 51bf 49dc 9f3e 3518 a8be
000000c0: cff2 2abf 8ed2 723f f4ba 6bbf a600 b53e
000000d0: 5e02 0abe 3c3d 313f 2aea 95bf 8c4c 923d
000000e0: 575d 88be 52ad 93bf aa50 58bf 7d16 c6be
000000f0: f5ab 9e3e cd64 71bd 3e9f 3ebf 3299 123f
-0.022548143 0.5056955 -1.8543273 1.1417053 -0.25635096 0.6184267 0.9605587 -1.210767
0.63557637 -0.23907876 -0.25785127 0.35014504 0.6152347 -1.077577 -0.010808505 0.53415227
0.6232887 -0.31355008 -0.39411876 -0.3549723 1.2176349 0.91209143 -1.4247595 1.0694605
0.07563429 0.05941175 -0.31807008 -0.31275052 0.06359592 1.152196 -1.8685999 -0.19219084
1.482026 0.27669513 -0.054575868 0.70999 1.8572857 -0.0015108287 0.6387502 0.56392205
0.063571356 -0.16659603 0.95315146 0.581026 0.2970758 -0.8202354 0.31222752 -0.32830968
-0.66776747 0.9485253 -0.9208214 0.35352057 -0.13477466 0.6923406 -1.1712086 0.071435064
-0.26633713 -1.1537268 -0.84498084 -0.38689032 0.30990568 -0.05893402 -0.74461734 0.5726501

net.1.running_var f4 [64]
00000000: 2a0b 2540 be55 a140 36b1 8141 26ad cc3e
00000010: f811 393d 3d37 263f fac5 bc3e b922 393f
00000020: e743 643e ded2 913f 1373 f93e 663e 2c40
00000030: 2b62 5f3f 3c6d 9e40 a5ed d33e 3e98 0c40
00000040: d878 3d41 1f49 8b3e f256 1a41 4f45 2640
00000050: 3fb1 fb3e ea8c 1541 61f6 7641 7084 8f3f
00000060: 3d8a 5c40 886c 5c41 4c99 3841 a847 8d40
00000070: 3b4c ca3f d671 4641 0a7a 2540 f4ca 333f
00000080: 9b1d 083f e9f4 4341 b694 0d3e 63af cc3d
00000090: b9d9 5d3f 9fea b53e e65e 9f3e f4e6 f63f
000000a0: 5485 2d41 026a 5e3e a340 603f a540 cd40
000000b0: dc16 5141 70d2 023f b73e e340 dd9c af40
000000c0: c727 c13f d24d 7840 3a3d a740 0e98 9b3e
000000d0: e5fd 963e ca35 0f3d 6cbd 3240 68cf 883e
000000e0: a38c 183f 9f2b a13e 43f3 a33e 46bd 2f3f
000000f0: f772 2c40 1343 623e 1fba 4440 a151 0b40
2.5788064 5.0417166 16.211529 0.39975852 0.045183152 0.64928037 0.36869794 0.7231861
0.22291528 1.1392477 0.48720607 2.6913085 0.8725917 4.9508343 0.41392246 2.1967921
11.842003 0.27204224 9.646227 2.5979803 0.49158666 9.346903 15.435151 1.1212292
3.4459374 13.776497 11.537426 4.414997 1.5804514 12.402792 2.5855737 0.70231557
0.53170174 12.2472925 0.1382626 0.0999439 0.86660343 0.35530564 0.3112709 1.9289231
10.845051 0.21720126 0.8759863 6.414141 13.068081 0.5110235 7.1014056 5.4878983
1.5090264 3.8797498 5.226224 0.30389446 0.2949058 0.034963407 2.7928114 0.26720738
0.59589595 0.31478593 0.3202153 0.68648183 2.694517 0.220959 3.07386 2.1768572

net.4.weight f4 [64, 64]
00000000: 55b6 1b3e 8922 83be d85f c03d 2432 4bbd
00000010: c2b5 9f3e 5602 ca3d e2db 08be 800f 893d
00000020: 9561 acbe 0665 64be d229 e4bd 166d f63d
00000030: e862 4bbd 0822 173e 4ec7 2b3d 3f21 63bd
00000040: cbba 463d 79ee b8bd 37a8 cb3d f6e0 e43d
00000050: 2064 023f b53d f3bd 2a46 053e 0318 a5bd
00000060: 5d9b f43d af6d 4d3e 96cd f7bd c51a 06bf
00000070: cb60 49be 9ce8 973b 9a08 1dbe cc4a 323c
00000080: e5dc 66be 09c9 903d 822c 9e3e a45d fdbc
00000090: 2951 56be c257 61be aef5 853d d4fc 753e
000000a0: f273 ea3c 7c2e 1abe 6b55 2bbe 3518 563d
000000b0: 2225 c03d 3edd b33e 3f55 41be daab 24be
000000c0: cea7 0abe a19a 0e3d 3380 8c3d 9c40 b1bd
000000d0: e938 4abe 724d 343c eb00 7b3d b9b5 57be
000000e0: 3500 e0bd 68c7 12be 3342 a33c 3846 b13d
000000f0: 3210 a73e 6750 d33e 0eab dcbd e7f8 eebe
00000100: 3f37 08be b78c 2abe 038c ccbd 6bb3 bfbd
00000110: 4358 b53e ca48 05bc 5950 30be bf87 10be
00000120: da5f 1dbe 4a2b 143e a85e 08be 1544 503c
00000130: 3fb5 b6be bac0 b2bd 50a4 4d3e bf0e 423d
00000140: c74a c2bb 9e44 c83d 651b d0bd 2af4 5fbe
00000150: ab8d f1bc 6a44 1a3e 3e22 0fbc eac4 e33d
00000160: 35d2 783d 899a 603e 14a4 343e 5aaf 2b3e
00000170: f9c9 c33d 2925 7abe 5690 143e 283a dabd
00000180: fbe0 50be 8969 fcbd 35a2 ed3e e538 0f3e
00000190: 4c58 9ebe 1f14 10bb 09df 83be 12de 213e
000001a0: a4ca b63e 4d76 953e 984f 53be ab99 17be
000001b0: cc6c 543d bf1a 463e ebe4 10be 7e72 b8be
000001c0: 3898 283d b97c bb3e 6aae 0d3e 00a6 babe
000001d0: 2c03 613e 7876 f73d ed64 b7bd 619d e1bd
000001e0: ef55 553d 5be9 3f3e 7740 383d 1c83 833e
000001f0: 3450 c73e dd5e 60bd 55bd 883e db50 0f3e
00000200: 502c 7dbe b751 c0bd 591f 96bd 3c08 e3be
00000210: 3b4c 41bd fa25 9dbd 5b3e 7d3e dd83 eabc
00000220: e3b9 88be 657e 24be 8b67 c03c 7ec2 18be
00000230: d8a7 d4bd 3d17 1b3d 78c8 a73e 1124 54be
00000240: 7f85 0ebd be00 85be 2082 a53e ecf9 fa3d
00000250: 88c2 523d bf9c 5e3e bd3a 89bd ccf8 903b
00000260: 2f5a 913d 9f48 9c3d d14e 2c3d 7cb7 57be
00000270: 35da c73c 99bf ed3d b0fb 11be b8a6 063e
00000280: e200 51be 4370 b43b 1fe4 ecbd 622c afbd
00000290: 7472 623d f4c9 f3bd f7b8 d6bd 3c83 1ebe
000002a0: ffe4 36be fa00 7c3e d6f7 b4bd 0f4b 91be
000002b0: 6450 97be 34f0 97be 5900 273d 93a9 9cbd
000002c0: cb0c 5d3e 3323 56be b6c5 38be e107 7abe
000002d0: 214b fd3d 5d5c 733e e1c0 f7bd 71a8 93bd
000002e0: 4ea2 b83d e9d3 db3e 50d8 25bc 2e09 a4bc
000002f0: bf1c fb3d 4c08 d8be f278 b13d c458 a5be
00000300: 9dd6 66be 0dab fe3d bb80 b73e 016c eb3d
00000310: ae6f 1ebe 8829 cdbd 4e96 563e 2691 1abe
00000320: 40c3 cebe cfbd 013e 66e3 d53d 973a 9f3e
00000330: 6d3b 483d 657a 1dbe 8245 7c3d 2d4c b83e
00000340: cc5c 02bd 1d59 a6bc a1d6 fa3d bcd6 5fbd
00000350: 510c f13d 3de8 353e 35c3 b8bd 8bc9 ecbd
00000360: 0efb 2dbe 8603 d1bd 9452 92bc eb53 893c
00000370: ac4b 073d ed26 bebe 6eb7 3d3c 87bd 883d
00000380: c1a9 463e 6005 0bbe a822 4d3d 1a1f 523e
00000390: c042 a73e 0c22 a73d 820e 6a3e e30f 7ebd
000003a0: 0434 8ebd 6f17 94bd 1667 283e 5b94 52be
000003b0: c5a3 f1bb 1a61 a3bd 56bd 9bbc a8aa 2cbe
000003c0: bcc4 d03c c17a 25be 20d7 83bc c10c 1e3d
000003d0: 3c61 313c fe51 a53c d069 a83e d84f 103d
000003e0: 150c eabd e43f 583d ff94 0a3f c79f e9bd
000003f0: 8f02 a63c 3342 2a3e d9cb d53c 3562 6f3e
0.15206273 -0.25612286 0.09393281 -0.049608365 0.31193358 0.09863727 -0.13365129 0.066924095
-0.336682 -0.22304162 -0.11140789 0.12032525 -0.04965487 0.14759076 0.04193812 -0.055451628
0.048517983 -0.0902986 0.09944194 0.111757204 0.5093403 -0.11877004 0.13015047 -0.080612205
0.11943696 0.20061372 -0.12099759 -0.523846 -0.1966583 0.0046358835 -0.15335312 0.010882091
-0.22545202 0.070695944 0.30893332 -0.03092844 -0.20929398 -0.22006133 0.06541 0.24022228
0.02861974 -0.15056795 -0.16731803 0.05226918 0.093820825 0.35129732 -0.18880175 -0.16081181
-0.13540575 0.034815434 0.068603896 -0.086549014 -0.19748272 0.0110047925 0.061280172 -0.21065415
-0.109375395 -0.1433388 0.019929027 0.08655971 0.32629544 0.4127228 -0.107748136 -0.46674272
-0.13302325 -0.16655241 -0.099876426 -0.09360393 0.354189 -0.00813503 -0.1721815 -0.14114283
-0.15368596 0.14469638 -0.13317358 0.0127115445 -0.35685155 -0.08728166 0.20082211 0.047377344
-0.0059293243 0.09778713 -0.10161475 -0.21870485 -0.029486498 0.1506516 -0.008736191 0.11121543
0.060747344 0.2193395 0.17640716 0.1676611 0.095600076 -0.24428238 0.14508185 -0.10655624
-0.20398323 -0.12324817 0.46412817 0.13986547 -0.3092674 -0.002198465 -0.257561 0.1580737
0.35701478 0.2919182 -0.20635831 -0.14804713 0.05186157 0.1934614 -0.14149825 -0.3602485
0.041160792 0.36618593 0.13836065 -0.36454773 0.21973866 0.12083143 -0.08954797 -0.11016346
0.052083906 0.18741362 0.044983353 0.25685966 0.38928378 -0.05477797 0.2670695 0.13995688
-0.24723935 -0.09390586 -0.07330198 -0.4434222 -0.04719184 -0.07673259 0.24730818 -0.02862733
-0.2670432 -0.1606384 0.023486873 -0.14917943 -0.10383576 0.03786396 0.32770133 -0.20716883
-0.03479528 -0.2597713 0.3232584 0.122547 0.05145505 0.21739481 -0.067006566 0.00442419
0.07097279 0.07631039 0.042067353 -0.21066087 0.024396041 0.1160881 -0.14256167 0.13149536
-0.20410493 0.0055065467 -0.11566948 -0.08553387 0.055284932 -0.11903754 -0.10484498 -0.1547975
-0.17860793 0.24609748 -0.088363335 -0.28377578 -0.2955352 -0.29675448 0.040771816 -0.07649531
0.21586911 -0.20911865 -0.1804417 -0.24417068 0.12367845 0.23765703 -0.120973356 -0.07209862
0.09015332 0.42935112 -0.010122374 -0.020023908 0.12261342 -0.4219383 0.086656466 -0.32294285
-0.22542806 0.12434969 0.358404 0.114952095 -0.1547229 -0.10017687 0.20955774 -0.15094432
-0.4038334 0.12670062 0.104437634 0.31099388 0.048884798 -0.15378721 0.061589725 0.35995618
-0.03182678 -0.020306164 0.122479685 -0.054648146 0.11769927 0.17764373 -0.09021608 -0.11561879
-0.16990301 -0.1020575 -0.017861642 0.016763648 0.03303115 -0.37139073 0.011579378 0.066767745
0.19400693 -0.13576269 0.05008188 0.20519677 0.32668114 0.08160791 0.22857097 -0.06202687
-0.06943515 -0.07231032 0.16445574 -0.20564406 -0.007374259 -0.07977505 -0.01901118 -0.16861975
0.025484435 -0.16160108 -0.01609379 0.03858638 0.010826405 0.020180698 0.3289323 0.035232395
-0.11428086 0.052795306 0.541336 -0.11407428 0.020264892 0.16626815 0.026098179 0.23377307

net.4.bias f4 [64]
00000000: 57e9 b83b 36e5 8e3b 7407 153c 3330 dd3a
00000010: e154 653b 5d32 dbbb 4a54 6dbc 3ca8 423c
00000020: 2624 ac3b f127 01bc acde 4cbb 362e a2bb
00000030: b3b3 bebb fb7a 05bc 6932 073c 03ae 343b
00000040: 84bb 1dbc 9fbc 07bc ea7a 09bc 8c45 0cbc
00000050: f21c ed3a 0f93 0f3b 652a ceba 2ee9 193c
00000060: 637b ac3a 257c 92bb 2c95 823b e347 353c
00000070: 13d9 fcbb f409 173c 40ea 11bb 66de a03c
00000080: 6417 0e3c 02db 903c 83b2 bf3b ab7c bfba
00000090: c4c2 1dba 258e f93a 3ea4 c4bb 9a87 263c
000000a0: 0e99 a9ba b320 1c3b 1f01 1b3c ff5a 423c
000000b0: df1f ae3c f8d4 e8bb 0f70 563b 237b 0dbb
000000c0: 0f91 37bb 8a9f 1739 5232 e1bb 6809 eebb
000000d0: 8a68 0bbb 3b25 c03b a689 baba 56be 21bc
000000e0: 4cc9 043c 4985 063c fd9f 27bb d292 85bb
000000f0: 814f 043c edaa 1cbc 5b08 033c 4e34 203c
0.0056430507 0.00436082 0.009096015 0.0016875326 0.0034993219 -0.0066893534 -0.014485428 0.0118809305
0.0052533327 -0.007883058 -0.0031260652 -0.0049493564 -0.0058197617 -0.008146997 0.008251765 0.002756954
-0.009627227 -0.008284717 -0.008391121 -0.008561503 0.0018090291 0.0021907722 -0.0015729187 0.009393973
0.0013159331 -0.0044703656 0.003985068 0.011064502 -0.007716307 0.009218682 -0.0022264868 0.019637298
0.008672569 0.017682556 0.0058501377 -0.0014609298 -0.0006018097 0.0019039555 -0.0060010245 0.010164166
-0.0012939291 0.0023823201 0.0094607165 0.0118625155 0.021255432 -0.007105466 0.00327206 -0.0021588288
-0.0028010046 0.00014459915 -0.0068724537 -0.007264305 -0.0021272027 0.005863813 -0.0014231696 -0.00987204
0.008104634 0.008210489 -0.0025577538 -0.0040763402 0.008075596 -0.009562236 0.007997598 0.009778095

net.5.weight f4 [64]
00000000: 4481 6a3f 7009 743f 0599 8e3f acdf 7c3f
00000010: df19 763f f959 723f 56ab 8f3f f189 623f
00000020: b8bd 7f3f f2d1 783f 990a 823f 557c 853f
00000030: 3130 833f 2364 6a3f defc 8b3f b630 873f
00000040: c66c 833f a895 883f 5df9 7b3f 43ff 8b3f
00000050: 777b 823f c342 6a3f 440b 763f 32e2 7c3f
00000060: 0158 863f 4b92 823f dc8e 883f 97b4 843f
00000070: 2387 843f 3d97 763f 625a 8e3f d69d 7b3f
00000080: 8d2a 803f d7ba 6a3f 2488 743f 791d 863f
00000090: e7b1 873f 2101 8e3f 9285 793f 8f10 7d3f
000000a0: 5323 8b3f 9f6e 7f3f cc89 813f e3e6 813f
000000b0: 8660 843f 1523 713f d983 823f fbb1 753f
000000c0: c50e 783f 0d75 743f d76f 693f 5db5 5f3f
000000d0: 68ef 713f e9fa 7a3f 9b1e 793f 0f23 833f
000000e0: 3e09 743f e9d0 693f 2501 763f 6cdd 893f
000000f0: f676 763f 6691 7d3f e45b 893f 3d82 733f
0.91603494 0.953269 1.1140448 0.98778796 0.96133226 0.9466854 1.1224163 0.8849173
0.9989886 0.9719535 1.0159484 1.0428568 1.0249082 0.91559047 1.0936544 1.056174
1.026757 1.0670671 0.98427373 1.0937275 1.0193928 0.9150812 0.9611094 0.98782647
1.0495607 1.0200895 1.0668597 1.0367612 1.035374 0.9632452 1.1121333 0.98287714
1.0012985 0.91691345 0.95520234 1.0477744 1.0601166 1.1094095 0.9746944 0.9885339
1.0870155 0.9977817 1.0120177 1.0148586 1.0341957 0.94194156 1.0196487 0.959747
0.96897537 0.95491105 0.9118628 0.87386113 0.9450593 0.9803911 0.97312325 1.0245074
0.953266 0.91334397 0.96095496 1.0770698 0.9627527 0.99049985 1.0731168 0.951206

net.5.bias f4 [64]
00000000: aedc 91bd a4a5 b0bd 8af7 fc3d 0143 a6bd
00000010: bc81 3e3c 7903 06be 7ce0 573d 4263 bebd
00000020: 53b8 153a f7db 81bb 0076 513d af4a 2f3d
00000030: 9561 e43d dfe8 93bd b696 743e 6f93 d63d
00000040: ad52 29bc 06a1 0b3e ed50 5b3d a3b9 8b3d
00000050: fed4 003e 6964 d4bd 9734 693c 6936 0fbd
00000060: b718 583d 00e6 4c3e d612 07bd e57c 783d
00000070: 06b0 733d 7ddf 3ebd b7e8 043e 7e69 eebd
00000080: cf6a 2b3d 1d18 acbd 3b02 3a3c 56a8 033e
00000090: edd6 86bc fefc b83d ae44 b3bb aa7d a5bd
000000a0: 6928 7c3c 0928 f8bd 75b6 853b 1e61 c239
000000b0: a86b be3d b4b3 3dbc e109 563d 1d6d 83bd
000000c0: fad7 febb 09b0 60bd 1e8a 64bd d67c 61bd
000000d0: 7de0 25bd 5832 4bbd 67bd 18bc ce32 cbbc
000000e0: 5bcc d5bc d5f1 6fbd d146 1bbd 204f 27bd
000000f0: bcf0 663c 809e 5fbc 1908 fc3c 0f67 56bd
-0.071221694 -0.086253434 0.12351902 -0.08118249 0.011627611 -0.13087262 0.05270432 -0.09296276
0.00057113654 -0.0039629894 0.051137924 0.042795833 0.11151425 -0.07222151 0.23885617 0.104773395
-0.010334653 0.13635644 0.053543974 0.06822517 0.1258125 -0.10370714 0.01423373 -0.034964
0.052757945 0.20009613 -0.032976948 0.060665984 0.05949404 -0.046599854 0.12979399 -0.11641215
0.041849907 -0.08403037 0.011353071 0.12857184 -0.016459906 0.090326294 -0.0054708337 -0.08080609
0.015390494 -0.12117011 0.0040805885 0.0003707492 0.092978776 -0.011578489 0.052255515 -0.06417296
-0.0077772113 -0.05485538 -0.05579578 -0.055050693 -0.04049729 -0.04960856 -0.009322501 -0.024804499
-0.02609842 -0.05858024 -0.037909333 -0.040846944 0.0140954815 -0.013648629 0.03076558 -0.052344378

net.5.running_mean f4 [64]
00000000: 1d10 0cbf ad2d 1c3e 3607 a7bf 7ff1 423f
00000010: eadf 903e 1046 e93e 5069 dbbf 18f4 bebe
00000020: 4676 533f 67f7 d4bf a21d 503f 5d02 40bf
00000030: eda4 8b3e 01da 2ebf 08dd 393d 2670 0ebd
00000040: 5c79 353f f8f2 473f 2339 a23e 91a3 2e3e
00000050: fba7 343f c599 54be a67b f6bc 2b1e 2c3f
00000060: 6fc2 a4bf 593c 9fbe 4815 973f 7165 f7be
00000070: 7d00 513f 9e2d 74be 67e2 143f 979c 943f
00000080: 1112 543c 61b7 a13d c455 873f a202 84bd
00000090: d99e abbf 1f64 c0bf d0ec a9be 92aa 773f
000000a0: eba1 8a3f 57b8 de3f fd19 913e 3eaf bdbf
000000b0: ac2a 2ebf 14af 0fbf 828b 8abe 82dc 81bf
000000c0: bca1 9f3d 9356 f2be c41c 8cbe 3f0a 91be
000000d0: 78e0 2cbd da35 a33e 7623 33bd eddc ca3f
000000e0: e063 47bf 475a ae3e 7c78 863f 434c 413f
000000f0: b66a 0a3f a917 61bf f31d bfbf 6020 223d
-0.54712087 0.15251799 -1.3049076 0.76149744 0.28295833 0.45561266 -1.7141514 -0.37295604
0.82602346 -1.6638001 0.81295216 -0.75003606 0.27274266 -0.683014 0.045376807 -0.03477492
0.70888305 0.78105116 0.31684217 0.17054583 0.7056882 -0.20761783 -0.030088257 0.6723353
-1.2871836 -0.3110073 1.180337 -0.4831958 0.8164137 -0.23845527 0.5815796 1.1610287
0.0129437605 0.07896305 1.0573049 -0.06445815 -1.3407851 -1.5030555 -0.33188486 0.96744645
1.0830663 1.7400006 0.2834014 -1.4819105 -0.6803386 -0.56126523 -0.2705956 -1.0145419
0.0779452 -0.47331676 -0.27365696 -0.2832813 -0.042206258 0.31877023 -0.04373499 1.5848671
-0.7788677 0.3405325 1.0505519 0.7550699 0.5406908 -0.8792673 -1.4931015 0.039581656

net.5.running_var f4 [64]
00000000: 7759 0c40 46a1 8a3f 8be4 0f40 0d6d 1540
00000010: 8202 a63f 9dd7 2f3f f83b 4940 e09d 683f
00000020: 8d93 1c40 ab32 f43f b23a b03f a1d7 ab3f
00000030: 848b 1c40 0c12 3d40 fccb 693f e960 fc3f
00000040: 1ce7 e03f bb18 cf3f c264 af3f 27ef 2a40
00000050: 2b4a a33f 684d 863f ecd8 713f f5b3 973f
00000060: a0e9 cc3f 4495 d13f 9eab 0040 5947 773f
00000070: 1d60 fc3f 3556 2240 d8f8 f93f daaa e73f
00000080: cc00 b23f f912 413f 5eb8 c13f d82d f63f
00000090: fcf0 1240 ce7c 4340 2398 a13f c693 d43f
000000a0: 66bd b43f e7b2 6e40 40f2 4a3f 4641 0940
000000b0: f374 a93f 88b6 bb3f ebdc 0c40 0db1 fd3f
000000c0: 931b f73f 8438 bf3f 91f8 553f d56e a73f
000000d0: 3b81 5c3f 7678 ec3f d439 1b40 d9d7 3240
000000e0: f39f 2240 e22a 9a3f 1115 0340 d2a0 bf3f
000000f0: 9b62 613f 0cc4 e73f 98b5 4d40 a7d0 5a3f
2.1929605 1.0830467 2.2483242 2.334781 1.2969515 0.68688375 3.1442852 0.908659
2.4465058 1.9077963 1.3767912 1.342518 2.4460154 2.9542265 0.9132688 1.9717075
1.7570529 1.6179422 1.3702624 2.6708467 1.2757009 1.0492373 0.9447162 1.1851794
1.6008797 1.6373677 2.0104747 0.9659324 1.9716831 2.5365117 1.9529066 1.8099015
1.3906493 0.75419575 1.5134389 1.923274 2.2959585 3.0544925 1.2624553 1.6607597
1.41203 3.7296693 0.79275894 2.144609 1.3238815 1.4665079 2.2009838 1.9819657
1.930529 1.4939122 0.8358241 1.3080698 0.8613469 1.8474262 2.4254045 2.7944243
2.5410125 1.2044337 2.0481608 1.4970953 0.88041085 1.8106704 3.2142086 0.8547463

net.8.weight f4 [32, 64]
00000000: d10e 423e 6d1f fbbd 0327 e43c ab7d 95bd
00000010: 7ced 063e fd15 19be fde6 36be bb42 86be
00000020: a430 05bf 9a26 b73c 5082 cbbd e1ed 97be
00000030: 391b 10be aefe 4fbe 7fe5 99be 1db4 de3d
00000040: 0b34 17be a8d0 633e 9ae6 e1ba 4eca fc3c
00000050: 4a1f a23d bd4b 4bbe ba56 463d e86a 83bc
00000060: f4dc 0d3e 3994 c53d dd4b 57be 0afb d1bd
00000070: 5d2c 02be 465c 37be 74b4 b1be 2c50 3cbe
00000080: ccb7 f23d 3037 d6bd 15ac b23d 1883 18be
00000090: 29dd d3be 0057 7fbe b3d8 203c 5132 9cbd
000000a0: a176 35be a3ca 8e3e 1981 673d 9c78 54be
000000b0: a5eb 3bbd 6383 b23e 9a4d 8cbe 9ad4 26bd
000000c0: 532d 4ebe 5093 b8be dc68 223e 9bfd 933e
000000d0: e992 d3be f3e0 5ebc 68f2 06be 573c 07be
000000e0: 97a9 44be 9cfc bb3d f4ce 273e 03cd a33d
000000f0: cfcc 72be b4cb 443c 0c0c ac3e 1e25 95bd
00000100: a84b 2e3e 92a2 c03d b3b3 a73c 33d4 b53d
00000110: a643 29be bbce 613d 40ce d73d 2aba c9bd
00000120: b7ed c2bc 2dfc d93d 1404 aebe 75e9 d43d
00000130: 9b65 be3d a7e7 aa3d e000 f7bd e889 ba3d
00000140: c568 a2bc 26b5 9ebd b445 ee3d 18a5 c0be
00000150: b246 c2be 5e51 9abd 6c7e 403e da29 d23d
00000160: 1275 7f3e 6426 4cbd 02ed 1cbe 137a c7bd
00000170: 7237 ae3d 59dd dbbd 202a 1b3d 3133 693d
00000180: a335 8d3e 6c19 37bd 656e cf3d 1926 27bf
00000190: 04bf 333e 00c1 d63e e8e7 d63d abf0 623d
000001a0: e8e1 213d a055 ffbb 5102 11be a2e9 9fbd
000001b0: 2efa 553e 53c8 24be af69 aa3d ccaa 9cbd
000001c0: 5ab8 f3bd e67f 443d dabc 2dbe 5a0f 78be
000001d0: b73e 82bc 04eb 163e 0ef1 8bbe 29d6 15bd
000001e0: 3d0e b33e fed1 77be 2eda aebd aef7 d4bb
000001f0: 6df9 03be 4a54 37be 8d58 4e3e 003b f93d
00000200: 218f d3bd a3b7 c7bd ebea f4be e73c 2ebc
00000210: a8c2 d13e 5acc 613c fbd8 c3bc 44d9 acbd
00000220: 0c4d 413e efa8 173d 12df 16bd 634d 80bd
00000230: a3ce 5c3d 32fb 8fbe a8b3 063e b5e5 dbbd
00000240: 102a 783d b2a8 5d3d f41f 94bd 82bd 25be
00000250: 0598 02be 1bdf 963e 99d5 4cbe 3e12 1d3d
00000260: 9291 24be 2567 a73d ef45 263d cce6 2abe
00000270: 8701 b7bc 3151 12be f6fc ecbd aa2c fe3d
00000280: 88b8 1bbe 62de 163e bff9 5bbe 15b1 4dbd
00000290: b794 6bbe bfbd 23bf 1ae1 713e 4768 3b3d
000002a0: 3004 a83d 2f96 5cbe c15a cfbd 0b76 02bf
000002b0: 6100 e53e a7a1 883d 3226 fe3d 771e 10be
000002c0: 4911 f2bb b326 21bd 8914 1e3e c1ea b83c
000002d0: 4a4a 51be c25f 013d 7822 38be f371 e6be
000002e0: c62b c8bb 4c2a eb3d 2c51 febc 23b7 80bd
000002f0: 5131 883c 15e6 d23d 8f87 0fbf bd14 f1bc
00000300: 0308 f23d 11c3 a73c 0997 763e 9735 073d
00000310: a7e2 f83c 9089 f6bb 16e0 1abd 4657 bc3d
00000320: 96a3 aabd 1a1c 173d c7b5 a3be 2d12 543e
00000330: 451a 76be 2d3f 63be 7398 1e3c 2971 99be
00000340: 6a0b 383c 687e bcbd 7fc5 a3be c7b0 8d3d
00000350: a3b5 41be da4f 683d e845 963e 6962 ffbd
00000360: bf4e d63d e659 1c3e 60e8 59be b1e0 e13d
00000370: a081 41be 9b5e 2a3d f0bb 42bd 7391 16bd
00000380: 52ea 913d 8b45 5d3e a605 cd3d 6c2c 43be
00000390: 9cfc 8f3e 456a 38be 89f2 363c 24a0 943d
000003a0: 7c5b e6bd a392 0abe a47a c83e dd85 bd3c
000003b0: 4976 953d 9688 4bbe 715a cd3d 8270 a13e
000003c0: f37d 2dbe 6ad7 cf3d 597b 9e3e 5493 fdbd
000003d0: 39b7 5a3c b5d0 dfbd ebea a7be 4669 52bd
000003e0: ee46 2c3d 7f27 c43c 759a 95bd e9bf 19be
000003f0: 44e3 873d b1df d93e e369 b63e cb72 3b3b
0.18950965 -0.12261853 0.027850633 -0.0729936 0.1317653 -0.14949794 -0.17861553 -0.26222786
-0.52027345 0.022357274 -0.099369645 -0.29673675 -0.14072885 -0.20311996 -0.30057904 0.10874198
-0.14765947 0.22247565 -0.0017234862 0.030858185 0.07916124 -0.1985311 0.048422553 -0.016042188
0.13853818 0.09647412 -0.21025033 -0.1025296 -0.12712236 -0.17906293 -0.34707987 -0.18389958
0.11851463 -0.10459745 0.08724228 -0.14893758 -0.4137967 -0.24935532 0.00981729 -0.076267846
-0.17721035 0.27888975 0.0565196 -0.20749134 -0.045879025 0.34865865 -0.27402955 -0.040730096
-0.20134477 -0.3604989 0.15860313 0.28904423 -0.4132302 -0.013603437 -0.13178408 -0.13206612
-0.19205318 0.09179041 0.1638754 0.07998087 -0.23710941 0.012011457 0.3360294 -0.0728247
0.17021048 0.09406008 0.02047143 0.088783644 -0.16529712 0.055128794 0.10537386 -0.09849961
-0.023794992 0.10643802 -0.33987486 0.10396091 0.092967235 0.083449654 -0.12060714 0.09108335
-0.019825349 -0.07749395 0.116343886 -0.37625957 -0.3794456 -0.07535051 0.18798226 0.10261889
0.24947003 -0.0498413 -0.15324786 -0.09740081 0.08506669 -0.10735578 0.03788197 0.056933586
0.27579984 -0.04470198 0.10128478 -0.6529251 0.17553335 0.41944122 0.10493451 0.0554053
0.03952208 -0.0077921897 -0.1416104 -0.07808234 0.20896217 -0.16092043 0.08320939 -0.076497644
-0.11900397 0.047973536 -0.16966572 -0.24224606 -0.015899045 0.14738089 -0.27332348 -0.036581192
0.349718 -0.242012 -0.08537708 -0.0064992523 -0.12888117 -0.17903247 0.20150967 0.121694565
-0.10330034 -0.09751823 -0.47835478 -0.010634637 0.40968823 0.013781631 -0.023907175 -0.08439878
0.18877047 0.037026342 -0.03683383 -0.0626476 0.053908 -0.28121334 0.13154471 -0.107371725
0.06058699 0.05411596 -0.07232657 -0.16185573 -0.12753303 0.2946709 -0.20003356 0.038347475
-0.16071156 0.0817397 0.040594038 -0.16689605 -0.022339595 -0.14288785 -0.11571686 0.12410863
-0.15207112 0.1473327 -0.2148199 -0.050217707 -0.23005949 -0.63961405 0.23621026 0.045753743
0.08203924 -0.21541665 -0.10124732 -0.5096137 0.44726852 0.06671458 0.12409629 -0.14074121
-0.0073873145 -0.039343547 0.15437521 0.022572877 -0.20438495 0.031585462 -0.17981899 -0.4500881
-0.006108734 0.11482677 -0.031044565 -0.062849306 0.016625078 0.10297791 -0.5606622 -0.029428834
0.11817934 0.020478757 0.24081053 0.03301009 0.030381514 -0.007523723 -0.03781136 0.091963336
-0.08331983 0.036892034 -0.31974623 0.20710059 -0.24033459 -0.22192068 0.009679901 -0.29969147
0.01123319 -0.092037976 -0.31986615 0.06918483 -0.18916945 0.056716777 0.2935021 -0.12469942
0.104642384 0.15268669 -0.2128005 0.110291846 -0.18897104 0.04159413 -0.047542512 -0.036759805
0.07124771 0.2160856 0.10010843 -0.19059914 0.28122413 -0.18009289 0.011166223 0.07257107
-0.11247918 -0.135325 0.39156067 0.02313512 0.07297952 -0.19876322 0.10027016 0.3153115
-0.16942577 0.10148509 0.30953482 -0.12381616 0.013349348 -0.109284796 -0.32796416 -0.051369928
0.04205983 0.023944614 -0.07304851 -0.15014614 0.06635144 0.42553475 0.3562766 0.0028602357

net.8.bias f4 [32]
00000000: 7eed b0bb bf03 45bc 3f7d 91bb 142c feba
00000010: 6512 053a 04d4 c63b bfe7 e4bb b08c c639
00000020: 2674 c2bb 9d18 393c c0fc 283c 4f28 86bc
00000030: 0c6f 18bc d7ca 8dbb 5449 dbbb 7d08 cd3b
00000040: e7aa df3b 5baa 083c 33d8 eb3b 0dd0 1abc
00000050: d395 88ba f0fb 2ebb e50c b6bc e865 a1b9
00000060: e15f 56bb de11 053b 4941 febb c02e bb3c
00000070: b58e 25bc b209 97bb 87a1 e9bb 4664 8e3c
-0.005399405 -0.012024819 -0.0044399793 -0.0019391798 0.00050762884 0.0060677547 -0.006985634 0.00037870323
-0.005934256 0.011297372 0.010314167 -0.016376643 -0.009303819 -0.004327159 -0.006692091 0.0062571154
0.006825793 0.008341397 0.007197404 -0.009449017 -0.0010420628 -0.002670046 -0.022222945 -0.0003078424
-0.0032710957 0.002030484 -0.0077592474 0.02284944 -0.010104825 -0.00460931 -0.0071298513 0.017381798

net.9.weight f4 [32]
00000000: 7727 ad3f 66f2 a83f b66e b13f 89c3 b23f
00000010: f347 5a3f fc45 533f 8651 7c3f 1cab 4c3f
00000020: 101a aa3f cbed 5c3f cea1 b23f f958 963f
00000030: c872 b23f 5604 383f 2532 993f 0b11 ac3f
00000040: ee40 b83f f641 3e3f a871 9f3f f848 a93f
00000050: ed8d ac3f cdf3 493f 04a2 a93f a388 aa3f
00000060: e86c 733f 603b b33f 4a5e 503f 6736 913f
00000070: 7f18 b03f 5c5c 913f 4dc0 a43f aa24 a93f
1.3527669 1.3198974 1.3861911 1.3965923 0.85266036 0.8252866 0.98561895 0.7994859
1.3289204 0.86300343 1.3955629 1.1745902 1.3941278 0.71881616 1.1968428 1.3442701
1.4394815 0.743194 1.245656 1.3225393 1.3480812 0.78887635 1.3252568 1.3322948
0.9508805 1.4002495 0.81393874 1.1344727 1.3757476 1.1356311 1.2871186 1.3214314

net.9.bias f4 [32]
00000000: 5de5 d33e f840 b63e 1c17 f33e 3a63 d83e
00000010: b371 13be e9c5 2ebe a700 d6bb 1296 64be
00000020: 494c cc3e 2b8e 07be 444e cd3e 9493 893e
00000030: ca3e d83e 7327 70be 1f41 813e 2da1 b63e
00000040: f8de f43e 06df 9cbe 531b b03e ea0d ca3e
00000050: 18a2 bd3e 8474 7abe 317e b23e 80e3 bc3e
00000060: 7852 f0bc 11f5 e53e 0901 54be be7b 413e
00000070: d28c e53e 33ad a03e 48d5 ac3e 8bbd dc3e
0.41385928 0.35596442 0.4747857 0.42263204 -0.14398842 -0.17067684 -0.0065308395 -0.22322872
0.3990195 -0.13237827 0.40098774 0.26870406 0.42235404 -0.23452549 0.25244996 0.35669842
0.47826362 -0.30638903 0.34395847 0.3946374 0.3703773 -0.2445851 0.348619 0.3689232
-0.0293362 0.44913533 -0.2070352 0.1889486 0.44834 0.3138214 0.3375647 0.4311336

net.9.running_mean f4 [32]
00000000: cb89 d7bf f084 01be c427 c0bf cad0 f53d
00000010: a349 babd 26f4 f0be c426 5ebf 7207 963e
00000020: 80f3 9bbc 2c21 36bf 2c2f efbf 5263 59bf
00000030: a34a 8cbf 7f09 93bf 2d0f 34be a4b4 85bf
00000040: 0335 65bf 42f3 36bf dd43 ce3e c4cf e3bf
00000050: 5fdb ca3c 3d49 d4be a6b2 c6be 2bdc f6bd
00000060: 1d90 cdbe 4086 70bf 4a6c 393e 9f85 e3bf
00000070: 792a 0abf 8402 69bf cd35 19bf 6653 f1bf
-1.6838926 -0.12648368 -1.5012136 0.12002714 -0.09096076 -0.4706127 -0.867779 0.29302555
-0.019037008 -0.71144366 -1.8686271 -0.84917176 -1.0960277 -1.1487273 -0.17583914 -1.0445752
-0.89534014 -0.7146493 0.4028615 -1.779778 0.024762807 -0.41462126 -0.38808173 -0.120537125
-0.40149012 -0.9395485 0.18107715 -1.7775153 -0.5397106 -0.91019464 -0.5984772 -1.8853576

net.9.running_var f4 [32]
00000000: 68d3 0040 58fd 8540 4b5e ac3f 1185 8d40
00000010: e6d4 5d3f b0d1 933f 9173 3c3f 5636 903f
00000020: 6ecb 8c40 f840 9f3f 51a7 8440 b939 1a40
00000030: e5d3 0e40 e464 e43f 7307 f33f 3736 3540
00000040: eb34 3f40 98ba 5040 6b50 a140 6f11 2640
00000050: 1845 8f40 16e1 3540 94fd ad40 d6bf a240
00000060: 31e6 a93f f291 eb3f 62cc 2d40 d66d 763f
00000070: 3cb8 3a40 0107 3440 5b3a 8540 0ef9 be3f
2.0129032 4.1871758 1.3466276 4.4224935 0.8665298 1.1548367 0.7361384 1.1266582
4.3998327 1.2441702 4.1454244 2.409773 2.231683 1.7843289 1.8986648 2.831434
2.9876049 3.2613888 5.0410666 2.594814 4.4771843 2.8418632 5.4372044 5.0859175
1.3273374 1.8403914 2.7155995 0.96261346 2.9174948 2.8129275 4.1633735 1.4919755

net.11.weight f4 [3, 32]
00000000: 7bb3 17bf ff5d ebbe 5d1f 00bf f8de e8be
00000010: f172 fabc a6a6 e53c 36dc 43be 59e6 3e3e
00000020: f428 1abf 706a 4cbd 62ef 0dbf c1fe 79be
00000030: d8d5 cabe 5234 163d c3a8 95be 7fc3 13bf
00000040: 84b1 dcbe 9fc7 e63e 3b8f b3be 4ed6 06bf
00000050: d0a2 fcbe a272 703e 9c1b 09bf 3d8b 36bf
00000060: bf08 19be a8a9 c1be 5bf1 073e be14 7abe
00000070: 486d d9be f2e4 6abe a69c 9cbe 349a a4be
00000080: 5f53 d2bd 8eca e9be a25c dc3b 0a42 28be
00000090: fe12 23be d3bc 6e3c 2dec a43d c996 60bd
000000a0: 9d30 8cbe d775 ee3c 0747 b03d 5647 56be
000000b0: 3fc4 a5be 5ad3 31bf e8ab ea3d 9de4 0ebe
000000c0: 3420 693d 1dad 943d c814 383e 3623 d4be
000000d0: 4e60 71be abb2 3bbe dc36 66be de1d 55be
000000e0: 890c e73a 2860 febd 074f 273e 962e a7bd
000000f0: fcbd 99be 7aa0 cabe 89c8 14bb e56f 6dbe
00000100: 90dd 38bd f204 8fbd b08c 3abd a54d d23d
00000110: 59d1 8bbd 4370 54be 1a05 b8bd c35c 273e
00000120: e8e9 06bf b979 613e 9feb 17be 6e12 ffbd
00000130: f6db 4a3e 3dd6 b8bd 8eeb 233d 020a 233c
00000140: 81cd ffbd ea94 c7bd 4ee0 e33e 51bc 0abc
00000150: f858 c93d 75d6 f13d 93ae d3be 62d6 e73e
00000160: 9870 b7be 1545 043e dbc2 213d 3a3d 3e3d
00000170: e7fd 823e 7d8b a5be fc9a 44bd c4a3 1c3e
-0.5925824 -0.4597015 -0.50047857 -0.45482612 -0.030572386 0.028033566 -0.19126973 0.18642558
-0.6021874 -0.049906194 -0.55443394 -0.24413587 -0.39616275 0.03667099 -0.29230317 -0.5772018
-0.43104184 0.45074174 -0.35070214 -0.52670753 -0.49342966 0.23481229 -0.53557754 -0.7130621
-0.14944743 -0.3782475 0.13275664 -0.24421975 -0.42466187 -0.22938898 -0.30588263 -0.32148898
-0.10269808 -0.4566235 0.00672491 -0.16431442 -0.15925214 0.014571386 0.080528595 -0.0548313
-0.2738084 0.029108925 0.086072974 -0.2092565 -0.32376286 -0.6946312 0.1145857 -0.13954397
0.056915477 0.07259581 0.17976677 -0.41433114 -0.23571894 -0.18329875 -0.22481865 -0.20812175
0.0017627637 -0.12420684 0.1633874 -0.081631824 -0.3002776 -0.3957556 -0.0022702536 -0.23187216
-0.045133173 -0.06983365 -0.045544326 0.10268716 -0.06827039 -0.2074595 -0.08985348 0.1634398
-0.5270066 0.2201909 -0.14835976 -0.12454687 0.19810471 -0.09025238 0.040019564 0.0099511165
-0.12490369 -0.097452 0.44507068 -0.00846775 0.098314226 0.118084826 -0.41344127 0.4528075
-0.3582809 0.12916978 0.03949247 0.04644511 0.25584337 -0.32332984 -0.047999367 0.15296847

net.11.bias f4 [3]
00000000: 8985 e4be 0926 20be 78d7 87bd
-0.4463313 -0.1563951 -0.06632894
