PINN_FNN/models/pinn_model_20250726_001220/best_model.pth (torch, 806754 bytes, 10 tensors)

network.0.weight f4 [256, 9]
000000 da 79 da bb a6 56 11 3e 9f d5 19 3e 89 2d 93 3e
       -0.006667358 0.1419321 0.15022896 0.28745678
000010 67 e4 8b 3d 25 93 d3 bd 90 da da 3d f9 d0 b8 3d
       0.06830674 -0.103308 0.10686219 0.09024233
000020 cc 34 30 be 67 88 95 bd 1a ff 56 be cd 29 0b be
       -0.1720764 -0.07301407 -0.20995751 -0.13590164
000030 b4 fd 78 3e 7f 80 45 3e 4a 6d cb be a1 76 d5 3c
       0.2431553 0.19287299 -0.39731818 0.026057543
000040 10 a8 98 3b c7 5d 4c 3d 92 b7 4d be 58 22 ae be
       0.0046587065 0.04989412 -0.20089558 -0.34010577
000050 51 ac 3c be 06 26 2c 3e 40 cb ea bc 31 c6 d3 3d
       -0.18425108 0.1681138 -0.02866137 0.103405364
000060 0d 9e 6c be 65 38 2b be 66 2f 23 be 20 50 38 3e
       -0.23107167 -0.16720732 -0.1593605 0.17999315
000070 fa 5c 50 be 8f f4 8c 3e be 25 05 3f b5 e6 1c 3e
       -0.20347968 0.27530333 0.52010715 0.15322383
000080 97 ba d4 3d 1a a0 cd bd 30 a3 5b 3d 42 e8 c0 3d
       0.10387152 -0.100403026 0.053622425 0.094193
000090 a9 11 aa bd 09 6d bd bd e6 51 6d be 50 a4 b6 3e
       -0.0830415 -0.092493124 -0.23175773 0.35672235
0000a0 7c 87 b3 3e 74 06 dc be ac 9a 97 3d 51 33 6c be
       0.35064304 -0.42973673 0.07402548 -0.2306645
0000b0 ff 67 5a be 2c 07 b2 3e 60 ec b1 be d3 b6 27 3d
       -0.21328734 0.34771097 -0.34750652 0.04094584
0000c0 d9 1e 14 be 6b e9 fb 3e 88 cc ab 3e e2 73 19 3e
       -0.14464892 0.4920152 0.33554482 0.14985612
0000d0 5e 4f 91 bc e9 6e 2c be 3e 6d 88 be c7 bf 93 be
       -0.01773804 -0.16839184 -0.26645845 -0.28857252
0000e0 54 ab 96 3e 0b 59 f4 be ae 2f 8c be 25 fe 8c 3f
       0.29427588 -0.47724184 -0.27380127 1.1015059
0000f0 9a 40 d9 3d d7 da 7a 3e 21 e1 85 bc 58 37 a6 be
       0.10608025 0.24497543 -0.016342701 -0.324641
000100 2d 48 7a be e0 04 93 bd e4 bd 12 be 93 9d 15 3e
       -0.24441595 -0.07178664 -0.1433025 0.14610891
000110 6b c0 27 3e fa 7f f5 3b ed 89 8a be dd 92 02 be
       0.16381995 0.0074920626 -0.27058354 -0.12751336
000120 c5 54 02 bf 2b c7 24 be 07 c2 b4 be 05 e1 1f 3e
       -0.509106 -0.16091602 -0.3530428 0.15613182
000130 e3 46 f1 3d ff 56 3d be f0 0a c5 bb fc 3e ca bd
       0.11781099 -0.18490218 -0.0060132667 -0.098752946
000140 70 de 46 3e 68 14 94 be 84 ec 89 3e 77 c6 a2 be
       0.1942079 -0.2892182 0.2693826 -0.31792042
000150 23 eb dc be d3 35 cf 3d 1f 0b 0c 3f fa b6 d9 3d
       -0.43148145 0.10117688 0.5470447 0.10630603
000160 80 de 36 3d db a4 9d bc b4 69 77 3e f4 85 1b 3e
       0.044645786 -0.019243648 0.24161416 0.15187818
000170 3d d9 e3 bd 54 f4 25 3f af 33 26 3f 2c 70 c3 3e
       -0.11125419 0.6482594 0.6492261 0.38171518
000180 d2 34 cd bd 58 d5 1a be bc 5d a8 bd 4f 87 29 be
       -0.1001984 -0.15120447 -0.082210034 -0.16555522
000190 14 5f 07 be 63 85 55 be b7 cd 22 bf 20 70 4a be
       -0.13219863 -0.20851664 -0.63595146 -0.19769335
0001a0 de 06 f2 3d 55 b6 cf 3d 97 01 41 be 5e f9 17 be
       0.11817716 0.10142199 -0.18848263 -0.1484122
0001b0 58 ad ac 3e 5a 02 02 be 11 8e 4d bd 3d b3 0d 3f
       0.33726 -0.1269621 -0.050184313 0.5535162
0001c0 b6 ac a1 3e 3e ab 01 3d da 35 8f 3e ef e3 ad 3e
       0.3157708 0.03165745 0.27970773 0.33962962
0001d0 b5 df ef 3d bf 22 ca be e2 67 80 3e 23 db 56 3d
       0.117125906 -0.39479634 0.25079256 0.05245508
0001e0 c5 79 9b 3e 0f 16 10 3f 40 1b cf bd 25 91 ff bd
       0.3036634 0.5628366 -0.101126194 -0.12478856
0001f0 8d ce 65 be 68 4d cd bd 20 58 c4 be 4f 34 59 be
       -0.22442074 -0.1002453 -0.38348484 -0.2121136
000200 f7 42 a1 3e 4e 16 3a bf 2c 03 4e 3f 87 d9 f2 3e
       0.31496403 -0.72690284 0.8047359 0.47431585
000210 fc f0 87 3e 5c a0 c2 bc 69 d4 06 be 2a bc d2 3c
       0.26551044 -0.023758106 -0.13166966 0.02572449
000220 ce ad bf bd 57 5b fa bd 48 31 93 3d 23 b9 b4 3d
       -0.093593225 -0.12224453 0.07187134 0.088243745
000230 37 1d aa bd 77 88 04 bb d8 cd a7 bb 55 d6 67 bb
       -0.083063535 -0.002022294 -0.005120974 -0.0035375555
000240 f9 ed 7a 3e 0a d7 20 3e 7a a3 90 3d 51 43 65 be
       0.24504842 0.15707031 0.07062431 -0.2238896
000250 a2 92 b2 be 26 fe c3 3c 45 40 64 bd a0 46 1d 3e
       -0.34877497 0.023924898 -0.055725355 0.15358973
000260 ad 84 e2 3d 6c e3 8b 3e 79 bf fe bd ca ef f4 bc
       0.11060462 0.27321947 -0.12438864 -0.029899497
000270 02 5d 0e bf b2 8c 20 be 31 ab 1c 3f 2f 43 0e be
       -0.5561067 -0.15678671 0.6119872 -0.13892816
000280 d1 eb 4f be 0f 26 e8 bd f3 6f 1a be 13 a6 5c be
       -0.203048 -0.11335384 -0.15081768 -0.21547727
000290 2d df e6 3d c9 95 e7 bc 98 70 46 bf 47 f2 f6 3d
       0.11273036 -0.028269665 -0.77515554 0.120579295
0002a0 f2 eb 87 be 52 45 62 be 38 72 71 bd eb 04 bd be
       -0.265472 -0.22096756 -0.058946818 -0.36917815
0002b0 0e 2b 44 3c c7 84 25 bd d5 04 e2 3d b1 d9 5b be
       0.011973156 -0.04040983 0.11036078 -0.21469761
0002c0 2e 89 d3 bd 66 0a 8b 3d 25 1f 83 bc f6 1e c7 bd
       -0.10328899 0.06789093 -0.016006062 -0.09722702
0002d0 67 6e 9c be 1b e2 3c be 9b 44 a7 be 8b b5 02 bc
       -0.3055298 -0.18445627 -0.3266953 -0.0079778535
0002e0 43 d4 9d 3e 46 b1 a8 3e c3 28 64 bd b9 d0 07 be
       0.30826005 0.3294775 -0.055702936 -0.13263215
0002f0 1f 54 96 3d b4 b1 e7 be 28 2b ab be 6b f3 f4 3c
       0.073402636 -0.45252764 -0.33431363 0.029901227
000300 d4 53 70 bc 55 24 8b bc 50 eb 96 3e 14 c0 02 be
       -0.014668424 -0.016985098 0.29476404 -0.12768584
000310 42 6e e5 bd 7a d1 47 3d ac 9b c6 be d6 f7 ce bc
       -0.11202671 0.048783757 -0.38790643 -0.025264662
000320 00 6b 9f be 70 7c 5c 3e 33 43 0c 3e 51 38 9a 3d
       -0.31136322 0.21531844 0.1369751 0.07530273
000330 7a 96 95 bd f1 3c 0f bd 3e 3c 3c 3e 28 5f f2 be
       -0.07304092 -0.034970228 0.18382356 -0.47338223
000340 95 c9 a4 3e 7e b1 86 3e e7 b7 1c 3f d2 ad 2a be
       0.32185045 0.2630729 0.6121811 -0.1666787
000350 ce 44 35 3e 99 51 3f 3c 11 d0 4c bd 90 aa 2d be
       0.17702028 0.011677169 -0.050003115 -0.16959596
000360 6a e6 04 be b6 a8 e5 be 1c fe 79 be 09 38 33 bf
       -0.12978521 -0.4485528 -0.24413341 -0.7000738
000370 d1 fa de be 62 20 f8 bd 74 64 a6 3d da ba 59 be
       -0.43550733 -0.121155515 0.08124629 -0.21262684
000380 c3 8f 79 bc f9 32 c1 bd 93 70 46 bd 6b 0a 5e 3e
       -0.015232029 -0.094335504 -0.048447203 0.21683662
000390 1f 7c 39 bd 7a 41 3e 3d a2 b8 36 3d c9 31 0a 3e
       -0.045284387 0.046449162 0.044609673 0.13495554
0003a0 e4 6a 22 3e 25 69 a9 bc e3 ae 67 bc 25 91 3f be
       0.15861088 -0.02068002 -0.014140817 -0.18707712
0003b0 1e 77 13 be e6 29 01 3f f1 77 cb bd 67 cd 22 3d
       -0.14400908 0.50454557 -0.099349864 0.03974667
0003c0 bb 0a dd 3d 6a e2 0d 3d 54 37 17 be c6 d0 0f 3d
       0.10793062 0.034639753 -0.147672 0.03511121
0003d0 15 81 0a bc ee ab 90 be 42 82 08 bf 2a 5b df bc
       -0.008453627 -0.28256172 -0.5332376 -0.02726515
0003e0 47 60 a0 3e 47 c4 98 bd ec ed 2c bd 01 43 44 bd
       0.31323454 -0.07459312 -0.042219087 -0.047915462
0003f0 9b 73 24 3e ac 78 d3 bc 04 dc 98 be 24 26 07 3f
       0.16059725 -0.025814377 -0.2985536 0.5279257

network.0.bias f4 [256]
000000 10 21 9e 3e 5f 76 ae bd 55 94 ac be 61 94 d5 3e
       0.308846 -0.08518671 -0.33706918 0.41714767
000010 90 ad 54 be ae 46 bd 3e b3 6a 9b be b3 07 38 be
       -0.20769334 0.36967987 -0.30354843 -0.17971687
000020 de 36 aa be a5 8d 60 bd 92 28 40 3d 70 02 a4 be
       -0.33244985 -0.054822583 0.04691369 -0.3203311
000030 13 bd e2 3e 26 a6 e2 bd 14 1a e8 3d 7e a5 02 bd
       0.44284877 -0.110668465 0.11333099 -0.031896107
000040 55 70 c4 be 26 89 2f 3e c2 1e 69 3e 17 55 8d be
       -0.38366953 0.17142162 0.2276564 -0.2760398
000050 fa f1 84 bd 60 66 ec 3d ee 43 e8 be a9 ac b9 be
       -0.06491466 0.11542964 -0.45364326 -0.36264542
000060 5c 59 c4 be ae 62 dc be 13 43 b7 3e 7e 43 93 be
       -0.38349426 -0.43044037 0.3579336 -0.2876243
000070 f2 85 a6 3e 8a 8c ce 3e 9f 5e ae 3e 49 7b ac 3d
       0.32524067 0.40341598 0.34056565 0.08421952
000080 76 08 7a bd 1a ca 00 3e 43 75 85 bd 0d e6 9f 3d
       -0.061043225 0.12577096 -0.065165065 0.078075506
000090 33 ec de be 2a 9d ce be c0 97 b1 be 1f 44 de be
       -0.4353958 -0.40354282 -0.3468609 -0.43411347
0000a0 2a bb c4 3e 84 11 bb be 48 17 99 be de a4 bd be
       0.38424045 -0.365368 -0.29900575 -0.37039846
0000b0 91 4b f3 be 86 17 c6 bb 87 45 82 bd 5b d4 89 be
       -0.4751859 -0.0060452847 -0.063609175 -0.26919827
0000c0 3f f1 c2 3e 01 8f a9 be 63 c0 81 bd b6 45 c6 3e
       0.3807468 -0.33116916 -0.06335523 0.3872506
0000d0 19 9e 77 bd eb 3e 88 3e 75 3a 02 be a4 95 7f be
       -0.060453508 0.26610503 -0.12717612 -0.24959427
0000e0 cb 32 10 3e 5c 02 84 3e 1e 89 b4 be 4a 5f 39 3e
       0.14081876 0.2578305 -0.35260862 0.18102756
0000f0 7c 5a b8 be 13 21 ef be 83 9c 77 3e 4e 89 95 be
       -0.36006534 -0.4670492 0.24180798 -0.29206318
000100 c1 16 a4 3e a8 75 7d be c6 99 85 be 7b b3 93 be
       0.3204861 -0.24751914 -0.26093882 -0.2884787
000110 8c c0 a4 3d 48 96 e2 ba 2e a5 fb be 1c af b2 be
       0.08044538 -0.0017287219 -0.4914946 -0.34899223
000120 9b 5a c5 be 4c 17 0c be f1 31 45 3e 55 d5 b3 be
       -0.3854569 -0.13680762 0.19257332 -0.35123697
000130 40 c4 9d be 9d 93 b0 3e f0 c8 9a be 4a 8c 4b be
       -0.3081379 0.3448762 -0.30231428 -0.19877735
000140 49 9f 16 bb 23 19 06 be ac f8 d5 bb b7 82 ff be
       -0.0022983125 -0.13095526 -0.006529888 -0.49904415
000150 ec b3 98 3d c9 b3 86 be d1 b9 66 3e ed 46 f1 3c
       0.074561924 -0.2630904 0.22531821 0.029452765
000160 29 19 5e 3d 93 22 94 be 38 01 2d 3e b9 57 ae be
       0.054223213 -0.28932628 0.16894996 -0.34051302
000170 a0 b1 45 3e 06 9c c1 3e 72 0a 50 be c8 61 c5 3e
       0.1930604 0.3781435 -0.20316485 0.38551164
000180 02 5c 94 be ea 01 8c be 99 58 8f 3e 12 29 ab 3e
       -0.28976446 -0.2734521 0.27997282 0.33429772
000190 52 da f7 be a4 fc c3 be b9 2b 9c 3d a1 44 f2 be
       -0.48408753 -0.38278687 0.07625527 -0.47317985
0001a0 fb f7 01 bf 27 45 92 be 26 91 98 3e cf df cc be
       -0.50769013 -0.28568384 0.2979824 -0.40014502
0001b0 1d cf 87 3e 3a 3a 02 3e 14 40 b2 be f8 4f c6 be
       0.26525202 0.12717524 -0.34814513 -0.38732886
0001c0 19 b0 91 3e 66 4f 88 bd f5 03 85 be 45 00 4b 3e
       0.28454664 -0.06655769 -0.2597958 0.19824322
0001d0 d4 67 a5 3e e8 a7 bb 3e f5 27 7d be 16 a1 02 3e
       0.32305777 0.3665154 -0.24722274 0.12756762
0001e0 39 6b 2a be 83 b4 a6 be 04 8b f5 be ec 67 81 be
       -0.16642465 -0.32559595 -0.47957623 -0.252746
0001f0 83 ff 91 be 30 6a 87 be 4e 23 22 be cc 51 25 3e
       -0.28515252 -0.26448202 -0.1583378 0.16144484
000200 49 2b fe 3d 57 0c 5e be 90 87 b3 be 9d b1 c5 be
       0.124106 -0.21684395 -0.35064363 -0.3861207
000210 ee 2e d2 be 4c 72 cb be 8e f3 24 3c e9 1b de 3e
       -0.4105143 -0.3973564 0.010067834 0.4338067
000220 d4 7a cd be 2a 02 c4 3d 52 05 64 bd 0f a5 9f be
       -0.40132773 0.09570725 -0.055669136 -0.31180617
000230 fb c1 b7 bd 51 ad c4 3e 1c 1c 88 3e ce fa d5 be
       -0.08972546 0.3841348 0.26583946 -0.4179291
000240 53 4b 3a 3e 3f 46 ec be 70 55 68 be 32 8e c2 3e
       0.18192796 -0.46147344 -0.22688842 0.3799911
000250 98 0f a9 be 53 2e f0 be 0f 09 92 be 29 a5 26 3b
       -0.3301971 -0.46910343 -0.28522536 0.0025428033
000260 a8 23 14 3e f3 e9 15 be 74 d5 99 be 02 ec c6 be
       0.14466727 -0.14640026 -0.30045664 -0.38851935
000270 76 44 98 be 7d b3 4a be fc 80 c1 3d 3f f4 a9 3e
       -0.29739732 -0.19795032 0.0944843 0.33194157
000280 3c b8 ce be af f7 89 3e 71 2d 9d be 3d 8d 91 bd
       -0.40374935 0.2694678 -0.30698732 -0.07107017
000290 d7 df af 3e 01 4b 3e 3e 56 69 cf be 59 d2 41 3e
       0.34350464 0.18583299 -0.40510052 0.18927898
0002a0 c4 aa df 3c c7 f7 ae ba 2a a1 ef 3c c3 f8 59 be
       0.027303107 -0.001334899 0.029251654 -0.21286301
0002b0 b1 b7 a1 be 43 48 ac be df 13 88 be 98 a7 88 be
       -0.31585458 -0.3364888 -0.2657766 -0.26690364
0002c0 32 3c c5 be cb a6 e2 bd fd 3a 80 3e 03 c0 79 3e
       -0.38522488 -0.110669695 0.25045004 0.24389653
0002d0 44 a9 39 3e 2a e4 3b be da df 9d be 1f af 82 3e
       0.18130976 -0.18348756 -0.30834848 0.25524232
0002e0 05 82 af be 36 28 a6 3e d9 ba ab 3e c7 2f 39 3c
       -0.34278885 0.32452554 0.3354099 0.011302895
0002f0 7e 8d 8b bd 1e 36 4d bd ef d3 d9 be 87 91 f6 be
       -0.06814097 -0.05010044 -0.42544505 -0.48157904
000300 c7 66 6c be a3 c5 e1 3c 0d b7 83 bd 86 32 a7 3e
       -0.23086081 0.02756006 -0.064313985 0.32655734
000310 90 35 d7 be 42 3e 85 be 4d 90 20 3d 6a 05 0f be
       -0.42033052 -0.2602406 0.039200116 -0.13966909
000320 4e 48 b7 3e d1 f7 c9 3d 7e 82 92 be 83 39 12 3e
       0.35797352 0.0986172 -0.28615183 0.14279751
000330 4a 6d e2 be e8 7e b6 3e 42 8d cf be 0a 27 54 3e
       -0.44224006 0.35643697 -0.4053746 0.20718017
000340 fa e3 92 3e ed 51 7b be 24 f4 be be 60 c9 98 bd
       0.28689557 -0.24542971 -0.3729564 -0.07460284
000350 a8 9c c1 3e ea 56 90 3e c6 1b 12 3d ad c6 12 bf
       0.37814832 0.2819131 0.035671018 -0.57334405
000360 59 39 9a be 10 8d 8b 3e b2 f7 c2 be e1 e1 8e be
       -0.30121878 0.2725606 -0.38079602 -0.27906707
000370 a2 03 88 3e 17 66 40 be 36 65 8b 3e 19 9c 21 3e
       0.26565272 -0.18788944 0.27225655 0.15782203
000380 1e 64 82 be ec 0f d3 be c3 82 da 3e 77 b7 73 3e
       -0.25467008 -0.41223085 0.42677888 0.23800455
000390 7a 97 a4 3e 1f 42 ba be 90 d4 95 3e b4 9b 78 bd
       0.32146817 -0.3637857 0.29263735 -0.060695365
0003a0 65 9b 78 be 2d 02 90 bd 2e d3 8d be b4 bf af bd
       -0.24278028 -0.07031665 -0.2770018 -0.08581486
0003b0 69 93 b5 3e bb ea 6d be f6 bd bc 3e 30 b7 2a be
       0.35464028 -0.23234074 0.3686368 -0.16671443
0003c0 43 27 ac 3e 76 44 c2 be d0 1d 6c bd 2e 51 f3 be
       0.33623704 -0.37942857 -0.05764562 -0.47522873
0003d0 26 d3 07 bf 84 84 0a 3e 66 5b ab 3d 1d 53 5f be
       -0.5305656 0.13527113 0.08367042 -0.21809049
0003e0 31 2d c2 be 69 f1 db be a1 1b 0f 3e 3b 7e c7 be
       -0.37925103 -0.4295762 0.13975383 -0.38963494
0003f0 44 34 ae 3e e0 3b c2 3e 9e 40 0a 3e e4 48 ba bb
       0.3402425 0.37936306 0.13501212 -0.005684959

network.2.weight f4 [256, 256]
000000 4e 0e 61 3d 36 66 9e bc ba df 1b 3c 25 90 21 3e
       0.054945283 -0.019335847 0.00951379 0.15777643
000010 aa b5 6d 3c 14 60 bf 3d 67 e5 d6 bc d1 54 8d 3c
       0.014508644 0.09344497 -0.026232434 0.017252358
000020 c4 83 d2 bd dc 62 c2 bc 00 5d b9 3c 1c fa 05 3d
       -0.102790385 -0.02372878 0.022627354 0.032709226
000030 d1 ed 15 3e 6f 09 98 bd 22 25 84 bc 1e 3d 43 bd
       0.14641501 -0.07423674 -0.016130988 -0.047665708
000040 b4 80 5e bc 35 2c 79 3d a4 1f c3 bc 41 91 0b 3d
       -0.01358049 0.060833175 -0.023818798 0.03407407
000050 66 df ff 3d ff fd 09 3d 3d ce af bc 45 45 15 bd
       0.12493782 0.033689495 -0.021460647 -0.036443014
000060 88 99 a2 bd da 59 f6 3c 93 2a 90 3d d8 3f 25 3d
       -0.0793944 0.030072141 0.070393704 0.04034409
000070 62 0a 58 3c d2 3f 91 3d a0 f6 3e 3d 60 16 99 bc
       0.013186069 0.07092251 0.04662192 -0.018687427
000080 e4 98 dd bd 72 b3 8d 3d 56 bc 58 3d 0c 2d d5 3c
       -0.10820177 0.06918992 0.052913986 0.026022457
000090 1b 22 31 be 58 2e 33 3d bc 09 5a bd 98 e2 1e bd
       -0.17298166 0.04374537 -0.05323194 -0.038790315
0000a0 f0 99 7e 3c f4 9f 37 bb 25 66 a6 3d 17 ee d8 bd
       0.015539631 -0.0028018923 0.08124951 -0.10592287
0000b0 cd 21 5d bd e1 a1 8c bc 13 38 9a 3d a7 f1 68 bd
       -0.053987313 -0.017167034 0.075302266 -0.056871083
0000c0 68 ae 82 3d cc b0 89 3d 67 be 0e be 14 45 8c 3d
       0.063809216 0.067231745 -0.1393982 0.06849113
0000d0 9f 64 06 be aa 68 d1 3c 6e 1f 56 ba 85 7e 6c 3d
       -0.13124321 0.025562603 -0.00081681355 0.057737846
0000e0 7c 76 bf 3d 94 fa 71 bd 07 49 1b 3c 41 20 9c 3d
       0.09348771 -0.05907686 0.00947786 0.076233394
0000f0 ce 84 e1 3a d2 4e 42 bd 16 db 4f bd e3 a3 4c be
       0.0017205717 -0.04743845 -0.050746046 -0.19984393
000100 a5 49 07 3d b1 1b 6c bc 78 94 ba bd 84 af b5 bd
       0.033029217 -0.014410899 -0.091103494 -0.088713676
000110 cd fa 12 bd ba 6d cd bc 51 e9 a2 bd 2b 1b a5 bd
       -0.035883714 -0.025076736 -0.07954658 -0.080618225
000120 97 b3 18 3d 9a 6d a8 3a ca d3 4c bc fe c9 fd 3b
       0.037280645 0.0012850047 -0.012501666 0.0077450266
000130 24 e0 4c bd 4e 86 8c 3c 69 19 5e 3b 04 46 44 bd
       -0.050018445 0.017153885 0.0033889657 -0.047918335
000140 8a 2f 83 3a 57 ad 1e 3b c6 13 9c bd 2d 2a 1b 3d
       0.0010008675 0.0024212205 -0.07620959 0.03788202
000150 cd 80 04 3d 56 dd 61 3d 8c 63 94 bc cd 50 37 3d
       0.032349396 0.055142723 -0.018113874 0.044754792
000160 ed 68 32 bd 94 2f 0c 3d 5f 4d 86 3d c4 3b a6 bd
       -0.043557096 0.03422506 0.06557726 -0.08116868
000170 2b 15 b7 3a a7 10 96 3d 0a a0 37 3d 27 d2 14 3d
       0.00139681 0.07327395 0.04483036 0.03633323
000180 0b d5 4c 3c ca b3 b9 3c 8f e2 a4 3d c8 89 6d 3c
       0.012501965 0.022668738 0.08051025 0.014498182
000190 c3 8b ab bd 65 1b 3f 3d 83 1a 7f 3d 1d 93 a4 bd
       -0.08376267 0.046656985 0.062281143 -0.08035872
0001a0 48 91 f4 3d 77 2c 86 bd 9a e3 b8 3d 7a d5 9f bd
       0.11941773 -0.0655145 0.090277866 -0.07804389
0001b0 f5 16 50 bd c5 58 0c bd 9b 57 db 3d e6 33 14 3d
       -0.050803144 -0.034264345 0.10710069 0.036182307
0001c0 ad 81 5b 3d e0 d8 44 bd 7e b6 f3 bb d7 09 8c bc
       0.053590465 -0.04805839 -0.0074375262 -0.017094536
0001d0 58 36 0b 3d 53 f0 4f 3d 20 2f 38 bd ee 72 aa 3d
       0.033987373 0.0507663 -0.044966817 0.08322702
0001e0 fa 68 e1 3c cb 9e 45 bb ce ba 5e bd 09 0c d6 bd
       0.027515877 -0.0030154462 -0.05437737 -0.10451514
0001f0 0c a1 73 3d d0 06 1a 3d 86 93 87 3d e5 fd bf 3c
       0.05947976 0.037604153 0.06619935 0.023436496
000200 99 2e 82 3d 69 22 12 bd 0c b3 43 3d e8 5e 4a bd
       0.06356544 -0.035677347 0.047778174 -0.049406916
000210 cb 37 61 bd 40 bd c4 3c e3 aa ff 3d 50 5d 2e 3e
       -0.05498485 0.024016023 0.12483766 0.17027783
000220 f7 05 69 bd 3f ce 4b 3d 7d 9a 3b bc 51 00 39 3d
       -0.056890454 0.04975724 -0.011450407 0.045166317
000230 b9 80 8e bd e6 36 b6 3d ff c0 ba 3b 3a 83 96 3c
       -0.06958146 0.0889719 0.0056992765 0.01837312
000240 68 ee 1d bd a7 e0 3f be c3 5f 05 bd bd 21 0c bc
       -0.03855744 -0.18738042 -0.03256203 -0.008552966
000250 83 c5 16 bd d7 c6 1a 3c 26 9b 80 bc 50 42 65 3d
       -0.036809456 0.009446821 -0.01569898 0.055971444
000260 b7 de 68 bd c4 10 36 bd a5 56 01 be 08 45 bd bc
       -0.056853022 -0.044449583 -0.12630709 -0.023104206
000270 e1 69 b2 bc 9b 64 3d bd 17 1c ac 3d 3b 89 2a 3d
       -0.021779003 -0.046238523 0.08403795 0.04163478
000280 71 46 b8 bd c9 e9 22 3d f7 52 aa bd b4 43 19 3c
       -0.08997811 0.039773736 -0.083166055 0.009354521
000290 1b 92 0b 3e 19 9d dd 3d 56 4a 88 bd 94 19 0f bc
       0.13629954 0.108209796 -0.066548035 -0.008734126
0002a0 42 c1 11 be bc 85 95 bc 8f ae dc bd cc 1d 9a 3c
       -0.14233878 -0.018252246 -0.10775482 0.018813036
0002b0 52 8c 84 bd 92 f3 92 bd 4d 3d 6f bd da 17 1f bd
       -0.064720765 -0.071753636 -0.05840807 -0.038841106
0002c0 ca dd c4 bd d9 c8 8d 3d aa 49 01 be e0 50 0b bd
       -0.096126154 0.06923074 -0.12625757 -0.034012675
0002d0 c7 ee b9 3d 06 0d 18 3e e4 d8 ee 3b ff 6e df 3b
       0.09078746 0.14848718 0.007289039 0.0068186517
0002e0 0f 00 04 be a4 ea 14 bc 48 94 f2 3d 3e 2f d5 bc
       -0.12890647 -0.009089146 0.11844689 -0.026023503
0002f0 aa 58 9d bd f5 9e a7 bd a4 ee 3c bd d5 b7 3d 3b
       -0.07682927 -0.081846155 -0.046126023 0.0028948684
000300 3c 92 01 bd 6e e8 0f 3e 5c e9 61 be 70 23 3d 3d
       -0.0316336 0.14053509 -0.22061676 0.046176374
000310 08 43 e5 3b 7d 59 8a bd a3 8c 8a 3c ef 35 1c bb
       0.006996516 -0.0675535 0.016912764 -0.0023835858
000320 52 63 85 bd 4d dd 8b 3c ac ad 38 3d 4a 67 50 bd
       -0.065130845 0.017073298 0.0450875 -0.050879754
000330 b8 6a 8d bd af 63 39 3c 3c 00 e0 3b 22 c3 22 3d
       -0.069051206 0.01131527 0.0068359654 0.039736874
000340 02 8b 20 3d d8 ab 25 3d a1 40 74 bd c1 ca 79 bc
       0.03919507 0.040447086 -0.059631947 -0.015246094
000350 72 65 72 3d ab e9 c5 3d a2 4c d6 bc 00 ae 60 3c
       0.059178777 0.09663709 -0.026159588 0.01371336
000360 15 89 d8 3b 29 5c c2 3a a4 6a 88 bd a3 cc 9d bc
       0.0066081383 0.0014828491 -0.06660965 -0.019262617
000370 27 12 fc 3d de e2 94 3c 5d b8 ef 3c 31 ab 71 3d
       0.1230815 0.018174585 0.029262716 0.05900115
000380 39 6a d3 bd 95 f6 12 3d 9c 76 44 bd 63 3e 4f bd
       -0.10322995 0.03587969 -0.047964677 -0.050596606
000390 9a 8e 89 bd a8 97 bc bd 88 7a 86 3d 2e 6e 80 3d
       -0.06716652 -0.09208614 0.0656634 0.06271015
0003a0 5b 46 e8 bd f1 13 44 3d 35 26 66 3c e9 c6 05 bb
       -0.11341544 0.04787058 0.014047195 -0.002041275
0003b0 8b 9b 59 3d d8 15 f1 bd 1d 44 5f 3d c0 76 03 be
       0.053126853 -0.117717445 0.054508317 -0.12838268
0003c0 40 4a 1e 3d 00 75 01 bd 62 2b 8d 3c 1f ea eb 3b
       0.03864503 -0.03160572 0.0172326 0.0071995403
0003d0 72 71 93 3d 1d f9 9b 3c 37 9b b1 bc 14 92 80 3d
       0.07199372 0.019039685 -0.021680458 0.06277862
0003e0 b5 ee a3 bd 6a 4e d7 bc 0d db 5b bc 56 e1 c3 bc
       -0.08004514 -0.026282508 -0.013418925 -0.02391116
0003f0 e7 3f a3 3d 0a e8 01 3e d1 24 b4 bc 83 4f 88 bd
       0.07971173 0.12686172 -0.021990212 -0.06655791

network.2.bias f4 [256]
000000 33 4e cf 3d c6 3f 2b 3b 9e f8 40 bd 08 3c d5 3d
       0.10122337 0.0026130541 -0.0471121 0.10411841
000010 5e 2d 79 bd 68 51 2c 3e e3 7b 96 be 68 17 5d bd
       -0.06083428 0.16827929 -0.29391393 -0.0539774
000020 2d c4 20 3e 56 8c 10 bd 6f d5 2a 3d d4 c2 15 3d
       0.15699835 -0.035290085 0.041707452 0.036562756
000030 a4 1c ea 3d 48 cf ba bd 67 18 f2 bc 26 5e 90 3d
       0.11431244 -0.09121567 -0.029552652 0.070492074
000040 26 9f 59 3c 05 8e 0e 3e ca 00 9d bc d6 9b 15 bd
       0.013282573 0.13921364 -0.019165415 -0.03652557
000050 44 be a3 bd 38 d0 8d 3c be e0 78 3d 11 9a cf bc
       -0.07995275 0.0173112 0.060761206 -0.02534202
000060 22 25 13 bc 17 23 a7 3c 0c 07 c4 3d d7 ce 45 be
       -0.008981021 0.020402474 0.095716566 -0.19317184
000070 9f 3b 3e 3d e0 05 3d bd ad 94 fe bc 1f 7e 45 bd
       0.046443578 -0.04614818 -0.031076754 -0.04821598
000080 e1 39 81 bd c0 ab ae bd 03 bb 03 bc 76 23 a6 3c
       -0.06309868 -0.085288525 -0.008040193 0.020280581
000090 56 a0 f4 bb 57 fb 99 bc 45 8c 4f be 12 09 a8 3d
       -0.0074654026 -0.018796606 -0.20268352 0.08204855
0000a0 f5 6f 84 3c b6 c6 2d bd c2 df 26 bd 78 e9 6f bd
       0.016166667 -0.042425834 -0.040740736 -0.058572263
0000b0 08 a3 54 3e 90 57 cb 3c 38 4a 28 bd 84 c8 80 bd
       0.20765316 0.024822026 -0.041086406 -0.06288245
0000c0 6a 16 83 bd 80 66 0c 3e 53 bb c1 bc 74 35 23 3d
       -0.064007595 0.13710976 -0.023648893 0.0398459
0000d0 72 1f d3 3b 2c d2 3b bd b8 b9 59 3e a0 0c 33 3d
       0.0064429576 -0.045854732 0.21262252 0.043713212
0000e0 ad 1b fe 3d 5e 4f 5f ba 47 38 19 bd 9f cb c0 bd
       0.124076225 -0.00085186015 -0.037407186 -0.09413838
0000f0 db ef af bc 24 39 bf 3d d7 ff 2b bd 0e 1b 0b 3e
       -0.021476677 0.093370706 -0.041992035 0.1358454
000100 50 e4 3d 3e 29 a4 73 bc 85 78 8c 3d 26 f1 db bc
       0.18544126 -0.014870682 0.06858925 -0.026848387
000110 01 84 92 3b 26 98 f3 3d e8 58 6b 3d 7a 2c 03 3b
       0.0044713025 0.118942544 0.057457834 0.0020015524
000120 64 23 77 bd 0b 0f f1 3b 16 28 fe 3d 7e d6 76 be
       -0.060336486 0.0073565296 0.124099895 -0.2410526
000130 cc 81 95 bc 18 77 4a 3c f4 89 34 3e 78 e8 42 be
       -0.018250369 0.012357496 0.1763075 -0.19033992
000140 27 a1 ab 3d 91 e5 cc bc f5 7c d0 bd b4 f5 05 3c
       0.08380347 -0.02501181 -0.10180084 0.008176256
000150 e9 31 df 3c 42 57 32 3e 43 04 29 3d 5d 99 04 bd
       0.027245479 0.17416099 0.04126383 -0.03237282
000160 15 01 8d bd 19 3f d6 bb 40 dc 50 bd 7d cf 87 bd
       -0.06884972 -0.0065382835 -0.050991297 -0.06631372
000170 89 55 85 bd 82 28 f8 bc 88 af 56 3d 09 6a e3 3c
       -0.06510455 -0.030292753 0.052413493 0.027760522
000180 99 af c7 bd 8e f9 e3 bc 5a 5f d1 3d d5 8c 27 bd
       -0.097502895 -0.027828958 0.10223265 -0.040905792
000190 3c 2b 0a 3d be d6 42 3d 91 3b 34 3c 14 9f 0c 3c
       0.033732638 0.047568075 0.01100053 0.008582849
0001a0 e0 d0 b2 3d c2 bf 9f 3c f3 e3 19 3c 91 82 75 3d
       0.08731246 0.019500617 0.009392726 0.05993897
0001b0 61 cf 84 bc 88 ce 3b 3c ce 47 53 bd b1 28 5e 3e
       -0.016212167 0.011462815 -0.05158215 0.2169521
0001c0 15 e8 a9 3d 95 39 4e bd 03 6b 93 bb ea 53 40 bd
       0.08296219 -0.050347883 -0.004498841 -0.046955027
0001d0 6b 80 4b 3e d7 e6 a2 bd 8e 6d ab bd 06 a9 88 3d
       0.19873206 -0.079541855 -0.08370505 0.06672864
0001e0 6d 21 1b 3d b1 c1 fe 3d 02 e5 8a 3d 92 bc 90 bc
       0.037873674 0.124392875 0.06781961 -0.017668042
0001f0 aa cd 1d 3e 35 7c a5 3d 4d c2 2e 3e d1 03 22 bc
       0.15410486 0.08080331 0.17066307 -0.009888605
000200 e0 d6 97 bb 8d c1 61 3c f8 61 1e 3c c5 0f 40 bd
       -0.0046337694 0.013779056 0.009666912 -0.04689004
000210 1a 80 5b bc 53 19 4d bd 85 ca 74 3d ae 71 0e bd
       -0.013397241 -0.05007298 0.05976345 -0.034776382
000220 6d 15 ba bd d3 29 83 3d c8 7c 8e 3d e1 68 b5 3c
       -0.09086118 0.06404462 0.06957394 0.022144737
000230 b4 c8 2f bd 55 1f 94 bd ea d4 b5 3d 35 d1 e3 3d
       -0.042916015 -0.072325386 0.08878501 0.111238874
000240 cd dc 9f bb 7a b8 6b 3c b6 d9 c2 3d b8 2c 14 bc
       -0.0048786164 0.014387244 0.09514181 -0.009043865
000250 59 3d 37 3d 16 74 1d bd 10 e4 f9 3a a3 67 87 3d
       0.04473624 -0.038440786 0.001906516 0.06611564
000260 e3 f5 2a 3e 4f 18 de bd 87 cd 51 be 7c 00 b3 bd
       0.16695361 -0.1084448 -0.20488559 -0.08740327
000270 35 bb c7 bd 9b bb 13 bd 05 fa 81 bc 10 6e 05 bc
       -0.09752504 -0.036067586 -0.015866289 -0.008143917
000280 f4 68 91 bc 35 d0 90 3d d7 6a 04 be 69 32 1a bd
       -0.01775024 0.07070962 -0.12931381 -0.03764573
000290 c9 b8 04 bd 61 24 94 3c 6a 8f fc 3c be 7c e3 3d
       -0.032402787 0.018083753 0.030830104 0.11107777
0002a0 5c cb 06 bd 0f 6f c0 3c e6 c5 d5 3b d1 0f bd 3c
       -0.032908782 0.023490457 0.0065238355 0.02307883
0002b0 50 13 91 bd e0 34 6e bc 70 ab 9e bb 1f 7c 03 bd
       -0.07083762 -0.014538974 -0.0048422143 -0.032100793
0002c0 68 be 70 bc ad 46 3f 3d 99 e7 4c bd 89 41 84 bd
       -0.014693834 0.04669826 -0.050025556 -0.06457812
0002d0 4e 5f 50 bd f6 bb 26 3d 49 53 10 be 11 47 24 bd
       -0.05087214 0.040706597 -0.14094271 -0.040106837
0002e0 89 99 53 bd 3f a7 1c 3e 9d 56 a0 3c a3 50 fd bd
       -0.051660094 0.15298174 0.01957255 -0.12368896
0002f0 d7 54 22 be f7 00 b4 3c 0a 3a cb 3d cd 2a b6 3d
       -0.15852676 0.021973116 0.099231794 0.08894882
000300 ed 5f 78 bd 59 5e 83 bd 39 f1 0f 3e f2 de 23 3d
       -0.060638357 -0.0641448 0.14056863 0.04000754
000310 aa 8a 0c 3d 7d c3 b1 bd 2b 3e 21 bd da 12 12 3d
       0.034311928 -0.086798646 -0.03936593 0.03566251
000320 02 8a 16 be 1f 93 0e bd 24 20 0a 3d 07 5c 40 3d
       -0.14701083 -0.034808274 0.033722058 0.046962764
000330 1f ec 28 bd 7f ed 43 3d a1 3a df 3c a2 48 f8 bd
       -0.041240808 0.047833916 0.027249636 -0.121232286
000340 c2 d0 e0 bb 4e 16 40 3d a4 96 6d 3e 55 53 c5 bd
       -0.0068608234 0.04689627 0.23201996 -0.09635035
000350 75 85 ae 3d e0 46 ba 3d e3 37 5c bd e0 7c 6c bc
       0.08521549 0.090955496 -0.053764235 -0.014434069
000360 27 da fe bb a1 34 df 3d 3b 2e 44 3c aa a9 82 bd
       -0.0077774706 0.1089871 0.011973913 -0.06380017
000370 da b7 4c 3e 80 6d 8a 3b 01 d7 b7 3d 5a c4 68 be
       0.19992009 0.004224479 0.089765556 -0.22731152
000380 3d 5d 2b 3e 27 29 c1 bd a5 7f 6d 3c 8a 75 38 bd
       0.16734786 -0.09431677 0.014495765 -0.04503397
000390 b0 be a2 3d 0c 59 85 bd cf 68 0e bd 25 10 0d 3d
       0.07946527 -0.06511125 -0.034767922 0.034439225
0003a0 b5 30 f6 bc 84 16 3a bc 95 33 2a bc c8 8c e3 3d
       -0.030052522 -0.011357907 -0.010388275 0.11110836
0003b0 05 28 67 3d 41 d9 91 bc ef 41 5b 3c 17 f6 0b 3d
       0.05643465 -0.01780379 0.013382419 0.034170236
0003c0 d0 1a d2 bd 48 99 21 38 9f 6b ea bd d9 de 7a 3d
       -0.1025902 3.8528146e-05 -0.11446308 0.06124768
0003d0 19 ab a2 bd 7d 8f 60 bd e2 3f 3d bd 7a 37 09 be
       -0.079427905 -0.05482434 -0.0462035 -0.13400069
0003e0 d1 e9 c5 bd 6e 2a 7c bd b5 61 7c bd 94 fb 34 bd
       -0.096637376 -0.0615639 -0.06161662 -0.044185236
0003f0 3a 48 80 bb ac 88 df ba ea 75 a7 3c 02 c8 4a 3e
       -0.00391486 -0.0017054281 0.020441968 0.1980286

network.4.weight f4 [256, 256]
000000 85 47 3b bc 43 d2 13 bd 36 4e 14 3c 98 f6 dc bd
       -0.011430626 -0.036089193 0.00905185 -0.107892215
000010 5e 0f 3e bc 0b ef 9f bb e2 4e 1c bd 34 15 44 3d
       -0.0116003435 -0.004880791 -0.038161166 0.047871783
000020 fb fe 26 bb 2f 75 07 bd 09 77 36 bd a8 13 9a bc
       -0.002548157 -0.03307074 -0.044547115 -0.018808201
000030 e0 be ab bd 85 f3 a0 bc dc e0 71 3d ec b3 ae bd
       -0.08386016 -0.01964737 0.059052333 -0.08530411
000040 16 a9 fb bb 59 fa bb 3c 15 88 15 bd 2b f1 5e bd
       -0.0076800687 0.022946524 -0.03650673 -0.054429214
000050 72 db 76 3d cc 06 cf 3c b7 10 c1 3c 1a 58 1e bd
       0.060267873 0.025271796 0.02356754 -0.03865824
000060 c9 2b fc bc cd dd 07 bd 77 a7 bb bd ea 5d 6a bd
       -0.030782597 -0.03317051 -0.09162801 -0.05721847
000070 4e c4 b2 3a d4 45 df bc 3c 39 da 3c dd 97 83 bd
       0.0013638826 -0.027254976 0.02663862 -0.0642545
000080 7c a2 29 3c 0b 29 28 bd 5a 6f 96 bc a1 5b 92 b9
       0.010353681 -0.041054767 -0.018363643 -0.0002791556
000090 13 7a 73 bc 50 ad 88 bd 19 c1 6b bd 48 f4 19 3d
       -0.014860648 -0.06673682 -0.0575572 0.03758648
0000a0 c6 27 1a bd c1 2c 9a 3c 57 87 fd 3c 4d b5 9f bd
       -0.037635587 0.018820168 0.030948324 -0.07798252
0000b0 81 40 58 bc 8f 6d dc bc 63 fa f1 bc da ec 55 bd
       -0.013198973 -0.02690771 -0.029538339 -0.052227832
0000c0 48 5e 81 3d 68 0a 00 bd 6a b2 11 3d 5c 04 5e 3d
       0.06316811 -0.031259924 0.03557054 0.054203376
0000d0 cc 29 98 bd f8 58 88 3c 8c 51 06 bd 2f 25 74 3d
       -0.07429847 0.016643986 -0.032792613 0.059605774
0000e0 d2 d0 91 bc f3 8d 46 3d 44 16 3b bd dd e3 09 3e
       -0.017799769 0.048475217 -0.04567553 0.13465829
0000f0 a5 0c 05 3d 7f 9b 3d bd 00 40 cd 3c 72 8a 83 bd
       0.032482762 -0.04629087 0.025054932 -0.06422891
000100 ec d4 3d bd 3f 00 87 3d 86 c1 24 bc 01 29 05 3d
       -0.046345636 0.06591844 -0.010055905 0.032509807
000110 4c c1 ce 3c 5e 8f ba bd 61 04 29 3d b7 d8 47 bd
       0.025238656 -0.09109376 0.04126394 -0.04879066
000120 21 71 23 bd d1 b8 e6 bb 6a 25 53 3c fa 7c 61 bd
       -0.03990281 -0.007041075 0.012887338 -0.055050828
000130 e1 54 23 3d c2 2e 87 bd f5 da 86 3c 89 8f 99 bd
       0.03987587 -0.06600715 0.016461829 -0.0749808
000140 44 41 b9 bc c5 d3 b5 bc 5f 99 1b 3b de f5 4b 3d
       -0.022614129 -0.022195706 0.002374254 0.049795024
000150 bc 72 a7 bd 38 17 15 3c 12 81 95 bd d8 e8 b9 3c
       -0.08176181 0.009099774 -0.07300009 0.022694036
000160 a0 e2 6a 3d ff 56 0f bd bd c3 07 3d c6 c6 99 3b
       0.057345033 -0.034995075 0.033145655 0.004692885
000170 85 dc 41 3d 6c 5b f8 bc 3d 6e 1c bb b4 07 1b bd
       0.047329444 -0.03031703 -0.0023869418 -0.037849143
000180 08 a3 ca bd 9c 06 83 3c a5 47 89 bd d9 4d 51 3d
       -0.09894377 0.015994363 -0.06703118 0.051099632
000190 c0 0b 45 bd 75 a9 59 3d 58 48 04 3d a0 66 be bc
       -0.04810691 0.053140122 0.032295555 -0.023242295
0001a0 19 a8 b4 3c db e6 87 bd 85 ad 44 bd ea 9b 77 bd
       0.022052811 -0.06635829 -0.048017044 -0.060451426
0001b0 ad d7 84 3d 86 e7 7f bc aa 65 2f 3d e1 05 16 bd
       0.064864494 -0.015619164 0.042821564 -0.0366267
0001c0 f2 19 2c bd f2 86 0e 3d e9 6a 06 bd 52 d1 9d 3c
       -0.04201693 0.034796663 -0.0328168 0.01926485
0001d0 9e ec 71 3c bb ad 78 3d 00 a8 5b b9 24 2f 07 ba
       0.014765887 0.060712557 -0.00020948052 -0.0005156866
0001e0 e0 61 f8 bc 0f 20 d0 bc f7 0f 52 bd bf 23 1e 3b
       -0.030320108 -0.025405912 -0.051284757 0.0024130193
0001f0 8d ce 13 3b 05 14 07 3c 30 ca bd 3c be c2 7e bd
       0.0022553534 0.008244519 0.0231677 -0.06219744
000200 48 e2 6a bd 09 3b 8d bd ae c3 1d bd a4 fa 6b 3d
       -0.057344705 -0.06896026 -0.038516693 0.057612076
000210 d1 bf 49 bc 22 3f 28 bd 1a 84 2e bd 40 f2 74 bd
       -0.012313799 -0.041075833 -0.04260645 -0.05980134
000220 29 71 37 bd 5f a9 0c 3d 93 59 3b 3b 62 ec 92 bc
       -0.044785652 0.034341212 0.0028587326 -0.017934982
000230 dc 6c 40 bd 39 b5 07 bd de d0 bc bc a1 d2 11 bd
       -0.046978816 -0.03313181 -0.023048814 -0.035601262
000240 ac 28 0a 3d 9b c3 d9 bc e4 76 71 bd f9 fa 3f bb
       0.033730194 -0.02658253 -0.058951274 -0.0029293878
000250 11 e9 3b 3d 79 a4 2f bd d5 e7 63 3b 68 b9 89 bd
       0.045876566 -0.042881463 0.0034775634 -0.067248166
000260 9f 55 2a bd 48 13 c3 3c 42 56 02 bd c5 84 4d bd
       -0.04158556 0.023812905 -0.031820543 -0.050175447
000270 fb f2 fe 3c bf d7 a8 3c 30 88 63 bd 94 cf 27 bc
       0.031121721 0.020610688 -0.0555498 -0.010242362
000280 ca 3e 07 bd 74 b5 95 bd c7 16 98 bd 65 ac 40 3c
       -0.033018865 -0.0731 -0.074262194 0.011759852
000290 32 78 81 bc 45 89 ab bd bb 5b 4d 3c de d1 c3 bd
       -0.015804384 -0.083757915 0.012534077 -0.09561513
0002a0 00 4a f7 bc ce 6c 87 bd 17 8c 11 bd af 7e 11 bd
       -0.030186653 -0.0661255 -0.03553399 -0.035521206
0002b0 21 b9 d9 b7 d9 ba 23 bd 73 85 7c bd 43 9d 3a 3d
       -2.5954623e-05 -0.039973114 -0.061650705 0.045560133
0002c0 a5 ee 09 3d 3a ee e6 3c 8d ee 38 bd a1 3c 43 bd
       0.033674855 0.028189767 -0.045149375 -0.047665242
0002d0 9e 1d ed bc 4e 77 0e bd 04 8a f1 bd 44 79 41 bc
       -0.028944787 -0.034781747 -0.117939025 -0.011808697
0002e0 cc d1 f6 bb c1 13 40 3d 85 c7 0e 3d 64 81 b7 bc
       -0.007532334 0.04689384 0.034858245 -0.022400565
0002f0 23 50 00 be 41 30 c2 bc c0 a3 67 bd f5 d4 02 3d
       -0.1253057 -0.02370465 -0.05655265 0.031941373
000300 2b d2 b6 3c da 77 e3 3a d4 d7 32 bd e9 6a 50 bc
       0.022317013 0.0017354444 -0.04366286 -0.012720802
000310 27 5b 32 bd 48 2f 25 bd 01 05 32 bd 24 2a 5a 3c
       -0.04354396 -0.040328294 -0.043461803 0.013315711
000320 75 14 a4 bd 14 53 84 3c d4 2c 46 3c e9 dc 2b 3d
       -0.08011714 0.016152896 0.012095649 0.041958723
000330 a0 3b 76 bd db 2f 93 3c 61 42 6d bd a3 ef 6b 3c
       -0.060115457 0.017967155 -0.057924632 0.014400396
000340 04 80 eb 3a 8a b5 a5 ba 2e 70 d2 ba e2 da f1 3c
       0.0017967229 -0.0012642604 -0.0016055161 0.029523317
000350 53 66 41 bd 35 07 02 bc 89 d1 10 3d 7f aa 67 bd
       -0.047216725 -0.007936289 0.03535608 -0.056559082
000360 e6 00 30 bc 14 d4 92 3c 90 d7 bd 3b 44 96 3d 3d
       -0.010742402 0.017923392 0.0057935193 0.046285883
000370 b5 b6 05 3b 88 9f 29 3c 56 0c 5b bd 7c d6 4c bd
       0.0020403091 0.010352977 -0.05347856 -0.050009236
000380 e2 4e 6c bd 13 06 0f 3d 31 d6 13 bc 72 fb ca bc
       -0.057692416 0.034917902 -0.009023235 -0.024778102
000390 24 bc a1 bd 54 fb 8d bd 67 1a 66 bd 08 ab 29 3c
       -0.07897213 -0.06932703 -0.056177523 0.010355718
0003a0 98 71 1a bd e1 be 45 3c 57 fe f3 3c 63 6f 82 bc
       -0.037705988 0.012069435 0.029784365 -0.015922254
0003b0 a4 2e 06 3c 84 27 00 3d b5 76 3a 3b 35 97 3e 3c
       0.008189831 0.031287685 0.0028452103 0.01163273
0003c0 c5 e3 62 bd fe d0 4a bd 56 9d 78 bd de 5b 9a bd
       -0.055393 -0.049515717 -0.060696922 -0.075370535
0003d0 5c 59 30 bd 4a 48 7d 3d 5e 0b fa ba fe aa b1 bd
       -0.04305397 0.06183652 -0.0019076874 -0.08675192
0003e0 ef 5f e2 3c f0 43 94 3d c2 30 40 3d 80 ac 70 3d
       0.027633635 0.072395205 0.0469215 0.05875826
0003f0 a5 ea a5 bc 38 6b c2 3c ec 8e 80 3b 88 d3 4f bd
       -0.020253489 0.023732767 0.0039232876 -0.05073884

network.4.bias f4 [256]
000000 b0 6e f9 3d 22 6b ac 3c d1 4f 69 3e ab f0 f4 3d
       0.12179315 0.021047179 0.22784354 0.11959966
000010 09 d0 39 bd db ab ae bd c3 21 6e bc 88 59 02 3e
       -0.045364413 -0.085288726 -0.014534417 0.12729466
000020 19 4b e3 3d 88 aa a4 3d d7 f9 68 3e 37 5d b5 bd
       0.11098308 0.08040339 0.22751556 -0.0885567
000030 69 9a b2 3c 6f 03 00 bd ae e6 25 bd c9 a4 a1 bc
       0.021802144 -0.031253275 -0.040503196 -0.019731896
000040 8c 8e 52 bd 5b 0f de 3d 69 71 42 bd 2c ba ff 3b
       -0.051405475 0.108427726 -0.047471438 0.007804176
000050 b4 c1 0d 3d e0 4c 5d 3d a7 61 6c 3e 20 d1 86 3e
       0.034608558 0.05402839 0.23084126 0.26331425
000060 b4 d4 23 3d 68 bd 10 3e 0f fc b2 3d 00 5d 89 bb
       0.03999777 0.14134753 0.087394826 -0.0041919947
000070 15 18 ac 3d 7d a2 2b bd 7e 42 53 3e fa 3a 4c 3e
       0.08403031 -0.041903008 0.20630834 0.19944373
000080 4b 75 7a 3c 52 a0 41 3d a5 37 88 bd f4 40 71 3e
       0.015286754 0.047272034 -0.06651238 0.23559934
000090 87 39 37 3d 63 c9 02 bd 65 f5 1f 3e 0e a6 8f 3d
       0.044732597 -0.03193034 0.15620954 0.07014094
0000a0 df a4 18 3d 5b c1 c9 bc f4 4d be 3c a8 da 2b 3d
       0.03726661 -0.024628332 0.02323053 0.041956574
0000b0 05 cf 38 3e 50 57 9d 3d 70 7a 4e 3e 4e 4a 35 bd
       0.18047722 0.07682669 0.20163894 -0.044260316
0000c0 30 c1 15 3e 6c 77 b5 bc 87 24 f9 bc 84 86 6b 3e
       0.14624476 -0.022151671 -0.030412925 0.23000532
0000d0 76 bd 11 3e be f9 b5 3d 8e 2a 33 3e 36 f1 38 3e
       0.1423243 0.08885525 0.17496702 0.18060765
0000e0 3e 64 8b bd 5a 66 01 3e e9 bb 7e bd 46 b0 68 bd
       -0.06806229 0.126367 -0.062190924 -0.056808732
0000f0 8f ed 8e 3e 65 3f 7d 3d a9 dc 1b 3d d4 09 27 bc
       0.27915618 0.061828036 0.038052235 -0.010195214
000100 2c 55 c5 3c 61 c2 81 3d 76 66 b2 bd 67 38 86 3d
       0.024088465 0.06335903 -0.08710949 0.06553727
000110 f6 26 2d bd 00 65 3a 3e 37 e6 30 3e 45 da 5b 3c
       -0.042273484 0.18202591 0.1727532 0.013418739
000120 5f a1 ce 3c 49 01 bf bd 88 d7 5d 3e b8 72 d5 3c
       0.025223432 -0.09326417 0.2166425 0.026055679
000130 8d 47 39 3e 38 23 0a 3e 18 40 9f bd 45 c3 53 3e
       0.180937 0.13489997 -0.07775897 0.20679958
000140 e1 e5 be b9 c1 2c 99 3c cd 34 0b 3e e9 41 0b 3d
       -0.00036410897 0.018698098 0.1359436 0.033998404
000150 a0 0e 30 bc c9 1a 3b 3d 33 03 87 3c 30 93 8b 3c
       -0.010745674 0.04567984 0.016481018 0.017037958
000160 17 c7 ee 3c 08 be 5d 3d 0d 0b 4b 3d b3 91 2d 3d
       0.029147668 0.054136306 0.049571086 0.042375278
000170 9a e0 ab bd ad d5 0f bd 09 ec 1f bb 14 d2 bf 3b
       -0.08392449 -0.035115886 -0.0024402163 0.0058539007
000180 9d 9e 73 bd e4 aa de 3b 79 12 2b 3d 8e 60 ab bc
       -0.059477437 0.006795274 0.041765664 -0.020920064
000190 40 ab 88 3e 18 56 a6 3d a2 72 92 3d ad f2 ae 39
       0.26693153 0.0812189 0.07150771 0.00033368674
0001a0 66 47 e8 bc 89 cc 5c 3e b8 d3 23 3e 44 a5 15 3e
       -0.028354358 0.21562399 0.15998733 0.14613825
0001b0 f8 1f 53 3d 89 5d f7 bb 55 2d 82 bd 8e 9f 1a 3d
       0.05154416 -0.007548992 -0.06356303 0.03774982
0001c0 0e d1 8d 3e a2 49 33 3e 41 1a 72 3e b6 f5 1d 3e
       0.2769856 0.17508557 0.23642828 0.15425763
0001d0 af 14 6d 3e 0e e7 53 3d 82 f8 1b bd e5 1d 6d bd
       0.23152421 0.051734023 -0.038078792 -0.057889838
0001e0 e3 9a 34 3e 1f d4 86 3e 14 02 af 3d bd 2b 84 3d
       0.1763721 0.2633371 0.08545318 0.06453655
0001f0 1c d3 6f 3e 4c f2 84 3e 88 7a 59 3d 45 55 69 bd
       0.23420376 0.25966108 0.05309537 -0.056966085
000200 7c 71 82 3e c9 4a bf 3d bc c8 b4 3d 06 56 05 3e
       0.25477207 0.09340436 0.088273495 0.13021097
000210 fb 9f 3b bb 04 fc 81 bd 57 1a 3e bd a5 11 12 3e
       -0.0028629291 -0.06346896 -0.04641184 0.14264543
000220 ed a9 28 3e 2b ac 74 3d 70 92 e1 3c 97 28 a3 bc
       0.16471072 0.059734505 0.027535647 -0.019916816
000230 c3 fc a6 bc 11 ca 03 3e 76 83 8a 3e cb 14 0e bd
       -0.020384198 0.12870051 0.27053422 -0.0346878
000240 ca 79 7c bd 90 ab 9d bd fe c9 1b bd b5 4b 8c bd
       -0.061639585 -0.076987386 -0.03803443 -0.068503775
000250 a9 26 ef bb f4 7d a5 bd 09 de 50 3e 75 88 03 3e
       -0.00729831 -0.08080664 0.203972 0.12845023
000260 05 c6 ab 3d 5a 3c 92 3d e8 b1 d7 3d 7b 78 13 bd
       0.083873786 0.071404174 0.1053198 -0.03600357
000270 d6 52 10 ba cd 93 f3 bc 7f 06 a3 3c 6a 86 78 3e
       -0.00055055076 -0.029733563 0.019900559 0.24270025
000280 10 3b a3 3d c4 97 f2 bd da 5f 81 3e e3 d5 d7 3c
       0.0797025 -0.11845353 0.2526844 0.026347106
000290 e1 e0 fc bc 32 f1 25 3d b1 fd 94 3d 1b 1a 15 3d
       -0.03086895 0.040513225 0.0727495 0.03640185
0002a0 ad 39 88 bd 90 fe 5c 3d 1f 38 8e 3c f3 05 32 3e
       -0.06651626 0.053953707 0.017360745 0.17385082
0002b0 8a ff 00 3e ff ff d1 3d 16 76 98 bc 3e 33 48 bd
       0.1259748 0.102539055 -0.018610995 -0.048876993
0002c0 09 a6 33 3e a7 9a f3 3c 4a 80 dc 3d 14 99 85 3d
       0.17543806 0.02973683 0.10766657 0.06523338
0002d0 92 22 4f 3e 2b 3b 92 3d d3 63 a0 ba d4 e3 c1 3c
       0.20228031 0.07140192 -0.0012236781 0.023668207
0002e0 1f a4 9a bc f6 98 78 bd 62 fb 6c 3c 4a 3c f3 3b
       -0.018877087 -0.06069275 0.014464231 0.0074229585
0002f0 dd 17 32 bd 8a b5 45 3d 7f c6 87 bd f1 83 07 bd
       -0.04347979 0.048268832 -0.06629657 -0.033084814
000300 1d 59 02 3d 6f 4e 69 3e 4a 24 29 3e 25 12 69 3e
       0.031823266 0.22783826 0.1651775 0.22760828
000310 4c b7 a3 3c 47 38 7f bc 4c 2e 0a 3e 95 f2 4e bd
       0.019984864 -0.015577382 0.13494223 -0.050524313
000320 cc 50 90 3e c8 53 5b bd 6c 3e 1a 3c bc 8b 6e 3c
       0.28186643 -0.053546697 0.009414297 0.014559682
000330 f5 94 34 3c 25 74 76 3e 05 70 2d 38 bc ef 47 bd
       0.011021842 0.24067743 4.135074e-05 -0.048812613
000340 0c 76 83 bd e8 ca 1a bd 92 ca 8a 3e c7 75 36 3d
       -0.06419 -0.037791163 0.27107674 0.044545915
000350 a9 f8 e4 3c 28 79 e2 bc cb c2 76 3c ce f4 de 3d
       0.027950602 -0.027645662 0.015061091 0.108865365
000360 e7 a6 4c 3d 98 ef 1d bd a3 5c 4a 3e 5a 6b 42 3b
       0.049963858 -0.038558573 0.197619 0.0029666037
000370 8b 92 92 3e 6f 7e 2f bd 48 a6 7c 3c ce 35 8e 3e
       0.28627428 -0.042845186 0.015420504 0.27775425
000380 58 a1 ef 3b 5f 28 a2 bd 36 50 4c 3c ff c2 cd 3d
       0.007312935 -0.079178564 0.012470296 0.10046958
000390 5d 00 55 3d 06 1e d9 3c 4c 75 23 3d df e6 86 3e
       0.0520023 0.026503574 0.039906785 0.26348016
0003a0 94 d4 8b bd d9 bc d2 bc 1b 23 c8 3d fd b6 50 bc
       -0.068276554 -0.025724815 0.09772321 -0.01273894
0003b0 0e 4d 4b 3e df bf 43 3d 87 71 6c bc e5 95 85 3e
       0.19853613 0.047790404 -0.014431364 0.26090923
0003c0 43 cd 4e bd 98 22 38 bd 1d 1a 5c bc 29 02 cb 3c
       -0.05048872 -0.044954866 -0.01343396 0.024781303
0003d0 dd 28 dc 3d 32 16 0e 3d e7 56 e7 bc 17 e4 88 3e
       0.107499816 0.034689136 -0.02823968 0.2673652
0003e0 dc 62 6e 3e 21 1d 6d bc c1 9c dd 3c 90 11 60 3e
       0.232799 -0.014472277 0.027052285 0.218817
0003f0 dc b9 9b bd b5 d5 e1 3d ec f5 72 3e f5 07 74 3c
       -0.07603809 0.110270895 0.23726624 0.014894475

network.6.weight f4 [256, 256]
000000 1f a2 78 3b ad 6f 8a bd 5a 3e 29 bd 6c ba 8b bc
       0.0037938429 -0.06759582 -0.04131923 -0.017056666
000010 5e 16 b8 3c 04 a4 2d bd 12 94 1d 3d f8 0f 04 bc
       0.022471603 -0.042392746 0.03847129 -0.008060448
000020 fe d6 1e bd c6 47 90 bb 93 97 63 bd 6c 1d 5c 3d
       -0.03877925 -0.0044030873 -0.055564474 0.053738996
000030 40 40 25 bd a3 f0 a6 3c 00 cc 93 3c 1d 6e 5e 3d
       -0.040344477 0.020378416 0.01804161 0.05430423
000040 00 ab f8 3a d7 fb 93 bc 20 28 70 3d e8 0d 27 bd
       0.001897186 -0.018064423 0.058632016 -0.040784746
000050 b1 45 82 bd 02 16 00 bd 92 14 66 bd dd ea 6e 3c
       -0.06360949 -0.03127099 -0.05617196 0.014582363
000060 78 3e 20 3c 1d af 16 3d 26 f6 72 3d 48 14 7f 3d
       0.009780519 0.036788095 0.059316777 0.0622752
000070 0c 97 1b 3d ce 72 92 bc 87 90 64 bd 37 4d 5b 3c
       0.037985846 -0.017877009 -0.055801895 0.013385109
000080 c7 cd 73 bd b7 1d 6f 3c e6 c9 09 bd 70 29 8a bd
       -0.059522416 0.014594487 -0.03363981 -0.06746185
000090 ad 9f 82 bd 98 f6 92 3c fa 74 2e 3d d6 bb 42 bd
       -0.06378112 0.01793985 0.042592026 -0.047542416
0000a0 80 40 be 3b 64 48 b1 bc 10 fd 68 bc f6 2b 74 3d
       0.005806029 -0.021640964 -0.014220491 0.059612237
0000b0 25 61 e9 3a da 60 29 bd eb 90 96 bc ec a2 e4 bc
       0.0017805441 -0.04135213 -0.01837965 -0.027909718
0000c0 38 57 15 bd a0 de a0 bc ac 66 87 bc 80 6f ac 3a
       -0.03646013 -0.019637406 -0.01652845 0.0013155788
0000d0 d8 df 0a bd 00 a2 8a b9 61 2c 96 3c 78 b5 ec 3c
       -0.03390488 -0.0002644211 0.018331708 0.028895125
0000e0 80 c9 5a bc b1 b4 83 3b d4 1b 0e bd f7 e9 b7 bc
       -0.013353705 0.004019343 -0.034694508 -0.02245043
0000f0 0f 66 16 3d b0 42 e4 3b 8c bc 79 bd e8 a3 5e 3c
       0.036718424 0.0069659576 -0.060970828 0.013588883
000100 b0 46 c1 3b 36 73 4a bb d8 f1 1c bc 26 59 21 3d
       0.005898319 -0.0030891425 -0.009579144 0.03939166
000110 49 03 06 3d f2 ba 41 bd 04 4f 31 3d 76 9d 95 3c
       0.032717977 -0.047297426 0.043288246 0.01826356
000120 26 84 2e bd ec ee c3 3c a2 59 5a 3d 56 53 0f 3c
       -0.042606495 0.023917638 0.053308137 0.008747896
000130 5c 96 77 3d 7c 12 2a bd c8 69 ea bc 40 d2 04 bd
       0.06044613 -0.041521534 -0.028614894 -0.032427073
000140 d4 c7 2a 3d 0f a1 54 3b b7 14 65 3c 99 9c dc bc
       0.041694477 0.0032444631 0.01398199 -0.02693014
000150 94 1e 7e 3d bf 3a 35 bd e4 5c a6 bc 3c e4 1d 3d
       0.06204088 -0.044245478 -0.020307966 0.03854774
000160 d0 ef d1 bc a1 7e 03 bd 80 dd 68 3b 81 38 aa 3c
       -0.025627047 -0.032103185 0.0035532415 0.020778896
000170 b4 64 0e 3d a2 43 45 bd 6a 47 23 3d 72 1f 4a 3d
       0.034764007 -0.048160203 0.039863028 0.049346395
000180 e8 c6 59 3d 80 ef 62 3b 64 1d 4c bd 08 c1 ff bb
       0.053168207 0.0034627616 -0.049832717 -0.0078049935
000190 e8 cf 04 bd 6e ff 05 3d c2 2f 0f 3d 9a b9 72 3d
       -0.032424837 0.0327143 0.034957655 0.059259035
0001a0 f5 1d 2f bc 5c d4 d9 bc 16 d2 1f 3d bb 21 f8 3b
       -0.010688295 -0.026590519 0.039018713 0.0075723804
0001b0 df 73 8a bc fd 26 5a 3d 72 8f 39 bd c0 ea 72 3c
       -0.016900955 0.05325984 -0.045302816 0.014826477
0001c0 d0 16 98 3b 88 9c db bc 6f 87 d8 3c 19 ed dc bc
       0.0046413913 -0.026808038 0.026431767 -0.026968526
0001d0 b0 43 77 3d cc 17 dd bc 12 cb 18 bd d0 75 9b 3c
       0.060367286 -0.026988886 -0.037303038 0.018977076
0001e0 98 87 13 3c 1a eb 8d 3c 7d c8 c9 3c 79 e3 1a bd
       0.009004496 0.01732402 0.024631733 -0.03781459
0001f0 68 67 0f 3c 6d ba 1f bd d4 f2 ad 3c ff 87 42 3d
       0.008752681 -0.03899615 0.021233954 0.047492977
000200 23 d1 24 3d 08 3f 0a bd 05 f8 3a bc 97 5b 8b 3c
       0.04023851 -0.033751518 -0.0114116715 0.017011447
000210 78 80 be 3c b3 af 0a bd 0d 28 a3 3c 1f 9b 4c bc
       0.023254618 -0.033858966 0.019916559 -0.012488156
000220 97 ec 93 bc d9 d3 e9 ba da c0 87 bc f0 78 9c bc
       -0.01805715 -0.0017839625 -0.016571451 -0.019100636
000230 70 01 27 3d a2 91 2a 3d 28 aa 06 3c 2c 2c 88 3c
       0.040772855 0.041642793 0.008219279 0.016622625
000240 50 18 f8 3c 6f 17 86 bd d4 89 0a bd ad 75 ea 3b
       0.03028503 -0.06547438 -0.03382285 0.0071551413
000250 b0 55 43 3d bd 0c d4 bc c4 d9 dd bc 7c 51 70 3c
       0.04768914 -0.02588498 -0.027081378 0.014667865
000260 10 a5 cf 3b c5 c5 db bc d5 0f 94 3c 00 12 0b 3c
       0.0063368157 -0.026827702 0.018073956 0.008488178
000270 70 f6 08 bd 78 29 01 bd 3f c0 3e 3d 34 73 42 bd
       -0.033438146 -0.03153369 0.04657006 -0.047473148
000280 ee d3 d0 3c 0e 30 1a bd 6d 5c d2 3c e2 e5 51 bd
       0.025491681 -0.037643485 0.025678838 -0.051244624
000290 98 16 35 bd 10 a5 c3 bc b4 48 47 3d 0d d6 9a 3c
       -0.044211 -0.023882419 0.04865332 0.018900895
0002a0 60 75 4a 3c 59 03 36 3d 4b 64 27 3d 1b 58 d7 bc
       0.012357086 0.044436786 0.04086713 -0.02628713
0002b0 73 4a 59 bd 11 5c a7 3c 4e ab 2e 3d 9a 27 77 bd
       -0.053049516 0.020429643 0.042643838 -0.0603405
0002c0 5b 6e a3 bc 46 d8 70 3d b2 62 61 bd 5c 6a 8e bc
       -0.019950083 0.058800004 -0.055025764 -0.0173847
0002d0 1e 08 67 bd 01 3a ee 3c 36 0d 05 3d fa 4e b1 3c
       -0.056404226 0.029080393 0.032483302 0.021644104
0002e0 48 d0 51 bd 94 fa 1c 3c 00 4c c6 38 48 f2 fc 3c
       -0.051224023 0.009581227 9.455532e-05 0.030877247
0002f0 d0 62 8f 3c 64 a6 05 bd e0 bc 58 bc 99 90 2f 3d
       0.017503172 -0.032629386 -0.013228625 0.04286251
000300 09 61 aa bc f8 23 20 3c 82 d2 e0 3c 4f 1c 58 bd
       -0.020798223 0.009774201 0.027444128 -0.052761372
000310 d8 8f 69 bd 16 1e 0f bd f8 e3 20 bd 00 71 ce 3c
       -0.057021946 -0.0349408 -0.039279908 0.025200367
000320 e8 13 1e 3d f3 5a 36 3d e1 da 08 3c e0 ed 53 3c
       0.038593203 0.04452033 0.008352966 0.012935132
000330 91 e0 49 bd 1a 79 af bb 62 5e cc bc 11 16 bc bc
       -0.04928643 -0.0053550126 -0.024947349 -0.02295974
000340 b8 0f 38 3d 76 b0 74 bd 34 c1 3c bd 7b f4 34 3d
       0.044936866 -0.0597386 -0.04608269 0.044178467
000350 70 78 cc bb d6 47 3f bd 38 c4 54 3c 80 08 4e bd
       -0.006239943 -0.046699367 0.012986235 -0.050301075
000360 d0 48 95 3c c0 6f 08 bb 8e 47 be bb 5c 70 e1 bc
       0.018223196 -0.0020818561 -0.00580687 -0.027519397
000370 11 f3 17 bd 00 c0 43 b8 8c 5c 08 3d c0 61 00 bc
       -0.03709704 -4.6670437e-05 0.033291385 -0.007835805
000380 aa 6a 70 bd 23 6b 77 bd 59 18 1b bd 3b a8 64 3c
       -0.058695473 -0.060404908 -0.037865017 0.013956125
000390 ea a4 4c bd d8 60 56 bd 2a 57 88 bd ec 05 8d bc
       -0.04996196 -0.05233845 -0.0665725 -0.017214738
0003a0 ac bb f2 bc dc 48 23 3d 81 46 3e 3d e6 27 73 3d
       -0.029630505 0.039864406 0.046453957 0.059364222
0003b0 74 b3 c8 3c 21 d8 ef 3c 9d 26 f5 bb e0 7e 29 3b
       0.024499632 0.029277863 -0.0074814097 0.0025862977
0003c0 57 29 64 bd 37 20 05 bd f1 c8 15 bd c5 84 27 3d
       -0.055703487 -0.032501426 -0.036568586 0.040898103
0003d0 74 ce fe 3c d8 3c 4f 3d 57 9f 66 3d d1 a3 83 bd
       0.031104304 0.050595134 0.056304302 -0.0642773
0003e0 3b bc 60 3d 49 62 6a bd 48 cd 5f 3d 5a e0 7e bd
       0.05486701 -0.05722264 0.05463913 -0.062225677
0003f0 d9 98 3a bc 40 ff 0f 3c 46 11 89 bd 53 d4 be bc
       -0.011388981 0.008788884 -0.06692748 -0.023294603
