PINN_FNN/models/pinn_fnn_h64_l3_lr0.001000_20250726_105217/model_data_driven.pth (torch, 39992 bytes, 8 tensors)

network.0.weight f4 [64, 9]
000000 b5 9a 83 be ec 71 3e 3e 55 d7 ac 3e 50 b5 f7 bd
       -0.2570397 0.18598145 0.33758035 -0.120951295
000010 45 c0 b4 bc 35 30 94 be 83 33 86 3e 81 66 da bd
       -0.022064338 -0.2894303 0.26211175 -0.10664082
000020 e4 40 2d 3e 8d db ae be eb 6d f4 bd fa 29 8b be
       0.16919285 -0.3415188 -0.11935028 -0.27180463
000030 f9 4a 63 3d 46 c8 8b be 2d 4f 3a 3e 32 b9 6b be
       0.05549142 -0.27301234 0.18194266 -0.23019865
000040 3d 14 a1 3c 6b ec 2d be b8 5f aa 3c 58 b2 3e be
       0.01966297 -0.16984718 0.020797595 -0.1862272
000050 11 0d 1a be 47 57 5a 3e b4 f1 07 bd f7 e2 8a be
       -0.15044047 0.21322356 -0.03318949 -0.27126285
000060 66 94 29 3d 27 16 c9 3e ae b7 ea 3c 5b 52 b8 3e
       0.04140129 0.39274713 0.028652038 0.36000332
000070 c0 5f 97 3e d9 41 8b be b7 a0 02 3f d8 f7 c5 be
       0.2956524 -0.27198675 0.5102648 -0.38665652
000080 26 83 cb bb 64 7b 83 3d 5b 96 35 be 7d 38 8a be
       -0.0062107025 0.06420019 -0.17733137 -0.26996222
000090 3e a1 9a be 00 24 42 3d ac 81 ac bd 96 9d 16 bf
       -0.30201143 0.047397614 -0.084231704 -0.5883421
0000a0 c3 b8 e0 bd 53 44 00 3f 4b 5b 88 bd e1 c7 0c 3c
       -0.109727405 0.50104254 -0.06658038 0.008592577
0000b0 d4 9c ad 3e a5 60 c3 3e 72 cc 94 bd 04 aa d3 bd
       0.33908713 0.3815967 -0.07265557 -0.10335162
0000c0 f5 5f b3 3d b2 ea 63 3d 78 c3 c2 bd 9c 43 58 3e
       0.08758537 0.055643745 -0.09509939 0.21119541
0000d0 d4 09 f6 bd 81 6d 2f be 5f dd a9 3c 31 d6 b8 be
       -0.12013593 -0.17131616 0.02073544 -0.36100915
0000e0 02 44 95 3e 6e eb 4b 3e af be 53 3d 27 c8 f3 bd
       0.29153448 0.19914028 0.051695522 -0.119034104
0000f0 07 4a d5 3d e8 39 55 bc 7e 56 16 bd 4e 8c c2 3e
       0.1041451 -0.013014294 -0.03670358 0.3799767
000100 10 1d 00 3b ff ba 0c 3d 3c e2 b4 bd 87 d7 dc 3e
       0.0019548573 0.03435802 -0.08832213 0.43133184
000110 38 df 07 3f b9 87 14 be 02 53 03 3d 8d ea 56 be
       0.5307498 -0.14504899 0.032061584 -0.20987912
000120 39 99 59 3e b4 51 7e be a6 5c 96 bc 9e e3 1b 3e
       0.21249856 -0.24835855 -0.018354725 0.15223548
000130 bb 29 05 be 9b 34 8c bd 9a bf 83 be e6 1e 46 3d
       -0.130042 -0.06845971 -0.25732118 0.04836931
000140 62 16 91 be 56 d4 48 be 88 9a 60 3e 63 73 bc 3d
       -0.2833739 -0.1961225 0.21933949 0.09201696
000150 23 c8 d5 bd eb af aa 3e 33 e5 06 3f 75 d0 29 be
       -0.10438564 0.3333734 0.5269348 -0.16583426
000160 30 f5 3c be 84 55 94 be 1e 13 5b bd 05 84 77 be
       -0.18452907 -0.28971493 -0.05348503 -0.24171455
000170 74 31 96 be 8e a7 c4 3e c6 ff 90 be e3 4c 81 be
       -0.29334605 0.38409084 -0.2832014 -0.25253972
000180 97 9d f7 bd 63 fa ce bd 5f 4a ab 3e 67 23 08 3d
       -0.12090605 -0.10106351 0.33455178 0.033236887
000190 32 87 22 be 20 31 f7 3e 29 4e ce be 04 1b ef 3e
       -0.15871885 0.48279667 -0.40294006 0.467003
0001a0 70 c6 e0 3d a0 ef 09 bd 9d cb 35 3e 1b e0 85 3e
       0.10975349 -0.03367579 0.17753454 0.2614754
0001b0 e3 45 9c be 18 fb 51 3c 35 1c 9f 3d f4 97 95 be
       -0.3052207 0.012816213 0.07769052 -0.29217494
0001c0 a1 15 a1 be 58 c0 2a bc 6d 2f 47 3e af 6a a7 3e
       -0.31461814 -0.010421835 0.19451685 0.3269858
0001d0 c9 a6 84 bd c2 7c 39 be a3 63 b3 bd c9 07 91 3d
       -0.06477124 -0.18113998 -0.087592386 0.07081563
0001e0 fd 52 3e 3e 09 97 3e bd f6 11 35 3e 0d 06 d1 3c
       0.18586345 -0.046530757 0.17682633 0.02551558
0001f0 db fc c6 bd c1 cb ba bd 0f 5b 94 bd c6 bf 80 be
       -0.09716197 -0.09120894 -0.072439305 -0.25146312
000200 c3 3d 00 3d e5 60 79 3e ab ac 02 bc e4 01 06 3e
       0.0313089 0.24353369 -0.007975738 0.13086659
000210 4b bc 6f 3e 15 a3 d3 3d 58 17 a6 be 38 25 49 bd
       0.23411672 0.1033384 -0.32439685 -0.04910776
000220 16 54 d3 3e 06 55 b8 3e 80 71 eb be c9 2d 93 3e
       0.4127509 0.36002368 -0.4598503 0.2874587
000230 4c c3 3b 3e 09 24 98 3a 4b f9 4a be be 09 f0 3d
       0.18336219 0.0011607419 -0.1982166 0.11720608
000240 1e 5a a9 3e ad c8 97 3e d8 98 a4 3c 2f a1 fe 3e
       0.33076566 0.2964529 0.020092413 0.49732348
000250 37 a8 e1 be 77 a7 18 3e 99 c8 9d bd af 3e 17 3d
       -0.4407365 0.14907633 -0.077042766 0.036925014
000260 c1 22 19 3e fa 47 95 3d 3e 53 71 be b7 b2 2a bd
       0.14954664 0.07289119 -0.2356691 -0.041674342
000270 0e eb 98 3e 45 d3 b5 be 48 00 d1 bd 3c fb 67 bd
       0.29866832 -0.35512748 -0.10205132 -0.05663608
000280 98 52 a8 3e c5 1d 35 3d be da d1 3e 6e 2b c0 3d
       0.32875514 0.044217844 0.409872 0.093832836
000290 59 cb b4 bc 99 e7 b4 3d ce 3a 05 be d0 de d3 be
       -0.02206962 0.08833236 -0.13010713 -0.4138093
0002a0 99 8a 99 3d 4d 74 35 3e 4a fc de 3d a2 74 10 3e
       0.074971385 0.17720146 0.10887964 0.14106992
0002b0 0c 0e c7 3d be cc 93 be 46 08 f3 3e eb aa 26 be
       0.09719476 -0.28867143 0.4746725 -0.16276138
0002c0 6a d3 b5 bb dc 64 95 bc 92 cd 6e 3e 30 b4 87 3e
       -0.005548884 -0.01823657 0.23320606 0.2650466
0002d0 58 71 a2 3e 2a 46 72 be 81 c6 b3 3e d9 15 3a be
       0.317271 -0.23659578 0.35112384 -0.18172397
0002e0 26 ad 91 be 39 a8 96 be 81 f8 1e bd 3f 96 9a be
       -0.28452414 -0.2942522 -0.03881121 -0.30192754
0002f0 f9 57 9e 3e 9b 90 23 3e 27 a8 85 3e 56 a4 33 3e
       0.30926493 0.15973131 0.26104853 0.17543158
000300 f0 5d 8a 3e 4e d2 3a 3d de 84 b2 3d f4 7c 8e be
       0.27024794 0.04561072 0.08716749 -0.27829707
000310 72 b1 dd bd 46 8b 16 bd 75 44 14 be dc af cf 3e
       -0.10824861 -0.036753915 -0.1447924 0.40563858
000320 06 49 b1 3e bd 19 01 bf 71 1a 0a 3e 53 05 2a 3f
       0.34626025 -0.504299 0.13486649 0.66414374
000330 1b aa 15 3d 67 7d 4a 3c 62 3d 6e bd fa c3 84 be
       0.03653918 0.012359 -0.058164008 -0.25930768
000340 2e 03 83 3e 6f 13 35 bd 72 c3 23 3c f3 ed ca 3d
       0.25588363 -0.044207986 0.009995328 0.099086665
000350 f8 71 cb 3c 8f 51 de 3c fb ff cf 3d 16 e5 d7 bd
       0.024834618 0.0271385 0.10156246 -0.105417415
000360 e5 b2 c4 3e 1b e0 34 3e 6e 52 a4 3e 85 1c 21 be
       0.38417736 0.17663614 0.3209414 -0.15733536
000370 70 65 e8 bd 6f dc 01 be cb 6b 5b be 33 3b b2 bd
       -0.11347473 -0.12681745 -0.21427839 -0.087026976
000380 75 f1 53 be 64 94 3e be c5 a7 7b be 0c 5d 64 be
       -0.20697577 -0.18611294 -0.24575718 -0.2230112
000390 92 fc f2 3d e2 5a b7 be 66 e7 cc be 86 b4 9c 3e
       0.1186458 -0.35811526 -0.40020293 0.30606478
0003a0 b8 94 8b be 96 55 e2 bd 24 45 05 3d 85 6a a2 3e
       -0.272619 -0.110514805 0.03253664 0.31721893
0003b0 c3 16 96 3d 7a fc fe bd 28 98 76 3c df 21 98 be
       0.0732856 -0.124505 0.015050925 -0.29713342
0003c0 fa a3 0d 3d 69 cb 27 3b 7c e8 a8 3c 61 d9 f9 3c
       0.03458021 0.002560342 0.02061867 0.030499162
0003d0 c2 a7 26 be c7 9d 50 be d8 1b 67 be 38 8a 80 3d
       -0.16274932 -0.20372687 -0.22569215 0.06276363
0003e0 94 7d 62 3d dd b5 b7 3b c2 40 9a 3e c4 8a bf be
       0.055295542 0.0056063966 0.3012753 -0.37410557
0003f0 8f fb 5d be dd d4 23 3e 9b b4 8b 3d 1e a9 18 3e
       -0.21677993 0.1599917 0.06821557 0.14908263

network.0.bias f4 [64]
000000 64 f2 68 3e 85 95 ca 3c 90 bd 40 3d 07 e2 69 3e
       0.22748715 0.0247295 0.04705578 0.22840129
000010 e0 b1 50 be 16 d9 14 3d e1 49 91 be af 80 d7 bd
       -0.20380354 0.03633984 -0.28376678 -0.10522591
000020 d9 ad 0a 3e c0 0d 24 3e 34 b8 be 3d 89 81 2a 3e
       0.1354288 0.1602087 0.09312478 0.16650976
000030 a0 3f 99 3e 47 8e 73 be a6 d8 a0 be c3 bb 55 be
       0.29931355 -0.23784743 -0.3141529 -0.20872407
000040 34 ee a6 bd 16 ee 36 be 6f 77 4b be d2 04 9d 3e
       -0.081509024 -0.1786426 -0.19869779 0.3066774
000050 29 1c 80 3d 0a 6c 58 3e 84 ba 24 be cf cd ff bd
       0.06255371 0.21134964 -0.16086775 -0.12490427
000060 4a 49 b9 3e 77 fb 84 3e a5 1a e3 bd 5f d9 16 bd
       0.36188728 0.25973102 -0.110890664 -0.036828395
000070 ce 5f 80 3e fc 23 83 3e 81 46 d4 3e 38 c4 74 be
       0.25073093 0.2561339 0.4146004 -0.23902977
000080 29 e9 45 3e df 43 d3 3e dc bf 02 3d 79 1b a4 3d
       0.19327225 0.4126272 0.031921253 0.080130525
000090 65 26 95 3e 18 00 2e 3e 43 b3 55 be 18 53 be 3c
       0.29130855 0.16992223 -0.20869164 0.023232982
0000a0 81 36 bb 3e 5c 7b 4c 3d a1 b2 b6 3e ec 83 2a bd
       0.3656502 0.049922332 0.35683158 -0.041629717
0000b0 a5 16 c1 bb b9 f3 90 3e e8 5a 0b 3e 5e b1 d3 3e
       -0.005892592 0.28310946 0.13608897 0.41346258
0000c0 9f 9f 15 3d d1 51 24 3d 50 a4 35 3e 10 84 f9 bd
       0.03652918 0.04011709 0.17738461 -0.12183392
0000d0 54 b1 fd 3d b8 6b 2f 3d 0c d6 0a be ba dd 00 be
       0.12387338 0.042827338 -0.13558215 -0.12584582
0000e0 b3 c1 5a 3e 6a b4 a9 bd da f9 c1 3e f8 dd 4b 3d
       0.21362953 -0.082863644 0.37885934 0.049772233
0000f0 9b 9e b4 bd 7f 82 e8 3d ff ea b1 3d d2 57 68 be
       -0.08819314 0.11353015 0.086874 -0.22689751

network.2.weight f4 [64, 64]
000000 97 d7 22 bd d6 80 af bd 61 df 11 3d 84 0b 6a 3d
       -0.039756384 -0.085694954 0.03561342 0.05713989
000010 30 56 1b be 02 a3 99 3d 71 5a 87 bd 7e 5a 74 bd
       -0.15169597 0.075017944 -0.06609047 -0.059656613
000020 a6 d8 d0 3d e0 a0 d9 3d f1 ae 37 3c 33 07 2e 3d
       0.101975724 0.106263876 0.011211143 0.042487334
000030 9f f7 33 be 21 1a 9a bd 88 ef bc 3d 4e 15 7a bc
       -0.17574929 -0.07524515 0.092253745 -0.0152638685
000040 fa d5 21 3d 48 c6 84 bd 6f b4 2f 3d 41 28 1d 3e
       0.039510705 -0.06483132 0.042896684 0.15347387
000050 0c e2 33 3d f6 24 72 bd 5d 17 77 3d 20 2a bd 3c
       0.043916747 -0.05911728 0.060325015 0.023091376
000060 1e 95 0f 3e 47 78 97 bd dd 3f 10 3c cd 4a d4 bc
       0.14021727 -0.07395988 0.008804289 -0.025914574
000070 0a 31 bb bd 81 49 d0 3d 42 cc ff 3d 6f df 01 3e
       -0.09140213 0.1017027 0.12490131 0.1268289
000080 b2 16 14 3e 60 2a dd bc 6c d7 11 3e 14 4f 96 bb
       0.14461783 -0.026997745 0.14242333 -0.0045870636
000090 68 39 c9 3d 81 21 12 3e 00 09 01 bd f3 ab 54 bd
       0.098254025 0.14270593 -0.031502724 -0.051921796
0000a0 ba be a8 bd 31 d3 a7 bb 32 d3 88 bd 99 32 a2 bd
       -0.08239503 -0.0051216115 -0.06680907 -0.07919807
0000b0 d1 c8 8f 3d 78 48 93 3d 76 03 91 3d f3 81 8e 3d
       0.070207246 0.07191557 0.07080738 0.069583796
0000c0 0f e8 b7 bd 28 3c 79 bd 31 f0 c1 3d 8b df e7 bd
       -0.089798085 -0.060848385 0.09469641 -0.11321934
0000d0 ed 32 11 bd 53 fd 4f 3d 79 d0 05 bd 39 2a f9 3c
       -0.035448957 0.0507787 -0.03266952 0.030415641
0000e0 ce d8 a7 3b ce 0d c0 3c fc cf 2a 3d 82 38 e8 bb
       0.0051222807 0.023444083 0.041702256 -0.0070868144
0000f0 40 6d e5 bd 6f 6c a2 3d d7 d8 1f 3e da 2a b7 3d
       -0.112024784 0.07930838 0.15610062 0.0894372
000100 b8 02 f4 3b 49 e2 d9 bd 7a ff 8c 3d 89 ff 1c 3e
       0.007446613 -0.106388636 0.06884666 0.15331854
000110 69 f7 3b 3d a8 1c bd bd 3e d6 c9 3c 74 b0 fd bd
       0.045890246 -0.09233981 0.024638291 -0.123871714
000120 1b e5 e0 3d c7 2d e7 bd dc df 02 3d f3 3b a5 bc
       0.109811984 -0.11288028 0.03195177 -0.020170188
000130 f6 cf c4 bd 92 8b c9 bd f2 be 4f 3d ec 9d ca bc
       -0.09609978 -0.09841074 0.05071921 -0.024733506
000140 2e ba 3e 3e b7 f7 1d 3e 1f 73 12 3e 07 50 09 3d
       0.1862571 0.15426527 0.14301728 0.033523586
000150 66 f9 b3 3b 03 7e d9 3c 29 0f 2a be 7c ff ba bc
       0.005492377 0.026549345 -0.16607346 -0.022826903
000160 3b 0a 20 3e 95 7b 3a 3d 4d f5 90 3d 68 fb 07 bd
       0.15628903 0.045528013 0.070780374 -0.033198744
000170 59 b8 2c 3d b6 ad 37 3e 94 1e 8d 3d f0 2d d7 bc
       0.042167995 0.17937359 0.06890598 -0.026267022
000180 8e 33 8a 3d 24 33 18 bd d1 d1 04 3c 46 15 94 3d
       0.067481145 -0.037158147 0.008106665 0.0723062
000190 f7 6c 52 3b 02 5b 15 3e 94 1a b3 3d f4 56 7b 3c
       0.0032108405 0.14585498 0.08745304 0.015340555
0001a0 6a 91 4b 3b 5e 06 76 3c 65 e8 cf 3d 50 96 94 bd
       0.0031062015 0.0150161665 0.101517476 -0.07255232
0001b0 2f 72 ca bd 13 6f 96 3d 27 e4 72 3d 28 21 fa 3d
       -0.0988506 0.073454045 0.059299614 0.12213355
0001c0 2f df b7 3d a8 5c 3d be 7f ff 1c 3e 8a f4 e0 bd
       0.08978116 -0.18492377 0.15331839 -0.10984142
0001d0 85 dc 73 3d 51 f4 16 be eb 5e c7 bd 44 21 16 3d
       0.059536476 -0.14741637 -0.09734901 0.03665282
0001e0 57 f4 17 3e 01 0c a1 bd c4 04 b9 3c 1b df 4b 3d
       0.14839302 -0.07863618 0.02258528 0.049773317
0001f0 13 a1 19 3e 8a 64 5d 3c 02 12 7d 3d 30 ff af bd
       0.15002851 0.01351274 0.06178475 -0.08593595
000200 08 a9 86 bd a4 22 0b bd fa 54 ac 3d 1a 10 2f 3e
       -0.06575209 -0.033968583 0.084146455 0.17095986
000210 bb 44 da 3b 48 87 ad 3c 73 24 c3 3d fb 79 ec 3c
       0.0066610253 0.021182671 0.095284365 0.028866759
000220 04 ab e2 3c a6 bd ce bc 22 c0 19 3e 6d 86 c1 bd
       0.027669437 -0.025236916 0.15014699 -0.09449468
000230 67 a1 51 bc be 86 c8 bd d8 69 d3 bd 49 ea f1 bd
       -0.012794829 -0.09791325 -0.103229225 -0.118122645
000240 c3 72 4b 3e 79 46 c1 3d c0 b0 26 3e 4a a7 44 3e
       0.19867997 0.0943727 0.16278362 0.1920444
000250 50 4f ba 3d ae c7 e0 3d 68 e7 33 be b2 75 78 bd
       0.09097159 0.10975586 -0.17568743 -0.060659118
000260 f9 7a de 3b 18 49 d3 bd fb 9e 04 be fa ae d3 bd
       0.006789562 -0.10316676 -0.12951271 -0.103361085
000270 90 ce a2 ba a3 8b d0 3c c1 c2 69 bc 01 03 a9 3b
       -0.001242118 0.025457209 -0.014267624 0.005157829
000280 04 5e 15 3e 19 4e 29 3e 3f 26 b6 3d 62 34 f3 bd
       0.14586645 0.16533698 0.088940136 -0.118752256
000290 53 d0 08 bc 4f a4 14 3e c6 a9 86 bd 82 09 84 bd
       -0.00835045 0.14515804 -0.065753505 -0.06447126
0002a0 1f a5 95 bd 20 97 89 3d cc 0d 4a bd 43 5e 15 bd
       -0.07306885 0.06718278 -0.049329564 -0.036466848
0002b0 9d a9 c2 3d 78 d3 8b 39 eb 7d af bd 29 10 3e 3d
       0.095050074 0.00026669702 -0.08568939 0.04640213
0002c0 d8 47 6c 3c c9 de a8 bb 1b 2f d4 3d 98 8a f3 3c
       0.014421426 -0.005153511 0.10360547 0.029729173
0002d0 8e 1c 48 3d c1 e1 a7 bd e2 d3 8f 3d ff 95 e1 bd
       0.048855357 -0.08197356 0.07022835 -0.110149376
0002e0 ff d2 74 3c e5 3a c2 3d a1 1e 21 3a 98 ae 60 3d
       0.0149428835 0.094838895 0.00061462267 0.054854006
0002f0 38 9d e7 3b 1d 13 40 3e c8 ce 0b 3b 3a d4 de 3b
       0.0070683025 0.18757291 0.0021332968 0.0068002017
000300 c7 25 4e 3a b6 16 b6 bd 1b f1 53 bd 9f 3d a9 3b
       0.00078639056 -0.088910505 -0.051743608 0.0051648165
000310 31 68 f5 bc 1a 0e b8 3d a8 5c 3e 3d 96 ff 4c bd
       -0.029956909 0.08987065 0.046475083 -0.050048433
000320 00 93 10 bc cb c5 ab 3c 8a f4 4f bc 55 61 18 bd
       -0.00882411 0.020968338 -0.01269258 -0.037202198
000330 3c bf 29 3d 08 de d1 bc 4c d2 bd 3c c6 9c b3 bd
       0.04144214 -0.025618568 0.023171566 -0.087701365
000340 81 1e 46 3d 2d ef ed 3d df 17 71 3d 87 41 ab 3d
       0.048368935 0.11617885 0.058860656 0.08362108
000350 6f 7c 99 3d b5 b0 26 3e b1 ed 2c 3c 74 d4 56 3a
       0.07494437 0.16278346 0.010554717 0.000819511
000360 d8 e8 c0 bb f6 28 05 be 96 c5 a9 3d 50 ac d6 bd
       -0.005887132 -0.13003907 0.0828964 -0.10482085
000370 4e 13 2d bd 37 b2 92 bb 9b 54 f1 3c e6 92 9b 3d
       -0.04225474 -0.0044768113 0.029459288 0.07596378
000380 0e 2b 21 bd b4 b4 00 3d 67 1b 04 3e 3c d7 fc bd
       -0.0393477 0.031422332 0.12901078 -0.1234574
000390 7f c0 86 bd b6 e9 9f bd 80 80 68 bd ac 5f e2 bd
       -0.065796845 -0.07808249 -0.056763172 -0.11053404
0003a0 be b8 9c bc 53 7f 9e bc a6 0f b2 bd 90 fc 1a 3d
       -0.01913106 -0.019347822 -0.08694391 0.03783852
0003b0 4e 9a 82 bc d0 0e 40 3e 2f 93 d2 3d 58 43 43 3d
       -0.015942719 0.1875565 0.10281979 0.047671646
0003c0 13 bc 9f bd b1 75 5a bb 23 c0 d1 bc d7 6d 86 3c
       -0.07799544 -0.003333431 -0.025604313 0.016409798
0003d0 94 73 3e 3e f9 8c f1 bd 7b b1 66 3d eb 95 c7 3c
       0.18598777 -0.117944665 0.056321602 0.024363479
0003e0 a4 8c 0a 3d 7a c2 e5 3c 4f ee af 3d 81 af 81 3d
       0.03382553 0.028046835 0.08590376 0.06332303
0003f0 66 2c 16 3d 1a 79 39 3e 99 42 4a 3e 17 ed b7 3c
       0.036663435 0.18112603 0.19751967 0.02245192

network.2.bias f4 [64]
000000 a5 25 55 3d fe 80 e7 bb 2a a0 1e 3e 9f bb 13 3e
       0.052037854 -0.0070649376 0.15490785 0.1442704
000010 ae 30 44 bc d2 40 fd 3b 9d 32 18 3e 75 d8 ed bd
       -0.011974497 0.0077286744 0.14863057 -0.116135515
000020 b7 79 20 3e 9f 42 39 3d f6 30 3a 3d be 87 44 3e
       0.1567143 0.04522955 0.04545685 0.19192407
000030 29 de 13 3e 62 cc 44 3e 2c de aa 3d cb dc 93 3d
       0.14440216 0.19218591 0.08343157 0.07219847
000040 30 f4 55 3d f3 a4 12 3e 1e c5 b4 bc 46 8e cf 3d
       0.05223483 0.14320736 -0.022066649 0.101345584
000050 66 52 3c bd a6 95 1a 3d 29 ee 1c bd 7d 29 ff 3c
       -0.04597702 0.037740372 -0.038313065 0.031147713
000060 42 31 74 bd b4 14 a2 3d d5 a4 1e 3e 2a d8 16 3e
       -0.05961729 0.07914105 0.15492566 0.14730898
000070 b4 b4 0f bd 5c 86 31 bd c6 d8 f8 bc 2e 46 37 3e
       -0.03508444 -0.043341026 -0.030376803 0.17897865
000080 4a d7 a3 3d 1f 26 40 3e 5d f8 07 be ca d2 c8 3d
       0.080000475 0.18764542 -0.13278337 0.0980583
000090 c4 fe 0c 3e 0c 40 31 bb f4 b7 3e bc 86 72 dd 3c
       0.1376906 -0.0027046232 -0.0116405375 0.027032148
0000a0 f0 da 99 3d 5d 94 0a 3e ed 6e 28 bc a9 97 04 3e
       0.07512462 0.13533159 -0.010280353 0.12948479
0000b0 58 f1 a5 3d a1 75 26 3d 16 9b 6d 3d 01 b8 92 3d
       0.08102673 0.040639523 0.05800923 0.07164002
0000c0 7e 55 45 3c 95 54 ec 3d 62 71 b1 bc f2 9d 94 3c
       0.012044309 0.1153957 -0.02166051 0.01814172
0000d0 58 a0 47 bd 1c 1c 9a 3b 9a b6 08 bd eb 09 ad bd
       -0.0487369 0.004703058 -0.033377267 -0.08449157
0000e0 f6 04 22 3e 6a c8 a6 3d 47 65 84 3c d3 e0 d3 bb
       0.15822205 0.08143695 0.016161574 -0.00646601
0000f0 8f ff fb 3c ed 84 11 3e 78 3f fc 3c 18 a3 d3 3c
       0.030761508 0.14210863 0.030791983 0.025834605

network.4.weight f4 [64, 64]
000000 50 95 b1 3d d9 89 1e bd f3 7c 9f 3d 34 21 81 3d
       0.08671057 -0.03870568 0.07787504 0.06305161
000010 0f e6 00 be 4b 79 d8 bd 15 f7 a1 bd 32 b4 9c bd
       -0.1258776 -0.1057001 -0.07908455 -0.07651557
000020 db b6 0c 3d ab ff 30 3d 2d 7f ce 3d 31 af d3 3c
       0.034354072 0.043212574 0.100828506 0.025840374
000030 ce f5 62 3c 77 12 c1 bd 28 2e da bd 3b 06 07 be
       0.01385255 -0.0942735 -0.10653335 -0.1318597
000040 70 12 c4 3d 6b 8e 36 bd cf ec 5d bd 88 54 11 3d
       0.09573829 -0.044569414 -0.054180916 0.035481006
000050 0b ba 7e 3d 08 1c fd bb 34 20 9b bd 59 2f 00 be
       0.062189143 -0.007724289 -0.07574502 -0.12518062
000060 8f ef dc ba 74 8f 32 3d 79 52 cd 3d a2 cf 74 bd
       -0.0016856062 0.04359384 0.10025496 -0.059768327
000070 c0 63 66 bc 08 1a a7 bd 56 2f b0 bc 2b ec cc 3d
       -0.014061868 -0.08159262 -0.021506947 0.10005983
000080 7c a2 eb bd 55 1d a1 bb f5 88 60 3d 4a b4 17 bd
       -0.11505601 -0.0049168267 0.054818112 -0.03703717
000090 70 cc 0f be 1b d3 de bd ac 8a 00 be 23 35 a6 bd
       -0.1404283 -0.10880109 -0.12552899 -0.08115604
0000a0 6b 32 00 be 5e 64 65 3d 5e 85 32 3d 5d 07 e9 bc
       -0.12519233 0.05600392 0.04358422 -0.028445894
0000b0 32 c3 96 3d b3 0e b1 3c 34 cf 99 bd 16 20 a0 3d
       0.07361449 0.021613454 -0.07510224 0.0781862
0000c0 d7 f9 04 3d 61 0a 91 3d e5 b9 b2 3d e7 3a db 3d
       0.03246483 0.07082058 0.08726863 0.10704594
0000d0 6b f8 cb bd d5 3e a2 bd c8 67 b1 3c 80 97 a8 bb
       -0.09959491 -0.079221405 0.021655932 -0.0051450133
0000e0 3c a9 d6 3d b0 41 a8 bd 53 bc d2 bc d8 1a 85 3d
       0.10481498 -0.08215654 -0.025724566 0.06499261
0000f0 7d 02 d9 ba 4a 00 ce bb ff da 96 bd 07 41 81 3d
       -0.0016556528 -0.0062866556 -0.07365989 0.06311231
000100 ba 28 c3 3d db 63 9e 3d f0 7d 14 3e bc 82 28 3e
       0.09529252 0.0773389 0.14501166 0.16456121
000110 1f 37 c5 3d 2e ae d1 3c cf 24 d1 3a 37 73 94 3d
       0.09629654 0.02559575 0.0015956404 0.07248538
000120 cf e9 f7 3d f8 34 b4 3d 4e d0 2a 3e 74 0c 9d 3c
       0.12105142 0.087991655 0.16681024 0.019170977
000130 43 cb 01 3e 8a 54 7e 3a e2 0c 24 3d c5 e8 f8 3d
       0.12675194 0.00097019284 0.04005135 0.12153772
000140 09 aa 1c bd 88 25 c3 3d ee 5c eb 3d a4 d7 53 bd
       -0.038248096 0.09528643 0.11492334 -0.051719323
000150 f4 4f cd bb 72 2c 42 3d ad 8a 15 bd 20 83 3f 3d
       -0.0062656347 0.047405668 -0.036509205 0.04675591
000160 f7 f9 b2 3d 86 8e b9 bd 16 36 58 3d 50 e6 97 3b
       0.08739083 -0.09060387 0.052785955 0.0046356097
000170 08 b7 08 bd a0 0e c4 bb 59 56 fc 3d af 38 30 3e
       -0.033377677 -0.0059831887 0.12321157 0.17209123
000180 b8 5b 18 3d f8 ec df 3d 2d 1a 2f bc f2 c2 1f 3e
       0.037196845 0.1093387 -0.010687393 0.1560171
000190 b5 d0 bb 3d 0e 28 37 bd b9 17 2f 3e ef 7e a6 3d
       0.09170667 -0.044715934 0.17098893 0.081296794
0001a0 5a ef 9e bd 33 75 5b 3e 04 00 80 3d 0a 12 e4 3d
       -0.077604964 0.21431427 0.06250003 0.11136253
0001b0 73 7b 41 3d f5 a3 31 3e 9e 23 37 3e 3b 96 4f 3d
       0.04723687 0.17347701 0.1788468 0.05068038
0001c0 48 c9 1a 3d 37 01 7a 3c a6 87 c7 bc 0e e3 cb 3d
       0.037789613 0.015259079 -0.024356674 0.099554166
0001d0 72 54 64 bd f3 28 b7 3d 8d e3 c1 3d ee 02 82 3d
       -0.055744596 0.08943357 0.0946723 0.06348215
0001e0 94 72 4c 3d 47 d7 98 3c c0 16 a8 3d a2 7f f9 bc
       0.049913958 0.01865734 0.08207464 -0.030456368
0001f0 2b 5b 0b 3e 9c c1 a2 3b 6a 96 23 3e f7 f9 fc 3b
       0.13608997 0.0049669277 0.15975347 0.007720228
000200 4a f1 3c 3d c1 bf 2e 3e b3 32 09 3c ae 5a a0 bd
       0.04612855 0.17065336 0.008373904 -0.07829796
000210 b8 b6 08 3e 0a 26 96 be 82 66 bf 3d 3c e8 de bd
       0.13350952 -0.29325897 0.09345724 -0.10884139
000220 9b dd 80 3d ed 8f 11 3e 54 cf 50 3d ac dc a6 3d
       0.06292268 0.1421506 0.050978974 0.081475586
000230 01 f5 9e 3d f2 11 7e 3d 05 01 e7 3c 9a 3b 94 3d
       0.077615745 0.062028833 0.028198728 0.072379306
000240 41 2e 72 bd 44 15 d9 3d 25 69 9f bd 3b c3 d0 3d
       -0.059126142 0.10599759 -0.077837266 0.10193487
000250 65 97 19 bd e3 b4 ad 3d 11 99 0d 3e ba 62 30 bd
       -0.037497897 0.08481767 0.13827921 -0.043062903
000260 ff 53 50 be 6a 05 89 3d fa 20 de 3d e8 e9 06 3e
       -0.20344542 0.06690486 0.108461335 0.13175166
000270 28 ba 16 bd a8 37 72 bd db 5e ad 3d 0f e9 9c 3d
       -0.036798626 -0.05913511 0.08465358 0.0766164
000280 40 8e 95 3d 47 d0 c2 3d d0 13 b3 bd ad ef 4b 3d
       0.07302523 0.09512382 -0.08744013 0.04978912
000290 cc 0c e4 3d 90 4e 80 3d 1c dc ee 3d c7 d8 45 3d
       0.11135253 0.062649846 0.11663076 0.048302438
0002a0 dc c0 b5 3d 2d 43 f8 3d e6 19 47 bd e4 47 42 3e
       0.08874676 0.12122188 -0.048608683 0.18972737
0002b0 36 88 cd 3d 0d 71 34 3e 21 2c 2c 3e 61 ff 28 bc
       0.10035746 0.1762125 0.16813709 -0.010314793
0002c0 49 7c e0 bd 5a dd 38 3e 56 8b f3 bd 61 f5 a2 bc
       -0.109612055 0.18053189 -0.118918106 -0.019892396
0002d0 bf d8 6e 3d 04 45 0f be f6 d8 5c 3d e7 67 c8 bd
       0.058312174 -0.13991171 0.053917848 -0.09785443
0002e0 28 11 7a bd d2 8f bb 3b b3 dc cc 3d 0c ac 09 3d
       -0.061051518 0.005723932 0.100030325 0.033611342
0002f0 1a 4c 82 bd dd 23 85 3d f6 6b c8 b7 8f 0d e5 3d
       -0.063621715 0.06500981 -2.3892131e-05 0.11184227
000300 0b c0 3f 3d 4e 21 e3 3d ba 62 6f 3c fc 04 aa 3d
       0.046814006 0.11090337 0.014610941 0.08301732
000310 28 8a 25 3e 77 49 cd 3d a7 ce 55 bd 99 d8 31 3c
       0.16165984 0.10023778 -0.052199032 0.010854864
000320 f0 0a 5b 3d c0 90 35 3b 69 b7 13 3e 5b 55 96 bd
       0.053477228 0.0027704686 0.14425434 -0.07340499
000330 65 fb ec bb 06 40 c7 3d 29 e5 8b 3b 1d 9c 1d 3e
       -0.007232117 0.097290084 0.0042692614 0.15391584
000340 30 16 71 3c 3a a3 9a 3c 68 25 9f 3d e6 72 02 bb
       0.014714763 0.01887666 0.077708066 -0.001990491
000350 6b fa 34 bd d4 1b 9a bc 07 65 bf 3d fc 0f 05 3e
       -0.04418413 -0.018812098 0.09345441 0.12994379
000360 b0 c3 09 bd 24 df 36 bd a5 7c 25 3e d4 c7 44 3d
       -0.033633888 -0.044646397 0.1616083 0.048042133
000370 b0 fb 89 bd 70 4e 1d bc 8d 19 87 3d 5c 90 09 3e
       -0.06737459 -0.0096012205 0.0659667 0.13433975
000380 c0 e6 9a bd ab e5 93 3d c2 37 93 3c 8a 11 67 3d
       -0.07563543 0.0722154 0.017970923 0.05641321
000390 a1 70 5f 3d 34 5e ba bb 11 5f 4e bd 52 87 12 3e
       0.05455077 -0.0056874994 -0.05038363 0.14309433
0003a0 b8 f6 18 3e d4 9c f5 3d 78 9d fa bd 6c 2e 26 3d
       0.14937866 0.11992803 -0.12237066 0.040571615
0003b0 11 83 d4 bd 32 e5 0e bc af 35 66 bd 79 e7 3d 3d
       -0.103765614 -0.008721637 -0.05620354 0.046363328
0003c0 21 5f b6 3d 93 c7 33 3e c3 fc 02 be 1e a2 02 bd
       0.08904863 0.175566 -0.12791733 -0.03189289
0003d0 1c 95 17 3d 45 d4 70 3c bb 19 6b bc 45 41 50 3c
       0.037007436 0.0146990465 -0.014349396 0.012710874
0003e0 68 58 29 3e 14 48 c1 3d 13 9e bc 3d dc 8b 01 3e
       0.1653763 0.09437576 0.09209838 0.12651008
0003f0 ae 06 18 3e 64 15 4b bd 01 ee 00 3e 30 d8 ce 3d
       0.14846298 -0.049580947 0.12590791 0.10099828

network.4.bias f4 [64]
000000 c1 f1 57 3c 33 a1 03 bd 5a b6 b0 bb 9d 87 12 3e
       0.013180197 -0.032136153 -0.0053928318 0.14309545
000010 2e 2a 2c 3c e0 5c 7c bd 9e 32 2f bd 26 d5 1c 3c
       0.010508103 -0.06161201 -0.04277288 0.009572303
000020 5e 41 21 3e 7f a8 bb 3b e7 63 32 3e 4e 8a 02 3d
       0.15747592 0.0057268734 0.17420922 0.03187018
000030 01 da d2 3d b9 9e 89 3d 50 2c 8c 3d a9 3c 95 bd
       0.10295487 0.06719727 0.068443894 -0.07286961
000040 65 24 da 3d be 3c 95 3c cd e6 58 3d 11 a1 c9 3d
       0.10651473 0.01821744 0.052954484 0.09845174
000050 d9 2f c4 3d 8c ec 48 3d c8 02 4b bd 30 c0 9e 3d
       0.09579439 0.049053714 -0.0495632 0.077515006
000060 79 bb 3d bd b3 ef 0a bd a3 3c c7 3d 43 16 30 3e
       -0.046321366 -0.03392 0.097283624 0.17195992
000070 b1 6f 34 3e 90 9b 20 3d 5d 87 f2 bd 40 a1 0d bd
       0.17620732 0.039210856 -0.11842225 -0.034577608
000080 fe 59 65 3d c8 d2 c4 3d 44 2d 9c 3d e0 a0 18 bd
       0.055994026 0.09610516 0.07625821 -0.037262797
000090 fb 50 fa bd 01 2f 2b bd 04 06 2b 3d eb fd 8a bb
       -0.12222477 -0.041792873 0.041753784 -0.004241695
0000a0 05 18 36 3e 13 74 00 be 76 71 85 3d 30 b4 50 bd
       0.177826 -0.12544279 0.065157816 -0.05095309
0000b0 d0 3b 6c bd b0 4b b7 bc 89 c1 5f bd 17 fb ce 3d
       -0.05767423 -0.022374958 -0.05462793 0.10106485
0000c0 62 fd 8f 3d 38 36 44 3e 72 2b f6 bd 22 77 44 3e
       0.07030751 0.19161308 -0.12020005 0.1918607
0000d0 88 df 08 3e f5 46 48 3d a8 ce cd bc ca b2 b1 bc
       0.1336652 0.048895795 -0.025122955 -0.021691699
0000e0 8c 76 79 3d 02 8b 30 bd 6e ab b1 3d e2 ea b6 3d
       0.06090407 -0.04310132 0.08675276 0.08931519
0000f0 57 cc ad 3d 05 c0 1a bd a7 52 3c 3e d4 dc 59 bd
       0.0848624 -0.03778078 0.18390904 -0.053189114

network.6.weight f4 [3, 64]
000000 1f 3f ce 3d 17 5c 27 be e9 a0 bb bd 81 ae a2 bd
       0.10070633 -0.16343723 -0.091615506 -0.0794344
000010 2c 92 b9 bd 5f e5 ad 3d 63 c5 63 3d fe 9f c4 3c
       -0.09061083 0.08491015 0.055608165 0.024002071
000020 7f 44 ed bd fa b9 00 be 00 7c 13 be b7 cc 29 3d
       -0.1158533 -0.12570944 -0.14402771 0.041454997
000030 b8 97 2b bd c2 e3 39 bd 76 55 ba 3d 81 16 1c 3c
       -0.041892737 -0.045383222 0.09098332 0.00952685
000040 0c dd 45 bc ac 47 1c bd 21 1e 27 be aa fe 4a 3d
       -0.012076627 -0.03815429 -0.16320087 0.049559273
000050 59 77 71 3d e4 ee fc bd 99 68 c0 3d 96 0e 16 be
       0.05895171 -0.12350252 0.093949504 -0.14654002
000060 f2 a1 08 be 7c 0d e5 bd 34 9b e2 bc c8 20 10 be
       -0.13343027 -0.111842126 -0.027661897 -0.14075005
000070 db d1 39 be 84 9b 0a bd 0f cb 3c 3d aa 5f 65 bc
       -0.1814646 -0.033839718 0.04609209 -0.013999859
000080 d2 3a dd 3b 7b 55 28 be d6 6a 19 be 89 7a fd bd
       0.0067513967 -0.16438858 -0.14982161 -0.12376887
000090 c4 06 62 3d 6c 1f 2f 3d 4f 12 de bd f7 4d 39 3d
       0.055182233 0.042754576 -0.10843336 0.04524037
0000a0 d8 16 34 be 6f f0 57 bb 03 d6 b1 3d 0a 7f 97 bb
       -0.17586839 -0.0032949706 0.086833976 -0.0046232985
0000b0 67 13 bd bd 3b e5 83 bd 66 e7 c1 bd bc e0 6f bd
       -0.09232216 -0.064402066 -0.09467964 -0.058563933
0000c0 5e 1f 73 3d 46 1e f2 bd d2 e1 b4 3d 72 cf 95 bd
       0.059356086 -0.118221804 0.08832134 -0.07314958
0000d0 28 b0 aa bd b0 b2 03 be 1c da ba 3b 9a 1b 98 bd
       -0.083343804 -0.12861133 0.00570227 -0.074271396
0000e0 5b 1b 73 3b 7c 6f 95 3d d3 90 95 3d 30 29 21 3d
       0.0037095163 0.072966546 0.07303014 0.03934592
0000f0 36 68 df 3d 64 99 ae 3d be 3c 0e be e8 74 f8 3c
       0.109085485 0.08525351 -0.13890359 0.030329183
000100 bf e0 6b 3d 37 1e 8e bc 6a 22 25 be 0c b5 88 bc
       0.05758738 -0.017348392 -0.16126409 -0.016687892
000110 ca 6f ee bd 29 cc 83 bc 26 a3 6d bd 2e 2a bc 3c
       -0.11642416 -0.016088562 -0.05801692 0.022969332
000120 43 2b 47 bd 56 5d a0 3d e3 19 00 be 24 10 69 3d
       -0.048625242 0.078303024 -0.12509875 0.05690016
000130 ba fb c7 bd 52 04 e1 bd f3 9e ea 3a 54 44 c6 3c
       -0.0976481 -0.10987152 0.0017900154 0.024202503
000140 f0 fe 5e 3d d2 6d 12 be 21 a9 52 bd 22 a5 b9 3d
       0.054442346 -0.14299706 -0.051430825 0.090647
000150 b4 3e b6 bc 78 50 d1 bc 4d bc cf bc bc 5c b0 bd
       -0.022246696 -0.025551066 -0.025358343 -0.08611438
000160 c4 86 8f 3d 3d 5a 0b be ae 02 a3 3d 13 43 dc 3d
       0.070081264 -0.13608642 0.079594955 0.10754981
000170 27 41 64 bd 8d b4 18 be 11 11 09 be 36 88 08 3d
       -0.055726197 -0.14912625 -0.13385417 0.033333026
000180 79 e2 1e 3d 22 4c c3 3d e4 d3 d2 3d 46 35 f3 bd
       0.0387902 0.095360056 0.10294321 -0.118753955
000190 1c 7a 80 bc a7 04 2a bd e5 78 e0 bd d4 6a 81 3d
       -0.015683226 -0.041508343 -0.10960559 0.06319204
0001a0 a0 98 fa bd a6 42 ac ba dc 1e af 3d eb 5a 16 3c
       -0.12236142 -0.0013142421 0.08550808 0.00917695
0001b0 b0 76 10 be f3 d3 9f bd b7 1c d0 bd 78 28 67 bd
       -0.14107776 -0.07804098 -0.10161727 -0.05643508
0001c0 f1 57 3c bd ba 43 fa bc 40 c0 5d 3b a4 dc 9f bd
       -0.045982305 -0.030549873 0.0033836514 -0.07805756
0001d0 79 72 96 bd 48 53 f9 3c fe c0 dd 3c c0 7c 02 be
       -0.07346053 0.03043522 0.027069565 -0.12742901
0001e0 b6 f1 a9 3c 94 e4 7d 3d b7 28 8e bb 83 70 a4 bb
       0.02074514 0.061985567 -0.0043383497 -0.0050182953
0001f0 06 96 d0 3d 38 07 07 bd 64 55 3e 3c e8 3a d3 bd
       0.10184865 -0.03296587 0.011617038 -0.1031397
000200 ec 35 01 be 46 6f 6d bc 19 99 a3 bd 37 5d 8e 3d
       -0.12618226 -0.014491862 -0.079881854 0.06951373
000210 f8 2c 2f be 9d 96 88 bc 5f 1d 2a 3c c8 9c c8 3c
       -0.17106998 -0.01667338 0.010382979 0.024488822
000220 ad 78 8c bd 7a b8 77 bc 9b 99 de 3d e5 22 a9 3d
       -0.068589546 -0.015119666 0.10869142 0.08258609
000230 49 cd e5 bd 73 d1 37 3c ae 4d 0d be 9b 0e ec 3c
       -0.11220796 0.01121937 -0.13799164 0.028815558
000240 73 27 a9 bb 6e 3e 68 bd 94 fa 67 bd 62 cb 83 bd
       -0.0051621734 -0.056700163 -0.056635454 -0.064352766
000250 d0 58 0c bd 30 d9 bd bd 09 ff c3 bd 04 cc c2 bc
       -0.034264386 -0.09269941 -0.095701285 -0.023778923
000260 4b d7 15 3d e6 4d a4 bb ac a5 c0 3d d4 a0 7f bc
       0.036582272 -0.005014169 0.094065994 -0.015602309
000270 09 25 c3 3d 3c 2b 12 3e f7 28 88 bb ab ce ac 3d
       0.09528548 0.14274305 -0.004155274 0.08437856
000280 6c d9 ac bd e1 31 b6 bc 37 c5 ea bd 18 1c 9b bd
       -0.084399074 -0.022240581 -0.11463397 -0.07573718
000290 bb e5 3f bc fb 09 cf 3d a2 96 10 be b0 1d 64 3d
       -0.011712487 0.101093255 -0.14119962 0.055692375
0002a0 f0 54 51 bd 2c b5 e2 3d 09 b7 c4 bd 27 5c 17 3d
       -0.051106393 0.11069712 -0.09605224 0.036953118
0002b0 41 fe a2 bc c9 1d e8 3d 30 f5 11 be 88 fa 9b 3d
       -0.019896628 0.11333806 -0.14253688 0.076161444
0002c0 d2 47 81 bd 07 a8 ed 3d 62 08 ed 3d b0 71 52 3d
       -0.06312527 0.11604314 0.115738645 0.051377952
0002d0 6a 27 00 be aa ac b5 3d 5f fc 38 3d 94 11 81 bd
       -0.12515035 0.08870824 0.045162555 -0.06302181
0002e0 cd 64 03 be 42 9c ea 3d 7f a7 26 bd 88 c6 d0 3d
       -0.12831421 0.11455585 -0.04068708 0.10194117
0002f0 24 44 e6 3c 3f 7e 42 bc 58 a4 b0 3d 14 98 ad bd
       0.028108664 -0.01187092 0.08625096 -0.08476272

network.6.bias f4 [3]
000000 31 b8 c8 bd 96 5f 21 bd b6 3f 45 3e
       -0.09800757 -0.0393978 0.19262585
