PINN_FNN/models/pinn_fnn_h64_l3_lr0.001000_20250726_105217/model_pinn.pth (torch, 39908 bytes, 8 tensors)

network.0.weight f4 [64, 9]
00000000: bc77 773b b4d9 9d3e a114 f3bd e432 c13b
00000010: 606e 84be 5181 0a3d 3a18 b1bd f1d5 683d
00000020: adec 053d 7c3f cc3e b116 ef3c 6e7c 30be
00000030: a0f1 273d b4a0 57ba 1860 253e 0c92 58be
00000040: 2c24 a2bd 0d43 5ebe 49be 813e 72d6 453e
00000050: 0ebe a53e d6f1 a83e 4f69 34be 70bd bdbd
00000060: 6353 b4bd 38f8 fdbd 95af c03d 5e74 d33e
00000070: 6c50 4d3e d60a 8d3e 5096 bebd 767a 7e3e
00000080: 3350 a3be b185 193e 3f62 c83c c8e2 533e
00000090: 2017 28be 6e5f 80be 09d1 62bc c02d 93be
000000a0: a6dd b33e af7f 403e c9b1 5abe a537 f2bd
000000b0: 9186 3e3e 9848 46be ee0b 2c3e a872 8ebe
000000c0: 7358 93bd 99b0 5f3d b0e0 82be 037b 0cbe
000000d0: c79d d6bd 9385 76be e192 bc3e f42b cdbd
000000e0: ffc1 033d ce6b fabd a6c5 6a3e 82a1 8dbe
000000f0: e7e1 7ebe 8e6e a63d 00b3 0ebe 3b82 ca3d
00000100: f613 8e3e d658 fc3d bcac 893e 4f75 b3be
00000110: 9860 973d 32de 943d 42ec 493d fb40 af3d
00000120: 3325 013e 9796 a03e 8e63 aebe 0833 ce3d
00000130: 21c4 dcbe cd4d 08bd bc6d b0bd e910 fabc
00000140: 56e4 98bd 5ea6 123e bd4f 6ebe 3edf 933e
00000150: e7ef c63d 4af3 9ebe 0afb 85be c6d8 11be
00000160: 9953 e03d 30d0 84bd 8c3b b43e 691b 52be
00000170: 4d92 e83d e267 11be e317 0cbe 7bd6 083d
00000180: df90 7e3e 90c5 1dbb b2c7 c83d 1a9b 1e3e
00000190: 5765 a03e 1de6 293d 6f8c 523e 9bf2 8c3d
000001a0: 44c7 36bd f68c fc3d 31c4 d53d 61ab 563e
000001b0: 068e 15be e1c4 833e f412 4e3e 077f 2ebe
000001c0: 0f9d d13e 8d70 093f c6cb a93e 6a6a 423e
000001d0: 19dc 903d e7c0 d13e 2143 b43e 523d d43d
000001e0: 416e 933e d279 84be 8440 39be b690 7e3e
000001f0: eda4 893d 6c9c d83d 775b b63d 4ebe d53d
00000200: f386 a03d 4523 cd3e 776c 73be 7e42 b9be
00000210: 0399 a8bd e814 0b3e 8792 31be d2af b23e
00000220: 4ac8 27be 703e 86be eacb 11bd 737c 62be
00000230: fdea 743c 5699 7f3e 0018 9d3e e7aa 9cbe
00000240: 4298 1fbd c46b 053e 8c86 07be 9dba 513e
00000250: 1bd5 dfbc aa15 54be 41ed 6e3e 5ff1 3ebe
00000260: 1cb6 9d3e a697 d4bc 43e2 3a3e 0e6e 2e3d
00000270: 0dfb 293c 5c65 b53e 5ad0 8e3e 5927 393c
00000280: e296 93be 3099 b73d 440d f53d 2c9d c13e
00000290: d6bf 953e e9eb b4bc bb2d 613e 3136 c137
000002a0: e07e 853e e42b f53a 4341 dbbd 31f4 113e
000002b0: 669b 8ebe b388 573d 5396 453e 0398 e63d
000002c0: 1e4a f2bc d6a5 8bbe 263b bdbd 20a1 76be
000002d0: 8ef2 803e 1f3c 6e3b 8375 c93e 936b 80be
000002e0: 770f 74bd a787 453e 57a9 75be 1872 5d3e
000002f0: ae7d 74be 6b0b 5ebd b171 81bd dbf5 c43d
00000300: 87f8 0d3f a207 9abe 1e86 02bf 8c06 3bbe
00000310: 6490 343d 6a6d 373e 9f1b 953e f7b9 39bd
00000320: 0e7a c13e cde4 033f c97f f8be 648e f4be
00000330: d43a 4abe d1b3 cc3d 1510 2f3e d710 fcbd
00000340: 0e7c 78be 1493 91be ba66 17be 091b cbbd
00000350: 9ffd c03d a8ab 01bc 54e7 9fbe 15f7 743e
00000360: bd22 79bd f5cf 2a3e 277d 993e c06e 203d
00000370: b952 23be b9f4 cabb d8ab 5fbe 477c 18be
00000380: e42a 72be 2901 d2bd adcf 933e 771f 953e
00000390: 99e6 12bf 3f54 43bd 7aac 013f e103 e1bd
000003a0: 6403 213e 63d9 85be 0306 5bbe 0672 ce3e
000003b0: 98c4 f93e 21fa 08bf f35b 47be 0fb5 a73c
000003c0: 4948 2fbe 4ab5 6b3e 30f5 88b8 9e85 143e
000003d0: e87b 303c 52b4 843e a3a6 4bbe 52c7 14be
000003e0: c87d 7bbe d67d 8abe 6726 07be a51a 833e
000003f0: 1b8c 433e ec53 81be 02d7 0ebe 0d1b f53d
0.0037760576 0.30830157 -0.11869169 0.005895959 -0.2586546 0.033814732 -0.08647199 0.056844655
0.032696415 0.39892185 0.029185625 -0.17234966 0.041001916 -0.0008225546 0.16149938 -0.21149462
-0.079170555 -0.21705265 0.2534049 0.19320086 0.32371563 0.32997006 -0.17618297 -0.09264648
-0.08804967 -0.124008596 0.094084896 0.4129972 0.2005021 0.2754733 -0.093060136 0.24851403
-0.31897125 0.14992405 0.02446091 0.20691979 -0.16415071 -0.25072807 -0.013843783 -0.28745842
0.35130042 0.18798707 -0.21356882 -0.118270196 0.1860602 -0.1936363 0.16801426 -0.2782185
-0.07194605 0.054611776 -0.25562048 -0.137188 -0.104793124 -0.24074392 0.3683081 -0.10018149
0.03216743 -0.12227593 0.2292696 -0.27662283 -0.24890862 0.081265554 -0.1393547 0.09888121
0.27749604 0.123216316 0.26889598 -0.35050437 0.07391471 0.07268943 0.04929758 0.08557316
0.12611847 0.3136489 -0.3406033 0.10068327 -0.43118384 -0.03327732 -0.0861468 -0.030525642
-0.074654266 0.14321277 -0.23272605 0.28881258 0.097137265 -0.3104499 -0.2616809 -0.14242849
0.10953445 -0.06485021 0.3520168 -0.20518269 0.1135603 -0.14199784 -0.13680987 0.03340767
0.24859951 -0.0024074055 0.09803714 0.15488854 0.31327316 0.04147922 0.20561384 0.06882211
-0.04462363 0.12331574 0.10437811 0.20963813 -0.14604959 0.25736144 0.20124418 -0.17040645
0.4094014 0.53687364 0.3316328 0.18985906 0.0707323 0.40967485 0.35207465 0.103632584
0.28795055 -0.25874192 -0.18091017 0.2485989 0.0672091 0.1057671 0.08904164 0.10436688
0.078382395 0.4006597 -0.23771845 -0.36183542 -0.0823231 0.13582194 -0.17341052 0.34899765
-0.16384998 -0.2621951 -0.03559486 -0.22117786 0.014948604 0.24960837 0.30682373 -0.30599138
-0.038963564 0.1302939 -0.1323492 0.20481344 -0.027323296 -0.20711389 0.23332693 -0.18646763
0.30803 -0.025951218 0.18250374 0.042585425 0.010374797 0.35428894 0.27893335 0.011300885
-0.28826052 0.08964765 0.11965421 0.37815225 0.29247922 -0.022085147 0.21990101 2.3032628e-05
0.2607336 0.0018705097 -0.10705807 0.14253308 -0.27852935 0.0526206 0.19295625 0.11259463
-0.029576357 -0.2727496 -0.09239797 -0.24084902 0.25185055 0.0036351753 0.39347467 -0.25082073
-0.05958506 0.19290029 -0.2399038 0.21625555 -0.23876068 -0.054210108 -0.06320513 0.09617206
0.5545735 -0.30083948 -0.50985897 -0.18264216 0.044083014 0.17912832 0.29122636 -0.045343366
0.37788433 0.51521 -0.48534992 -0.47764885 -0.19749004 0.09995235 0.17095979 -0.123078994
-0.24266073 -0.28432524 -0.14785281 -0.09917266 0.094233744 -0.007914461 -0.31231177 0.2392238
-0.060824145 0.16680892 0.29978296 0.03916812 -0.15949525 -0.006193724 -0.21842897 -0.14891158
-0.23649174 -0.102541275 0.28869382 0.29125568 -0.57383114 -0.047687765 0.50653803 -0.10987068
0.1572395 -0.26142415 -0.21389012 0.40321368 0.48782802 -0.53506666 -0.1946867 0.020472078
-0.17117418 0.23018375 -6.530655e-05 0.14504096 0.010771729 0.25918823 -0.19887786 -0.1452916
-0.245597 -0.2704913 -0.13198243 0.25606266 0.19096415 -0.2525934 -0.13949206 0.1196805

network.0.bias f4 [64]
00000000: 9497 fa3d fff8 d23e 96e2 803e 935c edbd
00000010: 9976 163e a18a 6e3d 234a eabd cc03 203e
00000020: 1e6a d33e 38cf 5d3e e1de a43e db07 b53e
00000030: 7815 89bd 5b8b 933d fa1f c4bd 9a4b 64bc
00000040: a5bb 993e 8c88 42bd ab9a 0fbe ef07 623e
00000050: 4e03 b93e 7d17 863e c5b0 523e 655d 3dbe
00000060: 197d c03e 7976 41bd 6254 60be 3a5d aa3c
00000070: aed5 f33d 5b22 5f3d ff2e a93e 16c8 113e
00000080: 5073 8f3e 6a44 ac3e 3ae1 153d d13b 333e
00000090: cd5f 303e 12f7 55be c2ea b73e 89f0 d03e
000000a0: 1d1d abbd 9162 5ebe 6703 373e f91f 3d3e
000000b0: 6741 c03e 5c5e 943e 4b17 783e f03b 65bd
000000c0: d172 9a3e 4050 1abd f4b8 873e 5e15 d83c
000000d0: d198 e33e 68dd 5b3d ee77 7dbe 6107 a63e
000000e0: 0aad 95bd 66de 77be 2c87 b23e 2cdc c23d
000000f0: d387 b53d 3a3a 183e 496d 6fbe bd8e 67be
0.122359425 0.41205594 0.2517287 -0.11589923 0.14693679 0.058237676 -0.11439922 0.15626448
0.41291898 0.21661079 0.32201293 0.35357556 -0.06693548 0.07204314 -0.095764115 -0.01393404
0.30025974 -0.047493502 -0.14023845 0.22073339 0.36135334 0.26189795 0.20575245 -0.18492658
0.37595442 -0.047232125 -0.2190719 0.020796407 0.119059905 0.054476123 0.33043668 0.14236483
0.28017664 0.33645946 0.036591746 0.17503287 0.17224045 -0.20895031 0.35921293 0.40808514
-0.08355162 -0.21717288 0.17872392 0.18469228 0.37549898 0.2897824 0.24227636 -0.055965364
0.30165723 -0.03767419 0.26508296 0.026377376 0.44452527 0.053677946 -0.24752781 0.32427505
-0.07308395 -0.24205932 0.34868753 0.09514651 0.08863797 0.14865962 -0.23381533 -0.22613044

network.2.weight f4 [64, 64]
00000000: 5a66 0bbd 5efb aabd 9d33 eb3d f1f4 d43d
00000010: 80ef fe3a 00ab a8bd 9c87 263d 098f 69bc
00000020: 1171 07be 41d6 abbd 11ae d2bd b048 7cbd
00000030: 71e0 d93d 18f3 f1bd 7837 d6bd 3921 4f3d
00000040: 7ee7 63bc 0d2b 983c 5407 d8bb 1f34 81bc
00000050: 0163 fa3c fa15 f93d 6085 debd 20e5 b53b
00000060: 465c 8a3d 31a2 9f3c 39ad 6c3d 71ac e5bd
00000070: 30a8 23bd 0160 99bd af38 f7bd 8c7d a73d
00000080: f8d7 213d 6558 8d3c 7e7e c3bd 66fa a1bd
00000090: db14 c83c 1ed7 f9bd 1276 ea3c 8e13 92bd
000000a0: 96da 513d a2a2 eabd cf5e febd 6991 2e3d
000000b0: 6855 00bd 33fd ad3b 1e2f bf3d 4ed8 f8bd
000000c0: f993 98bd 024f 5dbd 958d 043d 4cef 013d
000000d0: 3c82 3e3d 7be1 813d f888 803c 556f d43d
000000e0: d38d ecbd 7648 1dbd b25f f9bd e801 dbbd
000000f0: 15c4 dfbd f167 a2bd 2063 273c 786e e83d
00000100: 4170 ca3d de0e a33d f7e5 c83d d51a 1d3a
00000110: e5d9 c5bd b800 d3bd 8293 803d 3371 e83d
00000120: cc29 8f3c 2033 76bc 7a42 333d 709a 623c
00000130: fec0 03be 8b44 37bd 559c 083d 3899 153d
00000140: 52b4 853d 20df 48bc 987e adbd 78a4 de3d
00000150: 91b1 023a d170 923d 2b9b 45bc 9df1 f53b
00000160: 4332 36bd 6f51 263d ca40 75bc c2ee 863b
00000170: 8da1 dd3c 5a60 ce3c c9d6 8bbd 4321 45bd
00000180: 1c86 3d3d 9ac6 313e 5a4f 9b3c ad01 17bb
00000190: bfa1 74bd cfb4 e13c 62d1 9a3d a7a9 053e
000001a0: 4591 d9bd 4091 753e 2f11 55bd cc1a 39bc
000001b0: 64b3 703e 10bd 5bbe 5b85 ffbb 5278 bdbd
000001c0: 9782 d33d f647 e1bc ef58 20bd c67b 5d3e
000001d0: b7fe 203e d735 853d 3e8f 43be eef1 9d3c
000001e0: b242 a6bc 0460 f93d 622a 103e c44d 91bd
000001f0: 747c f4bc 9caf e33c ac99 c3bd 2642 b7bc
00000200: 70b1 823d e1ff 893c 5a1f 633d b43e 02be
00000210: c264 c33c 8dd7 c23d 7011 87bd 2aae 3dbc
00000220: 677d fc3d 44df 183e 0839 2a3c b8f1 e43c
00000230: e632 d0bd 3989 8e3a 1406 f93d 69ec 09be
00000240: 2c47 3a3d 94f6 933d 6c1e 0ebd 5c43 30bc
00000250: 9913 19bd d982 343e 20a1 ec3d 8313 f3bd
00000260: 4196 ca3c e27f 05be 8a63 9dbd 49f8 913d
00000270: 1bd0 a73d f68c 7d3d e519 ecbd d2a8 e3bd
00000280: 3ba4 043e 19f9 3d3e 03f4 f1bd 8576 a53c
00000290: 1d64 34bd 14bd 2dbd 700b 353e da97 1ebd
000002a0: d23a 48bd cd6d af3e de53 eebd b3a9 d93c
000002b0: e19c 593e 8a8d 913c 49c0 233e 5574 b6bd
000002c0: 31f7 083d b65f ffbd d410 313c ff1b 483e
000002d0: 4f58 8e3e d0a9 eabb 86d0 2fbe ef0e c8bd
000002e0: 3e15 363e d670 c03d 28f8 b43c 6c31 82bd
000002f0: 006e 39bd d796 0ebd ca3d 273d 14fe bdbc
00000300: a721 e83d 6998 013e 1bd2 e73d 0179 183e
00000310: 4044 ffbd 408a 9fbc f4b3 8c3d b217 393e
00000320: f916 9aba a0f6 e63d c9d7 93bd 2c0c 08bd
00000330: 2c5d b7bd 97e1 123e b1b5 543d 2fc7 6bbd
00000340: 02bb 14bd f55d eebd 9828 9fbc 1419 ad3c
00000350: 2ebc 80bd aa16 c6bc be9d bb3d 3afb cfbd
00000360: e307 db3d 3eab 903d f217 1a3a ef69 8c3d
00000370: 961b febd b2f6 df3d c659 9bbd 111e 94bd
00000380: 2fdc 9d3d f5f7 243c e0b6 42bd 9b4f a3bb
00000390: c5cf f0bd e9c7 123d 85d1 1ebd 9cde c33d
000003a0: 445e c83d 3272 d6bb 9504 74bd bc30 303e
000003b0: 5625 913d 147f ad3d 3525 b23d 3177 023e
000003c0: ab1f 30bd e36b ef3d bcfb 2e3e 744d c03c
000003d0: 1723 073d 9813 06bd 79b5 d5bd 5d30 cf3d
000003e0: 1bd4 a83d 01c5 b03d 0f6c 523d 7fdd 27be
000003f0: 564a 963d 92a4 e73d c449 69bd 98b9 8e3d
-0.034033157 -0.08348726 0.11484454 0.10398281 0.0019450039 -0.08235741 0.04065667 -0.014255294
-0.13226725 -0.08390475 -0.10287107 -0.061592758 0.10638512 -0.118139446 -0.104597986 0.050568793
-0.0139101725 0.018575216 -0.0065926705 -0.015771924 0.030564787 0.12162395 -0.10865283 0.0055509955
0.06755881 0.019486519 0.057782385 -0.11214531 -0.039955318 -0.074890144 -0.120713584 0.08178243
0.039512604 0.017254064 -0.09545611 -0.07909088 0.024424007 -0.121992335 0.028620753 -0.07132636
0.05123385 -0.11456801 -0.12420427 0.042619143 -0.03133145 0.0053097247 0.09335159 -0.12150632
-0.074500985 -0.054030426 0.032361586 0.031722352 0.04651092 0.06341835 0.015690312 0.103727974
-0.11550488 -0.038399182 -0.121764556 -0.10693723 -0.109260716 -0.079299815 0.010216504 0.11349195
0.09884692 0.0796182 0.09809487 0.0005993073 -0.09660701 -0.103028715 0.06278135 0.11349716
0.017475985 -0.015026838 0.04376457 0.013830766 -0.1286659 -0.044743102 0.033352215 0.036523074
0.06528534 -0.012260228 -0.084714115 0.10871214 0.0004985566 0.07150424 -0.012060921 0.007505609
-0.044481527 0.040605005 -0.01496906 0.0041178176 0.027054572 0.025192428 -0.068280764 -0.048127424
0.046270475 0.17360917 0.018958736 -0.002304177 -0.059724566 0.027552037 0.07559468 0.13052998
-0.10623411 0.2398119 -0.05201834 -0.011297893 0.23505932 -0.2145884 -0.0077978796 -0.09251465
0.103276424 -0.027500134 -0.039147314 0.21629247 0.15722166 0.0650441 -0.19097611 0.0192804
-0.020295475 0.12176517 0.14078668 -0.07094911 -0.0298445 0.027793698 -0.09550795 -0.02237041
0.063815 0.016845645 0.05544982 -0.12719232 0.023851756 0.09513769 -0.06595123 -0.0115771685
0.12328606 0.14928919 0.010389574 0.027947292 -0.10165958 0.0010874636 0.121593624 -0.1346909
0.04547803 0.072247654 -0.03469698 -0.010758247 -0.037372205 0.1762804 0.1155417 -0.11868956
0.02472985 -0.13037065 -0.07685001 0.07127435 0.0819399 0.06190201 -0.115283765 -0.11116184
0.12953274 0.18552054 -0.1181412 0.020198116 -0.044040788 -0.042416647 0.17680144 -0.038719036
-0.04888422 0.3426346 -0.1163709 0.026570177 0.21251251 0.017767686 0.1599132 -0.08908907
0.033438865 -0.12469427 0.010807235 0.1954193 0.2780175 -0.0071613565 -0.17169389 -0.09768473
0.17781541 0.09396522 0.022090986 -0.06357083 -0.04527092 -0.03481182 0.04083041 -0.023192443
0.11334544 0.12655796 0.11319371 0.1488991 -0.124641895 -0.019475102 0.06870261 0.18075445
-0.0011756114 0.11277509 -0.07218892 -0.033214733 -0.08953318 0.14343868 0.051931087 -0.057563003
-0.036311157 -0.11639015 -0.019428536 0.021130122 -0.062858924 -0.024180729 0.09160946 -0.101553395
0.10694864 0.07063912 0.0005878202 0.06856143 -0.12407605 0.10935725 -0.07585482 -0.07232297
0.07708012 0.010068883 -0.047537684 -0.004983855 -0.11758379 0.03583518 -0.038774032 0.09563944
0.09783605 -0.006544375 -0.059574682 0.1720609 0.070871994 0.08471504 0.08698503 0.1274078
-0.04299895 0.116905 0.17088217 0.023474433 0.03299245 -0.03273353 -0.10435004 0.101166464
0.08243581 0.086313255 0.051372584 -0.16393088 0.07338397 0.11310686 -0.056955114 0.06968993

network.2.bias f4 [64]
00000000: 7bba da3d baa7 c53c e31b 83bc 73b5 f53c
00000010: 948d 073e 9eaf 1c3e e09a 1d3e e2cb b13d
00000020: 3b4b f4bd 5b45 7cbc 10fe 273e 6a9b bb3d
00000030: 6946 2fbc 4b32 303e 4a8b 33bc f071 023e
00000040: d6a3 b83d 5384 7fbc 4355 cb3d 685b 6a3d
00000050: 987a 9a3d 0efe 0e3e 29bd bdbb f163 163e
00000060: 3c1e 9bbd 5d17 c43d cd28 ec3c c7a9 183e
00000070: 8e4b 743d 1bdd 153e 4e99 01be ea80 3e3e
00000080: 0157 f7bc a02b 6b3d 065d d6bc d5dc 3d3e
00000090: 4a7a b53d 2962 ba3d 51b8 823d 87eb bdbd
000000a0: 0c13 c0bc 474f c5bd 4182 903d aa60 273e
000000b0: 2d73 24bd c1e7 f43c f371 bf3c 1b10 aebb
000000c0: 886d 143d 217a a3bc e68c 833d 3bb9 3dbd
000000d0: c3db 25bd 4fc5 473d 4068 b23d 03da 88bd
000000e0: 7048 123e 036c 8b3d 857f 353d d60c 09bd
000000f0: e6be 843c 38bb fb3d 4470 c3bd 5b78 bf3d
0.106800996 0.02412783 -0.016004508 0.029993748 0.13237602 0.15301368 0.15391111 0.08681466
-0.119284116 -0.015397395 0.16405511 0.09160502 -0.010697939 0.17206685 -0.010958502 0.12738776
0.09015624 -0.015595513 0.09928372 0.057216078 0.07542914 0.13964102 -0.005790372 0.14686562
-0.07574126 0.09574769 0.02882805 0.14908515 0.059642367 0.14635126 -0.12656137 0.18603864
-0.030192854 0.05741465 -0.026167404 0.18541272 0.088612154 0.09100754 0.06382812 -0.09273439
-0.023446582 -0.096342616 0.07056094 0.16345468 -0.040148903 0.029895665 0.023369765 -0.0053119785
0.03623727 -0.019955697 0.064233586 -0.046319228 -0.040492784 0.048772153 0.0871129 -0.066822074
0.14285445 0.06807711 0.044311065 -0.033459507 0.016204309 0.122915685 -0.09542897 0.09349128

network.4.weight f4 [64, 64]
00000000: 65d4 503d bf46 b63d b52a 0abd 447c 2dbd
00000010: 5dfa 4d3d 50e4 9bbd c564 733d ee40 993d
00000020: db6c eebb 4369 8bbd 4036 ddbd 8294 493c
00000030: 38dd 93bd 91c2 653d d68b 77bd c0ec 963d
00000040: a063 143c 1a27 cb3d 2cf8 9cbd 9a0e e33d
00000050: de6b 583d 7813 6dbd 0838 d8bd eba6 423c
00000060: 54f0 833d 634a cfbd f7a2 88bd 7f6b 8d3d
00000070: e776 153d 46a8 d7bc 00de 46bd 55df fe3c
00000080: 5b93 c83d 883f fbbc 8255 ccbd 23e8 d5bd
00000090: 07ab 2ebd b365 363d 42ec a9bc 43e6 9e3c
000000a0: 6f22 02be 89f3 9bbd cf78 3bbc 0c6a e6bd
000000b0: e3d0 48bd 0308 e9bd e35f 13bd 2c10 c63b
000000c0: d4c0 003c 8cd5 ea3d b0c9 283d 08b2 41bd
000000d0: 6a80 073d 3235 9cbc 5f41 bfbc 606a 313d
000000e0: ef6e 40bc c3e0 d03d 03b5 8dbd 6046 f6bd
000000f0: 889f d0bd c185 08bd 71aa 883d ce92 4bbd
00000100: 9428 633d ae98 a8bd de40 8a3d 43d0 7fbd
00000110: ccd3 193e 8ffd ba3d f8a4 06bd 4e26 4cbc
00000120: d236 aabb 8c3c de3d 3a2d 573d 6d8e 023d
00000130: 8afe b0bd 4d09 583d ea2e 9e3d 95a2 8bbd
00000140: 08d1 8cbd 8c62 c03d 32f8 c93c ccc3 e0bd
00000150: 84cc 613d 4dcb 843b cefb 7c3c 2efb 233e
00000160: 6939 923b af22 40bd 8d2a 51bc bad9 3a3d
00000170: 596f 823d c5f3 7f3c 9224 3b3c fbdb 1e3c
00000180: d04a e63d 24c7 333d 6269 d73d 631f 953d
00000190: 479a 2ebd 3325 283e 04df 23bd 4075 6fbd
000001a0: 96e0 5fbc 87ec 99bd 113f ecbc 3e97 02bd
000001b0: 627c d23d 52d9 083e f2c3 febd 9435 0a3d
000001c0: 98de 1b3d 3060 a2bd 006d 6eba 5df8 df3d
000001d0: ae69 babd 9e97 e93d db06 52bd e245 853d
000001e0: 3d44 03bd 787d a2bd 9909 40bd 9b60 3f3e
000001f0: 99ab 033e c5d5 e83d 5007 473d 207b 903c
00000200: 2f3b 81bd 50af ee3c 8b60 f63c 1e40 93bd
00000210: bcd2 e7bd a87a 35bd ea65 443c dd6d 7abd
00000220: 2e23 173d b215 d9bc b37c be3d e86c 6b3d
00000230: 15b1 a1bd 3d84 48bd 8e28 c83d 0ab8 8d3c
00000240: 609e 903c 8770 893b 5a5d 893a 9ede b5bd
00000250: d036 c63d 256b 84bd 2eb9 6c3c 39e4 5a3d
00000260: 28b8 a93c ee6e ffbd 31ca 513d 88e2 a93d
00000270: bbb3 dabd 31c2 bcbd e8fb cbbc ea8e 04be
00000280: 72d7 0abd b01e 083d 3506 7e3d 7341 80bd
00000290: b95d e2bd 484b b5bd e298 06be 68d1 9e3d
000002a0: 1707 b0bd ad5d 193d 952b b73d 618b debd
000002b0: 3997 09be 0370 c4bd fcf7 efbd e39f 30bd
000002c0: 7a75 b63d 0c11 923d 269d c1bd 284e 833d
000002d0: 44b2 bdbd 48a1 343d bcd0 d23d d0cd e83d
000002e0: 021e 743c ad24 b83d 5b72 e23d bf4e 113d
000002f0: ecec ffbd 76e5 7b3c cd02 75bd 669c 71bc
00000300: 5602 adbc e1a5 35bd e345 ce3c 33fa e73d
00000310: 1527 1d3e ced6 1a3e dc3d 403e 8b29 21bd
00000320: 7ae9 523d 6527 75bc 58a8 7e3c e09b d8bd
00000330: e8d6 5b3d 3371 963d 1c9f 12bc 2759 9f3d
00000340: 7093 b93d e19d 6d3d 1826 b83d ee62 cc3d
00000350: bf2c 92bc 1285 cb3c 5bc0 f23c bf47 023d
00000360: 56f6 c9bd 740a 013c 2ccc 38bd 591d 8d3d
00000370: 7d54 f93d 6655 153e f55b e83d c6b6 143e
00000380: 6c40 013e b021 96bc 05c3 c33d fb51 023c
00000390: 53ff ddbb f056 773d af4e e93d f1fe 43ba
000003a0: d577 f03d 7425 6d3c 4d4b b3bd 98c0 e33d
000003b0: 9f57 8e3c a1c4 bc3d b73e 81bc 81aa c7bc
000003c0: e89f b63d 7bd4 883d 70b3 8abd f29a 3b3c
000003d0: 1f7c 023e 24ee a6bc a780 5c3d e34a 8e3d
000003e0: 7460 abbb c91f 83bd a5ed 7b3d b818 153d
000003f0: e14c 123e ab6a b33d 3ea6 bd3d cb1d de3c
0.050983805 0.089002125 -0.033732135 -0.042354837 0.050287593 -0.076119065 0.059422273 0.074830875
-0.00727616 -0.068071865 -0.10801363 0.012303473 -0.072199285 0.056093756 -0.060436092 0.07369375
0.009056956 0.099195674 -0.076645225 0.110867694 0.052837245 -0.057879895 -0.10557562 0.011880617
0.06442323 -0.1012161 -0.06671708 0.06905269 0.036490347 -0.026325356 -0.04855156 0.031112352
0.09793731 -0.030669942 -0.09977247 -0.10444667 -0.042643573 0.04453058 -0.02074254 0.019396907
-0.12708448 -0.0761481 -0.011442377 -0.112506956 -0.049027335 -0.11378481 -0.035980117 0.0060444083
0.007858474 0.11466512 0.04120797 -0.047288924 0.03308145 -0.019068334 -0.023346601 0.043314338
-0.011745199 0.1019912 -0.06919291 -0.12025142 -0.10186678 -0.033330683 0.06673134 -0.04970055
0.05545862 -0.08232246 0.06750654 -0.062454473 0.150222 0.09130394 -0.03287217 -0.012460304
-0.0051945234 0.10851392 0.052533366 0.03187411 -0.086422995 0.052743245 0.07723792 -0.068181194
-0.06875807 0.09393796 0.024654482 -0.10974845 0.055126682 0.0040525557 0.015440894 0.16013786
0.00446241 -0.046908077 -0.012766493 0.045617796 0.06368894 0.015622084 0.011422293 0.009696002
0.11244738 0.043891087 0.10518147 0.07281377 -0.0426276 0.1642044 -0.040007606 -0.058461428
-0.013664385 -0.07515817 -0.028838666 -0.031882517 0.102776304 0.13364151 -0.12439717 0.033742502
0.03805408 -0.079285026 -0.0009095222 0.109360434 -0.09102188 0.11405872 -0.05127607 0.0650747
-0.0320475 -0.079340875 -0.046884153 0.18689196 0.12858428 0.11368898 0.048590958 0.017636836
-0.063101165 0.02913633 0.030075332 -0.07189964 -0.11319491 -0.044306427 0.011987189 -0.06113993
0.036898784 -0.026499603 0.09301128 0.057476908 -0.07895104 -0.048954237 0.0977336 0.01729967
0.017653644 0.0041943225 0.0010480091 -0.088803515 0.096784234 -0.06465749 0.014448447 0.053440306
0.020717695 -0.1247233 0.051218215 0.082951605 -0.10678812 -0.092167266 -0.024900392 -0.12945142
-0.03389687 0.03323239 0.06201764 -0.062624834 -0.110530324 -0.088522494 -0.13144258 0.07754785
-0.08595102 0.03744285 0.089438595 -0.10866428 -0.13436593 -0.09591677 -0.11717221 -0.04312123
0.089091256 0.07132158 -0.09453802 0.064113915 -0.09262517 0.044099122 0.10293719 0.113673806
0.014899733 0.0899137 0.11056968 0.03547549 -0.12496361 0.015374532 -0.059817124 -0.014746761
-0.021119278 -0.044347648 0.025179809 0.113270186 0.1534694 0.15121004 0.18773597 -0.03934626
0.05149219 -0.014963006 0.015543066 -0.10576606 0.053671747 0.0734581 -0.008949067 0.07780676
0.090613246 0.058011893 0.08991641 0.09979807 -0.017843602 0.024843726 0.029632738 0.031806704
-0.09861438 0.007876027 -0.04511659 0.06890363 0.12174318 0.14583358 0.113456644 0.14522848
0.12622231 -0.01832661 0.095586814 0.007954116 -0.006774822 0.060385644 0.11391961 -0.0007476649
0.11741606 0.014474262 -0.08754597 0.11120719 0.017375765 0.092171915 -0.015776975 -0.024373295
0.089172184 0.066811524 -0.06772506 0.011450516 0.12742661 -0.020377226 0.05383363 0.06947877
-0.005230004 -0.06402547 0.061505932 0.036400527 0.1428714 0.0876058 0.09260224 0.027113816

network.4.bias f4 [64]
00000000: f717 653d 9ab9 0dbc 6c26 9e3c 2d20 6c3d
00000010: 9029 d7bc f858 6dbd 84b8 19bd de79 cfbd
00000020: 16c5 493d 8246 b73c 19a4 bdbc 130d 213e
00000030: 7158 b03d 0a4f bf3c 47d4 5dba 1da3 fb3b
00000040: cc23 2abd ceeb 04bd 7f5c 7dbc 8207 f03d
00000050: 574e dd3b e443 39bd f0d3 6dbd 6830 133e
00000060: 42b6 8dbc 1f2c 893c 80bd 873d 541f 923c
00000070: 2269 1d3e fea0 c3bd 4c51 543c 4013 ddbb
00000080: 6d5a 303e e04d a03d 262e a539 05d6 b23d
00000090: e2af 153e 74bf 593d b692 d43d 5a9a 0c3d
000000a0: f791 4f3d 7f79 283d 8af9 52bd 9b55 f2bd
000000b0: 26db 3ebe 3461 7d3d 89c3 84bd 14a2 813d
000000c0: 7acf d83d 9332 c13d e7e4 8d3d 5c61 8e3d
000000d0: b43a fa3c 66cf 10bc b08a 7abd dd7e 6537
000000e0: 967e 493d 995e b63d df20 aabd ef69 1a3c
000000f0: 9290 6cba 68ae 073d c26f 0bbd 58b0 b53d
0.055931058 -0.008650208 0.01930543 0.057647873 -0.026264936 -0.057946175 -0.037529483 -0.10130666
0.04926022 0.022372488 -0.023149537 0.15727644 0.08610619 0.023353118 -0.0008462113 0.0076793567
-0.041538045 -0.032451443 -0.015463947 0.11720182 0.0067537236 -0.04523076 -0.058063447 0.14373934
-0.017298821 0.016744671 0.06627941 0.017837204 0.15372136 -0.09552191 0.012958836 -0.0067466795
0.17221995 0.078273535 0.00031505636 0.08732227 0.14617875 0.0531611 0.103795454 0.03432689
0.050676312 0.041131493 -0.05150751 -0.11832734 -0.18638286 0.06186028 -0.06482608 0.06329742
0.10586448 0.094334744 0.06928425 0.069521636 0.03054557 -0.00883851 -0.06116742 1.3679001e-05
0.049192987 0.08904762 -0.08307051 0.009424671 -0.0009024228 0.03312531 -0.034042127 0.088715255

network.6.weight f4 [3, 64]
00000000: c4ca c03d 2f06 1abe 7420 ca3d 119e 90bd
00000010: 202a 743c 293a 0bbe 507d 00bd 00ce b0ba
00000020: 3a17 23be 3c2a afbd 3aea 05be 3ede 12be
00000030: bef3 00be e8b8 cd3d f016 8bbc 956a e13d
00000040: 78ed e9bd a5fe 04be f99f 543d 9be0 eebc
00000050: 3fdb 503d 531c ce3c 005a 143b f4f4 aebd
00000060: b619 afbd b090 b0bd 00f5 c73d ff43 1bbd
00000070: 6378 dcbd 56c6 99bd 1ed6 18be c564 22be
00000080: e9d6 2dbe 4f43 9f3d fa66 183d 932c c1bd
00000090: 5c29 cbbd fca5 ac3d cdb2 3abd 0025 513d
000000a0: e173 12be 4127 c83c 83cb 2fbe edb0 663d
000000b0: de31 8b3e ec52 dbbc f631 403d 87e2 28be
000000c0: 9c9a e03d fc57 70be d06e bfbd 4abf 16be
000000d0: 3840 5d3d 7ec7 bfbd 4856 c3bc 4c73 0ebe
000000e0: abd1 88bc 5980 ac3d 5056 bb3c cdf0 dfbc
000000f0: 46b2 e3bd f704 d1bd f403 f5bd 915c d9bd
00000100: 60e6 a73d 5822 13be 6d08 f2bd 35e4 bbbd
00000110: 4c4e 18bd d654 fdbb c345 3cbe 64fd 2dbd
00000120: 59f3 273c 1f8e 87bd ac63 10be e409 a3bd
00000130: 96ef aebd 12b4 68bd 7279 2fbe 3e59 f4b9
00000140: 9d24 24be dd09 87bd cfb4 223d 7ee3 01be
00000150: 04a7 fa3c b929 ab3d d012 a13c 92d5 bdbd
00000160: 5f49 57bd 0f60 0bbd 0448 dabd 3a32 e0bd
00000170: 9be6 903d a880 ddbc ba22 3939 f79c 9e3d
00000180: 25aa 29be 1acd 8b3d e08f aabc 3f14 dcbc
00000190: b87a 86bd fc90 33bd 0e20 c03d 612b 893d
000001a0: 03a2 c43d ae60 db3b e7f1 c5bd 68b1 ba3d
000001b0: e5c4 dd3e ed78 953d 227f 3abd 83d1 5eba
000001c0: 1342 e13d 1cee 273f a411 67bd 1804 c9bd
000001d0: aa87 a63d a6cd 633d 2c3f bebd 8db2 f3bd
000001e0: 12c6 c53d 4dd1 313d 6f52 7fbc 0190 edbd
000001f0: 4df5 563d 9239 46bd e7ed 7b3d 503b 3fbc
00000200: bb41 fc3c 445b 2a3b 5ea7 893d c7e6 c43c
00000210: e4b0 723d 0ca6 a0bd 5a20 fe3c 1c7d 013d
00000220: 5020 9c3d 29ca ecbc 5f3c 31bd f51b f03d
00000230: 79f2 be3d e2d0 f13d f6c9 a3bd 3b98 bdbd
00000240: 54da 17bd 9269 4ebc 1025 ac3c 7da5 9dbc
00000250: 7bde 05be 6ebc bbbd 7042 97bc ce8d d4bd
00000260: 9968 acbd ade2 183b 1034 193c bdf3 fe3c
00000270: 8a7c 60bd 548a 01bd bbbf 01bd 883d 813d
00000280: f21e b3bc 2fda c9bd e6bb 113d eeec 8dbe
00000290: cbbf 19be 08ad b63d 2f60 a13d b08b 0ebd
000002a0: 7c95 fc3c 4ab0 8ebd be87 20be 29ba 293d
000002b0: 689a babd c9fc a93a aef6 753d 7406 cd3d
000002c0: 1430 b5bd e4e4 a63d fe9a 0e3e acb9 f43d
000002d0: da6c 963c 4f0f b7bd 441b 79bd aaa9 883b
000002e0: 4459 913d 435f 96bc e5b1 8d3c 2a5c 89bc
000002f0: a62f 11be 613b e63c 8417 4dbd 4cfc 903d
0.094136745 -0.15041421 0.09869471 -0.07061399 0.0149026215 -0.13596405 -0.031369507 -0.0013489127
-0.15926829 -0.085529774 -0.13077632 -0.14342591 -0.1259298 0.10045034 -0.01697871 0.11006657
-0.11422247 -0.12987764 0.051910374 -0.029159835 0.05099034 0.02515999 0.0022636652 -0.08542815
-0.08549826 -0.08621347 0.09763527 -0.037906643 -0.107651494 -0.07508533 -0.14925429 -0.15858753
-0.16976513 0.0777651 0.03720758 -0.0943233 -0.09919998 0.084300965 -0.045580674 0.051060677
-0.14302017 0.02443278 -0.17167477 0.056321073 0.27186483 -0.026772939 0.046922646 -0.16492663
0.109669894 -0.23471063 -0.09347308 -0.14721408 0.054016322 -0.09364222 -0.023844853 -0.1391117
-0.01670154 0.08422918 0.022868305 -0.027336502 -0.11117987 -0.10206025 -0.119636446 -0.10613359
0.081982374 -0.1436857 -0.11818013 -0.091743864 -0.037184045 -0.0077310605 -0.18385987 -0.04247798
0.01025089 -0.06618904 -0.14100522 -0.07960871 -0.08541791 -0.056812353 -0.17136171 -0.00046605797
-0.16029592 -0.06593678 0.039723214 -0.12684438 0.030597217 0.08357567 0.01966229 -0.09269251
-0.052560207 -0.034027155 -0.10658267 -0.1094708 0.070752345 -0.027038887 0.00017655912 0.077447824
-0.16568811 0.068262294 -0.020820558 -0.026865123 -0.065663755 -0.04383944 0.09381114 0.06697727
0.09601214 0.0066948747 -0.0966528 0.09115869 0.4331428 0.072984554 -0.0455314 -0.00084998476
0.10998931 0.655977 -0.056413308 -0.09815234 0.081313446 0.055616044 -0.09289393 -0.1189929
0.096569195 0.043412495 -0.015583619 -0.11599732 0.05248003 -0.048394747 0.06150618 -0.011671856
0.030793061 0.002599434 0.06721376 0.024035824 0.059250727 -0.07844171 0.031021286 0.031613454
0.076233506 -0.028904991 -0.043270465 0.117240824 0.09323592 0.11807419 -0.07997505 -0.09257551
-0.03707345 -0.012598412 0.021013767 -0.01924395 -0.13073151 -0.091667995 -0.018464297 -0.103786096
-0.08418388 0.0023328469 0.009350792 0.031122083 -0.05480627 -0.03162606 -0.03167699 0.06310564
-0.021865342 -0.09856068 0.035579585 -0.27719826 -0.1501457 0.08919722 0.07879674 -0.034801185
0.030832998 -0.06967218 -0.15676782 0.0414373 -0.09111482 0.0012969013 0.060049705 0.100109965
-0.08847061 0.08149126 0.13926312 0.119494766 0.018362451 -0.08938467 -0.06081702 0.004170616
0.07097104 -0.018355971 0.01729674 -0.01676758 -0.14178333 0.028104486 -0.050071254 0.07079372

network.6.bias f4 [3]
00000000: b60e 0ebd 82e0 b13d 4e09 853d
-0.034682 0.086853996 0.06495915
