FNN/torque_model.pth (torch, 22330 bytes, 6 tensors)

network.0.weight f4 [64, 3]
0.42408457 0.3848271 0.34272182 0.42191714 -0.65483326 -0.052831512 -0.12853234 -0.24641068
-0.08626817 -0.055868376 0.17946437 0.4611984 0.17451784 -0.10518786 -0.5323692 -0.20436601
-0.044646878 0.022994298 0.429225 -0.46110347 -0.17694528 -0.32805806 -0.594762 -0.9336603
0.57875246 0.27455062 -0.5420878 -0.4533513 -0.22474499 0.4338463 0.7403716 0.10197443
0.21349044 -0.66692203 -0.9888079 -0.7136515 -0.16025878 -0.765031 0.45819268 -0.21514463
-0.43871185 -0.26480696 -0.7335144 0.17941788 0.49758384 0.23510008 -0.5904665 -0.06365935
-0.67332613 -0.39743966 0.747728 -0.5766846 -0.3734784 0.032222174 0.77923304 0.33543658
-0.6038798 0.41722277 -0.28887132 -0.35015175 -0.7449332 0.31280535 -0.56323326 -0.091740064
-0.23870361 -0.40836525 -0.55188847 0.2848062 0.44494542 -0.5626397 0.25634745 0.45750666
-0.8133541 -0.19427116 0.30145797 0.9209027 0.44222733 0.12967576 0.30974817 0.09967534
0.3672967 0.2626192 -0.36917436 -0.14284939 0.41669115 -0.19566959 -0.08742004 -0.83791447
0.375326 0.2889987 0.047055054 0.022432476 -0.18334168 0.11024608 0.34726238 -0.26284605
-0.15912661 -0.55840427 0.27169707 0.49533504 -0.4318963 0.48841 -0.11985007 -0.3489033
0.26644132 0.18084124 -0.15459515 0.45318636 0.75501543 0.47986493 0.28546125 0.018695038
-0.36458817 0.5144376 0.68659794 -0.037867587 -0.525827 0.18571521 0.40322942 -0.3034495
-0.048766617 0.6740127 -0.31522727 0.043147426 -0.258843 0.03396579 0.78547674 -0.22357053
-0.37919313 0.70247436 0.17792277 -0.0122810425 -0.5123571 0.6499513 -0.096468545 0.38506854
-0.33299506 0.27941763 0.52518576 -0.5488509 -0.32902718 0.118509576 -0.56810033 0.63802403
0.7227585 0.4178713 -0.56370246 -0.049065012 0.3329393 -0.7912402 -0.54265636 -0.7362857
0.40071085 -0.4529076 -0.42566854 -0.33324242 -0.6638426 0.5160221 0.56001496 0.78029215
-0.22292684 0.24410354 -0.6931424 0.45324335 -0.49152997 -0.78774875 0.8341831 0.05370737
0.005633651 -0.17823127 0.16795686 -0.7073377 0.767744 -0.16080664 -0.3483658 0.20917146
0.33320245 -0.16325246 0.29614672 0.35757393 0.43101513 -0.2140968 -0.056966264 0.86281055
0.18723829 0.3494503 0.26465872 -0.38871545 0.053767025 0.49231154 -0.47604516 0.5670299
00000000: 9d21 d93e 0f08 c53e 3c79 af3e 8605 d83e
00000010: 27a3 27bf db65 58bd fb9d 03be 1553 7cbe
00000020: 5ead b0bd 3dd6 64bd 82c5 373e 3222 ec3e
00000030: ceb4 323e bc6c d7bd 5949 08bf 5345 51be
00000040: a5df 36bd 8a5e bc3c 61c3 db3e c115 ecbe
00000050: 2531 35be 3af7 a7be 5342 18bf 5d04 6fbf
00000060: 1f29 143f e691 8c3e 44c6 0abf a91d e8be
00000070: 8d23 66be 1a21 de3e fe88 3d3f f8d7 d03d
00000080: 3d9d 5a3e 67bb 2abf 8422 7dbf ddb1 36bf
00000090: e11a 24be 12d9 43bf 3b98 ea3e e04e 5cbe
000000a0: d79e e0be c794 87be 9ac7 3bbf 52b9 373e
000000b0: 4fc3 fe3e 13be 703e d028 17bf d55f 82bd
000000c0: 1a5f 2cbf 367d cbbe 1a6b 3f3f 9aa1 13bf
000000d0: 9038 bfbe 66fb 033d d17b 473f 58be ab3e
000000e0: de97 1abf 399e d53e f1e6 93be 1747 b3be
000000f0: f1b3 3ebf 0628 a03e 0e30 10bf 37e2 bbbd
00000100: b86e 74be 4015 d1be 9048 0dbf 1ed2 913e
00000110: e3cf e33e 2809 10bf f93f 833e 503e ea3e
00000120: f937 50bf 05ef 46be b358 9a3e 48c0 6b3f
00000130: 9f6b e23e b9c9 043e 5097 9e3e 9622 cc3d
00000140: 500e bc3e 0676 863e 6c04 bdbe 1c47 12be
00000150: 8b58 d53e 9c5d 48be 4709 b3bd 9081 56bf
00000160: bb2a c03e a3f7 933e cdbc 403d 50c4 b73c
00000170: ecbd 3bbe b2c8 e13d 60cc b13e c293 86be
00000180: 16f2 22be 95f3 0ebf e11b 8b3e 8e9c fd3e
00000190: 8321 ddbe e010 fa3e f473 f5bd 74a3 b2be
000001a0: ff6a 883e 722e 393e 314e 1ebe 0b08 e83e
000001b0: b148 413f dbb0 f53e fa27 923e 5626 993c
000001c0: 4dab babe 2fb2 033f e2c4 2f3f 0b1b 1bbd
000001d0: 999c 06bf 212c 3e3e 1674 ce3e bc5d 9bbe
000001e0: 81bf 47bd 198c 2c3f 7865 a1be 5bbb 303d
000001f0: 1287 84be b61f 0b3d 0115 493f acef 64be
00000200: 9a25 c2be 5cd5 333f 6331 363e 6d36 49bc
00000210: d629 03bf 3563 263f 4d91 c5bd b427 c53e
00000220: 547e aabe d40f 8f3e 9372 063f 7e81 0cbf
00000230: 4076 a8be 26b5 f23d 066f 11bf 8b55 233f
00000240: b306 393f 3af3 d53e ce4e 10bf 65f8 48bd
00000250: 0577 aa3e b88e 4abf 87eb 0abf 387d 3cbf
00000260: f929 cd3e 81e3 e7be 3af1 d9be c09e aabe
00000270: 97f1 29bf 061a 043f 245d 0f3f 3ac1 473f
00000280: ef46 64be 47f6 793e c871 31bf 830f e83e
00000290: d1a9 fbbe e7a9 49bf 068d 553f 42fc 5b3d
000002a0: 7d9a b83b 4282 36be e2fc 2b3e 1514 35bf
000002b0: df8a 443f 7faa 24be 015d b2be 0b31 563e
000002c0: 8399 aa3e a72b 27be 8ba0 973e ee13 b73e
000002d0: 04ae dc3e 313c 5bbe 7555 69bd 27e1 5c3f
000002e0: 65bb 3f3e 26eb b23e 5981 873e b605 c7be
000002f0: d03a 5c3d 4210 fc3e 31bc f3be df28 113f

network.0.bias f4 [64]
0.09170453 0.905905 -0.5727052 -0.28831917 0.26757294 0.16156417 -0.2278433 0.31983775
0.02954213 0.08253398 -0.52649015 0.42741108 0.270962 -0.049172472 0.07470154 0.25062895
0.21343504 0.568208 0.32568756 -0.043262843 0.5067118 -0.27090505 -0.12332906 -0.13912997
0.3560809 -0.5064533 -0.2667367 -0.18774518 0.22657658 0.017650323 0.15963355 0.11447619
0.26200715 -0.9054493 -0.43280506 0.02243449 -0.22921427 -0.0650215 0.3335386 0.1134511
-0.1517742 -0.4076484 0.37113252 -0.4001285 -0.3979859 -0.63057685 0.20133722 0.103081964
-0.087096564 0.4855144 -0.28914174 -0.4867572 -0.3730856 -0.090704285 0.37044704 -0.21212581
-0.029502168 -0.06928184 -0.22495644 -0.37583324 -0.08546121 0.07289219 -0.47613624 -0.34219238
00000000: 96cf bb3d 64e9 673f cf9c 12bf 929e 93be
00000010: 52ff 883e 1471 253e c14f 69be c6c1 a33e
00000020: 5602 f23c 9307 a93d 0fc8 06bf a0d5 da3e
00000030: 88bb 8a3e 1369 49bd 1ffd 983d 7052 803e
00000040: b78e 5a3e 1476 113f 85c0 a63e 6134 31bd
00000050: ddb7 013f 11b4 8abe f293 fcbd 1678 0ebe
00000060: 3c50 b63e eca6 01bf b691 88be 4640 40be
00000070: b103 683e 6997 903c fa76 233e 7e72 ea3d
00000080: cd25 863e 86cb 67bf a098 ddbe 89c8 b73c
00000090: 25b7 6abe fe29 85bd 92c5 aa3e 0d59 e83d
000000a0: b26a 1bbe 4bb7 d0be 1505 be3e a5dd ccbe
000000b0: cfc4 cbbe 7c6d 21bf 582b 4e3e a31c d33d
000000c0: af5f b2bd 5895 f83e 630a 94be 3d38 f9be
000000d0: 1305 bfbe 2bc3 b9bd 3cab bd3e 8237 59be
000000e0: 88ae f1bc a3e3 8dbd fb5a 66be 376d c0be
000000f0: 4906 afbd 8048 953d 21c8 f3be d733 afbe

network.2.weight f4 [64, 64]
-0.14507811 -0.16785827 -0.12057671 -0.122179754 -0.12030833 0.042294547 -0.15191504 0.24572428
0.11857375 -0.16837215 0.1118352 0.08188996 -0.07483747 -0.16577019 -0.0669223 -0.08536526
-0.0516041 0.018394142 0.1472036 0.0045042033 0.112569764 -0.006116975 -0.20291653 -0.14843085
0.049553994 0.06537135 0.12767589 -0.1473695 -0.11932667 0.13859229 0.12933908 0.08691179
-0.074750796 -0.5201281 -0.054831117 -0.141134 0.07921609 -0.043257263 -0.021939911 0.04467308
0.1588891 0.03573927 0.1744223 0.01632372 0.30062962 -0.044613514 -0.030922456 -0.14437418
0.27893838 0.001152509 -0.22334045 -0.0068562734 -0.26390585 0.18726836 0.066516824 0.23211259
0.015183041 0.14622404 0.0024631883 -0.014438421 -0.10239283 0.17034292 -0.009650312 -0.0298121
-0.022730881 0.072782554 -0.08729385 0.07941133 -0.039970383 -0.10273462 0.13837066 -0.05427036
-0.032067742 0.09723592 -0.05709053 -0.054526534 0.007791033 0.06554727 0.13174604 0.16852556
0.11306311 -0.013763723 0.00036651522 0.13883747 -0.012761882 0.052038066 0.017959503 -0.021327076
0.07958387 -0.0854852 0.13349701 0.16151507 0.03758975 -0.040807 0.106204204 0.020863866
0.07094855 0.47730026 -0.07168777 0.08925494 0.108204104 0.053561322 -0.09413499 0.021157166
0.08715189 -0.031016955 -0.13175513 -0.20198362 -0.15745379 0.011355684 0.09353141 0.047343597
-0.22990279 0.030814398 0.12411888 0.027186157 0.054166246 -0.18901789 0.078032866 -0.20809846
-0.059392236 -0.12525128 0.08376089 -0.01326364 0.05266396 0.029738287 0.11084705 0.12006387
-0.17145748 -0.046934854 0.015899494 -0.18935099 -0.067766644 -0.024982402 -0.17970839 -0.07623629
-0.15404885 -0.331702 -0.17311879 -0.06290144 -0.13010925 -0.15849145 -0.04082458 -0.15833394
-0.17644316 0.021032471 0.022095872 -0.0053254645 -0.20865689 -0.07769881 -0.17481315 -0.28094444
-0.16926958 -0.05837632 -0.013122377 -0.062858425 0.014470242 -0.22389816 -0.13879631 -0.032022636
-0.12658155 -0.017593041 0.11497313 -0.074806765 -0.0924948 -0.16571328 0.010687885 -0.09709287
-0.07679662 0.046554033 -0.10927754 -0.12995416 -0.10770008 -0.1560962 -0.13027675 -0.08402272
-0.095829815 -0.059124254 -0.11419058 -0.14624435 -0.1701293 -0.047679126 -0.24737425 -0.17685167
0.09642804 -0.13618214 -0.35759437 -0.17030962 0.041212756 -0.019247105 0.058692794 -0.015446835
-0.12551126 0.103835806 0.03647703 -0.06330433 -0.15747495 -0.11665613 -0.030814633 -0.23050117
0.05462842 -0.5522402 0.19768478 -0.048246603 -0.047485016 -0.102829434 -0.43919137 -0.043309476
-0.78277117 -0.20870622 0.07220116 -0.14733325 -0.63951886 -0.01647221 -0.37173754 -0.88098073
-0.8532228 0.23892145 -0.086823896 -0.084437735 0.07470617 -1.5931545 -0.07469382 0.025261967
-0.062407263 0.01278101 0.020157337 -0.055988975 0.12500325 0.0029339634 0.13150774 -0.01654974
-0.20038982 0.05339094 0.08928416 0.051155932 0.0009979708 -0.18700679 -0.2211967 -0.07596017
0.10541717 -0.029229572 -0.077734016 -0.17335586 -1.2805923 0.17658786 -0.5648392 -1.9136599
0.020609763 -1.3938332 -0.10896305 -0.12893835 -0.08866031 0.11832018 -0.030127862 -0.04098635
00000000: 5b8f 14be 0ae3 2bbe ecf0 f6bd 6139 fabd
00000010: 3764 f6bd 0c3d 2d3d 9e8f 1bbe 259f 7b3e
00000020: cbd6 f23d c069 2cbe da09 e53d ecb5 a73d
00000030: 6344 99bd a9bf 29be 8f0e 89bd fbd3 aebd
00000040: d25e 53bd 50af 963c 8abc 163e ff97 933b
00000050: fa8a e63d e870 c8bb 5ac9 4fbe 42fe 17be
00000060: 21f9 4a3d 6ae1 853d 78bd 023e 08e8 16be
00000070: 8b61 f4bd 23eb 0d3e 7771 043e cffe b13d
00000080: f216 99bd 1d27 05bf 9896 60bd 6e85 10be
00000090: 0c3c a23d 872e 31bd 54bb b3bc 1ffb 363d
000000a0: d3b3 223e 5763 123d c29b 323e 52b9 853c
000000b0: 20ec 993e a9bc 36bd 1751 fdbc d3d6 13be
000000c0: 03d1 8e3e c90f 973a 5cb3 64be 97aa e0bb
000000d0: ab1e 87be 47c3 3f3e f939 883d ecae 6d3e
000000e0: 4ac2 783c c1bb 153e 716d 213b 218f 6cbc
000000f0: 55b3 d1bd 606e 2e3e 581c 1ebc 8138 f4bc
00000100: 1d36 babc 050f 953d 1ec7 b2bd 68a2 a23d
00000110: fcb7 23bd 8766 d2bd 0ab1 0d3e 994a 5ebd
00000120: 7759 03bd a023 c73d c2d7 69bd 3757 5fbd
00000130: ec4b ff3b a63d 863d 6fe8 063e f791 2c3e
00000140: a28d e73d 3d81 61bc d728 c039 692b 0e3e
00000150: 3617 51bc de25 553d cf1f 933c 1fb6 aebc
00000160: defc a23d dd12 afbd 71b3 083e 3564 253e
00000170: b6f7 193d 3e25 27bd 9781 d93d b3ea aa3c
00000180: 794d 913d b360 f43e 0ad1 92bd 4bcb b63d
00000190: 1d9a dd3d 1e63 5b3d d8c9 c0bd cb51 ad3c
000001a0: b17c b23d 4517 febc d1ea 06be cbd4 4ebe
000001b0: 913b 21be 310d 3a3c 658d bf3d 5ceb 413d
000001c0: a36b 6bbe 7a6e fc3c 0a32 fe3d 81b5 de3c
000001d0: 6ddd 5d3d e88d 41be b2cf 9f3d c317 55be
000001e0: 4645 73bd df41 00be d48a ab3d bd4f 59bc
000001f0: 2ab6 573d b59d f33c c703 e33d 0ce4 f53d
00000200: 8d92 2fbe c33e 40bd a83f 823c 3ae5 41be
00000210: 3dc9 8abd e5a7 ccbc 7a05 38be c621 9cbd
00000220: fbbe 1dbe d8d4 a9be 0d46 31be 78d2 80bd
00000230: 5c3b 05be 954b 22be ad37 27bd 4b22 22be
00000240: 84ad 34be 4a4c ac3c 6702 b53c 3c81 aebb
00000250: 27aa 55be 8e20 9fbd 3802 33be f3d7 8fbe
00000260: 0155 2dbe 021c 6fbd 3dff 56bc ebbb 80bd
00000270: 9814 6d3c 8f45 65be 9f20 0ebe 2b2a 03bd
00000280: 989e 01be 481f 90bc 0877 eb3d 4a34 99bd
00000290: ea6d bdbd beb0 29be 3d1c 2f3c a0d8 c6bd
000002a0: 8c47 9dbd 71af 3e3d e7cc dfbd b412 05be
000002b0: dc91 dcbd afd7 1fbe 4567 05be 1b14 acbd
000002c0: 6c42 c4bd 462c 72bd c0dc e9bd 14c1 15be
000002d0: 6036 2ebe 304b 43bd ad4f 7dbe 9b18 35be
000002e0: 107c c53d 5573 0bbe 9c16 b7be a565 2ebe
000002f0: b5ce 283d 1bac 9dbc db67 703d b914 7dbc
00000300: 0686 00be dea7 d43d f068 153d b3a5 81bd
00000310: 1d41 21be 69e9 eebd f86e fcbc 8008 6cbe
00000320: 0dc2 5f3d 9d5f 0dbf e16d 4a3e 3b9e 45bd
00000330: a67f 42bd 3d98 d2bd b1dd e0be 4765 31bd
00000340: b163 48bf 15b7 55be 34de 933d 87de 16be
00000350: 82b7 23bf baf0 86bc 6254 bebe f487 61bf
00000360: cf6c 5abf d3a7 743e bad0 b1bd b1ed acbd
00000370: 8cff 983d 7dec cbbf 13f9 98bd 2ff2 ce3c
00000380: c29e 7fbd 7167 513c 0021 a53c b254 65bd
00000390: da00 003e bd47 403b f7a9 063e 5293 87bc
000003a0: fd32 4dbe 75b0 5a3d 9dda b63d e288 513d
000003b0: 58ce 823a b57e 3fbe 6381 62be 0191 9bbd
000003c0: f5e4 d73d db72 efbc 0333 9fbd 3384 31be
000003d0: 73ea a3bf 73d3 343e 4d99 10bf cff2 f4bf
000003e0: ced5 a83c 2069 b2bf 0528 dfbd 6a08 04be
000003f0: 8993 b5bd da51 f23d b5ce f6bc 4ee1 27bd

network.2.bias f4 [64]
-0.1068935 -0.042825546 -0.13173062 0.04154584 0.17206548 0.04289179 -0.14660887 -0.15763135
0.08958631 -0.053224828 -0.071646705 -0.025270244 0.0065660905 -0.10937423 -0.122677945 -0.09834895
0.11626766 -0.114239566 0.029318273 0.01697244 0.084591754 -0.08895111 0.13951266 -0.05272861
-0.06711075 -0.2952417 -0.05608205 -0.0907827 0.102874026 -0.0020582047 -0.19721241 0.0475769
0.0790591 0.05945845 0.020981714 0.06751785 -0.1396154 -0.07467373 -0.12566496 -0.009231906
0.028467545 0.08912358 0.014497202 0.057124745 -0.05323705 0.0025480818 0.076696336 -0.0754982
0.0073110764 -0.13810581 0.15172403 0.13756207 0.16042773 0.01009238 0.034459025 0.0937936
0.19639519 -0.04891644 -0.1449626 -0.22545035 0.028662242 0.068760015 0.035448663 0.20961297
00000000: fbea dabd d769 2fbd 64e4 06be f92b 2a3d
00000010: ef31 303e 4daf 2f3d a320 16be 1d6a 21be
00000020: 0779 b73d 4702 5abd 82bb 92bd 8b03 cfbc
00000030: 5c28 d73b 99ff dfbd 933e fbbd 2d6b c9bd
00000040: bd1d ee3d 6ff6 e9bd e02c f03c c909 8b3c
00000050: 713e ad3d 002c b6bd 68dc 0e3e f4f9 57bd
00000060: 5c71 89bd ec29 97be 4bb6 65bd 48ec b9bd
00000070: 9eaf d23d f2e2 06bb 0df2 49be ffdf 423d
00000080: bde9 a13d b48a 733d d8e1 ab3c cc46 8a3d
00000090: 57f7 0ebe 8aee 98bd 51ae 00be 6c41 17bc
000000a0: c534 e93c 6c86 b63d ac85 6d3c a3fb 693d
000000b0: 180f 5abd b8fd 263b f812 9d3d cd9e 9abd
000000c0: c191 ef3b 9c6b 0dbe 8b5d 1b3e 12dd 0c3e
000000d0: 2b47 243e 835a 253c e824 0d3d dc16 c03d
000000e0: d21b 493e 9b5c 48bd 1371 14be 75dc 66be
000000f0: 14cd ea3c 0dd2 8c3d 9e32 113d c8a4 563e

network.4.weight f4 [3, 64]
-0.084620304 0.049521867 0.023902038 -0.48993525 -0.42836457 -0.035669126 0.033457514 -0.117280774
0.07027264 0.2052856 0.0038585137 0.05711693 -0.030441016 0.027485687 -0.13104051 -0.5771642
-0.043737713 0.040479686 0.078265846 0.0094918525 -0.0007000885 0.43767464 0.06824051 -0.044091783
0.033769634 -0.12676975 -0.60232246 -0.058227897 0.23862852 -0.20581031 0.08399144 -0.034454007
-0.02461296 -0.038885735 0.1461069 -0.020719847 -0.51424426 -0.37575412 -0.07015667 -0.002803315
-0.13673529 0.27438816 -0.5745898 0.09329665 0.12351911 0.020437133 0.22283603 0.12826717
-0.51633286 0.075508036 -0.41533822 0.04113359 -0.28023896 0.26220077 -0.0668981 0.13162874
0.25790834 0.05372218 0.041458767 0.08239094 -0.021704001 0.018852716 0.17196809 -0.38747495
0.021299403 0.009206483 0.052718643 -0.5046498 -0.24493423 0.08198458 -0.064424664 -0.0032022372
-0.048782542 0.29922265 -0.055200502 -0.67416865 -0.0052414816 -0.07214358 -0.067730054 0.91481185
0.053864494 0.009506744 0.004075667 -0.10525808 0.036719095 -1.0872096 0.1365093 0.043129254
-0.12609313 -0.6148075 -0.57153916 -0.008107383 -0.33628216 -0.20045239 0.10611663 0.09519286
0.029202629 0.34782952 0.07440388 -0.17953934 -0.57243407 0.80765635 -0.001421062 -0.03306745
-0.045485433 0.32383874 -0.56933796 -0.018769871 0.039378356 -0.1849358 0.08573255 0.015018185
-0.6785498 -0.052012295 -0.14227541 -0.25867808 -0.20512813 -0.2500024 -0.049896743 0.047258403
-0.44066665 -0.022078753 -0.0040122005 -0.03591281 -0.08987019 -0.042949643 -0.48179337 -0.066470325
-0.109234825 -0.0070227827 -0.03530288 0.5595111 0.36445153 -0.05120194 -0.10617305 -0.037352726
0.047854632 -0.19700998 0.02863688 -0.066375285 0.09497264 -0.027350217 0.040370766 -0.007986653
-0.03906986 0.04730888 0.12171773 -0.057401076 -0.010678441 -0.1460935 -0.004021576 0.014219088
-0.017917844 -0.04334401 0.67594963 -0.09737043 0.044555623 0.023021523 0.008372598 -0.18102287
-0.072120614 -0.08569953 0.009680601 0.11938804 0.599108 0.19239159 -0.034718793 -0.014427277
0.02074327 -0.011904106 0.5629752 -0.06177744 -0.16754231 0.07625296 -0.14504848 0.081661314
0.6289331 -0.13523424 0.21905197 0.1318542 0.39909336 0.0070020542 0.044492904 -0.03177746
-0.019380692 -0.04676688 -0.07650416 -0.13691011 -0.034637555 0.06319052 -0.040638767 0.33203197
00000000: 694d adbd 71d7 4a3d 35ce c33c cbd8 fabe
00000010: 9a52 dbbe ca19 12bd bf0a 093d e730 f0bd
00000020: 1aeb 8f3d 6336 523e 1edf 7c3b 71f3 693d
00000030: 705f f9bc aa29 e13c 7c2f 06be 08c1 13bf
00000040: 5126 33bd 07ce 253d d849 a03d b783 1b3c
00000050: 2586 37ba e416 e03e aec1 8b3d 9699 34bd
00000060: 0752 0a3d eecf 01be ce31 1abf 6080 6ebd
00000070: 095b 743e f0bf 52be b403 ac3d a51f 0dbd
00000080: 1ea1 c9bc a646 1fbd 0c9d 153e abbc a9bc
00000090: 83a5 03bf d862 c0be 4dae 8fbd d2b7 37bb
000000a0: 5604 0cbe 9b7c 8c3e 5118 13bf 5012 bf3d
000000b0: 96f7 fc3d c66b a73c 212f 643e 7858 033e
000000c0: 642e 04bf f5a3 9a3d 36a7 d4be b27b 283d
000000d0: 7b7b 8fbe 2e3f 863e df01 89bd afc9 063e
000000e0: 900c 843e ca0b 5c3d abd0 293d 95bc a83d
000000f0: 97cc b1bc 0371 9a3c 6718 303e 1e63 c6be
00000100: 167c ae3c cad6 163c 81ef 573d bb30 01bf
00000110: 0ad0 7abe 88e7 a73d 14f1 83bd a0dc 51bb
00000120: 34d0 47bd b633 993e ec19 62bd 5196 2cbf
00000130: bcc0 abbb 03c0 93bd 0eb6 8abd 1c31 6a3f
00000140: 04a1 5c3d 2dc2 1b3c 2c8d 853b 8c91 d7bd
00000150: c366 163d af29 8bbf 18c9 0b3e 4da8 303d
00000160: 8f1e 01be 0664 1dbf 6450 12bf d4d4 04bc
00000170: 2d2d acbe 6443 4dbe ad53 d93d 79f4 c23d
00000180: 5a3a ef3c b616 b23e 1061 983d 29d9 37be
00000190: 0a8b 12bf 91c2 4e3f ee42 baba bc71 07bd
000001a0: ef4e 3abd 31ce a53e 22c0 11bf 46c3 99bc
000001b0: 334b 213d cf5f 3dbe 8c94 af3d d50e 763c
000001c0: 71b5 2dbf d80a 55bd a5b0 11be 7471 84be
000001d0: 1c0d 52be 5100 80be 8760 4cbd 0792 413d
000001e0: 0f9f e1be 80de b4bc c778 83bb 5019 13bd
000001f0: dd0d b8bd f7eb 2fbd 9fad f6be 9821 88bd
00000200: 82b6 dfbd 5f1f e6bb c199 10bd 1f3c 0f3f
00000210: 6499 ba3e 20b9 51bd 4271 d9bd 2cff 18bd
00000220: 3803 443d fcbc 49be e497 ea3c c4ef 87bd
00000230: 0481 c23d 900d e0bc d15b 253d 73da 02bc
00000240: b807 20bd f5c6 413d 2547 f93d 641d 6bbd
00000250: a1f4 2ebc 8999 15be 6dc7 83bb 2df7 683c
00000260: 71c8 92bc 7d89 31bd 090b 2d3f 266a c7bd
00000270: f57f 363d a297 bc3c 392d 093c 0f5e 39be
00000280: f9b3 93bd 3c83 afbd 629b 1e3c b781 f43d
00000290: 245f 193f 4d02 453e 4b35 0ebd 6360 6cbc
000002a0: caed a93c 7009 43bc 251f 103f 570a 7dbd
000002b0: 3690 2bbe 832a 9c3d 9787 14be 0c3e a73d
000002c0: c201 213f d87a 0abe 294f 603e ca04 073e
000002d0: f755 cc3e 7d71 e53b 313e 363d 1529 02bd
000002e0: 42c4 9ebc a18e 3fbd 37ae 9cbd 2a32 0cbe
000002f0: 1ce0 0dbd 086a 813d d674 26bd 1800 aa3e

network.4.bias f4 [3]
-0.0459351 -0.018339625 -0.0034845895
00000000: 7226 3cbd fb3c 96bc b65d 64bb
