PINN_RNN/models/pinn_rnn_h64_l2_d0.10_s10_20250726_105522/model_data_driven.pth (torch, 231698 bytes, 12 tensors)

rnn.weight_ih_l0 f4 [256, 9]
00000000: 363f 253c 06d8 043e 24a4 f53d dc02 773e
00000010: 2997 17be fd25 f4bd a2b3 5fbd f777 06be
00000020: 0e3d c1bc cd2a f73d 414f 853c 00bd 983d
00000030: cf02 f6bd 8d9a edbd 4fc5 2b3d ca71 04bd
00000040: 3fe0 c2bc a614 68bd da92 983d c099 30be
00000050: 1743 42be 4686 2b3e ee96 26be 2fc0 e5bd
00000060: 9523 d13d dd10 dd3d ed56 293d d3b8 78bd
00000070: 1757 aa3d 7402 64bd c5b6 49bd 1400 98bd
00000080: 59e0 dc3c af32 b8bd 1fbd 123e 7e5e 11be
00000090: 55f9 8c3d 8506 56bd 3b67 d7bd d420 53bd
000000a0: 7018 8ebd 97e3 203e acb9 c2bd 8632 6abd
000000b0: dd9a 1a3e 55ad c73b 1693 e03d 9d88 8bbd
000000c0: bb1d 2f3d d2b6 a43d 8196 13be f854 c5bb
000000d0: f707 d93c a78f 483d 9af1 a73c 982f bf3c
000000e0: 9c87 d2bc 9d70 803c 8ce5 f3bc 8b20 f6bc
000000f0: 3242 a2bc 56ad d53d 9040 0fbd 8f5b 7abd
00000100: 25c8 2ebd 5ff8 dc3d a151 383c 25c1 9f3b
00000110: 4f72 3cbd 60c8 fc3c 5d05 e7bc 863d 15be
00000120: 9506 193e 06f7 74bd 4a25 eabb db4b 333d
00000130: b75d 25be e930 1b3e 8752 343d 390b efbd
00000140: 65e8 863b db57 aebc f9d8 a63d 6d1c f43d
00000150: 7abb f13d 3a1e 70bd a516 88bd a55a 093e
00000160: 334f 883d 993a 1abc e8c7 e13b 2396 92bd
00000170: 68f6 e5bd 1ba4 723e 46b4 20be ab19 a6be
00000180: ce86 a1be aaaf 143e ed3e 3a3e 4de2 d23d
00000190: 8bd0 023e d2eb 44bc 9cb3 eabc eeec 343d
000001a0: 4c39 52bd 1efc a93d e11c 283d a7ea e43d
000001b0: 7294 38bd d91b f73d b320 2cbd c4d8 493e
000001c0: 10f6 02be 35d0 1fbe 83c8 38bc dcb3 febb
000001d0: 805e af3c 4e1a 0a3e c792 923d 9154 61bd
000001e0: dcf1 e13d 7d21 4cbd f0f1 dc3d b0d5 c3bd
000001f0: 4954 cabd bfb5 f6bd 8da7 a7bd be9b 71be
00000200: 27a5 acbd 4e9d b13e a6aa 3cbe ef6c c6be
00000210: a373 2dbe fd90 d43c d91b 0bbe abd6 743e
00000220: a3b0 1d3d 69c3 7fbb f7f4 123d d5e5 80bb
00000230: 6179 b5bd edf2 203d 8142 84bd 7184 43bb
00000240: 1f1d 803d 8f5d f8bd 1f25 1fbd 9aa1 543e
00000250: 760a edbd a3cc 4fbe d66f 1cbe a955 173e
00000260: 42f5 00be 8090 98bd 1efa 1abd 6b94 edbd
00000270: 0a76 de3c ee33 de3c b6e0 0bbe b19f 1f3e
00000280: ecaf bf3d 0efa 8cbc 9127 943c 3ded b0bc
00000290: 0365 81bd e1a0 1b3e e293 89bd 28ac 49bd
000002a0: 3593 d33d e12c 81bd 4ced b3bd bf5e 193c
000002b0: 1c60 463c 0357 ce3b 4c88 113d 55a9 003d
000002c0: f7f7 18be f9f0 25be 843d de3d b2a5 17be
000002d0: f9f8 dcbd 2e4b 15bd 6cc5 653d 805c adbc
000002e0: 5029 923d 7182 eb3d f8dc 2d3e 76cc e3bd
000002f0: dac8 f5bd a7f5 a03b 2c12 5a3d 9792 c73d
00000300: c81d 923d 2993 35bd 2f62 b2be f6c4 81bd
00000310: 7578 fa3d 8034 b83b c0cd 223e dc41 ce3d
00000320: dbc3 06be 677c 033e 5d09 dbbd da77 19be
00000330: a622 f4bd 8fcd 9fbc a17b 2b3d 708a 183e
00000340: 5f48 babd 7a4c 6d3c cf3d d9bd a92e 453c
00000350: ee11 7bbd 3623 a7bc 7f31 353e cfac c2bc
00000360: 76e5 3bbd faff 9d3d 274a c63d 86e0 bdbc
00000370: bcf8 14be 8d77 cdbd b22b b3bc 167d 3d3d
00000380: 122e 0ebe 236b 473e cc6d 1cbd ec5d 15be
00000390: bc46 8b3e d8aa 97be 2300 aabd 5795 2b3e
000003a0: 05f1 c1bd 37fa ed3c 5d0c 233c 0131 0e3d
000003b0: 6cbf a4bd 7b1a 053e ddb8 0b3d a2f8 09be
000003c0: af2c fdbd f852 633c a687 d23d bb82 eb3d
000003d0: 58fb e23c e39e ea3c 1e05 cf3d 70ab 10be
000003e0: 85d7 0ebe de04 e1bd a94d de3d 62c9 71bd
000003f0: 3818 7ebd b039 e43c 32a5 fdbc b3a2 6d3e
0.010085871 0.12973031 0.11994198 0.24122185 -0.14803757 -0.11921308 -0.05461467 -0.131317
-0.023588683 0.120687105 0.016273143 0.07457924 -0.120122544 -0.11601744 0.041936215 -0.03233508
-0.02378857 -0.056660317 0.07449885 -0.17246151 -0.18970905 0.1675044 -0.16268513 -0.11218297
0.10211865 0.10794232 0.041342665 -0.060723137 0.08317392 -0.055666402 -0.04924657 -0.0742189
0.026962446 -0.08994042 0.14329956 -0.14196202 0.06883494 -0.05225231 -0.105177365 -0.05154498
-0.06938255 0.15711819 -0.0950807 -0.05717709 0.15098138 0.006093661 0.109655544 -0.06813166
0.042752963 0.08042683 -0.14412881 -0.006022092 0.026493056 0.048965123 0.020500947 0.023338124
-0.02569943 0.015678698 -0.029772542 -0.030044815 -0.019806955 0.10433452 -0.03497368 -0.061122473
-0.04267134 0.107895605 0.011249931 0.0048753195 -0.04600745 0.030857265 -0.0282008 -0.1457425
0.14943917 -0.059805892 -0.0071455585 0.043773513 -0.1614903 0.15155376 0.044024017 -0.116720624
0.004117059 -0.021282127 0.08146853 0.11919484 0.118033364 -0.058622576 -0.06644944 0.13413484
0.06655731 -0.009413385 0.0068902858 -0.071575426 -0.11228639 0.23695414 -0.15693769 -0.32441458
-0.3154816 0.14520136 0.18188067 0.1029707 0.12774865 -0.012019115 -0.028650098 0.044171266
-0.051324174 0.08300041 0.041043166 0.11177569 -0.045063443 0.120658584 -0.042023372 0.19711596
-0.12789178 -0.15606768 -0.0112782745 -0.0077729058 0.021407366 0.13486597 0.07156902 -0.05501229
0.11032459 -0.049836624 0.107883334 -0.09562242 -0.09879357 -0.12046384 -0.08186255 -0.23594567
-0.08429938 0.34690326 -0.18424472 -0.38754985 -0.16938643 0.025948042 -0.13584842 0.23910014
0.038498532 -0.0039026386 0.035878148 -0.003933648 -0.08861042 0.039294172 -0.06457997 -0.002983358
0.062555544 -0.1212722 -0.03885376 0.20764771 -0.11574261 -0.20292906 -0.15277037 0.1477877
-0.12593558 -0.07449436 -0.037836187 -0.11600574 0.027155895 0.027124371 -0.13659939 0.15588261
0.09359726 -0.01720908 0.018085273 -0.021597499 -0.063180946 0.15198089 -0.067176595 -0.049236447
0.10330812 -0.06307388 -0.08785495 0.009360968 0.012107875 0.0062969937 0.035530373 0.031411488
-0.14938341 -0.16205205 0.10851577 -0.14809301 -0.10789675 -0.03644865 0.05609648 -0.021162271
0.07136786 0.11499489 0.16978824 -0.11122982 -0.120012 0.0049120965 0.053239986 0.09744757
0.071345866 -0.044329796 -0.34840533 -0.063363954 0.122300066 0.005621493 0.158988 0.100711554
-0.1316065 0.12840424 -0.10695145 -0.14987126 -0.11920671 -0.019507198 0.04186595 0.1489656
-0.09095835 0.014483565 -0.10607492 0.01203505 -0.061296396 -0.020402532 0.17694663 -0.023764042
-0.045873128 0.07714839 0.09682112 -0.02317835 -0.1454801 -0.10032568 -0.021871421 0.04626187
-0.13884762 0.19474463 -0.038190648 -0.1458661 0.27202404 -0.2962253 -0.08300807 0.16756187
-0.09469799 0.029049976 0.009951678 0.034714703 -0.08044323 0.12998383 0.034111846 -0.13473752
-0.12362038 0.013874762 0.10279779 0.11499544 0.02770774 0.028640216 0.10108398 -0.14127898
-0.13949402 -0.109872565 0.10854656 -0.059029944 -0.062034816 0.027859539 -0.03096256 0.23206596

rnn.weight_hh_l0 f4 [256, 64]
00000000: 8299 03be 8009 19bd 0ffb 783c c8cf b43b
00000010: 2c7a 0dbc 2e72 d1bd 51ef 833d 8392 0a3d
00000020: ff07 6dbd 7eb6 c9bd cf4c 473d 77ac 83bd
00000030: d3a5 d23c b530 a63b 7e69 bf3d 8214 60bd
00000040: 06a1 df3d 793e babd 2103 cf3d 95c9 c83d
00000050: 7f8a 1abe 66c7 e03d c167 99bd 4714 0f3e
00000060: 9793 ca3d 93a9 273d e522 52bd b5e4 853d
00000070: 9d8a bcbd 62ba 153e d5d4 1bbd 16ae 06be
00000080: a5d0 043e d632 b9bd c494 b33d 4e35 c83d
00000090: f4c5 a63d 9fd7 41bd b95e b4bd a4ab 77bc
000000a0: c114 25bd 04f3 a13d 405b a3bd 6b7b 383d
000000b0: 3216 04be d8e4 29bc 6f72 b33d 3be5 873d
000000c0: caac 10be e97c 29bd 6399 afbd 7971 c9bd
000000d0: 703b 2a3d 68d7 7abd 3ac1 753d 59ab dd3d
000000e0: 5ca8 533d 6151 58bd 264a 4b3c 7ab4 0dbd
000000f0: 02bf 82bd 8901 0bbe 1e60 813d 6113 2bbc
00000100: 2f1f f4bd 5335 f03c 9e7e e33d aab1 d3bc
00000110: ce5a 65bd 9a02 153d f3c3 01be 5ec2 bf3d
00000120: fce6 853d ce68 b73d 2dac b9bd ff3e a7bd
00000130: 8021 5c3d 8fc5 9ebc 3f94 cebd 8986 0dbe
00000140: 89b0 1e3e e906 11bd 5f73 44bb 8ebf bc3a
00000150: 5616 9bbd 3f89 8d3d 74fd 453d 1310 4a3c
00000160: 3958 e73d 9a78 9bbd 04a6 8abd 2bf4 96bd
00000170: 7b3b bfbd d056 8a3d a429 83bd 8e5a b63d
00000180: 9308 d03c 7880 ab3c 7943 2fbd 1890 013e
00000190: 6a96 013e 8a26 093e cbb1 f3bd 3cc1 c5bc
000001a0: 6945 14bc 198f 64bd ff2e a13d 9b94 783d
000001b0: 2e4a 3a3d a693 df3d a37e 493c ba5f e1bd
000001c0: abcf 2ebd 035a babd b33e 09bd 6fb4 f2bc
000001d0: 4d3c 1cbe 2e71 06bc e607 00bd df4f bbbd
000001e0: 4508 c83c 86ab 0ebe edf7 053e 73b4 07be
000001f0: 7708 933d 6896 b5bd 8c2e 07be da79 77bd
00000200: e8e9 bd3d e927 be3b 62d8 c23d 1c98 853d
00000210: d642 fdbd 95a1 223e 4bef 2e3d ada5 713d
00000220: 4ef9 b7bd 6bb9 a93d 3395 ddbd 5f32 5b3d
00000230: 2f69 8ebd b062 eabb ab92 b4bd 3e58 a3bd
00000240: 6886 be3d 031d 173e 10e4 b03d e293 43bd
00000250: 2cc1 ff3d e499 063d c66d 32bd 8ae5 7abd
00000260: 1097 f4bc a1c4 f93d 73d8 a8bd 8e08 053d
00000270: 0c6b d7bd d919 a9bb 9499 03bd e0d5 953d
00000280: 2161 06bd a18d ddbd 3946 05bd 28d6 c1bd
00000290: 29a3 46bc 2933 823d fecd 643d fcf0 c1bd
000002a0: 0cb7 643c 99de 8d3d 46af a2bd f19d 453c
000002b0: 0a25 133d b281 903d 24ff ec3d 1cdc 03be
000002c0: dcdc 5dbd c174 c43c 6009 5b3c d31b bb3d
000002d0: 2063 24b7 6cfc 9d3b 57a8 203e 3f34 9f3d
000002e0: 8730 44bd faf3 53bc 881d 0cbd e5b0 abbd
000002f0: eb96 ad3d cb56 3dbe ba94 ab3d 18a0 85bd
00000300: 5d43 cabd 89cf df3d 7f91 34bd b396 953d
00000310: 0509 b13d a038 7b3c 30f7 8d3d eda2 b6bc
00000320: b2c3 c3bd ffd3 8d3d aadc dabc 4068 86bd
00000330: 3595 053e 2ed5 cc3c 650c 4dbd 27d5 d23d
00000340: 745d 9fbb b308 e5bd e8e6 053e 4bb9 2d3c
00000350: 2a37 a03d d916 583d c555 15be 4480 57bc
00000360: 9f31 a43d f2da 0a3e 0112 633d 05a4 76bd
00000370: d34c cebd e995 c2bd f101 753c e588 05be
00000380: 6c0d 13bb 8d01 59bd bfe6 2c3d 8384 72bd
00000390: 762f 323b e4ae 7b3d 262e 18bd f668 05be
000003a0: dd34 e73d edac 44bd 73a2 d43c c063 be3d
000003b0: 3ee2 803d 1bbc c3bd ce18 11bd 9b9d 81bc
000003c0: 5347 013d 547d ac3d ec99 ef3c f8be 0e3d
000003d0: b36d 4fbd bdb3 95bd 8946 9d3c e22a 02bd
000003e0: d98d d13d d22e 993d 4902 283b ad4b a0bd
000003f0: 6816 aebd 1159 693d 8a66 263e 6728 febd
-0.12851527 -0.037362576 0.015196576 0.0055179335 -0.008635085 -0.10226856 0.0644213 0.03383113
-0.057868954 -0.09849261 0.048657235 -0.064293794 0.025713837 0.0050717243 0.09346293 -0.054707058
0.10919385 -0.09093947 0.10108019 0.09804074 -0.15091895 0.10975532 -0.074904926 0.13972579
0.09891432 0.040933203 -0.05130281 0.06537763 -0.09206126 0.1462188 -0.03804477 -0.13152346
0.12970217 -0.09042899 0.08768609 0.09775792 0.08143225 -0.047324773 -0.088071294 -0.015116606
-0.040302996 0.0790768 -0.07976389 0.045039576 -0.12899092 -0.010369502 0.08762061 0.06635519
-0.14128414 -0.04137889 -0.08574178 -0.09836096 0.04156059 -0.061240584 0.05999873 0.108236976
0.051674232 -0.052811984 0.012407815 -0.034595944 -0.06384088 -0.13574804 0.06317161 -0.010441632
-0.1192001 0.029322302 0.11108135 -0.025841553 -0.0559948 0.036379434 -0.12672405 0.093632445
0.065381974 0.08955537 -0.09066043 -0.081663124 0.053742886 -0.019381313 -0.100868694 -0.13820852
0.1549703 -0.03540698 -0.0029975993 0.001440035 -0.075726196 0.06910943 0.048337415 0.012332934
0.11296124 -0.07591362 -0.06769946 -0.0737079 -0.09337517 0.067548394 -0.06404427 0.08903991
0.025394714 0.020935282 -0.042788956 0.12652624 0.12655035 0.13393608 -0.11899146 -0.024139993
-0.009049752 -0.05580053 0.07870292 0.060688596 0.0454809 0.109168336 0.012298259 -0.110045865
-0.042678516 -0.090991996 -0.03350706 -0.029627053 -0.15257378 -0.008205695 -0.031257533 -0.091460936
0.024418006 -0.13932618 0.13082857 -0.1325243 0.07179349 -0.08866578 -0.1320135 -0.06041894
0.0927313 0.0058030975 0.09513928 0.06523153 -0.123662636 0.15881951 0.042708676 0.05899589
-0.08983098 0.08287319 -0.10819473 0.053514834 -0.06953656 -0.0071528777 -0.08817037 -0.07975815
0.0930298 0.14757161 0.086372495 -0.047748454 0.124880165 0.032861605 -0.04356172 -0.06125406
-0.029857188 0.12195707 -0.082444094 0.03247886 -0.105184644 -0.005160552 -0.032128885 0.07316184
-0.032807473 -0.10818029 -0.032537673 -0.09464675 -0.012123861 0.06357414 0.055860512 -0.09469792
0.013959657 0.06927223 -0.07943587 0.012061582 0.035923995 0.070559874 0.11572102 -0.12876934
-0.054165706 0.023981454 0.013368934 0.091361664 -9.798241e-06 0.004821351 0.15689217 0.07773637
-0.04789784 -0.0129365865 -0.03420785 -0.08383349 0.08476051 -0.1849014 0.08377977 -0.06524676
-0.0987613 0.10928256 -0.04408407 0.07304134 0.086442985 0.015333325 0.06931913 -0.022294486
-0.0955881 0.06925201 -0.026716549 -0.06562853 0.13045199 0.025003996 -0.05006065 0.10294562
-0.0048634354 -0.111833 0.13076365 0.010603259 0.07823022 0.052756164 -0.145835 -0.0131531395
0.08017277 0.13560084 0.05543709 -0.060215015 -0.10073247 -0.09501249 0.014954076 -0.13040502
-0.002243842 -0.052979995 0.042212244 -0.059208404 0.0027188933 0.061446086 -0.037153386 -0.1302832
0.1128938 -0.048016477 0.025956368 0.092963696 0.06293152 -0.09557363 -0.035424046 -0.015822222
0.03156216 0.08422342 0.0292482 0.03485009 -0.050641727 -0.07309673 0.019198673 -0.031779177
0.102321334 0.074796334 0.0025636128 -0.07826934 -0.085003674 0.056969706 0.16250053 -0.1241005

rnn.bias_ih_l0 f4 [256]
00000000: 221e 0639 1955 113e b52b 1abb 0610 9dbd
00000010: 76ef 2a3d 89cb e1bc 1ad4 8cbd 357e 2ab9
00000020: 6f77 dc3d 923b 393d e562 24ba 08f5 c0bc
00000030: dc61 88bd 6a88 dd3d 3d21 d6bd 5346 a23d
00000040: 8922 0e3e aa61 843d 1362 093e a43c f3bc
00000050: 7f4c 563d ee28 123e e510 903b 4eb0 e4bc
00000060: eefd db3b d3b5 823d 609a 02bd 2bbb 733d
00000070: 8b07 043e 027b f13d 6ca0 123c be84 013e
00000080: eb2a f33d 6b6c d5bd fc0b af3d 1e1e 1abc
00000090: 1aed 413d a771 0f3e 4ba0 a13c 0337 aabd
000000a0: 8214 7c3d a3be cebd a3fd 3d3a 207b f73d
000000b0: 6518 96bd 95fb a0bd 9b97 2ebd f729 53bd
000000c0: 6b5e 67bc 0614 6b3d 12cb 123d fee0 32bd
000000d0: 9829 d0bd 9b8f ce3d 4ba5 0d3e 6f49 a43d
000000e0: 5f05 d7bc b7ff 903d b5cf 6b3d 12cd c6bd
000000f0: 43d7 27bb 2b93 2d3b a614 3b3d f28a 073e
00000100: 313f 2dbd 469f a5bb 956b a33d 25ff a23d
00000110: d411 7b3c 021d fdbb 9cbc 363c c473 f13d
00000120: e6fd 013e 3ae9 d13d 8ded 58bd 2462 93bd
00000130: 3f09 2cbc 4a35 293b 6ac7 b03d 4199 da3d
00000140: dd95 813d 39bd 593c 8638 bf3a ab92 823c
00000150: 5d3a 6dbc 06c4 a83d 5eba 1a3e e8d3 c13d
00000160: d468 093e 1aee e63d fef7 f23d e327 ba3d
00000170: 7f87 c9bd 0921 cc3d 9a3f f73b e368 5cbd
00000180: 7898 263d f30b bbbd 348a 1dbd d9ad 0e3e
00000190: 2fbc 98bd 7591 a9bd 7417 0b3e 5a8a 043d
000001a0: 42ba b43d fbbf cebd 151e 90bd 9409 053e
000001b0: 7356 b3bd 8a80 fa3d b301 8e3d 30c4 00be
000001c0: 6942 6abd 0e1e f73d 25f4 0e3d 9799 293d
000001d0: 1287 eabc 4f1d 3bbb f36f 583d da3e 6fbd
000001e0: e7e6 1a3c 1f06 183d e30f babd f4c5 2dbc
000001f0: cdc1 883d 4c9c 39bd 57c7 553d e376 e1bd
00000200: df60 a9bc c130 023e 0dd2 893d 408d 163e
00000210: 15be 873c e9d6 c43b 627c 87bd e516 9fbd
00000220: b7da fcbd b4b9 f0bd 3171 0abe fbbe 3cbd
00000230: 2e03 c2bb 53a3 a6bd aa67 2c3d e892 5a3d
00000240: 52f6 8e3c 7faa b7bd 351c 83bd d110 123e
00000250: 57d2 77bd cb77 143e 7a77 adbd 4a7d fa3d
00000260: c848 003c ed87 a73d 2925 1abe 99bb 5b3d
00000270: 0887 52bd 4969 2fbd 5e37 fa3c 2251 e03c
00000280: aed1 f63b 9e63 d13b 2273 123e 9285 803c
00000290: 5a76 ae3d 889f af3d a8a0 54bc 0e81 1f3d
000002a0: 33b6 ab3d 5a18 a43d b784 b6bd 7edb db3d
000002b0: 436c c1bd 3b2b d53d 46fc d1bd 52fd afbc
000002c0: e554 84bd 3815 b33d f1b9 05be a074 04bc
000002d0: 4d0c 12bd 0a5b 963d 8972 3e3d 79e9 253c
000002e0: 3edb bd3d 7b30 dbbd eb2d efbc 4f26 85bb
000002f0: 53cd c63d 3267 1a3c 4808 b23d f174 be3d
00000300: 3041 d33d 444b b73d c0f7 5dbd 9f15 a73d
00000310: 0329 913c b6da b5bd c71b 0bbd 9356 773d
00000320: 3651 8cbb 7a29 953d 81bf 02be 1a94 be3d
00000330: d9a7 c13d 178a d3bc ed8f 53bd 9a0b 6abd
00000340: 007e d03d 3f34 993c dbbf 03be 7527 313a
00000350: 683e c9bd 11c2 0f3e 3049 1a3e 23c0 fa3c
00000360: e61e d0bd 687e 1fbd 37d3 343d 01cc 883d
00000370: 48d6 9d3c 1278 1ebd bf7c 253e cf53 9e3d
00000380: d51d e33d c50b 8ebd 465a c6bd 6a82 99bd
00000390: 8e3f 7d3d e4b4 403d 25e8 8c3d 8dce d63c
000003a0: ed52 303d 6c81 d6bd 11d1 8e3c c728 cfbc
000003b0: 91e3 85bc 3715 393d f620 6ebc f49d d43d
000003c0: d433 0e3d c4d5 2f3c ecb8 c53b caa8 a1bd
000003d0: dba7 c83d 212d 883d db48 2e3e 36f1 193d
000003e0: 6e32 f9bb 502d 123e 258c a2bd 24bd d73d
000003f0: ff5d b8bb 1937 14bb feb2 56bd b332 84bc
0.00012790461 0.14192618 -0.0023524587 -0.07669072 0.041732274 -0.027562873 -0.06876393 -0.00016259479
0.10764968 0.045222826 -0.000627084 -0.02355434 -0.0665929 0.108170345 -0.104555584 0.079235695
0.13880362 0.064639404 0.13416319 -0.029692002 0.052319046 0.14273426 0.0043965452 -0.0279161
0.0067136204 0.063823365 -0.031885505 0.05950467 0.12893502 0.1179104 0.00894938 0.12648293
0.1187342 -0.1042107 0.08547208 -0.009406595 0.04734526 0.14008199 0.019729754 -0.08311274
0.061542995 -0.10094955 0.00072475726 0.12084031 -0.07328872 -0.078604855 -0.04262505 -0.051553693
-0.014121632 0.057392143 0.035838194 -0.0436716 -0.101641834 0.10085984 0.13832586 0.08021819
-0.026247678 0.07080024 0.05757113 -0.09707083 -0.0025610484 0.0026485424 0.04567399 0.13236597
-0.042296592 -0.0050543873 0.07979504 0.07958821 0.015324075 -0.0077244053 0.011153366 0.11789659
0.12694511 0.102495626 -0.05296092 -0.07196453 -0.010500251 0.0025819116 0.08631785 0.10673762
0.06327412 0.013289743 0.0014588989 0.015939077 -0.014479247 0.082405135 0.15110156 0.09464246
0.13418895 0.11275883 0.11863707 0.09089639 -0.09840297 0.099672385 0.0075454237 -0.053810965
0.04067275 -0.091331385 -0.03846188 0.13933505 -0.07457768 -0.08279697 0.13583165 0.032358505
0.08824588 -0.10095211 -0.07036988 0.12991935 -0.08756723 0.12231548 0.06933918 -0.1257484
-0.05719224 0.12066279 0.034900803 0.04140624 -0.02862886 -0.0028551405 0.052841138 -0.05840955
0.0094544655 0.037115213 -0.090850614 -0.010606278 0.066775896 -0.045315072 0.05219206 -0.11009004
-0.020676075 0.1271391 0.06729517 0.1470232 0.01657013 0.0060070646 -0.06615521 -0.07768039
-0.12346404 -0.1175417 -0.13519742 -0.04608057 -0.005920789 -0.081366204 0.04209105 0.053362757
0.017451439 -0.089680664 -0.064018644 0.14264227 -0.06050333 0.14498822 -0.08470054 0.12230928
0.007829852 0.08180223 -0.15053238 0.053645704 -0.051398307 -0.042825017 0.03054398 0.027382437
0.00753232 0.006390049 0.14301732 0.015688691 0.085186675 0.0857535 -0.012977757 0.038941436
0.08384361 0.08012457 -0.08912032 0.10735224 -0.094444774 0.10408636 -0.102531955 -0.021483097
-0.06461505 0.087442815 -0.13059212 -0.008084446 -0.035656262 0.07341583 0.046495948 0.010126465
0.09270333 -0.10702606 -0.0291967 -0.0040634046 0.09707131 0.009424018 0.08692986 0.092996486
0.10315168 0.08949903 -0.05419135 0.08158421 0.017719751 -0.088796064 -0.033962037 0.060385298
-0.004282142 0.07283302 -0.12768365 0.09305592 0.094558425 -0.025822682 -0.05165093 -0.05713997
0.101802826 0.01870167 -0.12866156 0.0006757894 -0.09826356 0.14038874 0.15066981 0.030609196
-0.101621434 -0.03893891 0.044146743 0.06679536 0.019267216 -0.038688727 0.16160868 0.07730829
0.110896744 -0.069358386 -0.09685187 -0.07495578 0.06182819 0.04704751 0.068802156 0.026221538
0.043047834 -0.10473904 0.017433675 -0.025287999 -0.016343864 0.045186248 -0.014534226 0.1038169
0.034717396 0.010732118 0.0060340073 -0.07893522 0.09797641 0.06649233 0.1701998 0.037583552
-0.0076048886 0.14275098 -0.07936887 0.105341226 -0.0056264396 -0.0022615849 -0.052416794 -0.016137457

rnn.bias_hh_l0 f4 [256]
00000000: abf5 59bd 2909 f43d daf9 babd 24be edbb
00000010: c41b 48bc 68a6 e73d b43c 4dbd 6181 da3d
00000020: 34b1 b73d ec81 583d d344 fbbd 6973 f93c
00000030: 933f dc3d 08b4 1f3c 24b6 09be ffb1 0c3e
00000040: fdd6 0b3e d5f8 cf3b 0f5d 82bd 042e bf3b
00000050: 0009 e0bc 6ab4 293e 4b81 5b3e 2981 ddbd
00000060: ec5c 233d 16bb e53d 4034 28bd 11cd 343d
00000070: e022 a03d ae5e fc3d 60cc fb3d 91ca e73d
00000080: ea53 eebb 77de c43d 29e5 6f3c 2fde 4fbd
00000090: 2624 373d e4e6 1c3d 53d1 a2bd bba1 73bc
000000a0: d189 dd3d 933c d5bd 040f d43d e761 3e3d
000000b0: 5032 ebbd 677d c9bd 664e d2bc d906 3c3d
000000c0: dde7 b9bd 385a e23c 9c56 ff3d de19 3bbc
000000d0: 7e5c 3abd a847 f33d f1c9 b73d 14e9 64bc
000000e0: 112a c13c f51a f23d bb3f 043e 62d3 bb3d
000000f0: f3bf e0bb 4ee3 713d 3b59 8a3c fe42 2e3d
00000100: 05f5 cfbc cf32 94bd 51c8 ea3d cc0e d63d
00000110: 9eb2 e63d 5a90 09bd 225d 183e b74b a93b
00000120: 4afe fa3b 1e71 a6bd 8025 81bd b3cc c2bd
00000130: d103 1e3d d1e3 f63d f529 77bd e785 8dbd
00000140: bf3f 173e a805 da3d c878 9e3d 9b2c e43c
00000150: 71f0 1abd 6568 1e3d 3f17 803e e81b e23c
00000160: 991f 4c3d 8df5 2cbd 4ebf 8d3d febf 23bd
00000170: 1476 1dbd 8242 ba3d a46e 8a3d b2e0 debc
00000180: 813d c73b 92c2 cd3b d464 dcbd 80be 4abd
00000190: ca6b b8bd 843d cabd 28c7 08bb b756 f63d
000001a0: f197 f63d e7f7 a03d 9760 0bbd 59f2 3b3d
000001b0: 5c15 dfbc 4f94 4c3d 6f6b c23c efbb 193d
000001c0: 09b9 23bd 2612 023e cd7c bc3d 59d2 063e
000001d0: 7a7f c43d 385f c0bd 6881 9a3d b89f 53bd
000001e0: 91d4 053e 3824 1ebc 3f16 bdbd 8987 8f3d
000001f0: 216c b8bd d966 9cbd 1d9d a1bd 3b8f 4abd
00000200: fe3d 11be d744 ae3d 7f5a 9e3d 30c3 053e
00000210: dd10 42bb ea68 c2bd cc7d 90bd f577 cf3d
00000220: 8fb3 1cbe 59bc c33c e907 23bd b596 573d
00000230: 0e38 843d 022b 803d e12a e33c 734a 89bd
00000240: fd34 51bd c14e 353d c2a6 fe3d 0e8d 53bc
00000250: b171 0dbd b5cc 9b3c be0b a1bd 953f de3d
00000260: 41fd e63d 083f 70b8 7c48 9fbd 45d6 c73d
00000270: 103d 6dbd 9fed 893d a612 a1bd 91fc 08be
00000280: 0be4 da3c 39f5 c53d 5a63 ee3c 9ea7 a2bc
00000290: 5ae4 383c d08d a33c a54d debd 1225 57bd
000002a0: 305c 8b3d 19f0 cebd 2587 a13c f26b 1e3d
000002b0: 8d2f b2bd ab4a 033e 6814 603c 6c0d 9a3d
000002c0: 7f48 a8bd a60b 9f3d 447e 2e3d 7a66 69bc
000002d0: 2745 1ebe cb0c 8ebc 808b d43d 6537 003e
000002e0: 0e0f 053e a90f 03bd f75b dc3d b318 8d3c
000002f0: 9d8b b4bd 8f47 75bd 6d2b 05be 6ba5 abbd
00000300: b459 d63d 92cd b33d 99e6 923d e55e aa3d
00000310: 83b9 e8bb 8476 0d3e 0c28 1b3e 0f44 f63d
00000320: 71e1 c33d 41a5 cc3d 9138 de3c 78eb 7a3d
00000330: b366 c03d 8f4b c83d 2d23 613d c8ca 4a3d
00000340: b80c ce3d 37aa 90bc d26f 80bd a35a 043e
00000350: 2920 073d ea10 bf3d 0bfe 993d 7b7d ba3d
00000360: e6d8 2939 ff7c d6bd dbc9 4dbc 2d22 2f3e
00000370: f095 9c3d 76ee 943d f0a3 943d a994 6cbc
00000380: a351 13bd c33f a8bd 29b2 233d 5a88 d1bd
00000390: 39f9 d63d 9223 9fbd 33b5 873d eb9d bc3c
000003a0: b9eb 4a3d 1e0f 33bd d970 24bd 9fb9 23bc
000003b0: d221 84bd 4cce 8ab7 7ae3 a5bc 0ae2 ac3d
000003c0: 25df dd3d 9972 cfbd 39c7 adbd 398d d73b
000003d0: f588 ad3d e2d9 333d efa5 3dbd 30f6 143d
000003e0: 3dec 80bd 60ad f0bc 31f5 163d 489d e53d
000003f0: 04bf 9d3d cc4b 943d 1ce4 86bd fed3 88bd
-0.053212803 0.1191581 -0.09129687 -0.0072553325 -0.012213651 0.11311036 -0.05010672 0.10669208
0.08969346 0.05285828 -0.122689866 0.03045054 0.10754313 0.009747513 -0.13448387 0.13739775
0.1365623 0.0063468018 -0.06365406 0.005834343 -0.027348042 0.16572729 0.2143604 -0.10815651
0.03988354 0.112173244 -0.041065454 0.04414088 0.07819152 0.12322746 0.12294841 0.11317933
-0.007273187 0.09612744 0.014642038 -0.050749 0.04471221 0.038306132 -0.07950082 -0.0148701025
0.10817302 -0.10411944 0.103544265 0.046480086 -0.11484206 -0.09838372 -0.025672149 0.045904968
-0.090774275 0.02763091 0.12467691 -0.011419741 -0.045498364 0.11878902 0.08974064 -0.013971586
0.02357963 0.11821548 0.12914936 0.091711774 -0.0068588196 0.059054665 0.016888252 0.042544357
-0.02538539 -0.072362535 0.114639886 0.10452041 0.11264537 -0.03358493 0.14879277 0.0051664966
0.007659708 -0.08127044 -0.06305981 -0.095116995 0.03857786 0.12055171 -0.060342748 -0.069103055
0.14770411 0.1064561 0.07737881 0.0278533 -0.03782696 0.038673777 0.25017735 0.027601197
0.04983482 -0.042226363 0.06921254 -0.03997802 -0.038442686 0.090947166 0.06759384 -0.027206752
0.00608033 0.006279298 -0.10761419 -0.04949808 -0.09004934 -0.098750144 -0.002087066 0.12028258
0.12040699 0.078597836 -0.034027662 0.045885418 -0.027231865 0.049946126 0.023732869 0.037532743
-0.039971385 0.12702236 0.09203491 0.13166179 0.09594627 -0.093931615 0.075442135 -0.05166599
0.13069369 -0.00965219 -0.09232759 0.07008273 -0.09004999 -0.07636804 -0.07891295 -0.049453
-0.14183804 0.08509224 0.077321045 0.1306274 -0.0029612102 -0.09492667 -0.07055244 0.10130302
-0.15302871 0.023893522 -0.039802466 0.05263396 0.06456004 0.06258203 0.027730407 -0.06703653
-0.051075924 0.04426456 0.1243415 -0.012912048 -0.034532253 0.01901851 -0.07863568 0.10851971
0.11278773 -5.727916e-05 -0.07777497 0.097576655 -0.057919562 0.06734776 -0.07864885 -0.13377596
0.026720067 0.09665913 0.029100109 -0.019855317 0.011284912 0.019965082 -0.10854653 -0.052525587
0.06804693 -0.10104389 0.019717762 0.038677163 -0.08700476 0.12821452 0.01367674 0.07522091
-0.082169525 0.07765894 0.042600885 -0.014245624 -0.15456067 -0.017340085 0.1037817 0.12521131
0.12994024 -0.031997357 0.107597284 0.017223692 -0.088156916 -0.059882697 -0.13004847 -0.0838116
0.10466328 0.08779444 0.07172889 0.08318881 -0.007102193 0.13814741 0.15151995 0.120247
0.09564484 0.09992457 0.027126582 0.061259717 0.09394588 0.09780037 0.054965187 0.049509794
0.1006102 -0.01765929 -0.06271328 0.129252 0.032989655 0.09329398 0.07519158 0.09105965
0.00016197897 -0.1047306 -0.012560333 0.17102881 0.07645786 0.07272045 0.07257831 -0.01443974
-0.035966527 -0.082152866 0.03996483 -0.10231085 0.10496754 -0.077704564 0.06626358 0.02302452
0.04954121 -0.04371559 -0.040146682 -0.009992986 -0.06451763 -1.6546946e-05 -0.02025007 0.08441551
0.10833577 -0.1012928 -0.08485264 0.0065781143 0.08473388 0.04390896 -0.046300825 0.036367595
-0.06295059 -0.029379547 0.036854926 0.1121164 0.07702449 0.072410196 -0.06586477 -0.06681059

rnn.weight_ih_l1 f4 [256, 64]
00000000: d339 6239 5335 67bd d9fb 6a3d 9651 793d
00000010: 9709 013d 1f2a 833d eaa0 b7bd 03e3 923c
00000020: 871f 2fba a285 a73d df85 56bd 3766 af3d
00000030: e51d c53d b97c bf3d 5720 25bb 59ed bfbd
00000040: eb0e b7bd ba65 333d a600 c83d 7517 6f3d
00000050: a9ff a53d 3972 263d 52d9 103c 76ec 9fbd
00000060: 24ca 96bd 0a31 673d 2abb 6e3d 58e6 3f3d
00000070: 4195 3fbd 91be c0bc 05a3 0d3d 5d80 693c
00000080: e76c d8bc e11e fdbd 84c8 ca3d 09bd a33d
00000090: 43e4 1fbd f3df 0a3e e7e8 a0bd faca a73d
000000a0: 52e4 193d b0e6 9b3c c304 ae3d 59d8 db3d
000000b0: 9c6a f3bc d97d c8bd d09a ab3d 99f1 c43c
000000c0: b46c bd3d 4898 df3d 68f3 3cbd 82ab 4dbd
000000d0: f294 a93d 844c c23d f2ff b2bd be7e 363d
000000e0: ed28 083e 0424 163d aaef e63b 777f 8bbd
000000f0: e6fe 4ebd ffe1 06be 2d45 bfbd b940 c1bd
00000100: 89c8 b9bd 8592 6f3d 3c4b 9f3d 6670 be3d
00000110: d552 b4bc e461 bf3d 3851 74bc 19cb de3d
00000120: 08bf dcbd 8b19 d3bc 5a35 163c 71cf abbd
00000130: 4aef 50bc 9cd8 02be 87cd 41bd 085b 783d
00000140: 3ab8 2dbb 1721 1ebe 2dd1 e5bc 7fa4 29bc
00000150: 62ae 123a 700a 103d cb89 053e 5f53 1c3e
00000160: 9044 bfbb 516c f73d d45c b3bc b75b c93d
00000170: 160f 2dbe afae 8bbd 639d 81bd 5763 f83b
00000180: 92c3 1cbd 8290 093d fdad a1bd 0877 303b
00000190: 3ef1 11bd 302f 773d 551c 613c 56e7 033d
000001a0: c36d 9b3d b1b4 a13d d4c4 d83d 7b82 ae3c
000001b0: e5da 53bd 3df1 7b3c e41c 1cbe 1197 d5bd
000001c0: f1db 8c3d 0946 b7bd 4e2c 1d3d ef88 fdbd
000001d0: 1d87 c7bd d6eb 8dbd ad1c 5d3d 1d0c 19bc
000001e0: 4691 4cbc 5827 56bb a6bc 733d 5b7a 813d
000001f0: ac64 8abd 7d35 133d 2931 86bd 12f8 5d3c
00000200: 606f 2dbd bcdc 97bd 2f0e 063e 088b d2bc
00000210: 7bd2 18bc 4a11 14be 1358 b7bb 48f5 d13d
00000220: 2d65 8b3c d24e 39bd d221 16be ef8e 1a3d
00000230: 59df a1bd 2bd5 c93c 29c6 3f3b 6fe6 983d
00000240: 9d24 963d 8b8c 65bd b6f3 f23d 4daa 4ebd
00000250: 38e5 b5bd 28ee e13d 6dbd 45ba c5b0 c03c
00000260: 177b 493b 528a 583d d17f d6bd ed64 ea3d
00000270: 0b34 4bbd 3bd7 913d 37d8 31bd c709 c7bd
00000280: c476 99bd 2946 c4bd 0258 cf3d 3c78 333d
00000290: da4c e53d e2fb df3d f0c7 753d 5ea3 69bd
000002a0: c6ce a4bc e393 b1bd 0354 2f3d 7168 a8bd
000002b0: bae0 d0bd b1a0 adbc 9778 af3d 9e71 03bb
000002c0: c93b 0d3d 1e68 083e 68ea 0abd 921a 993c
000002d0: b6c0 9dbb 7fd9 353d 8539 d83d 90ec 953d
000002e0: d0f4 a53d 6c6d 8c3d 02ba 25bd b36c 1a3d
000002f0: e579 13be efe4 88bd ea9f 54bd e559 e4bd
00000300: 44fa c93d 9ec5 bf3d 405f 803d f6bd 1f3e
00000310: 9f2d 3ebd 0e47 453c 4ffe bb3d f17f 07bc
00000320: bfe7 21bd e5d5 dcbd 1b61 09be 1612 5b3c
00000330: ce03 543b 2044 9bbd c519 abbc 47bd 91bd
00000340: f4ab 1a3e 7d5a 383d 2881 093e d548 e53d
00000350: ff6b 93bd 058f 23bd b0a9 c8bd 63e7 bb3d
00000360: ff0a 1dbd e905 67bd f26d 7bb9 2f12 fa3d
00000370: 16db ccbc 2983 003e 1f72 f0bd 86d6 4abd
00000380: 987c 4c3d 8040 f33c 562f bdbd c937 ee3d
00000390: c13a e93d 6936 37bd 51dc 41bd 9f39 a83d
000003a0: 3153 8e3d abc0 ccbd 2376 923d aa5d 53bd
000003b0: d23a 6f3d 59d8 aebd 49ca 88bc 9104 a93c
000003c0: 12cf 00be 7bf9 99bd bd61 4abd beb0 9abd
000003d0: cbe1 88bd 384c ecbd eacf 633d edf0 a1bd
000003e0: 4ca5 fa3d 8c92 46bc a425 003d 13c7 4e3d
000003f0: 3ab0 c03d db5a 1abd 9dac f83c 6155 ad3d
0.00021574581 -0.05644734 0.057369087 0.060868822 0.031503286 0.06404518 -0.08966239 0.017930513
-0.0006680418 0.08179785 -0.052373763 0.08564418 0.096248426 0.09349961 -0.0025196278 -0.09371442
-0.08938392 0.043798186 0.09765749 0.05837198 0.08105404 0.040636275 0.008840876 -0.07808773
-0.07362774 0.05644325 0.058283962 0.046850532 -0.0467732 -0.02352837 0.034579296 0.014251796
-0.026419116 -0.12359405 0.099015266 0.0799504 -0.039036047 0.13561992 -0.078569226 0.081930116
0.03757126 0.019030899 0.08497002 0.107346244 -0.029713921 -0.097896285 0.083791375 0.024040984
0.09249249 0.10917717 -0.046130568 -0.05021239 0.08280362 0.094872504 -0.08740224 0.044554465
0.13296862 0.03665544 0.007047613 -0.06811421 -0.05053606 -0.13172148 -0.09339366 -0.09436173
-0.09071452 0.05848934 0.07778022 0.09298782 -0.022012154 0.09344843 -0.014911942 0.108785816
-0.10778624 -0.025769016 0.009167993 -0.08389176 -0.012752363 -0.12777942 -0.047315147 0.06063369
-0.0026507513 -0.1544231 -0.028053844 -0.01035416 0.0005595443 0.035166204 0.13040845 0.15266179
-0.0058370307 0.120812066 -0.02189485 0.09831946 -0.16900286 -0.068204276 -0.06328847 0.0075802016
-0.038272448 0.03358508 -0.07894514 0.0026926417 -0.035630457 0.060347736 0.013739665 0.03220304
0.07589295 0.07895792 0.10584417 0.021302452 -0.051722426 0.01537734 -0.15245396 -0.10429204
0.06877888 -0.08948905 0.03837233 -0.12379634 -0.09742568 -0.06929748 0.053982425 -0.009341267
-0.012485808 -0.003267726 0.05950608 0.063221656 -0.06757483 0.035939682 -0.06552345 0.013547914
-0.042342544 -0.074151486 0.13091348 -0.02570106 -0.009327526 -0.1445972 -0.005595216 0.10251862
0.017016018 -0.045241185 -0.14661339 0.03773397 -0.07903928 0.02463778 0.00292624 0.07465827
0.07331202 -0.056042235 0.118628904 -0.05045538 -0.08881611 0.11031753 -0.000754318 0.02352179
0.0030743533 0.052866288 -0.10473598 0.11445031 -0.04961018 0.0712113 -0.04341909 -0.09718662
-0.07493356 -0.095836945 0.10124208 0.043815836 0.11196299 0.10936715 0.06000513 -0.057040565
-0.020118129 -0.08670785 0.04280473 -0.082230456 -0.10199113 -0.021194788 0.085679226 -0.0020056735
0.034480844 0.13320968 -0.033914953 0.018689428 -0.0048142327 0.044396874 0.10557846 0.07320511
0.08103335 0.06856808 -0.040460594 0.03770132 -0.14401968 -0.066842906 -0.05191032 -0.111499585
0.098621875 0.09363864 0.062681675 0.15599808 -0.046430226 0.012040867 0.09179365 -0.00827025
-0.03952765 -0.10782985 -0.13415949 0.013371011 0.00323509 -0.07581353 -0.020886311 -0.0711618
0.15104657 0.04500817 0.13428175 0.11195532 -0.07198333 -0.039931316 -0.0979799 0.09174993
-0.038340565 -0.05640212 -0.00023978183 0.122104995 -0.025006812 0.12550034 -0.11740517 -0.04952099
0.04992351 0.029693842 -0.09237544 0.11631734 0.113881595 -0.044729624 -0.04732925 0.08214115
0.06949461 -0.09997686 0.07151439 -0.051602997 0.058405705 -0.08537359 -0.01669802 0.02063206
-0.12578991 -0.07518288 -0.049409617 -0.07553242 -0.066836916 -0.11537975 0.055618204 -0.07907281
0.12238559 -0.0121199 0.031285897 0.05048282 0.094086125 -0.037684303 0.030355746 0.0846355

rnn.weight_hh_l1 f4 [256, 64]
00000000: ed0c 91bb 0306 e3bb 07f6 bfbb fdf5 8fbd
00000010: 3c3a 21bc b1fe 013d 1e9d e03d 292f 60bc
00000020: 88c4 b73d 0b39 13bd 0f8d 5bbd 71ad e1bd
00000030: 028c 5cbd 364b e63d a493 9abd 739a d43d
00000040: a243 3a3d fa98 3dbb b284 f9bb 1f7e acbc
00000050: 38ff 11bd 7edb dfbd 20f0 b73d a8f0 ce3d
00000060: c08c b43d ceca b4bd 091b 033e 41f8 23bd
00000070: c723 97bd 2ee1 f63c 8389 38be 5dec bcbd
00000080: 5bb6 71bc c24e 72bd 479e 70bd 4668 88bd
00000090: dd99 af3d 57ee 41bb 624f ebbd fa00 14be
000000a0: b4db 073d 7c68 01be 793b cf3c dcc1 f13c
000000b0: 5c9d 78bd aa0c 0f3e fca1 14be 53c6 073d
000000c0: 8fb6 8d3c 53b6 62bd 9e28 5a3d 8982 013d
000000d0: fdfa 8f3d 3894 b23d 86c0 57bd 9e9b 8bbb
000000e0: 3924 20bd f038 36bd 69bc f2bc e928 453d
000000f0: 21d2 ccbc 0479 c63c d266 ff3c 48c3 a6bd
00000100: 8b0b fcbd bc06 013e c94c a3bd 5b54 bebd
00000110: 2583 f23d 0362 bcbd 240e abbd 9aac e13d
00000120: 545b c13d 3fb1 a4bd 6179 c73d 35f3 513d
00000130: 1d6d 8b3c 0203 4ebd 9ea3 bbba 8a69 e73d
00000140: d13d 673d 228a 00be 22e5 74bd 1a34 5fbd
00000150: 0cdf 06bd 49bd 24bd 5c6d a23c cd95 5bbd
00000160: babb 70bd c7bf a33b 7632 0a3e 78d3 2d3d
00000170: 386e d3bd e95f e43d 9751 aabe 4289 49bb
00000180: a8b9 2d3d bd3a 0dbe 4977 d03c f73e 833c
00000190: bba0 163e 77c9 253b 2249 7abc 41c9 0bbe
000001a0: 07a2 88bd cbb1 8ebc dd74 e9bc 3e7b 14be
000001b0: 6b55 883d ebc5 893e b096 fabd 4beb 403d
000001c0: d16a c13d 509d cdbc b317 aebd c9e9 1cbe
000001d0: 6fb2 203d 44d9 0fbe 4c6d ddbd 9c84 d1bd
000001e0: 5968 1b3c df46 703c 35f4 f8bc 5691 d23d
000001f0: 61f8 373b 5a5b 15be 8f93 343c 4f84 a7bc
00000200: ce7b c53d f562 113d 655c 34bd 5cb7 3a3d
00000210: caa2 943c c0db af3c dd07 83bd 6f6e fabd
00000220: 3056 dcbd 1062 c1bd 6e75 ca3c 1e03 54bd
00000230: 0157 b03c 3653 883c 7ac3 17bc 6fb5 ec3d
00000240: 8c0b ff3d a4f1 d0bc f97d 20bc 0190 b2bd
00000250: 112d dfbc b7e9 15bc a1d0 883d 3e39 4dbd
00000260: df6f 00be 6eb4 94bd bd63 c93b edb5 2abc
00000270: 933e 0ebb 3cf1 07bd 5488 ca3b 4e8b 5ebd
00000280: 37b7 2c3d 4789 ca3d 6e30 2ebc 37c5 aabc
00000290: c817 ff3d 1651 813d 5c2e 4dbd 1c9d 0cbe
000002a0: 8913 3b3d 3b17 953c b842 a63d adb1 aabd
000002b0: 22f8 5d3d beba a53d 3382 a13d b109 70ba
000002c0: 442f 9cbd 6e5e bbbd 263f f93d f7c2 25bd
000002d0: 558d be3d f4b1 2ebc 87c7 883d c508 8c3c
000002e0: 9337 bb3d 2d9b 0e3d fdcb 8b3d 28b2 033e
000002f0: 4c86 f73b d0f7 703d efec e9bd 5619 df3c
00000300: 78a9 a53d 2640 003e 2984 eebd 7ea9 33bd
00000310: 42f1 b8bd 03bc a7bd 4c0b ad3c a4c8 6abd
00000320: fd0f 0b3d f484 343d 4ac0 953d 03f1 be3d
00000330: 432d 97bd cc52 40bd 9884 2dbd 61ce 103e
00000340: 3a09 733d ffd3 a4bd 9027 45bd 111e aa3c
00000350: 1ca2 15be c334 05be 18d4 a8bd de1e 733c
00000360: 52c0 b3bd 3730 f33d 9902 e8bc f233 24be
00000370: 5a41 49bd f642 30bd c55b 06bd 4155 ec3d
00000380: b041 f73d aa44 cbbd cf49 bbbd 912d 0a3e
00000390: 0a30 a83d 1ceb 453d c20c 5a3c ac10 473d
000003a0: bb1c 0ebe b558 09be c6ba 06be 84a8 0ebd
000003b0: a057 af3c 6946 c33d 60aa 03be 32cc 483c
000003c0: 324e 923d 3bb9 453b 0a91 333d 5a2b 803d
000003d0: d680 31bd 04f6 d4bd 0814 95bd 6b7e e6bd
000003e0: bd33 143d 51df 383d 8a49 1cbd 3ebe cb3d
000003f0: 12f9 debd 512b febc d89e e0bd 32a3 35bd
-0.0044265897 -0.006928207 -0.005858186 -0.070293404 -0.009840544 0.031737033 0.10967468 -0.013683119
0.08973032 -0.035943072 -0.05360132 -0.110194094 -0.05384446 0.11244814 -0.075476915 0.10381021
0.045474656 -0.0028930292 -0.0076146955 -0.021056233 -0.035643786 -0.10930537 0.08981347 0.10104495
0.088159084 -0.088277444 0.12803282 -0.040031675 -0.07379871 0.03013667 -0.18021207 -0.0922477
-0.01475295 -0.05915714 -0.058744695 -0.066605136 0.08574269 -0.0029591525 -0.114897504 -0.14453498
0.03316851 -0.12637514 0.025296913 0.029511385 -0.060696945 0.13969675 -0.14514917 0.03314812
0.017298965 -0.05534966 0.05326139 0.03161863 0.07030294 0.08719677 -0.05267384 -0.0042604944
-0.039097045 -0.044487894 -0.029630857 0.048134718 -0.025002541 0.024227627 0.031176958 -0.08142716
-0.12306889 0.12600225 -0.0797363 -0.09293433 0.1184142 -0.09198382 -0.083523065 0.11019249
0.094412476 -0.080416195 0.09739948 0.05125733 0.017019803 -0.050295837 -0.001431573 0.11299427
0.056455437 -0.12552693 -0.05978883 -0.054493047 -0.032927558 -0.04021958 0.019827537 -0.053609658
-0.05877278 0.004997227 0.13495812 0.042438 -0.10323757 0.11151106 -0.33265373 -0.0030751978
0.042413384 -0.13791938 0.025447505 0.016021235 0.14709751 0.0025297084 -0.015276225 -0.13650991
-0.06671529 -0.017418763 -0.028498108 -0.14500138 0.06656917 0.26908812 -0.122357726 0.047099393
0.09444202 -0.025099427 -0.08500614 -0.15323557 0.039232668 -0.14047724 -0.10811862 -0.10230371
0.009485328 0.0146653345 -0.030389884 0.10281627 0.002807163 -0.14585629 0.011021509 -0.020448832
0.096427545 0.035494763 -0.044033427 0.04558502 0.01814403 0.02146709 -0.06397984 -0.12228095
-0.107586265 -0.09442532 0.024714198 -0.051760785 0.021525862 0.01664124 -0.009262914 0.11558043
0.12453374 -0.025505848 -0.009795659 -0.08718873 -0.027243169 -0.00914996 0.06680418 -0.05010342
-0.12542675 -0.07260977 0.006145923 -0.010419351 -0.0021704778 -0.033189043 0.0061808024 -0.05433207
0.042166915 0.09889465 -0.010631664 -0.020845992 0.12455708 0.06314294 -0.05009304 -0.13731807
0.045672927 0.018199554 0.08118194 -0.0833467 0.054191716 0.08092259 0.07886162 -0.00091567176
-0.07626203 -0.091488704 0.12170248 -0.040469136 0.09304301 -0.0106625445 0.06678682 0.017094025
0.09141459 0.034815956 0.06826017 0.1286093 0.007553851 0.058830082 -0.114221446 0.02723376
0.08088964 0.1252447 -0.11646301 -0.043862812 -0.09030391 -0.08190157 0.02112355 -0.057320252
0.033950794 0.044072106 0.07312067 0.09323313 -0.0738168 -0.04695396 -0.04236278 0.14141227
0.05933497 -0.080482475 -0.048133433 0.02076629 -0.14612621 -0.13008408 -0.08243579 0.014838902
-0.087769166 0.118744306 -0.028321551 -0.1603544 -0.04913459 -0.04303261 -0.032802362 0.115396984
0.12073076 -0.09925206 -0.09144937 0.13493945 0.08212288 0.04831992 0.013308706 0.048599884
-0.13878147 -0.13412745 -0.13157186 -0.034828678 0.021404088 0.09534914 -0.12857962 0.012255715
0.07143821 0.003017022 0.043839492 0.06258269 -0.04333576 -0.10398486 -0.07279211 -0.11254581
0.036182154 0.045134846 -0.03815607 0.09948395 -0.1088735 -0.031026514 -0.10967797 -0.04434509

rnn.bias_ih_l1 f4 [256]
00000000: 56d6 213d 72eb 103e d728 883d 312c a73d
00000010: 845c 52bd 74bb 66bd f3d1 573d f908 213d
00000020: b450 c23d 9eea 68bd 36f8 0a3e 5618 53bd
00000030: 499e 0a3e 6e0c 553c 33b9 edbc 7d57 cb3d
00000040: 4062 debc d001 61bd 5b5a 183c 1f4d 6a3d
00000050: 4105 a33d 14b4 5b3c 1e94 d63d 87fd 5bbd
00000060: 6f95 033e 7209 953d 71c5 04bd 006a 74bc
00000070: 4ca2 8e3d aa10 20bd 0f8a bebb 8f8e 2d3c
00000080: 8c36 0e3e 08bd 12bd 4a80 8abc 5774 213e
00000090: c4ed 69bd 8a35 94bb c448 033e 1d2c 0a3e
000000a0: a7e9 893d b4a5 ba3c 9721 dc3d 0a6e f63d
000000b0: 28f7 c23d 7314 bbbd 229d 93bd 5683 203e
000000c0: c5e8 133d a3a2 153d 1b20 573d 0fd9 3ebd
000000d0: 1b05 8dbd e098 89bc 8f8c 86bd 420c 18bd
000000e0: 0dd8 853d efb5 0a3e 2374 3fbc ac40 debd
000000f0: 697f 0ebd 8d67 2a3d b8e8 fb3d 5a9c 203d
00000100: 438f 52bd 03f5 cf3d 4706 8bbd c925 813d
00000110: 6026 c03d b70f 1a3d 925f aabd b741 4bbd
00000120: 1743 5abd 6cd1 4dbd 43b7 a53d 2d44 87bd
00000130: f807 a2bd 07c7 47bd 021f 123e ad6d 843d
00000140: f8bc ac3d 5f2a 97bd ae98 d63d 43ed 4bbd
00000150: af78 1a3e dad2 b33d 778c bd3d c369 e9bc
00000160: 4721 b93d 80fe 483d c4fb 093e e098 56bd
00000170: bb68 9abd a095 ca3d f1b8 433d 0809 323d
00000180: f2e2 c43c 3bb8 ef3d 2de4 953d a33e d23d
00000190: 1aef f43b 4740 6b3c fdfc 113e 9d65 2f3e
000001a0: 81b3 a23c 282e fa3c 98be 0dbd 31b5 953d
000001b0: ab44 1b3e e44f a63d ae16 c13d 06b6 be3d
000001c0: ae63 8abd 0d4d 02bc d390 993d 0627 d7bc
000001d0: bb5d d63d a264 fd3d 8657 6bbd 4453 eb3d
000001e0: 550a 8e3d 6d2f 11bd a723 b23c 56ec 57ba
000001f0: 491d 97bd 2f4d 3fbd 588c b2bc 6628 f43d
00000200: f109 af3b c202 873d 99b3 d8bc 2ac7 80bb
00000210: b73a f4bc cc88 073e 7119 8abd a9b4 36bb
00000220: f5cb ad3c c0ff a3bd ab23 b83d c5b6 323d
00000230: d6a6 03be acfc 103d 29fc d7bd cb80 c23d
00000240: fd32 0dbc b0cd df3d 4f9d 14be eab5 8a3d
00000250: 137d babd 881f f9bd b2f9 aebd c890 143e
00000260: ca5f 0cbe 6b3e 4e3d a2fa 82bc 530c 583d
00000270: 19d6 803b a4c3 0b3e 15a8 973c 8d80 09bd
00000280: 0572 d53d f4f3 23be 4a5e bfbd ee31 203e
00000290: 72e9 fe3d c08f 4b3d 6b1b aebc 3090 e33d
000002a0: 36e8 d53c 3a83 93bd 97ca c7bd e85a f13c
000002b0: 070b 0bbe ac45 8dbd 3879 18bc 9bb2 9d3d
000002c0: 74c3 2a3d d460 14be 4c29 0b3e 7adf 4cbd
000002d0: 9f10 bdbd 6c30 00be 79ad 0c3e 1f88 5bbd
000002e0: 283c 923d 7f16 033e c240 1d3e f5e3 b43c
000002f0: fbe3 34bd 682a 5dbd 110b 79bd 3dc4 7e3c
00000300: 0a7d c9bd 0368 8dbb 9aa6 b43d c3be 04bc
00000310: ed6a 023d de01 a2bd e6af 4b3d 1d48 e7bd
00000320: 9bf2 ef3c 561b df3d 1516 eebd cd9a 85bd
00000330: bd8e cf3d 1652 a4bd 081a 93bc cbeb b73d
00000340: b4fb cc3c 244b b8bd f980 90bd adc1 3cbd
00000350: eec2 073e 9eb0 f93d c797 f1bc 784c 72bd
00000360: 9ae7 c8bc 2d1c 55bd 96bf b03d 68e9 c43d
00000370: 7874 0e3d 8ca5 86bd a773 153e 78a5 d7bc
00000380: 2d80 063e 62eb d53d e529 1c3c 8aec 493c
00000390: b8d2 913d 775c 2c3e 9b8c 963d 7115 da3d
000003a0: db14 41bc 2f1d c23b 2691 f2bd ed8d ac3d
000003b0: 0b0d 1a3d dadf 1e3e db4a be3d 6090 913d
000003c0: ca55 143e 86a3 c33d 3b89 91bd 6a22 2a3d
000003d0: 1158 903c 1b68 8b3d 0542 ea3d c6a1 fc3d
000003e0: f9aa 0e3e 4f34 e73d e89c 5c3d 7e2a b1bc
000003f0: b0c5 003e 3d3c 58bd 7224 a7bd 33ee a0bc
0.039511047 0.14152315 0.066484146 0.08162726 -0.05135776 -0.056331113 0.052690458 0.039315198
0.09488049 -0.056864373 0.13571247 -0.05153688 0.13536943 0.013003452 -0.029018974 0.099287964
-0.027146459 -0.05493337 0.009298886 0.057202455 0.079599865 0.013409633 0.1047747 -0.05370858
0.12849973 0.07277192 -0.032414857 -0.0149178505 0.069645494 -0.039078392 -0.0058147977 0.010593071
0.13887995 -0.035824805 -0.016906876 0.15767036 -0.057111517 -0.004522984 0.12820727 0.1349339
0.06734019 0.022784092 0.10748594 0.12032707 0.095197976 -0.0913476 -0.07207705 0.156751
0.03611066 0.036532056 0.052520853 -0.046593722 -0.068857394 -0.01679653 -0.06569778 -0.037121065
0.06535349 0.13545965 -0.011685404 -0.10852179 -0.034789477 0.04160266 0.12300247 0.03921161
-0.051406156 0.10154154 -0.06788307 0.06306035 0.093823195 0.037612643 -0.0831901 -0.049623217
-0.053286638 -0.05024855 0.08091595 -0.066048004 -0.07911676 -0.04877379 0.14269641 0.064662315
0.084344804 -0.073811285 0.1047834 -0.049786817 0.150851 0.08780451 0.09255307 -0.028492814
0.0903955 0.049070835 0.13474947 -0.052391887 -0.07539507 0.0989182 0.047783796 0.043465644
0.024033997 0.11705061 0.07318912 0.10265853 0.007474792 0.014358587 0.14256664 0.17128606
0.019860985 0.030539587 -0.034605592 0.0730995 0.15162914 0.08120707 0.09428154 0.09312062
-0.06757294 -0.007952941 0.07498326 -0.026263725 0.104670964 0.1237271 -0.057456516 0.11490491
0.069355644 -0.03544562 0.021745516 -0.0008236816 -0.073786326 -0.046704467 -0.021795437 0.11921768
0.0053417613 0.06592323 -0.026452826 -0.003929992 -0.029813154 0.13235778 -0.06743134 -0.0027878678
0.021215418 -0.08007765 0.08991178 0.043631334 -0.12856612 0.035397217 -0.105461426 0.094972216
-0.008618114 0.10927904 -0.14513133 0.067729786 -0.09105887 -0.12164217 -0.08543719 0.14508355
-0.13708416 0.050352495 -0.015988652 0.05274613 0.0039317724 0.1364885 0.018512765 -0.03356986
0.10422138 -0.1601103 -0.09344156 0.15644047 0.1244687 0.049697638 -0.021253308 0.11111486
0.026111703 -0.07202764 -0.09755438 0.029462293 -0.13578425 -0.068980545 -0.009306245 0.07700082
0.041690305 -0.14490062 0.13589972 -0.05001781 -0.09231686 -0.12518471 0.1373805 -0.053596612
0.0714038 0.1280155 0.15356734 0.022081355 -0.04416273 -0.05399552 -0.06080157 0.015549717
-0.098383024 -0.0043153777 0.08820839 -0.008102122 0.031840254 -0.079105124 0.049728297 -0.112930514
0.029290488 0.10893886 -0.116253056 -0.065236665 0.10134647 -0.08023469 -0.017956749 0.08980521
0.025022365 -0.08998707 -0.070558496 -0.04608314 0.13257954 0.1219189 -0.029491318 -0.059154958
-0.024524499 -0.052028824 0.08630292 0.09614831 0.034779042 -0.06574544 0.14594899 -0.026324019
0.13134833 0.10445286 0.009531473 0.012324462 0.071202695 0.16832148 0.07351037 0.10648621
-0.0117847575 0.005923889 -0.11844091 0.08425508 0.037610095 0.1551508 0.09291621 0.071076155
0.14485851 0.09552674 -0.07106253 0.041536726 0.017620118 0.06806966 0.114383735 0.12335543
0.13932408 0.11289274 0.053860575 -0.021626707 0.12575412 -0.052791823 -0.08161248 -0.019644832

rnn.bias_hh_l1 f4 [256]
00000000: c5a7 e53d 4522 afbd 296a b73d 0612 22bd
00000010: e098 3dbd 55d4 d63d 592c 9e3c 7e42 74bc
00000020: 9d8b 40bd 692e 233e b35d 0d3e bc01 0b3e
00000030: db5a 113e 7b82 6b3d b71b 003d 5173 9bbd
00000040: 172f 803d e220 c6bd de1f 193d 3fa4 a63d
00000050: 50ed 51bd 82e4 c1bc fd1c 30bd 690b 8fbd
00000060: c160 a6bd 9ff0 69bd 7ab0 1d3e bcd1 aa3d
00000070: 11b7 993c 9cf0 59bd d774 e53d a05e 30bd
00000080: 0bbf 503d 05d5 0a3e e7ad 9abd 4999 b13c
00000090: 53cd 9a3d 4744 ed3d eca0 aabd 1467 d93d
000000a0: ff7b f23d 45ef 0ebd 4d9a 6d3d bba0 083e
000000b0: fcbf ae3d 19b2 5bbd 28d6 ea3d f2e5 523d
000000c0: 75f0 e13c 7c74 2abd 5459 333d 79c7 a8bd
000000d0: 0ff8 f03c fd30 86bd 465c 99bc bf35 0a3d
000000e0: 1928 983d ad57 1a3e 2200 35bd 2ca4 48bd
000000f0: c1ef b53d 2110 a1bd 4f12 c33c 5a55 723d
00000100: 34f6 a6bd a062 01bd b911 d9bc 3b76 d13d
00000110: 7e1a 43bb 378a 22bd 284a 933d 82a1 0b3e
00000120: 78b1 d2bc 1e97 cc3d a869 23b9 627b b3bc
00000130: 3462 bb3d 016c a2bd 85d6 063e 2088 98bd
00000140: c8de 093e a1f2 153e a680 813b 9e88 a6bd
00000150: 118f 713b 1e60 213e fdea bfbc 6c1a 683d
00000160: e057 63bd 8cc5 0e3e be31 f9bc 0a07 e63c
00000170: 207b 0a3e 301c d83d 0a3d c93d b706 3c3d
00000180: 7c22 9abd 8de8 a8bd 4f52 8c3d d516 f73d
00000190: c1f8 153c 9786 183e b4cd 563d b60f 9dbb
000001a0: 383a f03d 4cc4 93bd 275c b43d ca7d 2cbd
000001b0: 5529 1a3d 6167 ab3d 4840 d4bd f607 bf3d
000001c0: 7e7b f33d 4417 b3bd e2c8 6fbd f8b9 ab3d
000001d0: 0645 c5bc ea4a 49bd 3037 afbd d48a 4abd
000001e0: 1868 803d 18b6 e03d 11fd 97bc 37d8 333c
000001f0: fe22 aa3d 795c 7bbd 854e a43d 2585 123d
00000200: ec48 a8bd 95e9 69bd 1b0a 01bd 559a 4c3d
00000210: 035d ef3b 6d2c b53d 4085 6cbd 65a1 773d
00000220: 4552 863c a857 c8bc 7684 9d3d 3ae1 0a3e
00000230: 340a 4d3c e617 a5bc ec2c f9bc a532 90bd
00000240: 1cfc 063e f258 703d 302e 973c f914 443d
00000250: f724 d6bc 02d4 193d 3145 983d 7e73 a0bd
00000260: 5e26 1e3c 730e e6bc fd0a c93d e651 cbbd
00000270: bfb1 7fbd b686 65bd 6568 9cbc 62e3 bf3d
00000280: 1704 1a3e 0d6e 9abd d1fb 05bd 448b b93d
00000290: a58e 973d 2022 f03d 1159 913d 7340 58bc
000002a0: f894 0f3c a8b7 a5bd 0023 383d ba9b d4bd
000002b0: 3bc9 9dbd 598c 403d 7a7d 473d e9c4 f13c
000002c0: 1af5 11be 48e3 ad3d ab84 103e 924b 03bd
000002d0: 058d c9bd f8db 45bd af70 c93d 9154 90bd
000002e0: 8b90 6e3d b7a8 a2bc b5d8 8cbd 7600 bc3d
000002f0: 8fd2 3cbd 7d67 1fbe 503a 00be 3b3e 143e
00000300: dabe ec3c 2fc6 193e e04f 833d e8d0 483d
00000310: 50ae 983d 02f6 a43d 16fd 6f3d 24b4 50bb
00000320: 05ab b53d f513 50bc 5ca5 6bbd 6bf0 a63d
00000330: ef9c 693d 789f 04be d93e fd3d 5bdf eebd
00000340: ecbc 00bd 94c5 f9bc e8fc cdbc d365 9b3d
00000350: 17be 9d3d 445f c63d d34c ecbd df14 a83b
00000360: 6607 51bd 7a39 30bd d832 ec3d 0e47 8d3d
00000370: b230 5d3d 17fb 123e d055 193d dbf7 a43a
00000380: aa74 d83d 5748 273d bf34 43bd a94a f83d
00000390: e0be 923d f92c 36bd 6a1c 1dbe 7376 9f3d
000003a0: bdf7 73bd 5d02 44bc 56e3 76bc 47b8 d33b
000003b0: bde0 4a3d 0ea6 55bd 2dd6 4e3d 70bf 363d
000003c0: 3d45 02bd 3557 89bd ccf3 e23c 8b1a c43d
000003d0: 9a15 81bd f97e 8cbd efc0 113e abda 513d
000003e0: 6ec8 d6bd 7187 abbd a92c 183e dc0e cfbd
000003f0: 30db 9fbd 6faf 5e3d 0179 2cbd 01ef 9a3b
0.1121364 -0.08551458 0.08955795 -0.03956797 -0.04628837 0.10489718 0.019308256 -0.014908431
-0.047008146 0.15935673 0.13805275 0.1357488 0.14194815 0.057497483 0.03127643 -0.07590354
0.06258982 -0.09674241 0.037383907 0.08136796 -0.05125171 -0.023668531 -0.042996395 -0.06984598
-0.08123923 -0.05711424 0.15399352 0.08340785 0.01876405 -0.05320798 0.11203926 -0.04305899
0.050963443 0.13557823 -0.075527005 0.021679537 0.07558694 0.115852885 -0.08331475 0.10615364
0.11840057 -0.034896154 0.05800848 0.13342564 0.08532712 -0.053636644 0.11466628 0.051488824
0.02758048 -0.041614994 0.04378636 -0.082411714 0.029415159 -0.065523125 -0.018720757 0.033742663
0.07429523 0.15072508 -0.04418958 -0.04898469 0.0888362 -0.078644045 0.023812441 0.05916343
-0.08152428 -0.031588197 -0.026497709 0.10227629 -0.002977043 -0.039682593 0.071918786 0.13635829
-0.02571939 0.09989761 -0.00015584251 -0.02190942 0.0914959 -0.07930756 0.1316777 -0.07447839
0.1346389 0.14643337 0.0039521037 -0.081315264 0.0036858956 0.15759322 -0.02342748 0.056665823
-0.055503726 0.13942546 -0.030419227 0.028079528 0.13523531 0.10552251 0.098260954 0.04590484
-0.075261086 -0.082474805 0.068516366 0.12064902 0.009153546 0.14895092 0.052442268 -0.0047931327
0.11729854 -0.07215175 0.08806639 -0.04211215 0.037637074 0.08369327 -0.10363823 0.0932769
0.11888789 -0.08744672 -0.058541186 0.0838508 -0.024080765 -0.04914371 -0.08555448 -0.049448803
0.06269854 0.109722316 -0.018553289 0.010976843 0.083074555 -0.061367486 0.08022789 0.035771508
-0.08217034 -0.057107527 -0.031503778 0.04995187 0.007304789 0.08846364 -0.057744265 0.060456652
0.016396651 -0.02445586 0.076912805 0.1356248 0.01251464 -0.020152997 -0.030416928 -0.0704091
0.1318211 0.058678575 0.018454641 0.047871564 -0.026140673 0.037555702 0.07435072 -0.078345284
0.009652702 -0.028083062 0.09816549 -0.0992773 -0.06242537 -0.056036673 -0.019092748 0.09369542
0.15040623 -0.07540522 -0.032710854 0.09059766 0.07400254 0.11725259 0.07097066 -0.01319896
0.008763544 -0.0809167 0.044955254 -0.10381265 -0.07704397 0.047008846 0.04870365 0.02951284
-0.14253655 0.08490616 0.14113109 -0.03205449 -0.098413505 -0.04830548 0.09835946 -0.0704738
0.058243316 -0.01985584 -0.06877271 0.091797754 -0.04609924 -0.15566821 -0.12522244 0.14476864
0.028899599 0.15017007 0.06411719 0.049027354 0.074551225 0.08054735 0.05859097 -0.0031845653
0.0887051 -0.012700071 -0.057530746 0.08151325 0.05703443 -0.12951458 0.12365503 -0.116636954
-0.03143017 -0.03048972 -0.02514501 0.07587781 0.077022724 0.09686139 -0.115380906 0.005129441
-0.051032446 -0.043023564 0.11533135 0.06898318 0.054001518 0.14353596 0.037435353 0.0012586074
0.10569127 0.040840473 -0.047657724 0.12123615 0.07165313 -0.044476483 -0.1534287 0.07786264
-0.059562434 -0.011963454 -0.01506885 0.0064611766 0.049530733 -0.052160315 0.050497223 0.044616163
-0.031804312 -0.067060865 0.027704142 0.09575375 -0.06302948 -0.068601556 0.14233755 0.05123393
-0.10487448 -0.08375443 0.14860786 -0.10110256 -0.078054786 0.054366525 -0.042107586 0.0047281985
