PINN_RNN/models/pinn_rnn_h64_l2_d0.10_s10_20250726_105522/model_pinn.pth (torch, 231586 bytes, 12 tensors)

rnn.weight_ih_l0 f4 [256, 9]
00000000: aa30 34bc e930 db3d ffe3 e5bd 9f1f 2a3c
00000010: 89d4 86bd bb0a f3bd 4845 d73d 4af2 ed3d
00000020: e60d 903d 3bb3 db3d 67d9 92bd b125 e63d
00000030: 36b2 2b3e 7060 30be 84e8 473c b949 5c3d
00000040: c7c2 ae3d f70b 5b3d 59d0 153d 5c29 7f3d
00000050: f4aa 5c3d d25c 29bd 7a19 4e3d 7b3f 6cbd
00000060: 68fe 043e f85c 5ebd b9bf a3bd a616 923d
00000070: 707a 083e dbce 6a3d 00db 1b3e b7c5 4a3d
00000080: 8081 12bd b3af 313e e7a1 0fbe dbcd de3d
00000090: 8d18 2b3d 53a9 6a3d e5d2 1f3e 2f96 9fbd
000000a0: 62ce 733d 5fb1 2b3d cd5b 213c 2070 993d
000000b0: e2a4 bebd bf14 e73d 894b 2dbd cbcc 853b
000000c0: e013 8e3d 6a64 a93c 040a f0bd 484b fe3d
000000d0: c108 09bd 7a3d 5b3c f09e fdbb 2dfd 5b3b
000000e0: 20a9 ff3c cef1 293d 06cc d63c 3fcd 26bd
000000f0: 69a3 a9bd 875e bd3c b783 ef3d f834 ff3d
00000100: 04af 763d d7fa c93d 1163 c03d 01e7 cfbd
00000110: 21a6 2f3a fed5 d9bd 742a 6a3d f8e1 223d
00000120: d36b 073e af64 bf3d cba4 09be 565b 81bd
00000130: 00c3 333d a0bd d7bc 41ea 73bd bf2c 2fbd
00000140: 18b1 ba3d e84b 333e cb38 83bd db13 b03d
00000150: d301 d53d 9d22 2ebd 1a3e 85bd 82d7 713d
00000160: 058a 7abb f0d4 d5bd 781b 293d 46dd b03d
00000170: 40d8 143d bba1 663e c3d9 34be b2a6 b93b
00000180: 6e1f c73c 5403 8a3d 2506 f73d 9977 b43d
00000190: c9f3 cf3d 8e5d 0f3d 0bca 1abe 1abb fabc
000001a0: 584f e23d c4d8 113e 6377 843c efa3 ac3d
000001b0: 4d09 50bd 8e8e 7b3d 453d dcbc cde3 4f3e
000001c0: af55 15bd 154d b9bd 7ff6 1fbd 97b4 7bbd
000001d0: 69af 9a3d 5a8a 013e fc9c fc3d c56e 263c
000001e0: 2765 723d f88f c73d df5d ab3d 483d 4d3d
000001f0: e24c 98bd 7651 493c 93fa 9f3d 8ef2 873d
00000200: 7450 c93c c078 1b3e ac16 38be c128 f2ba
00000210: 1322 073e c7df 94bd 0283 b63c 9589 8fbd
00000220: b3f8 ca3b f401 43bd bf18 24bc efff 6cbd
00000230: d9b9 243d e2a7 53bd cf57 d2bd 8ef0 a53b
00000240: 605b e8bc 4046 1c3d 7c51 343d bf4a 343e
00000250: c7fd 40bd 6e32 f9bd 5191 0cbe 3763 fd3d
00000260: 9f35 e2bd 1868 c7bb 1303 92bd 2746 fcbc
00000270: 6cd3 b1bd 37c2 863d 728a 37bd 4241 d93d
00000280: 7842 bc3d 56ba ba3d a776 1a3e 3c9a 6cbc
00000290: cbe0 e3bc 0eb1 05bd c4dc 563d 21bb 61bd
000002a0: 1038 d43d 11a5 74bd b85e 373c eedc 5fbd
000002b0: d3b8 ad3d ac8a 83bc 4d76 8f3d a232 c8bd
000002c0: 8551 0ebe 693a d83c d72e 843c b501 cabd
000002d0: dd6d 8bbd 0505 b03c 872b f83d 3508 bf3d
000002e0: 0e0a c03d d481 eebb 1cdf fcbd 7c4f a53d
000002f0: 88f9 cabd c505 0f3e a673 d03d f468 8cbd
00000300: e3d7 bdbd 174f 49bd 6468 79bd c621 18bd
00000310: 811c e3bd bf6e 1abc b5dd 3e3e 9ed2 d23d
00000320: e1c8 0abe ab13 a93d 096d 87bd c81b 753d
00000330: 532c ae3c edca efbc 7e89 b13d 0cdb 973d
00000340: fda6 c9bd ae42 033d fa59 123d 82f7 ba3d
00000350: 914c 253e 77a2 91bb 370c 2c3d abef 813d
00000360: a984 ea3d d000 c7bd 2187 52be 904b 86ba
00000370: 3143 1b3d c33f 03be 2932 19bd 3b18 b2bc
00000380: 1b71 c43c bc3d e03c bce1 a8bc 3640 0c3e
00000390: 7e1f 3abc b035 e7bd 10c8 06be 61ed 513b
000003a0: e834 9ebd e9bd 89bc b3e2 8ebd fe54 e9bc
000003b0: 2a2c 9a3d 1433 da3d ca2b d53c 1518 3cbe
000003c0: 5afe debd 8274 133e 813a d3bd 1f5c e6bb
000003d0: 240f 903d 8634 adbd 9883 653d 8e11 67bd
000003e0: b06f 3ebd af2a aabd 4766 0fbe 8496 023e
000003f0: 14e6 b73d 0dec c53c a9e0 003e 957e 4dbd
-0.010997931 0.10702688 -0.112251274 0.010383516 -0.065835066 -0.11867281 0.10511261 0.116184786
0.07033901 0.10727545 -0.071703725 0.11237658 0.16767201 -0.17224288 0.012201432 0.053781245
0.085332446 0.053478207 0.03657565 0.062295303 0.05387397 -0.041348286 0.050317265 -0.057677727
0.12987673 -0.05428788 -0.079955526 0.07133226 0.13327956 0.05732618 0.1522026 0.04950496
-0.035768032 0.1735218 -0.14026605 0.108791076 0.04177146 0.057290386 0.15607794 -0.07792317
0.059522994 0.0419172 0.009848547 0.07492089 -0.09308793 0.11283254 -0.042308364 0.004083251
0.069373846 0.020677764 -0.1172066 0.124167025 -0.033455614 0.013381356 -0.007739894 0.0033567653
0.031208575 0.04149037 0.026220333 -0.04072308 -0.08283121 0.023116363 0.116950445 0.12461275
0.0602255 0.09862297 0.093938954 -0.101514824 0.00067004754 -0.10636519 0.057169393 0.03976628
0.13224725 0.09345376 -0.1344177 -0.06316249 0.04388714 -0.026335537 -0.059549574 -0.042767283
0.09115809 0.17509425 -0.06407317 0.08597537 0.104007386 -0.04251348 -0.065059856 0.059043415
-0.0038229239 -0.10441005 0.041285962 0.086359546 0.036339045 0.22522633 -0.17661195 0.0056656236
0.024306979 0.06738916 0.12061719 0.08811874 0.1015392 0.03500133 -0.15116136 -0.030606795
0.1105029 0.14242846 0.01617021 0.08429705 -0.05079012 0.061415248 -0.026884684 0.20301743
-0.036458667 -0.09047905 -0.039053436 -0.06145152 0.07552988 0.12650433 0.1233463 0.010158245
0.059178498 0.09744257 0.08367514 0.05010727 -0.07436539 0.012287488 0.07811465 0.066380605
0.024574496 0.15182781 -0.17977399 -0.001847528 0.13196592 -0.07269245 0.022279266 -0.070086636
0.006194198 -0.047609285 -0.010015666 -0.057861265 0.0402163 -0.051673777 -0.102706544 0.0050640767
-0.028363883 0.038152933 0.044023022 0.17606638 -0.04711702 -0.12167822 -0.13727309 0.12372439
-0.11045384 -0.006085407 -0.071294926 -0.03079517 -0.08682904 0.06580012 -0.044809766 0.1060815
0.091923654 0.09117572 0.15084325 -0.014441069 -0.02781715 -0.032639556 0.052456632 -0.0551101
0.103622556 -0.059727732 0.011192016 -0.054654054 0.08482518 -0.016057335 0.07004986 -0.097752824
-0.13898285 0.02639504 0.016135616 -0.09863607 -0.06808064 0.021486768 0.12117677 0.09327737
0.09376918 -0.0072786603 -0.12347242 0.08071801 -0.099108756 0.13967045 0.10178308 -0.06855956
-0.09269693 -0.04914769 -0.06089057 -0.037141584 -0.11089421 -0.009425818 0.18639262 0.10294078
-0.13553192 0.082557045 -0.06612594 0.059840947 0.02126137 -0.029271567 0.08668803 0.07414827
-0.098463036 0.032046013 0.03573034 0.091292396 0.16142489 -0.004444416 0.042003836 0.06344541
0.11451084 -0.09716952 -0.2055936 -0.0010245908 0.037905876 -0.12817292 -0.037401352 -0.02174007
0.023979714 0.027373187 -0.020615451 0.1369637 -0.011360047 -0.11289537 -0.13162255 0.0032032358
-0.07724935 -0.016814189 -0.06976833 -0.02848291 0.07527955 0.10654274 0.026021857 -0.18368562
-0.108883575 0.14399913 -0.10313893 -0.0070300247 0.07034138 -0.08457284 0.0560337 -0.056413226
-0.046493232 -0.083089225 -0.1400386 0.1275273 0.08979431 0.02416041 0.12585701 -0.050169546

rnn.weight_hh_l0 f4 [256, 64]
00000000: f85e 60bd 25d7 963d 52b2 823d 4b2e 50bd
00000010: 5784 103d a66a 02be 5866 2ebd de35 a7bd
00000020: 6b0b 123d 2ca4 cd3c 9ce2 b8bd 93c2 733e
00000030: 086e 52bc 0b5d ccbd bd9a fcbd bf4d 93bd
00000040: f5e1 adbd cd62 133d 6d1f ea3d 2614 ae3d
00000050: 12c4 113e 35fa fbbd d6ea 1a3d e1db 3abd
00000060: ef1a 48bb a2fd b0bd ff1c 283d e9e0 14be
00000070: 3d69 d6bd 6677 84bd b1f3 c03c 8983 09be
00000080: c128 f5bd 63d7 b7bc 2433 153e a954 5dbd
00000090: 9ca8 2a3d b92a dd3b 11f2 803d 7f44 97bd
000000a0: b009 94bb 4b5b 2dbd 55cb eabc 34b3 123e
000000b0: 758d c2bd e980 9cbd b70a 9d3d 95eb 21bc
000000c0: bda0 a63d 4fb3 d8bd f835 d9bc 8ecc 1ebd
000000d0: 6f60 023d 71da 76bc 8726 0fbe cc2a 9ebd
000000e0: 1db2 003c da75 83bc 5f7d 46bd 34d8 bc3d
000000f0: 3884 81bc 3c1f 43bd 978c 3ebd 0fff 1b3c
00000100: 4ab5 05bd a822 8a3c b906 983d 8196 173b
00000110: 4ba6 46bc c619 443d f3c2 36bd d791 843d
00000120: dd64 af3b 5f83 2bbc 875b 95bd 7653 083e
00000130: ade6 3cbd bb87 3c3d 34d9 3e3d 9fd7 12be
00000140: 6fb8 a5bd b185 003e 294b ce3d 5f32 7ebd
00000150: 0c40 72ba d708 23bd 0d44 d0bd 175c 053e
00000160: 1ac8 df3d 9231 d83c 5847 c23d 75e1 243d
00000170: 26f9 183d f764 59bd c8e0 b9ba 653f 93bd
00000180: 9c7d 823d 3086 203d 9682 30bd 5f9b 03bd
00000190: e896 2c3d 34ae 913d 9fd8 eb3d ed6b 833d
000001a0: 6b4a febc f178 1f3e ee74 203e f365 fd3d
000001b0: ce09 ea3d e64b fabd a5d5 943c 630e bf3d
000001c0: a849 10be 73f5 de3c c093 c8bd fca8 8ebc
000001d0: 3437 933d b599 b3bd 7d56 3ebc d442 a1bd
000001e0: 2be6 843d 09c2 f33c cbdc 743d 52a6 b53c
000001f0: e4c1 12bc 18b9 93bb 8c79 b0bd 6aa8 893d
00000200: 52e7 583d 289b a2bc 86c5 a0bd 4a50 be3d
00000210: cc6b 0ebd d785 95bd 188c 56bc 1222 45bd
00000220: 68f0 1b3e 5077 f6bd 08ec 003e 2e85 623e
00000230: bf55 6e3c 0810 f53d edce 39bd 9d0c e0bd
00000240: 657d 4fbd ed28 cabd 9275 243d 0439 93bc
00000250: c6c2 083e 3adf efbd c4fc c63d ea14 013e
00000260: 1d7b 293d ef79 833b eb0b 1e3d 5984 273d
00000270: 080a bbbc e896 1abd 17ed 1a3d a19f e93c
00000280: 6e95 683d 2a86 98bd e894 79bc a895 92bd
00000290: efc5 a73d f09f 003e b57d bcbc bcbc c0bd
000002a0: c490 033d 11c8 0abc ed8f f13d d38f bb3d
000002b0: 6cf0 003d b010 53bd 1899 76bd 5006 ff3c
000002c0: f4eb e7bd c30c bfbb 1511 05be 02ca edbd
000002d0: b8ba 1a3c 29ff 003e e086 623c c801 323d
000002e0: f7f2 9f3d 746b b5bd 90b6 323c 1d4c 82bd
000002f0: cbc3 ef3d bd89 6abd 5166 683d 9bad 903d
00000300: fdd1 8c3d ef26 afbb 6c2f a03d 703d 133c
00000310: ff88 a13d b9d6 6cbd d40c d2bc 3128 03bc
00000320: 325d 4fbd e569 2ebe fd71 93bd 46fd 2c3e
00000330: 56cf 86bd abe5 efbd f2e0 a03c e5ee bdbd
00000340: 5d3e 06be 66fc 85bc eb22 e63d 858f adbd
00000350: 7eb0 803d 8dee 6cbb 08c2 36bd 3139 293d
00000360: d8e7 023d 49c8 703d 0dfd 84bd 8da6 c3bd
00000370: e344 c33c ce19 9abd bde7 fd3c 40e8 07be
00000380: 9cba 063c 36f0 03be 8ac1 b13d ad44 3bbd
00000390: 07e6 60bd c0be 74bd 4a4b f73d 1573 5f3d
000003a0: 7fdc 18be 7c87 edba b297 f23d 7192 363e
000003b0: 88ef 14bd 596b b2bc 95ab 9d3d e237 c9bd
000003c0: 570f 02bd 5af5 0abe 2bbc df3c 001e 48bd
000003d0: 0e30 38bd e0a9 643c 9d9c 05bc a4ae 4c3d
000003e0: 0b93 b93d c6f8 9d3d f349 acbd fadc bcbc
000003f0: 9c4b 353d 82de 05bd 7f85 0fbe 6441 94bc
-0.05477807 0.07365254 0.06381668 -0.0508254 0.03528246 -0.12735996 -0.04257807 -0.08164571
0.03565542 0.025102697 -0.09027597 0.23804693 -0.012843616 -0.09978684 -0.123342015 -0.07192563
-0.084903635 0.035982896 0.11431775 0.08499937 0.14234951 -0.123035826 0.037821613 -0.04561985
-0.0030533632 -0.086421266 0.041043278 -0.14538921 -0.10469291 -0.06468086 0.023553701 -0.13429083
-0.11970664 -0.022441572 0.1457029 -0.054035816 0.041664705 0.0067494777 0.062961705 -0.073861115
-0.0045177564 -0.042323392 -0.02866141 0.14326173 -0.09499637 -0.07641775 0.07668059 -0.009882827
0.08136127 -0.105810754 -0.026514992 -0.038769297 0.031830247 -0.015066729 -0.13979541 -0.077230066
0.0078549655 -0.016047407 -0.048459407 0.09220925 -0.015810117 -0.04763721 -0.046520796 0.00952126
-0.032643594 0.016862229 0.07423157 0.0023130479 -0.012124608 0.047876142 -0.04461951 0.06473129
0.0053526 -0.010468333 -0.07292848 0.13313088 -0.046118427 0.04602788 0.04659386 -0.14340065
-0.080918185 0.12550999 0.100729294 -0.062059756 -0.0009241111 -0.039803352 -0.1016923 0.1302341
0.10926838 0.026390824 0.09486264 0.040254075 0.03734698 -0.053074803 -0.001418137 -0.07189826
0.06371614 0.03919047 -0.043093286 -0.032130595 0.042136103 0.07113305 0.115159266 0.064170696
-0.031041345 0.15573479 0.15669605 0.12372961 0.11427651 -0.12221508 0.01816828 0.09328916
-0.14090598 0.027216649 -0.09793806 -0.017414562 0.071882635 -0.08769552 -0.0116173 -0.078740746
0.064892136 0.02975561 0.059780877 0.022174034 -0.00895736 -0.004508149 -0.08616933 0.067215756
0.05295498 -0.019849375 -0.078501746 0.09292658 -0.03477077 -0.073009185 -0.013094924 -0.048128195
0.15228426 -0.12034476 0.12590039 0.22121117 0.014546811 0.11965948 -0.045363355 -0.10939906
-0.050656695 -0.09871087 0.040151186 -0.017971523 0.1335555 -0.11712499 0.0971618 0.12605634
0.041377176 0.0040123384 0.038585585 0.0408977 -0.022831932 -0.03774157 0.037823763 0.0285185
0.056783132 -0.07447465 -0.015233256 -0.07157451 0.0819205 0.12561011 -0.02300916 -0.09410998
0.03212048 -0.008470551 0.1179503 0.09158292 0.031479284 -0.051529586 -0.060204595 0.03113094
-0.11324301 -0.0058303787 -0.12994798 -0.116107956 0.009443931 0.12597336 0.013826102 0.04345873
0.07810014 -0.08858386 0.010907784 -0.06362174 0.117072664 -0.057260264 0.0567382 0.070643626
0.068759896 -0.0053452174 0.07821545 0.008986816 0.07887458 -0.057821963 -0.025640883 -0.008005188
-0.050625987 -0.17032583 -0.07199476 0.16893491 -0.06582515 -0.117137276 0.019638512 -0.09274081
-0.13109727 -0.016355705 0.11237129 -0.0847464 0.06283663 -0.003615293 -0.044618636 0.041314308
0.031959385 0.058784757 -0.06493578 -0.095532514 0.023836559 -0.07524453 0.03099429 -0.1327219
0.008223202 -0.12884602 0.08679493 -0.04571979 -0.05490687 -0.059752226 0.12074907 0.05455311
-0.14927863 -0.0018122043 0.1184534 0.178293 -0.036361247 -0.021779703 0.07698742 -0.09825112
-0.03175291 -0.13570157 0.027311405 -0.048856735 -0.044967704 0.013956517 -0.008155015 0.049971238
0.09061249 0.077134654 -0.08412542 -0.023054589 0.04426156 -0.032682903 -0.14015768 -0.018097587

rnn.bias_ih_l0 f4 [256]
00000000: aea6 f53d 8552 8fbd 89d6 023c a599 db3d
00000010: 2313 413c 60d4 163d 0f2d 25bc 98d1 ccbd
00000020: e85e f0bd 90cc ddbc 50d6 64bd 7844 103d
00000030: ae7d 3f3d d518 bfbd f035 1f3e 4d7d 87bc
00000040: a711 80bd 293c ae3d 4740 8b3d 5c02 95bc
00000050: 351e a23b cbf3 163e 188d 943d 4f6b e8bc
00000060: 6d5b 04be 6c70 0a3e bd97 b9bc 8830 c93c
00000070: befc c93d 71c7 d63d e758 6dbd 49ad 903d
00000080: fc4a f63c 95eb 98bc c189 223e af45 0d3d
00000090: e80a 023d 23da 0e3c a2b4 7dbd 5707 223d
000000a0: 88c9 40bc 8ce1 e23c f6f5 54bd fd96 163d
000000b0: a7b8 323d fe09 90bd 4d71 963d 62ee 5cbd
000000c0: ca3c 20bd 8b72 92bc 5826 443d f2eb 40bd
000000d0: 4ed5 a13c 763f 8f3d 77f2 b0bd 18b1 a5bd
000000e0: 4f09 d3bd 15bc 91bc 6250 c3bc d797 1e3e
000000f0: 6d44 1ebd e6e7 b63c 4f7f 653c 3911 8b3c
00000100: 7cbc 3cbd 23cc 09bc ea63 e0ba 63b6 c23d
00000110: 011c fe3c eb87 ab3d 425e d8bd d588 9a3d
00000120: eddb 233c 2f4f 233d b9b1 44bd 468e 133e
00000130: 4218 a0bd 24c3 ebbb 73df bfbc 1cce 043e
00000140: 6afd 3fbc 96c3 f73d d16a 61bd 2bb2 4c3c
00000150: 51dd 753d 40b7 9b3c ce4a 1cbc ff20 07bd
00000160: 756a e13d 44e4 52bd 0370 a63d b0a5 123e
00000170: 3e8b 283d 7524 f93d ca33 adbc 6e95 9f3d
00000180: 2a4e 8cbb b076 6fbd 337a 47bd b0b9 88bd
00000190: 15ab 283b 9288 983d 8cb5 043e aae5 d4bd
000001a0: 43e8 ef3b 6f27 183d 2c8b a0bd 025f c83c
000001b0: 581f 87bd c1fa a73a 695f 65bc e4d0 a33d
000001c0: cf19 603d d0ed 93bd 73b7 95bd 4c8a abbc
000001d0: 0739 6dbc e4d6 fb3d 016f b4bc d183 b9bd
000001e0: bce5 f6bd 1885 90bd 6a5e cfbb a6df 81bb
000001f0: 6f8d 0e3e 6e49 26bd 825f 9e3d 4d61 933d
00000200: 1b2c 113d 0fc5 c8bd 0bd6 ddbd 6193 983c
00000210: 3825 123e 9157 06be 1e09 0a3d 4baf cabd
00000220: 92ca 89bc b559 c4bc f85a 2bbd aec5 39bd
00000230: de46 9ebd e5ff 033d 36a7 1fbd d56c 17bd
00000240: 2d22 f4bd 083c 02be a129 e93c 3992 f5bc
00000250: 183c 80bd 55a3 3abd 2011 ba3d fee4 bf3c
00000260: 825a 123d 04e1 d73d 55e2 bbbb 45e8 9abd
00000270: 6ee3 5cbd b3c6 8f3b 8731 1bbe b320 f5bd
00000280: eae5 93bc 7257 5d3d 7468 6b3d dd90 04be
00000290: 99d4 7ebc 031c 3abe 4822 f63d 1083 403d
000002a0: ba35 d9bd 6867 adbd 43aa ce3d 7483 103d
000002b0: 22c2 013e 838b a3bd 97f8 923d d0d6 113e
000002c0: 6c3e 23bd 76ac 96bd 5533 bebd 3902 06be
000002d0: 5c3a 36bd 39dc 5fba 2c35 02be 2633 923d
000002e0: a6c3 933d 192c f23d b9a7 22bd 8938 51bd
000002f0: d5b6 8ebd f62d c3bd 185d 88bd fae2 593d
00000300: 8e67 223d e5a9 71bd 340d 8a3c 9e3c dd3d
00000310: 008f c33d 266d 0d3e cca6 4abd 20f8 853c
00000320: ce87 953d 0104 24bd c3ec 2a3d 554e 6c3e
00000330: b555 b5bb ba72 dfbd 44b7 4ebd f5ee 843d
00000340: bc16 1bbd 5453 b4bd 1d39 3c3d de44 3bbd
00000350: 05ec 4e3d 52b9 6b3c 3021 2c3b 830a f8bc
00000360: d5f7 bb3d 25fd 5b3d f8ec 3abd dfd9 bdbd
00000370: a96c 1fbb b55b be3d db5b ee3b 1cec b13c
00000380: 8147 39bd 8aa9 dc3c 1c5d ca3d cc0f 173d
00000390: c995 a1bc 0bb7 163d c40c 133c 8b4d 473c
000003a0: 9071 a5bd 50bf 763d aa9f 993d bb54 853e
000003b0: c334 d03d 627f 0ebc 67a5 013e f855 ddbb
000003c0: f50e f53c 6093 833d 5f69 7cbc 8e21 a13b
000003d0: 1b1e 36bd 195e 8abd 9195 1a3c a917 283d
000003e0: 0450 89bd 17e7 ae3d 40f5 1c3e 23c8 443e
000003f0: af8e a7bd 5c93 adba 0936 443d d378 b33d
0.11994682 -0.06998161 0.0079857195 0.10722665 0.011784348 0.03682363 -0.010081544 -0.10000914
-0.11736852 -0.027075082 -0.055868447 0.035221547 0.046750717 -0.09330908 0.1554792 -0.01653924
-0.06253367 0.085075684 0.06799369 -0.018189602 0.0049474486 0.14741437 0.07253474 -0.028371481
-0.12925501 0.13519448 -0.022655362 0.024559274 0.0986266 0.10487259 -0.057946112 0.070643015
0.030065052 -0.018667022 0.15872861 0.034490284 0.031748682 0.008719 -0.061939843 0.03955778
-0.011766799 0.02769544 -0.05199238 0.036765087 0.04363313 -0.07033156 0.07345829 -0.053938277
-0.039120473 -0.017876884 0.04788813 -0.047100015 0.019755032 0.06994526 -0.086399965 -0.080904186
-0.1030451 -0.01778988 -0.02384204 0.1548761 -0.038639475 0.022327375 0.0140074035 0.016975986
-0.04607819 -0.008410486 -0.001711962 0.09507444 0.031019213 0.08375534 -0.10564853 0.0754563
0.010001165 0.039870437 -0.048021052 0.14409742 -0.07817127 -0.0071948934 -0.023421979 0.1296925
-0.011718133 0.12097852 -0.05503351 0.01249365 0.060025517 0.019008279 -0.009539319 -0.032990452
0.11006633 -0.051487222 0.08126833 0.14321017 0.041148417 0.12165157 -0.021142859 0.07792173
-0.004281779 -0.0584628 -0.048700523 -0.06676042 0.0025736738 0.07447924 0.1295988 -0.103953674
0.007321389 0.03714698 -0.07839045 0.024459366 -0.06597775 0.0012815819 -0.013999798 0.07998827
0.054712113 -0.072230935 -0.07310381 -0.020939969 -0.014478928 0.122968465 -0.022025587 -0.09058345
-0.12055537 -0.070566356 -0.0063283937 -0.0039634285 0.1392114 -0.04059737 0.077330604 0.07196293
0.035442453 -0.09803211 -0.10831841 0.018624963 0.1427201 -0.13119341 0.0337001 -0.09896716
-0.016820226 -0.023968557 -0.0418348 -0.045354538 -0.077283606 0.032226462 -0.038977824 -0.036969025
-0.11920581 -0.12718213 0.028462233 -0.029976951 -0.06261462 -0.04556592 0.090852976 0.023424622
0.035730846 0.10540965 -0.005733768 -0.07563833 -0.05392783 0.0043877005 -0.15155612 -0.119691275
-0.018053968 0.054038472 0.05747266 -0.12945886 -0.015553617 -0.18174748 0.120182574 0.04699999
-0.10605951 -0.08466989 0.100910686 0.035281613 0.12671712 -0.07985594 0.07176321 0.142421
-0.039854452 -0.07357113 -0.092871346 -0.13086785 -0.04448925 -0.00085395906 -0.12715596 0.07138662
0.07215051 0.11824817 -0.039710734 -0.051079307 -0.06968466 -0.09530251 -0.06658381 0.053194977
0.03964954 -0.058999915 0.016851999 0.108025774 0.095487595 0.13811168 -0.049475476 0.016353667
0.07301293 -0.04004288 0.0417297 0.23076756 -0.0055338987 -0.10910554 -0.050467744 0.0649089
-0.037863478 -0.08804956 0.045952905 -0.045719974 0.050518055 0.0143874455 0.0026264898 -0.03027845
0.091781296 0.053708214 -0.045636147 -0.09270071 -0.002432624 0.092948355 0.0072741336 0.021719031
-0.045234207 0.026936311 0.098810405 0.0368803 -0.019724743 0.036795657 0.0089752115 0.012164484
-0.08078301 0.060241044 0.07501157 0.26041207 0.101663135 -0.008697363 0.12660752 -0.006754633
0.029914359 0.06424594 -0.015405982 0.00491733 -0.044462305 -0.06756229 0.0094350735 0.04103819
-0.06704715 0.08540171 0.1532793 0.19216971 -0.081815116 -0.0013242769 0.047903094 0.0876328

rnn.bias_hh_l0 f4 [256]
00000000: 290d 433d 9595 8bbb d25b bbbc 3849 23bd
00000010: 2f89 c23d 18b0 1e3e 161b ff3b 5862 cd3d
00000020: f784 7e3d ae1b bc3c 70f9 873d 27fc 333e
00000030: 0738 d23d e5ac a1bd 286c ed3a fe58 b43d
00000040: edf4 a2bd 0df8 1c3d 20f8 22bd 514a 713d
00000050: 4bdd 9cbc c11c 433c a1d6 6cbd da5b e83d
00000060: d7fe 99bd 8935 853d 525a a13d a218 b3bd
00000070: 62db c13d 6154 3cbd 929a 31bd bcca a73d
00000080: 5a88 f13c 19df 003e 6466 a73d 074d 3e3d
00000090: 6d0d 313d 185f a53d ae54 f23d 897d 6bbd
000000a0: 68ec 84bc db9d 923d c830 22bd 7f16 263e
000000b0: d3e3 aabd 7618 c8bd 93e4 6fbc c8f4 51bd
000000c0: 38d4 71bd 9e09 6e3d ff60 d83d 594f d8bb
000000d0: 6629 c23c c220 d4bd 8139 e83d 52d2 4f3d
000000e0: 8331 f2bb adc0 1ebb e1b9 b03d ba00 d73b
000000f0: f341 f53c 38e1 663c 7c0e 8e3c 4edd 223e
00000100: f1d4 9dbc 71d9 b6bd b9e5 1f3d f7c8 ab3c
00000110: 7f2a 053e df52 7ebd 4a11 a1bd 17f3 cb3d
00000120: 2c3d 96bd 9ce4 a33d 7f12 703d 35ca 18bc
00000130: 0be3 bc3b a4f1 8ebd 7f19 db3d 7d3d c73d
00000140: e273 163e 9aff fbbc fb5e 993c b913 5fbd
00000150: 7703 9f3d 9709 94bd d08c 513d 739d 053d
00000160: 36be 243d e61c c3bd f02e 4c3d 76c0 823d
00000170: 84b8 8c3d 5b42 0e3d e4c8 8abc d1c0 053e
00000180: 7c7e 0ebd c4c9 0e3e 362e aa3d 530c c83d
00000190: b825 b6bc 7f9d 3b3e c7ef ff3d 08b2 0f3e
000001a0: db35 87bd 17dc 473d 14e1 aebd 68ee 30bd
000001b0: eeb2 b3bd 3560 533b af0d 51bd fbf9 02bd
000001c0: 4607 e8bc 44cc 0c3d 0bdb 823d bae0 843c
000001d0: c25b bfbc a896 4ebc fa7f 99bd ebe8 bcba
000001e0: 8b60 d63d ca84 34bd f978 7c3d 0854 f93d
000001f0: bb28 e53b 9404 10bd d8ab f63d b73d 483c
00000200: 2c00 063e 1c54 9b3c 5bba ecbd a3fa f13d
00000210: bc4f 0cbd bc90 483d 3cb2 b7bc ba31 63bd
00000220: a7a2 113e 41b1 76bd 5dd5 d23b 8d7c b13c
00000230: 3a52 143c a1bb 803d a65d edbd a10d 04be
00000240: 5fa5 1cbd fa5f 09be 8164 3abc f967 233e
00000250: 9379 fbbc 6645 d5bd e817 b13d b003 1e3d
00000260: 53fe a83d acde cf3d 0c7d ac3d 53b2 54bd
00000270: 04f6 01be 9498 b5bc 2fdd ccba 45b0 2ebd
00000280: 42e8 5dbd 7288 81bd ca45 153d 6bdc 03be
00000290: 474f a83d 7511 aabd c1a5 023e df8b e23d
000002a0: b326 4dba e375 073e 75bf cc3d 9adf bbbd
000002b0: 962f 41bd 40f7 19be 4a04 233e 846c 1b3c
000002c0: 04c2 04bd ef8b 633b cf51 05be e28f cdbd
000002d0: 6f4f 593c bee6 253c af31 8fbc 6651 813d
000002e0: 206d 833d cbf4 44bd 5d87 33bd 7005 b6bd
000002f0: e98c df3d 6cb7 c6bd 6a1d 8ebd 6c33 143e
00000300: 50c9 33bd c07b c33d 2a46 7e3c 9239 d4bd
00000310: 9c7b 3d3d 362f 7c3d a73b f9bc 9f56 53bd
00000320: 6a50 d2bd d6b3 0f3e 2f13 1b3d e171 db3d
00000330: 7650 37bd 6f67 863d 873c 273c b4c7 753d
00000340: 7d35 bfbd e489 bc3c cfdf 8bbd 6a5b 1c3d
00000350: 73ff f23c f650 a43c df71 c3bd 52c0 79bd
00000360: 3d5b debc 69d3 a3bd 8c67 ccbd ab8b f8bd
00000370: fa1a b93d 8976 31bb a51f aebc 2298 a5bd
00000380: a0b6 b73d 75cb 0d3e c4d1 ba3d 66f1 afbb
00000390: e9d0 91bd 8b49 3b3d b573 af3d 358f 673d
000003a0: 18db 99bb 7e23 a13d 1bb8 6b3d 1143 4a3e
000003b0: 643d 773d 2d44 d4bc b900 073e be49 86bd
000003c0: 6e05 923d 8f27 cd3b a3ba f73d eb32 cd3d
000003d0: 6838 8cbc fff0 5cbc ba9b bbbd 7df0 f23d
000003e0: a206 94bd a53b 9a3d c076 ed3c 108d 0b3e
000003f0: 4b63 3abd ef12 2cbd 6d46 9abd 2ed6 153e
0.047619972 -0.004259775 -0.022870932 -0.03986475 0.09498822 0.15496862 0.0077852113 0.10028523
0.062138524 0.022962417 0.06639373 0.17576657 0.102645926 -0.07894305 0.0018113898 0.088060364
-0.07956872 0.038322497 -0.03978741 0.058908764 -0.01914849 0.011908711 -0.057821874 0.11345644
-0.0751931 0.06504352 0.07878555 -0.08744933 0.09465672 -0.045978907 -0.0433603 0.081929654
0.029483963 0.12585105 0.08173826 0.046460178 0.043225694 0.08074778 0.118325576 -0.057492767
-0.016226009 0.07159015 -0.039597303 0.16219519 -0.08344235 -0.097702906 -0.014641899 -0.051258832
-0.05904028 0.05811464 0.105653755 -0.006601256 0.023701381 -0.103578106 0.11339093 0.050737686
-0.007391156 -0.002422373 0.086292036 0.006561366 0.029938674 0.014091782 0.017340891 0.15904734
-0.019266577 -0.089281924 0.03903744 0.020969851 0.13004492 -0.06209075 -0.07864626 0.09958475
-0.07335886 0.08002588 0.05861139 -0.009325554 0.0057643703 -0.06979683 0.10698222 0.09728525
0.14692643 -0.030761529 0.018722048 -0.05446217 0.07764333 -0.072283916 0.05115968 0.03262086
0.04022046 -0.09526996 0.04984945 0.06384365 0.06871131 0.03473125 -0.016941495 0.13061835
-0.034788594 0.13944155 0.08309595 0.09767976 -0.022234783 0.18321799 0.12496906 0.14032757
-0.06602069 0.04879388 -0.08539024 -0.043196112 -0.087743625 0.0032253389 -0.05103844 -0.03197668
-0.02832378 0.03437449 0.063894354 0.01622044 -0.023359183 -0.012609161 -0.07495113 -0.0014412677
0.10467633 -0.04407195 0.061638806 0.12174231 0.006993381 -0.035160616 0.12044495 0.012221745
0.13086003 0.018961005 -0.11558982 0.11815383 -0.034255728 0.048966154 -0.022423856 -0.055467345
0.14222203 -0.060227636 0.0064341263 0.021665836 0.009052807 0.062857874 -0.11590128 -0.12895824
-0.038243648 -0.13415518 -0.011376501 0.15957631 -0.03069762 -0.10413627 0.08647138 0.038577735
0.082516335 0.10149893 0.08422288 -0.051927876 -0.12691504 -0.022167481 -0.0015629883 -0.042648572
-0.054176576 -0.06324853 0.03644351 -0.12877052 0.08218246 -0.08304111 0.12758543 0.110618345
-0.0007825896 0.13228564 0.09997455 -0.09173508 -0.047164522 -0.15035725 0.15919605 0.009486321
-0.03241159 0.0034720858 -0.13019489 -0.10037209 0.013263567 0.010125814 -0.017479746 0.06314354
0.06417298 -0.048085015 -0.043830264 -0.08887756 0.10915548 -0.09702954 -0.06939204 0.14472741
-0.04389316 0.09545088 0.015519658 -0.10362543 0.04626046 0.06156846 -0.030423952 -0.05159628
-0.10269244 0.14033446 0.03786009 0.1071508 -0.044754468 0.06562697 0.010207302 0.060004905
-0.09336374 0.02301497 -0.068297975 0.038173117 0.029662823 0.020058136 -0.095432036 -0.060974427
-0.027143115 -0.07999308 -0.099806875 -0.121360146 0.090383485 -0.002707871 -0.021255324 -0.08085658
0.0897038 0.13847144 0.09122041 -0.005369353 -0.071199246 0.045724433 0.08566991 0.056533057
-0.0046953075 0.07868098 0.057548624 0.19752146 0.06036128 -0.025911415 0.1318387 -0.06557034
0.07129942 0.0062608193 0.12096145 0.100194775 -0.01711674 -0.013485192 -0.09160562 0.11862276
-0.072278276 0.075309075 0.028987288 0.1362803 -0.04550485 -0.042010244 -0.07532964 0.14632484

rnn.weight_ih_l1 f4 [256, 64]
00000000: 300a 523d 0285 c3bd f369 57bd cb5c 87bd
00000010: b1cf 1b3d a4fe 00be fd5a fb3b 894b 70bd
00000020: 12dc 143e 300a c5bd ccc4 d33d 1cd3 c33d
00000030: e8bb aabd 4239 b6bd 71ee 28bd b985 febd
00000040: 7724 443d 6d93 2abc b2d1 c7bc 8a3d 813c
00000050: 163e 89bc 7c5f d2bd 1c04 db3d a436 a8bd
00000060: 7fbb 033e af1b 133d 9df3 2f3c c9b8 a6bd
00000070: 99d3 113c a185 85bd 0552 43bd 2b62 283d
00000080: 6ce2 903d a61e 0dbb ed8a 203e 2d7e edbc
00000090: 079a 763d 1ef9 10be bcf1 3fbd 0168 91bd
000000a0: 8c09 3d3d c035 a0bd f33d f7bc 110e 013e
000000b0: 2620 193e 24a3 78bb d289 233e 9fbf 963d
000000c0: 9dd5 2cba 9e61 c9bc 2793 e1bd 6aa7 833d
000000d0: 3eb2 20bc b619 923b 7c22 b8ba ff1c cf3d
000000e0: 5081 fbbb 176e d2bd a75d a33d bb7a 07bc
000000f0: 5f3a cbbc 73e6 7ebd 1517 913d 7e7a ab3d
00000100: d7ac 11bc 22c2 543d 4982 033d 2960 53bd
00000110: 9ece 5dbd 4a30 cabd 9851 e1bd b4b9 bc3d
00000120: baf6 e4bc 5642 593d 456c 693d 62ba cc3d
00000130: 06ff cf3c c9f1 fdbd d6be 98bd ab62 27bd
00000140: 54c2 893d 2bb5 aa3d f0ff 013e d6d4 b73d
00000150: d778 f93d 360f 033b 11bc 9fbd ad22 943d
00000160: 7232 bb3b 9579 023e 7614 913d 77e6 c5bd
00000170: 1ff9 ce3d c5ea 053e 06c3 7cbd 5162 ab3d
00000180: 83be c7bb 885e 423d 9b86 913d 0ab2 743d
00000190: baf7 cdbd 7cfd 823d e8ea cc3d 3da6 863d
000001a0: 4806 b13c 2724 9fbd fada 623d 504a 183e
000001b0: 24f4 0b3e ea60 843d 8fb4 0f3e 2240 263e
000001c0: 64d1 303d 53de da3d f1c8 68bc b1c7 57bd
000001d0: 5d32 03be 8923 9bbd 11c8 dabd ba97 d03c
000001e0: 94a2 23bd 529c 91bd 10bc 97bd daec dbbd
000001f0: 06a8 b4bd 8b87 03be 7347 043c f737 dfbc
00000200: 9475 0f3e 3013 b03d 606c 2dbd 27d1 553d
00000210: b39e 813d 6065 22bc 822f 8dbd fc79 6d3d
00000220: 15a8 553c 4c9e d9bc fdee 7abd 61d3 2f3e
00000230: aafa d73d 5e96 a7bd a754 f0bd 1edf 133d
00000240: 7d21 343d f67a b4bd 856f fa3d 5a18 593d
00000250: ca9f 123e 9cd9 b7bd a950 243e 5745 ef3d
00000260: 9803 563d 70a8 bebd c583 74bd 6c54 203d
00000270: 6236 e6bd f5d7 d13d f9f1 debd b50b 1ebc
00000280: 0e0a ccbc 766e bdbd 0758 cabd 7a64 a9bd
00000290: 3325 1bbe 9f29 d7bc 4c49 50bd 95f3 86bd
000002a0: e41b d83c 8459 793d 967b 993b d230 093e
000002b0: ac58 82bb 4d32 9cbd ca6f f83d 705c 8e3d
000002c0: 023e 16bd aa3a 00be ed47 003d 14c7 b13c
000002d0: bc9f 883c 4f68 023e 782b 843b d3df cb3c
000002e0: ca1c e53c 9672 673d 5916 173d 94e3 d9bd
000002f0: 267a 153e de9f 16be 88ea 353d a55e 37bd
00000300: b92b 3abd c187 31bd d83a d43b ee33 9a3c
00000310: fa22 15bd 979f 2cbc 9626 013d 0fdf cdbd
00000320: a9e6 9fbc bb15 07be e429 943d e87f 81bd
00000330: 773a 44bd e6f2 4ebd 294f adbd 1ebd 16be
00000340: 39f7 90bd 4e66 ab3d ef0d 093e 1c34 143e
00000350: 2a73 ba3d 7214 11be 55fc 013e 493f cdbd
00000360: e9ef 76bd 7dae 1a3e da47 003d fe0d cfbd
00000370: afe5 0abd d7cb e43d e4f3 e3bd 8737 b33d
00000380: e8bc 82bd 13a5 11be 95cd 54bc f64e 03be
00000390: c841 5c3d bc17 0abe 4a92 dd3d d37e 73bd
000003a0: af5f b3bd 57e9 083e 893c 30bd 4619 c2bc
000003b0: 69d3 83bd 4fd7 f53a 1bd9 fe3d 1f7c 073d
000003c0: f42c fbbd 3858 d4bd 55e0 6cbd 6973 59bd
000003d0: 748d c0bd d316 78bd 0ee4 48bb 6dba 9e3d
000003e0: c1c0 013d 9109 d53d 496d acbc b6e5 1abd
000003f0: d00d dd3c 9f41 e6bc d94f 7a3b cf60 c2bd
0.051279247 -0.095468536 -0.052591275 -0.06609496 0.038039867 -0.12597138 0.0076707588 -0.058665786
0.14537075 -0.09621084 0.103402704 0.0956175 -0.083366215 -0.0889764 -0.04124302 -0.12427849
0.047886338 -0.010411126 -0.024391983 0.015776414 -0.016753238 -0.102721184 0.10694143 -0.08213547
0.12864493 0.035915073 0.010739234 -0.08140714 0.0089005465 -0.06519628 -0.04768564 0.041109245
0.070744365 -0.002153316 0.15677996 -0.02899083 0.060205486 -0.1415753 -0.046861395 -0.07099915
0.046151683 -0.07822752 -0.030180907 0.12603022 0.1495367 -0.0037939036 0.15970543 0.073607676
-0.000659311 -0.02458268 -0.11014395 0.06428416 -0.009808121 0.0044586314 -0.0014048363 0.101129524
-0.0076753274 -0.10274904 0.07976847 -0.008269007 -0.024808107 -0.062231492 0.07084481 0.08372973
-0.008891306 0.051942952 0.03210667 -0.051605377 -0.054152124 -0.09872492 -0.11001891 0.092151076
-0.02794968 0.05304178 0.05698802 0.09996487 0.02539016 -0.123996325 -0.07458274 -0.04086558
0.06726518 0.08335336 0.12695289 0.08976142 0.121812515 0.001999808 -0.07799543 0.072331764
0.0057128007 0.12741692 0.07083981 -0.09663098 0.1010611 0.13077839 -0.061709426 0.08368362
-0.006095709 0.047453433 0.07105752 0.059740104 -0.10057016 0.063960046 0.10005742 0.06574676
0.02160944 -0.077705674 0.055384614 0.14872098 0.13667351 0.064637974 0.14033721 0.16235402
0.04316844 0.10686936 -0.014208064 -0.052680675 -0.12812181 -0.07575137 -0.10682691 0.025462974
-0.03994997 -0.07109894 -0.07408917 -0.10738535 -0.088211104 -0.12844674 0.008073675 -0.027248366
0.14009696 0.0859741 -0.042339683 0.052201416 0.063290976 -0.009911865 -0.06893827 0.05797766
0.013040562 -0.02656474 -0.061263073 0.17170478 0.10545857 -0.08182977 -0.11734896 0.036101453
0.04397725 -0.088125154 0.12228302 0.05300174 0.14318767 -0.089770526 0.16046394 0.116831474
0.05224952 -0.09309471 -0.059695978 0.03914301 -0.112408414 0.10246269 -0.10885996 -0.009646346
-0.024907138 -0.092495844 -0.09880071 -0.082711175 -0.15150909 -0.026264964 -0.05085115 -0.06589428
0.026380487 0.060876384 0.004683922 0.1339753 -0.0039778557 -0.076267816 0.12130697 0.06951225
-0.03668023 -0.12522379 0.031318594 0.021701373 0.01667773 0.12735103 0.004033502 0.024887001
0.02796783 0.056505762 0.036886547 -0.1063911 0.14597377 -0.14709422 0.04441312 -0.044767994
-0.045451853 -0.043342356 0.0064767413 0.01882359 -0.03641031 -0.010536096 0.03153094 -0.10052311
-0.019519167 -0.13191883 0.072345525 -0.06323224 -0.04790732 -0.050524615 -0.08462364 -0.1472058
-0.07078404 0.083691224 0.13384221 0.14473003 0.09103997 -0.14167956 0.12693913 -0.10021836
-0.06028739 0.15105624 0.031318523 -0.10110091 -0.03391045 0.11171692 -0.11130503 0.087508254
-0.06383687 -0.14223127 -0.012988468 -0.1282309 0.05377367 -0.13485616 0.10818918 -0.05944712
-0.087584846 0.13370262 -0.04302648 -0.023693692 -0.06436808 0.0018756184 0.12443753 0.033077355
-0.122644335 -0.10368389 -0.057831127 -0.05308858 -0.0940198 -0.060568642 -0.003065351 0.07750402
0.031677965 0.10402215 -0.021048205 -0.037816726 0.026984125 -0.028107462 0.0038194566 -0.09491121

rnn.weight_hh_l1 f4 [256, 64]
00000000: 9039 e4bd 40bf 9ebc ee0f af3c 2d42 073d
00000010: cee3 e23c d556 423d 989a 8dbc c8bd 3fbd
00000020: d856 77bd 1a67 38bc 3927 04bc 2600 483d
00000030: 5aff 89bd 0ff2 70bd 49c5 14bb db1b 27bd
00000040: 5ee9 0b3e 54d6 373c 27ad dd3d 1e3b 15be
00000050: 9d28 343d 4a16 cc3c ad29 c0bb f76e 4b3d
00000060: c5b8 c0bb 0ec3 a73d 3866 a6bd a498 67bd
00000070: 4f12 a63d 0aba babd 21bb 09bd 2773 4b3c
00000080: eaba 903d 2098 be3d 9717 fa3d 8d6d 843d
00000090: d921 94bd 8cb0 643c d800 963b 87cb 10be
000000a0: 94e6 613d eeec fabb 6208 f0bb 0889 11be
000000b0: 24ac 0dbd 5038 823d 9bd3 c8b9 3bdd 953d
000000c0: 3bc7 4a3c 37b6 303d 15d0 b2bd 1141 1ebc
000000d0: f618 50bc c5a5 b6bd b63a d0bd 920d d03c
000000e0: c653 f0bd 4938 c03c 1c50 cc3d 5b80 483c
000000f0: 67d8 d9bd 05d7 053e d524 883d 84a7 7b3d
00000100: a15b c6bc e037 053e 3189 cc3c fe65 45bd
00000110: b8aa 03be 71b5 1abd f5d5 ff3c 4aef d6bc
00000120: 74e4 c73d 2d0a d8bb 6730 c13d 1f18 d03c
00000130: 7aa2 8cbd 0d47 943d f925 ac3b e3f9 7c3d
00000140: 5a12 dc3d c0e4 efbd fe73 5ebc 58d2 933d
00000150: 0076 903c 54c2 533d 15d7 8fbd cc4b e43d
00000160: 1666 e9bd 052d ccbc b2c6 4dbc 8cee 003e
00000170: fc1c 733b d704 f43d 9f95 1d3d 9897 60bd
00000180: 9ae7 a2bd 8e79 543d 183e e53d fa7c 77bd
00000190: 5dc2 98bd 8c60 c8bc 6da6 7cbd 040f 91bd
000001a0: e6dc b33d c0fe 77bd 2c1b a63d 33b2 713d
000001b0: 65bd 49bd 29fb 963d 92c1 bcbd 294f 753d
000001c0: 2a09 46bc f118 5f3d 4629 573d 0393 c5bd
000001d0: a140 143d 5d48 af3d be08 1fbe 23cf 033d
000001e0: 6330 a93d 183f 4d3d 605f f43d bc61 8b3d
000001f0: e33b 993d ccef 7dbd 96ed dcbd 63b2 0bbe
00000200: 3903 953c c9c6 40bd 3b9f b3bd 7b18 1c3e
00000210: bd53 bcbd 01ac 6abc d10b cbbc da82 08bd
00000220: 19c2 f63d e5c4 17be a480 02be 395b 3dbc
00000230: 11e2 09ba 6ae0 ad3d d672 a33d e663 6b3d
00000240: 147c 8dbd 4d07 15be 14a0 033e abfa 833d
00000250: 2548 aebd c858 5cbd 5d44 913d 7a7e bbbd
00000260: 2007 a8bc b195 cebd ed44 943c 26d5 703d
00000270: d293 cf3c e92c 1e3d 1252 9c3c e8ee 953d
00000280: a475 d7bd b322 43bd 0d69 1c3e df5d 46bd
00000290: b7c2 9c3d 68d9 5ebd 30c3 f7bd bff9 983b
000002a0: b5fd 0c3d 2e90 40bd 13dd a7bd 6513 873d
000002b0: 0965 22bd ea50 923d e485 17be 1fc7 92bd
000002c0: 5842 8f3d eb71 afbc 0358 05bd 0902 973b
000002d0: 68a2 bebc c209 8b3d 5474 15be 75cd e23c
000002e0: 8cdc babd 3707 a5bd c42f e5bc 202f 00bd
000002f0: 3955 20bd f026 183e 320f 40bc 3dc8 afbd
00000300: 5f72 f1bd d522 80bb a574 3b3d 2662 dfbc
00000310: 7cbd 0fbc 7281 943d 2d74 86bd 4b63 a4bd
00000320: 36e0 9b3d dac1 e7bd 22f8 063d 0277 123e
00000330: 0591 1cbd 91a6 febd fdca 073e fbb5 8abd
00000340: f0cf f73d 7503 7dbd f8c9 073e 1b03 953d
00000350: 6811 f8bd 52df cdbd a2a0 4c3d b0df b5bc
00000360: 6547 f13c 5f2a c83d f5d8 0d3e 3205 49bd
00000370: 3ab8 f63d 7104 133e 5c87 13be 8f77 1a3e
00000380: 7311 7c3d 2a59 b0bd 3d29 b6bd 346f a03d
00000390: 2ddc 853d 0287 483d ba65 1d3d 3a18 9cbd
000003a0: 1408 51bd 356f b43d c9f1 9c3d c48c 893d
000003b0: 4378 0c3e fb87 17be d68b 0bbe 57ad e53c
000003c0: 3ef1 103e c0e2 b6bd ae3b b53d c28a 133b
000003d0: 93fe a23d c97b 2abd 5344 5a3d 966a 18bb
000003e0: 2bfb 6d3c 5c93 ff3c 298b d33b 4141 ccbd
000003f0: 4b32 b43d a152 0e3e 6a55 143e 82d2 02be
-0.11143792 -0.019378304 0.0213699 0.033022095 0.027696516 0.04744609 -0.01728563 -0.04681185
-0.060385555 -0.01125505 -0.008065992 0.048828267 -0.067381576 -0.058824595 -0.00227006 -0.04079805
0.13663241 0.011220533 0.10824042 -0.14573333 0.043984044 0.024912972 -0.005864343 0.04966637
-0.0058814012 0.081915006 -0.081249654 -0.056542054 0.08108961 -0.091175154 -0.033625726 0.012417591
0.07066901 0.09306359 0.12211531 0.06466208 -0.072330184 0.013958108 0.0045777373 -0.1414014
0.055151537 -0.0076576388 -0.007325218 -0.1421243 -0.034587994 0.06358397 -0.0003830463 0.07317587
0.012376602 0.043142524 -0.08731095 -0.009659068 -0.012701264 -0.08918337 -0.10167448 0.025397096
-0.117347285 0.023464339 0.09976217 0.012237634 -0.106369786 0.13070305 0.0664765 0.061439052
-0.024213614 0.13009596 0.024967762 -0.04819297 -0.12858093 -0.037770692 0.031229952 -0.026237149
0.09760371 -0.00659301 0.0943306 0.025402127 -0.068669274 0.07240114 0.00525355 0.061761748
0.10745688 -0.117135525 -0.013577459 0.07217854 0.017634392 0.051698998 -0.070234455 0.111472696
-0.113964245 -0.02492381 -0.01255958 0.12590998 0.0037096133 0.119149856 0.038472768 -0.05483207
-0.07954331 0.051873736 0.11193484 -0.06042192 -0.07458947 -0.0244601 -0.061682153 -0.07082942
0.087823674 -0.060545683 0.081106514 0.059007835 -0.049252886 0.07372124 -0.09216608 0.059889946
-0.012087146 0.054467145 0.052529596 -0.09647181 0.036194447 0.08558724 -0.15530679 0.032179963
0.08261182 0.050109 0.11932254 0.06805751 0.074821256 -0.061996266 -0.107875034 -0.13642268
0.018190013 -0.047064576 -0.08770605 0.15243714 -0.09195659 -0.0143232355 -0.024785908 -0.033327915
0.1204874 -0.14821203 -0.12744385 -0.011557394 -0.0005259822 0.08490069 0.079808876 0.057468317
-0.06908432 -0.14553566 0.12854034 0.064442955 -0.08509854 -0.053795606 0.070931174 -0.09154983
-0.02051121 -0.10087145 0.018099273 0.058797024 0.02533904 0.03861705 0.019082103 0.073209584
-0.10520485 -0.047640514 0.15274449 -0.048429366 0.076543264 -0.054406554 -0.12097776 0.004668444
0.03442164 -0.0470125 -0.081964634 0.06595496 -0.039647136 0.071443394 -0.14797169 -0.071668856
0.06995076 -0.021416625 -0.032554638 0.004608397 -0.0232708 0.067889705 -0.14595157 0.02768586
-0.09124097 -0.08058017 -0.027976878 -0.031294942 -0.039143775 0.14858603 -0.011722373 -0.08583114
-0.11789393 -0.0039104023 0.045765538 -0.02726848 -0.008773204 0.07251252 -0.065651275 -0.08026751
0.07611124 -0.11316271 0.03295148 0.1430321 -0.03822424 -0.12434114 0.13261028 -0.06772991
0.12100208 -0.061770875 0.13260639 0.07275983 -0.12112695 -0.100523606 0.04995788 -0.02220139
0.029452989 0.09773707 0.13852294 -0.04907722 0.12046857 0.14357163 -0.14407104 0.1508467
0.06154008 -0.08610757 -0.08894584 0.0783371 0.06536136 0.04895688 0.038427092 -0.07621808
-0.051033095 0.088102736 0.07663304 0.06716302 0.13717751 -0.14797966 -0.13627562 0.028036756
0.14154527 -0.08929968 0.088492736 0.0022513126 0.079587124 -0.041621957 0.053287815 -0.002325689
0.014525215 0.031198196 0.006455798 -0.09973384 0.08798655 0.13898708 0.14485708 -0.12775615

rnn.bias_ih_l1 f4 [256]
00000000: e1a4 4d3d 989b 0b3e 1f47 0a3e 91f5 4cbd
00000010: 7a55 b63c 2648 acbd b26d 33bd 1018 d33d
00000020: 8680 103e 7fe6 aabd 49fa f7bd ffff 36bd
00000030: 8bcd b5bc ffea cc3d 6ad4 233e 062b d03d
00000040: a051 f73d 8c1e 1c3e ba62 8e3d 7268 ab3d
00000050: 54e5 60bc c89e e9bc 2657 613d 79a6 25bd
00000060: 004f 74bd 1ea8 e23d 8d44 33bd 9f54 a33d
00000070: 5872 5e3d ef81 b53a 1eb0 183d 1668 223d
00000080: f9b9 c93c e2bb d53d 1914 0bbd 33f1 4ebd
00000090: 39f2 8b3d 6a9b 0a3e 24dd cb3d ed6d 393d
000000a0: e20c b1bd 4eb2 81bd 18d8 123e cea5 513d
000000b0: 7bac 7f3d a107 6abd ed69 e83d a380 67bc
000000c0: b326 d33c 68b6 7dbd 53a2 39bd 24e9 97bd
000000d0: 1785 0e3e ad04 3f3a fad9 6ebd 4821 a53b
000000e0: 911f f83c 9c61 8f3d 40fc 21bd 9220 9d3b
000000f0: 2e03 94bd 961f e73b ff55 84bd 9fa9 6a3d
00000100: 73a7 ac3d c9a4 843d 6aaa a3bd 1d7b 0a3e
00000110: 7cab b83d 1bce 0d3c 3979 bd3d 209d a73d
00000120: 2ed0 95bd dfac d23d 235d 8a3d a5d5 a73d
00000130: 390f 343e 28d7 113c 4cbb 40bd d218 e93d
00000140: 6c86 a23d 7c34 b33c 7508 9d3d 8282 b2bd
00000150: 9dac 903c 5214 173d 9c1c 8d3b a07c 573d
00000160: c7dc 573d ee84 7ebd 729b 40bd d731 843b
00000170: 1797 e23d 2271 00bd 1244 ab3d 920f 523c
00000180: bc1e e43c 7947 d0bc fd9e 01bd a064 263e
00000190: bcd8 96bc 8dbc ac3d 83c3 84bc 6a22 9d3d
000001a0: 7429 443c 5257 c53d 5572 803d b4ff f03d
000001b0: 1b66 783d 83e9 0a3e 5a27 0cbd 08fb 12bc
000001c0: ef55 5b3b 2c0c a7bd 48c6 643d df1f 1c3d
000001d0: 8990 903d d3d2 1a3d fcb5 cebd 270b c33d
000001e0: e7df aa3d 90e9 063e 33ad b53d f96d 203e
000001f0: 2b5f bd3d e11e 9d3d f9d7 10bd 2ed5 0f3e
00000200: 6d12 8dbd c5a4 83bd 5d90 0abd 2225 0fbc
00000210: d24a 5f3d c8dd f83d d49f 023d 8f44 8b3d
00000220: 6ee7 f83d 8e25 09bd 4e1e e2bd dcf9 4d3d
00000230: 5a14 a23c da0e a6bd fc1f 0a3e e85c 3fbc
00000240: a106 063e 829c cebd b93a 66bd 8164 75bd
00000250: d6df 283d 95dc 83bd 4c50 f43d 2287 d53d
00000260: cb05 dcbd ed2e eebd af32 1bbd 5615 103e
00000270: 6f3f 1e3d 7d38 babd 0de7 08be 189c 913d
00000280: acfd 23bc 5891 f8bd dcc1 1c3e ae06 edbd
00000290: 9f5d 78bc b260 153e 1c1d b9bd b442 983d
000002a0: 3c4c a03d c211 1bbd d8db 1abe 1491 f1bd
000002b0: a5ef 30bd 869d babd 7182 9dbd 91b0 033e
000002c0: 6f6b bb3c 0b56 4bbd abec 043d e77d d7bc
000002d0: fade c1bd 7eb0 11bc a261 53bd a60a f4bd
000002e0: 64f0 783c dde5 17be 3e99 393d 8cc5 033e
000002f0: 541b 02be db58 723d a4f6 023e 6ae8 19be
00000300: 1b8b 653d 90ad bfbd b156 1cbc e5ff b63d
00000310: db7c 913c 1aea 093e 0073 d2bd bfdf 08bd
00000320: 90b4 67bd 0d12 cbbb 833c 193b 0c37 2ebd
00000330: e80a 8bbd d386 573a 9a69 443d e5fd 023e
00000340: f5e8 b03b 9ec5 8b3d acb3 eabd eb66 cebd
00000350: 92ed 073b 9af7 823d 71cd 233e e4fd dd3d
00000360: d748 a53d 6402 f63d 3c08 113e d39b c7bd
00000370: 4fec 03bd 681e 273d 19a9 c6bd 6a77 b73d
00000380: 1168 bb3c 6c26 443e ebc8 1d3e a45b 2abc
00000390: 06bf 473d 1884 f9bc d912 4d3c 9627 9f3d
000003a0: 277b 97bd 1218 a63d 309d c5bd 9c0c 923c
000003b0: 93c7 f9bc 7a97 8abc 6ddd 97bd 12b5 f33b
000003c0: 86f2 47bd a9d1 e73d bb17 79bd a73a 843d
000003d0: 6623 023e a0c6 d0bd bd8c 5dbd 921f 103c
000003e0: 1f16 1f3d 1456 f43c 1937 45bd 6e6e 823b
000003f0: b757 b6bd 0f31 183d 09d7 bf3d 77f4 d9bc
0.05020607 0.13633573 0.13503693 -0.050038878 0.022257555 -0.08412199 -0.043805785 0.10307324
0.14111528 -0.08344745 -0.12108285 -0.04467773 -0.022192737 0.100057594 0.15998998 0.10164456
0.120761156 0.15246028 0.06952424 0.08369531 -0.013726551 -0.028518096 0.05501475 -0.040441964
-0.059645653 0.11067222 -0.043766547 0.079751246 0.054308265 0.0013847927 0.037277333 0.039650045
0.024624811 0.104362264 -0.033954713 -0.050522994 0.0683331 0.13535848 0.099542886 0.04527085
-0.08645035 -0.06332837 0.14340246 0.051183514 0.06242035 -0.05713618 0.11348329 -0.0141297905
0.02577529 -0.061941534 -0.04532082 -0.07417515 0.13917957 0.00072867685 -0.058313347 0.005039368
0.03028849 0.070010394 -0.039547205 0.0047951424 -0.07227169 0.007053326 -0.06461715 0.05729067
0.08430376 0.06476743 -0.07991488 0.13523526 0.09017083 0.008655096 0.09251637 0.08184266
-0.07315098 0.10286879 0.06756046 0.08195046 0.17583932 0.008901395 -0.04705362 0.11381687
0.07935795 0.021875612 0.07667629 -0.08716299 0.017660433 0.036884613 0.004306389 0.052609086
0.052700784 -0.06213849 -0.047023244 0.0040342617 0.11063974 -0.03135789 0.08362593 0.012821095
0.027846687 -0.025424706 -0.031645764 0.16249323 -0.018413894 0.08434401 -0.016206509 0.076725796
0.011972774 0.09635796 0.06271807 0.117675215 0.06064425 0.1356564 -0.034217216 -0.008970983
0.0033467968 -0.081566185 0.05585316 0.038116332 0.07058818 0.037798714 -0.100933045 0.095236115
0.08343487 0.13175035 0.08870926 0.15666951 0.092466675 0.07671905 -0.035362218 0.14046165
-0.0688828 -0.06427912 -0.03382908 -0.0087368805 0.054514714 0.121516764 0.031890705 0.06800186
0.12153517 -0.03348308 -0.110409364 0.050287113 0.019785095 -0.081083015 0.13488764 -0.011679865
0.13088466 -0.10088445 -0.056208346 -0.0599103 0.04122909 -0.06438557 0.11929378 0.10426165
-0.107432924 -0.11630044 -0.037890133 0.14070639 0.038634714 -0.090928055 -0.13369389 0.07109851
-0.010009211 -0.12137097 0.15308326 -0.1157354 -0.01515904 0.14587668 -0.09038755 0.074345976
0.078270406 -0.037858732 -0.15122926 -0.117952496 -0.043197293 -0.091120765 -0.07690895 0.12860323
0.022878377 -0.049642604 0.032452267 -0.026305152 -0.094663575 -0.008892177 -0.05160678 -0.119160935
0.015194032 -0.1483378 0.04531216 0.12868327 -0.12705737 0.05916677 0.12789398 -0.15030065
0.056040864 -0.09359276 -0.009542153 0.08935527 0.017759731 0.13468209 -0.10275841 -0.033416506
-0.056568682 -0.00619722 0.0023382015 -0.042532966 -0.067891896 0.00082216895 0.047952272 0.12792166
0.0053988644 0.06824802 -0.11460051 -0.10078224 0.0020740968 0.063948825 0.15996338 0.108394414
0.08070534 0.12012175 0.14163297 -0.09746518 -0.032207783 0.040800482 -0.097002216 0.08958323
0.022876771 0.19155282 0.15408675 -0.010397825 0.04876616 -0.030458495 0.012516701 0.07771222
-0.07396536 0.0811006 -0.09649122 0.017828278 -0.030490672 -0.016917933 -0.074152805 0.0074373567
-0.048815273 0.113192864 -0.060813647 0.064564995 0.12708816 -0.10194135 -0.054089297 0.008796589
0.038839456 0.029826201 -0.04814825 0.0039804494 -0.08903449 0.03715616 0.093671866 -0.026605828
