E2NN/models/e2nn_h64_s10_20250726_125510/best_model.pth (torch, 128994 bytes, 42 tensors)

inertial_net.net.0.weight f4 [64, 3]
000000 19 6f c0 ba 24 50 73 bb 5d d9 64 bc 27 ed b4 3b
       -0.0014681547 -0.0037126625 -0.013967839 0.005521435
000010 9e 09 1c ba c9 5e 84 3b bd 7f 4c bc ad b7 a4 3c
       -0.0005952361 0.0040396196 -0.012481627 0.020107115
000020 3b 5d 7c bb c1 92 a5 3c 1b 15 14 bc 7f 3b 37 bc
       -0.0038507718 0.02021158 -0.009038235 -0.011183619
000030 2b 2a 32 3b 31 94 b8 bc 14 f8 2b bc 1e 2f 2f ba
       0.0027185779 -0.0225316 -0.010496158 -0.0006682741
000040 21 4b 3a 3c 74 52 ee bb d0 b4 7a 3c 37 5f b7 bb
       0.011370451 -0.007273013 0.015301898 -0.0055960673
000050 90 5f e0 3a 08 06 38 bb c4 2c 7c bc ac 58 4b 3c
       0.0017118324 -0.0028079767 -0.015391532 0.012411278
000060 2b f9 aa bc 11 7e 9c 3c ad ad 02 bd 87 6c 8e 3b
       -0.020870766 0.019103082 -0.03190391 0.0043464336
000070 e3 c3 e9 bb 40 fc ee 3c 60 f5 bb 3c 57 92 39 bc
       -0.007133947 0.029173017 0.022944152 -0.011326394
000080 16 11 dd bc 63 77 bc 3c 52 7a df bb 8a 9d 27 bd
       -0.026985686 0.023006147 -0.0068200016 -0.040921725
000090 fa 17 ec ba bc 05 d0 bb 5d 64 d9 bb 01 d7 5c bc
       -0.0018012517 -0.00634834 -0.0066342787 -0.013478995
0000a0 2c 71 31 bc 58 c7 1a 3d 8a 17 a1 bb 35 e0 47 bc
       -0.010830205 0.037787765 -0.004916136 -0.012199451
0000b0 5e 4f b5 3c 30 d8 21 bc 8f 11 1b b9 fe 3f ac 3c
       0.022132572 -0.009878203 -0.00014788493 0.021026608
0000c0 39 60 8d 3c 55 2e 3f bc a3 22 43 3c 2d 80 4f bc
       0.017257797 -0.011668761 0.0119101135 -0.012664837
0000d0 64 71 07 3a 22 1c 7d bc 20 9e 5f 3c 63 bf 0a 3c
       0.0005166738 -0.015448602 0.01364854 0.008468482
0000e0 6a 94 05 bd ba 5d 00 3c 32 25 19 bc 5c 02 dc bc
       -0.03261224 0.007834846 -0.009347247 -0.026856594
0000f0 f9 fb f8 3b 60 21 60 bc 12 81 ca 3c 27 ac e9 bc
       0.007598397 -0.013679832 0.024719749 -0.028524471
000100 5a 9d c2 3c 04 74 e6 3b 41 23 80 bb c8 e0 a5 bb
       0.023756672 0.007032873 -0.0039104526 -0.0050621964
000110 40 1c 90 bc b7 40 d1 bc 97 a6 39 3c 97 2e 1c ba
       -0.017591596 -0.025543554 0.011331222 -0.000595787
000120 b2 d4 bf b9 31 ab 2f bb 14 22 0e bc c2 ac 10 3d
       -0.0003658883 -0.002680492 -0.008675117 0.035321005
000130 fc dc b0 bc e3 61 b1 bc b8 d6 1c 3c b0 da 04 b8
       -0.021589749 -0.021653121 0.009572677 -3.167492e-05
000140 27 63 4c 3c 1f c2 61 3c f6 5e 97 bc 71 98 5c 3c
       0.012474812 0.013779192 -0.018477898 0.013464079
000150 0e 40 4e 3c 29 a7 66 3b 4a a2 5e bb c3 33 67 bb
       0.012588514 0.003519485 -0.0033971244 -0.0035278655
000160 a8 bf b8 3c 3d 38 1a ba 81 f7 fc 3b 94 91 ff 3a
       0.022552326 -0.0005883014 0.0077199345 0.0019498342
000170 4e c2 58 3c b7 ac e3 3b 5f 7a ca 3b cc 6b 25 bc
       0.01322992 0.0069480794 0.0061791386 -0.010096502
000180 eb ed b2 bb db 80 00 bc e7 47 12 bc 80 0a 16 bb
       -0.005460491 -0.007843222 -0.008928276 -0.0022894442
000190 a4 e6 10 3c 77 9e 20 bc 63 30 7c 3c 97 5a e1 3b
       0.0088440515 -0.009803406 0.015392396 0.006877254
0001a0 16 b3 b0 bc 43 a4 44 3b 0a b1 61 bb f3 02 d9 3c
       -0.02156977 0.0030005134 -0.00344378 0.026490664
0001b0 12 f7 18 bd 55 d5 a3 3c 06 8f 11 3c 27 b8 0e bc
       -0.037345 0.019999186 0.008884197 -0.0087108975
0001c0 e6 d7 a0 bb 3b 75 05 bc e9 81 81 bb 87 46 fd 3c
       -0.0049085496 -0.008145626 -0.003952254 0.03091742
0001d0 59 5f e0 bc 73 00 e0 3b f5 b6 30 bc de d0 87 bc
       -0.027389215 0.006835991 -0.010785808 -0.016579088
0001e0 25 22 11 bc 4c e7 b6 bb c7 5a 4a 3a 39 ff 14 bd
       -0.008858238 -0.005581772 0.00077192154 -0.03637621
0001f0 34 5d b1 3c 5e b8 80 3c 31 74 93 3b 6d 56 3a 3c
       0.021650888 0.015712913 0.004499935 0.011373145
000200 8e e3 2e bc 59 2f e2 39 2a d5 00 3b cf a6 18 bc
       -0.01067437 0.00043141356 0.0019658306 -0.009317114
000210 87 ca ea 3a 88 c0 2f 3c c9 f2 fd 3a 9d 1d 86 ba
       0.0017913141 0.010727055 0.0019374724 -0.0010232214
000220 86 bc 74 3c 97 2a 92 bc fb 74 b3 bb 00 25 4e 3b
       0.014937526 -0.017842574 -0.0054765916 0.003145516
000230 66 bf 98 3c db 58 04 3c 68 73 35 3b ff a5 18 bd
       0.018645953 0.008077825 0.0027687196 -0.03726768
000240 3d 87 92 3b d9 50 89 bc b8 b2 7e 3c 06 44 6f ba
       0.004471688 -0.016762184 0.01554554 -0.0009127263
000250 23 f6 90 bb 24 f2 bb bc ae 25 a3 bb e9 75 4b bc
       -0.004423873 -0.02294261 -0.004978857 -0.012418249
000260 00 23 c0 3b ca 73 96 bb 22 56 aa 3c 3c 7e 62 bc
       0.0058635473 -0.00459144 0.020793024 -0.013824042
000270 a3 db d8 3b 9f 3e 97 3b ce cc 1c bd e1 b7 96 bc
       0.0066179796 0.0046156193 -0.038281254 -0.018398227
000280 c8 6b 9b bb 8c 7d 80 3b d1 a2 fd 3b 8e 0b 1b ba
       -0.004743073 0.0039212164 0.0077403565 -0.00059145025
000290 2d 5a 74 3c e0 c6 8f 3c da 00 54 3c f2 0a cd bc
       0.014914078 0.017550886 0.012939656 -0.025029633
0002a0 f2 e8 8a bc c9 79 49 3c 96 e0 66 bc d6 bb 07 3b
       -0.01695678 0.012297102 -0.014091631 0.0020711324
0002b0 13 6a b7 bc 2f 8a 94 3c 87 07 bf 3c 20 14 04 bd
       -0.022389447 0.018132297 0.023319019 -0.032245755
0002c0 5e 43 5c 3c fd f7 a7 bb b8 3c 4c ba 1d 40 bb bc
       0.013443796 -0.005125998 -0.000779103 -0.02285772
0002d0 28 df 78 bb 5d d6 ac bb b3 cc d6 bb a0 be 78 3c
       -0.0037974808 -0.0052745775 -0.006555164 0.015182167
0002e0 ff 59 80 bc 71 53 02 bd b8 e0 04 bd 96 b7 8a 3c
       -0.015667913 -0.031817857 -0.03244087 0.016933244
0002f0 0e 0b 35 bc 56 4f 1b bd 2e b4 77 3c 11 2c a7 bc
       -0.011049999 -0.037917458 0.015118642 -0.020406755

inertial_net.net.0.bias f4 [64]
000000 6e 3f b8 3a ea 86 60 bb 0d d7 47 bc 37 1f d4 bb
       0.001405699 -0.0034260103 -0.012197268 -0.0064734477
000010 f6 0b a8 3b 80 a1 42 bb ae f5 3f bc 96 d8 4d 3b
       0.005128379 -0.0029698312 -0.011716289 0.0031409613
000020 0b 73 bc 3b bc 7f 2c bc e1 4c a1 3b 54 0a d3 3b
       0.005751019 -0.010528501 0.0049224948 0.00644044
000030 11 41 20 3c 7b ad b1 3b 57 64 71 3b 1b af 4a 3c
       0.009781138 0.005422292 0.003683349 0.01237085
000040 8b c3 2c bc 38 ee 3a 3c fa 29 81 bb b4 ad 16 bb
       -0.010544668 0.011409335 -0.0039417716 -0.0022991719
000050 72 30 b9 bb 0b e8 f8 bb 16 9d b3 3a 89 aa 9d ba
       -0.005651527 -0.007596021 0.0013703431 -0.0012028973
000060 73 96 f7 3b 0c 40 18 3b 85 8a 70 bb 19 9a 48 3a
       0.0075557767 0.0023231534 -0.0036703658 0.0007652357
000070 bf d3 2c bc 15 a9 ec bb ee bd 47 bc 19 e9 15 bc
       -0.010548531 -0.0072223046 -0.012191279 -0.009149813
000080 0f b5 90 3c 50 c0 24 bc 83 df d7 bc b1 1a 20 bc
       0.01766446 -0.0100556165 -0.026351696 -0.009771989
000090 6c 8b 1e bc 64 c3 82 3b d1 5f 32 bc 5a fd 79 3a
       -0.009676795 0.0039905775 -0.010887102 0.00095363485
0000a0 70 9f 9f 3b ae 24 8b bb a2 85 6c bb 5d 0c fe b9
       0.0048713014 -0.004246316 -0.0036090394 -0.00048455867
0000b0 68 30 84 bc c8 76 c0 bb 5d 30 71 3b 05 4e ce 3b
       -0.016136363 -0.005873535 0.0036802508 0.0062959217
0000c0 e4 3b 90 3b 5b 5c a6 3b f3 7e 77 3c 0e 95 94 bb
       0.004401671 0.0050769276 0.015105951 -0.0045343703
0000d0 05 73 a3 3b 7e 53 97 3c 86 96 8a bc 93 13 c7 bc
       0.0049880766 0.01847243 -0.016917478 -0.024301326
0000e0 a4 35 34 3b 61 65 05 3c f4 c3 69 3b f5 e7 4f 3c
       0.0027497793 0.008141846 0.0035669776 0.01268958
0000f0 4a 94 34 3c 90 51 67 bc 8a c8 30 3b 33 bb 69 3c
       0.011021683 -0.014118567 0.0026975 0.014265823

inertial_net.net.1.weight f4 [64]
000000 dd 45 53 3f e4 8d 58 3f fe 97 71 3f c7 19 59 3f
       0.8252848 0.8459151 0.94372547 0.8480496
000010 e6 3c 6d 3f 91 39 69 3f 89 2b 66 3f dc 4e 6f 3f
       0.9267105 0.91103464 0.8991018 0.93479705
000020 e7 f5 6e 3f c3 40 6f 3f bb aa 6a 3f 13 ae 71 3f
       0.9334397 0.93458194 0.91666764 0.9440624
000030 95 02 63 3f 41 b9 72 3f f7 3f 6b 3f cd 29 6a 3f
       0.88675815 0.94813925 0.9189448 0.9147003
000040 62 91 72 3f cd 83 6e 3f 6b 5b 63 3f 2d 7b 79 3f
       0.94753087 0.9316986 0.8881137 0.97453576
000050 1f f5 68 3f df e9 71 3f 74 12 6c 3f 95 24 69 3f
       0.90999025 0.94497484 0.9221566 0.91071445
000060 11 09 4d 3f 7b 7b 72 3f 36 e4 63 3f 20 07 70 3f
       0.8009196 0.94719666 0.890201 0.9376087
000070 43 e7 64 3f c0 32 70 3f 01 96 65 3f bc ba 6f 3f
       0.8941538 0.9382744 0.8968201 0.9364431
000080 8b 5c 67 3f 8c 6c 5a 3f ad 08 6d 3f 22 04 6d 3f
       0.90375584 0.8532188 0.92591363 0.9258443
000090 fa 70 81 3f 76 aa 72 3f 19 1a 63 3f a8 26 72 3f
       1.0112603 0.9479135 0.88711697 0.94590235
0000a0 29 46 6c 3f f7 74 76 3f 5f 02 6a 3f a3 a4 41 3f
       0.92294556 0.96272224 0.9140987 0.7564184
0000b0 17 96 70 3f b6 eb 64 3f 02 12 66 3f a5 28 72 3f
       0.9397902 0.89422166 0.8987123 0.9459327
0000c0 e7 28 63 3f f0 6d 66 3f 5b 61 5f 3f 51 84 5e 3f
       0.8873429 0.900115 0.8725793 0.8692065
0000d0 e8 3b 74 3f c6 d5 69 3f 28 fd 6b 3f 8c 15 6a 3f
       0.9540391 0.9134182 0.9218316 0.9143913
0000e0 52 29 64 3f ec b9 6c 3f 64 fe 66 3f a2 76 67 3f
       0.8912555 0.92471194 0.9023192 0.90415394
0000f0 fb a1 59 3f 48 c7 72 3f 94 95 71 3f cf 34 68 3f
       0.8501279 0.9483533 0.94368863 0.9070558

inertial_net.net.1.bias f4 [64]
000000 92 98 f9 b7 bb 76 8c b8 02 1d 07 37 1c 03 f9 b6
       -2.975416e-05 -6.6978355e-05 8.053381e-06 -7.4211403e-06
000010 86 63 aa b8 6c b8 27 38 4e ef dd 36 06 2e 24 b7
       -8.1247694e-05 3.998766e-05 6.614172e-06 -9.785877e-06
000020 8d 16 3c 38 67 bc 8a 38 13 f2 96 b7 95 e1 80 b7
       4.4843695e-05 6.6154455e-05 -1.7994118e-05 -1.5363834e-05
000030 c0 aa 77 b7 a4 14 3c b6 68 74 9d 37 a0 e1 10 38
       -1.4762103e-05 -2.8026197e-06 1.8770064e-05 3.4542405e-05
000040 76 b8 a3 37 7a 7c 56 b6 d2 79 27 37 aa 06 6c b8
       1.951701e-05 -3.196094e-06 9.982339e-06 -5.627299e-05
000050 95 7f 12 38 11 a2 34 37 d5 48 68 b7 d3 d1 8a b7
       3.4927933e-05 1.076657e-05 -1.3845235e-05 -1.6548589e-05
000060 2c c3 02 38 3c d5 57 b6 50 eb 9d b7 cb 2c 22 b8
       3.1176183e-05 -3.2161615e-06 -1.8825434e-05 -3.8665527e-05
000070 84 f4 51 b6 36 d6 a3 38 8f 08 24 38 41 59 99 37
       -3.1285754e-06 7.8123456e-05 3.9108618e-05 1.8280583e-05
000080 ff 66 8e b8 4c 59 c2 b7 1c bd d3 b7 df 5e 91 38
       -6.790272e-05 -2.3168184e-05 -2.5241221e-05 6.93181e-05
000090 e6 e4 10 37 d0 89 9b b7 61 c6 98 38 77 be be b7
       8.636363e-06 -1.8541614e-05 7.284876e-05 -2.2738457e-05
0000a0 a9 46 1d b8 d2 02 81 37 6c 5d 0e b6 bc ec 7a b7
       -3.7497524e-05 1.5379312e-05 -2.1214028e-06 -1.495628e-05
0000b0 23 0e 7a 38 fa a0 3b 38 36 29 c5 38 fb 69 ab b7
       5.961781e-05 4.4734195e-05 9.401368e-05 -2.043414e-05
0000c0 ea dc bf b6 26 e5 95 b8 3c 1f 93 b7 a5 07 bc 38
       -5.7179614e-06 -7.147556e-05 -1.753831e-05 8.9659625e-05
0000d0 94 d2 5b b7 08 a7 a6 37 44 b0 18 38 b2 7b f3 b6
       -1.3102446e-05 1.9866522e-05 3.6403784e-05 -7.2563644e-06
0000e0 d6 f9 8c 37 f6 3f 56 b8 46 7a 32 b7 db 05 4b b8
       1.680564e-05 -5.1081144e-05 -1.0638096e-05 -4.8404425e-05
0000f0 f2 c2 87 b7 44 a4 a1 b8 b9 69 1c b7 98 a9 85 37
       -1.6184033e-05 -7.707675e-05 -9.32294e-06 1.5933809e-05

inertial_net.net.4.weight f4 [64, 64]
000000 91 82 02 3a 35 9e 0b 3b be 4b a5 3c e2 35 3c bc
       0.00049785624 0.0021304016 0.020177718 -0.011487456
000010 58 7c 85 bb 39 07 72 bb e1 8e bf 3b 6e f5 47 39
       -0.004073661 -0.0036930575 0.00584589 0.00019069549
000020 8b 38 cc 3c 4a 71 1d ba be 86 43 bc 1c bf b1 bb
       0.024929306 -0.0006005956 -0.0119339805 -0.0054243933
000030 fd 9f 6c bb be ed b1 3b 54 6a 2c bc df 67 64 ba
       -0.0036106103 0.0054299524 -0.0105233975 -0.0008712988
000040 15 b5 c3 bb 04 2b e2 bb e6 85 f8 ba 86 05 d8 bb
       -0.0059725144 -0.0069021005 -0.0018960803 -0.0065924553
000050 52 bd 9b 3b a3 32 a9 3c 17 3b ae bc 53 4e 2d 3b
       0.0047527933 0.020654028 -0.02126841 0.002644439
000060 f4 85 1b ba 42 31 0b bc c2 2c f2 3a 80 ff a5 bc
       -0.00059327413 -0.008495631 0.0018476474 -0.020263433
000070 cf 90 05 bc af 75 2e 3c 8a e5 f2 3b 1b fd 9a bb
       -0.008152201 0.010648175 0.007412617 -0.0047298796
000080 95 a5 3c bb e4 c8 ac bb 2b 93 77 3c 37 bf ce 3b
       -0.0028785218 -0.0052729715 0.015110771 0.0063094157
000090 78 2e 15 3d 31 99 ec bb d9 ba 26 3c 57 81 51 bb
       0.03642127 -0.0072204103 0.010176384 -0.0031967962
0000a0 de 66 76 3c 70 31 a9 ba d0 b2 1a 3c 35 66 ab bb
       0.015039174 -0.001290841 0.009442046 -0.00523069
0000b0 8f fc 9b 3c e1 d9 e5 3c 36 2f e4 3b fd 34 93 bc
       0.019041328 0.028057994 0.006963636 -0.017969603
0000c0 31 9a 8e bb 3e bf 1f 3c 3c b6 0a 3c 6e df 52 3c
       -0.004351877 0.009750186 0.0084663 0.012870653
0000d0 1c 85 46 bc f6 6e 9c 3b 59 be 67 3b e8 e9 44 bb
       -0.012116697 0.0047739698 0.0035361259 -0.0030046646
0000e0 89 f8 56 3c 6c 21 cc bc 6f 2a 44 bc 62 6a 6b bc
       0.013120779 -0.02491828 -0.011973008 -0.014368625
0000f0 bd 8b 3b bb 24 77 94 3b 72 8e a7 bb d3 8a 94 3c
       -0.0028617226 0.004530804 -0.0051134164 0.018132603
000100 80 0f bf 3a 74 b0 e5 bb de 9d b3 3c f0 f5 17 bc
       0.0014576763 -0.0070095602 0.021925863 -0.009274945
000110 7d 87 a8 3b 5c c6 69 bb f1 84 c5 3b 4e 60 08 bc
       0.0051431046 -0.003567121 0.0060278107 -0.008323742
000120 0b fe e8 3c 8a 2b 0f bc 2d 72 d0 3b 00 fc b0 b9
       0.02844145 -0.008738408 0.006361267 -0.0003375709
000130 f0 6a 79 3c a2 67 36 bb c3 11 86 bc 1a 2a 25 bc
       0.01522325 -0.0027832766 -0.016365891 -0.010080839
000140 ac 02 3b 3c b1 79 81 3b 41 39 a9 bb a5 9a b0 3c
       0.011414211 0.0039512743 -0.005164296 0.021558115
000150 b0 f0 8a bc d8 c0 68 bc 8f fe 15 bc d2 2a e8 3b
       -0.016960472 -0.014206134 -0.00915493 0.0070851827
000160 fb 60 a8 39 b6 57 9e 3b 82 af 8a 3c 5b 98 47 bc
       0.00032115713 0.0048322333 0.016929392 -0.0121823205
000170 e6 e5 b1 3b 71 a0 59 3a 4f 84 4b 3b 51 ae 2e 3c
       0.0054290174 0.00083018007 0.0031054204 0.010661677
000180 a1 de 57 3c 68 b4 97 bb 27 a6 08 3b ae 90 87 bb
       0.013175637 -0.0046296604 0.0020850988 -0.00413712
000190 2e 4f 05 3d 9b 43 5b bc 1f 38 3b 3c 4d 40 eb 3c
       0.032546215 -0.013382818 0.0114269545 0.028717184
0001a0 4a 6b 90 ba 48 40 90 3c a0 9a 0b bb 8e 95 a6 bb
       -0.0011018303 0.017608777 -0.002130188 -0.0050837463
0001b0 bf c6 ca 3b 42 a3 46 3c 54 4b 26 bc 3b e9 74 3c
       0.006188243 0.012123885 -0.010149796 0.014948185
0001c0 7a a2 7e bb c0 8d 91 3c 3a d2 27 3b d7 5a 27 3b
       -0.0038854168 0.017767787 0.0025607483 0.0025536323
0001d0 90 c7 a2 3c cd d4 1a bc 3b 4f 90 bc c9 3b cb bb
       0.01987055 -0.00945015 -0.017615905 -0.0062021953
0001e0 47 3b 95 3c cd 46 89 3b 8d 96 1e bc cb e0 40 3c
       0.018216742 0.0041893483 -0.009679449 0.011772345
0001f0 0d 31 33 3c 88 0f ef 3b 31 4b c8 3c d9 e4 92 bb
       0.010936988 0.0072955526 0.024449917 -0.004482847
000200 a2 d8 89 3b fb cd 7c bc 9e 5f 42 3b 36 36 86 3b
       0.004206733 -0.015429969 0.0029659043 0.004095818
000210 94 73 9b 3b 6c 73 78 bc dd 3a 7c bc 83 f0 17 39
       0.0047440026 -0.0151642375 -0.0153948935 0.0001449008
000220 2e 96 6c bb 52 f9 a4 ba 45 a0 8b 3c 0f 79 ef 3c
       -0.0036100256 -0.001258651 0.017044196 0.02923253
000230 ff e4 c4 bb bd 87 6b bc 51 09 a6 bb ba e1 0b 3c
       -0.006008744 -0.014375624 -0.0050670286 0.008537704
000240 6d f3 4b bc 54 07 c4 bb 9b 7c 9a 3c 76 92 06 3c
       -0.012448174 -0.005982319 0.018858245 0.00821363
000250 58 ba 6c 3b 71 34 2e 3b 89 0c 09 bc 10 6a 5f bc
       0.0036121812 0.002658155 -0.008364805 -0.013636127
000260 23 07 69 3b 4d 68 8b 3c 6c fb 81 3c 4c 78 c3 3c
       0.0035557232 0.017017508 0.015866958 0.023861073
000270 fb 84 f0 3b 72 9e 90 3c 2b 98 e4 3b 55 13 b8 3b
       0.0073400713 0.017653678 0.0069761476 0.005617539
000280 8f 83 81 3c 23 1a 86 3c 5f 73 b4 b8 a5 54 ce bb
       0.015809802 0.016369885 -8.6045584e-05 -0.0062967115
000290 84 b8 7f bb c5 62 a3 ba 4b 15 fb 3b 9f fd c2 3a
       -0.0039019892 -0.0012465349 0.0076624504 0.001487661
0002a0 24 1d 69 bb 95 a3 b9 bc 50 13 49 bc 6a 36 43 3b
       -0.0035570348 -0.02266101 -0.012272671 0.0029787072
0002b0 2d 21 36 bb ad 17 6e bb ec 29 74 bc 71 2f 67 3c
       -0.002779077 -0.003633003 -0.014902573 0.014110432
0002c0 f4 ab b1 3c fb 87 ce 38 67 fb 4d 3c 54 25 b8 bb
       0.021688439 9.848174e-05 0.012572146 -0.0056196842
0002d0 a4 77 42 3c c3 8b 07 bc f8 6b 1f bc ce e1 58 3b
       0.011869345 -0.008273068 -0.009730332 0.0033093574
0002e0 e2 f6 0f bc a1 6a 07 bc d3 a5 6d 3c 9f cd 8e 3c
       -0.008786889 -0.008265168 0.014504868 0.017432032
0002f0 98 ae 6f 3b 4c 58 0a 3c e5 05 1f bb 2f 8a db 3b
       0.0036572572 0.008443903 -0.0024264988 0.0066998224
000300 25 9a 80 bc d8 c1 54 3b 61 59 4b bc d8 01 ac 3b
       -0.015698502 0.0032464173 -0.012411446 0.005249243
000310 d5 c0 72 3c b3 7e be 3b 8d 8f 98 3c 0f 5a de ba
       0.014816483 0.0058134436 0.018623138 -0.0016964095
000320 2e fe 44 bb 8a 16 87 b8 4f 26 8c 3b ac e0 24 3c
       -0.003005873 -6.4415e-05 0.0042770277 0.010063332
000330 91 37 89 3c c6 43 8c ba a5 77 3d bc a1 f9 2d bc
       0.016750129 -0.001070135 -0.01156417 -0.010618598
000340 98 04 0a 3c f1 f5 56 3c 0b 67 3f 3c 9b f7 d7 3c
       0.008423947 0.01312016 0.011682282 0.026363185
000350 a6 c6 a4 bc 98 05 80 bb 53 b7 89 bc 4f 2a 0d 3c
       -0.020114254 -0.003906917 -0.016811049 0.008616044
000360 ff 29 c6 3b 7b 15 1b 3c 94 16 8e bc d9 c4 32 3b
       0.006047487 0.009465571 -0.01734475 0.0027277975
000370 b1 46 0a bc c5 c4 c8 ba 68 fb e8 bb 3e 68 25 bc
       -0.008439706 -0.0015317431 -0.007110048 -0.010095654
000380 cd 58 50 3b 2c 21 15 bc 28 5b 5e 3b 81 06 d0 bb
       0.003179121 -0.009102147 0.0033928845 -0.0063484316
000390 4a 72 7c 3c d3 e9 65 bc ce 51 0f 3c 10 a7 80 3c
       0.015408108 -0.014032799 0.008747531 0.015704662
0003a0 3a 93 28 3c a3 b0 f0 bc 74 0e a9 3b 2b bc d5 3b
       0.010289008 -0.029381102 0.0051591936 0.0065226755
0003b0 2a f9 a6 bc 47 d8 88 3c 39 a0 2d bc 5c 03 71 3c
       -0.020382483 0.016704692 -0.010597282 0.014710274
0003c0 4b 2b 4e 3c ca 91 7d ba dd 0b a5 3c 1b e4 89 3c
       0.012583564 -0.00096729083 0.020147258 0.016832402
0003d0 4c 07 7e 3c 93 92 e3 3b de 82 f2 bc 2d ca 4c bb
       0.015504669 0.0069449632 -0.029603418 -0.0031248436
0003e0 82 37 4a 3c 28 e7 b0 ba 99 06 52 3c 3d f2 8e b8
       0.012342336 -0.0013496624 0.012818956 -6.816208e-05
0003f0 29 dc 6f ba e7 b6 60 bc 94 f9 b9 3b 15 8b 83 ba
       -0.0009149933 -0.013715482 0.005675504 -0.0010035957

inertial_net.net.4.bias f4 [64]
000000 c9 02 36 ba 98 fe a5 3b 9c c2 8d b9 e8 a0 96 3b
       -0.0006943164 0.0050657503 -0.0002703861 0.0045968182
000010 81 5e d8 bb 7b 6c 0e 3b d8 d6 ea bb 4c 27 bd ba
       -0.0066030626 0.002173214 -0.0071667247 -0.0014431267
000020 57 d5 ab 3b ff a9 68 3b 21 51 ee bb f3 b3 d4 3a
       0.005243938 0.0035501716 -0.007272855 0.0016227945
000030 c3 cd f9 bb aa 6b 08 3c 99 81 00 3a 02 2a f2 ba
       -0.0076234057 0.00832645 0.0004902124 -0.0018475654
000040 0d 8b 58 bb c8 36 80 bb f5 6c 83 bb f0 7b dc 3b
       -0.0033041865 -0.0039127804 -0.0040107914 0.0067286417
000050 6e f4 ef 3b 22 26 b8 bb 9b 31 30 bb bb 21 e1 bb
       0.0073228395 -0.00561978 -0.0026885036 -0.006870476
000060 a6 4d 10 3c 0e 32 56 3c 8e b2 7c bb ab cf 0c 39
       0.008807575 0.013073457 -0.0038558575 0.00013428803
000070 30 cb 73 ba fc d0 a8 bb f8 17 6b 3b f3 27 00 3b
       -0.00092999917 -0.005151866 0.003587244 0.0019555062
000080 78 c1 38 bc 0d 3a f8 bb cb 6f 2f 3a 9e 84 75 3b
       -0.011276595 -0.0075752796 0.00066923787 0.003746308
000090 ed 53 17 bc eb c6 1a 3c 96 9a 69 bb 99 27 14 bb
       -0.009236318 0.00944684 -0.003564512 -0.002260661
0000a0 05 3b bc 3b de 58 9a 3b 60 bb 38 b9 29 02 55 3b
       0.0057443404 0.004710301 -0.0001761741 0.0032502508
0000b0 06 4e c4 ba e8 44 6a 3b a9 4a 35 b8 67 3c 45 39
       -0.0014976866 0.0035746638 -4.3223296e-05 0.00018809886
0000c0 01 18 45 3a 83 92 4a b9 5e aa f5 ba 1e a9 00 3b
       0.00075185305 -0.00019318801 -0.001874279 0.0019632052
0000d0 99 73 a4 bb e9 28 19 3c 59 0c a5 3a c4 6a 0e 3c
       -0.005018663 0.009348133 0.0012592181 0.008692447
0000e0 76 a9 60 39 52 4b e3 ba 87 58 64 3b 9a a4 9f ba
       0.00021425434 -0.0017341173 0.0034842805 -0.0012179792
0000f0 1a 65 c7 bb dd 9f e6 bb a3 9e f3 bb 7e b0 29 39
       -0.0060850503 -0.0070381 -0.0074346825 0.00016182844

inertial_net.net.5.weight f4 [64]
000000 fa 28 77 3f a0 b0 65 3f 43 6b 74 3f 44 66 69 3f
       0.965469 0.89722633 0.9547617 0.9117167
000010 7e ce 70 3f 09 90 67 3f ea 75 62 3f 98 ed 60 3f
       0.9406508 0.90454155 0.8846117 0.8786254
000020 dc 7a 66 3f 2b 31 6a 3f ba 57 73 3f 60 85 76 3f
       0.9003122 0.91481274 0.95055735 0.96297264
000030 a0 f7 69 3f 61 df 6f 3f ac d5 73 3f 5c 41 72 3f
       0.9139347 0.93700224 0.9524791 0.9463098
000040 c4 ce 65 3f ad 55 66 3f d8 a4 56 3f 48 d8 73 3f
       0.89768624 0.8997448 0.8384528 0.95251894
000050 e2 47 6e 3f 6f f6 70 3f 6e dc 69 3f 69 bb 72 3f
       0.93078434 0.9412603 0.91351974 0.94817215
000060 35 30 6d 3f 0c b1 73 3f 33 e8 66 3f d5 d6 78 3f
       0.92651683 0.9519203 0.9019806 0.9720281
000070 88 84 63 3f 4c a3 68 3f 37 8f 61 3f 87 7a 65 3f
       0.888741 0.9087417 0.88109154 0.89640087
000080 a8 f1 73 3f 4e 50 68 3f 3e d4 6b 3f 5e 39 6d 3f
       0.95290613 0.90747535 0.9212073 0.9266566
000090 95 f8 67 3f 31 fc 68 3f 17 62 66 3f 1e 2e 71 3f
       0.9061368 0.91009814 0.89993423 0.94210994
0000a0 e0 7a 70 3f c9 47 6f 3f b0 02 77 3f a5 f5 67 3f
       0.9393749 0.9346891 0.96488476 0.906092
0000b0 4d 1c 68 3f e9 38 6a 3f e9 6f 67 3f 86 19 69 3f
       0.90668184 0.9149309 0.90405136 0.9105457
0000c0 50 f9 6b 3f 4e 4a 6a 3f 9d bc 67 3f 84 87 67 3f
       0.92177296 0.9151963 0.90522176 0.90441155
0000d0 63 71 62 3f f2 05 63 3f 8c c2 70 3f 7c 6a 75 3f
       0.88454264 0.88680947 0.94046855 0.9586561
0000e0 72 48 5f 3f 30 58 5e 3f df bd 5d 3f 2e 8b 54 3f
       0.8721992 0.86853313 0.86617845 0.8302487
0000f0 05 6b 5c 3f 93 b2 70 3f cd a8 70 3f 1a a6 73 3f
       0.861008 0.9402248 0.9400757 0.95175326

inertial_net.net.5.bias f4 [64]
000000 8c 30 1a 37 a2 e4 24 38 2b b6 ee b6 ba 99 2d 37
       9.1904185e-06 3.9313578e-05 -7.11416e-06 1.0347396e-05
000010 6e 52 53 37 70 73 13 38 e0 62 75 b7 82 2f ce 37
       1.2595772e-05 3.515504e-05 -1.4626159e-05 2.4579236e-05
000020 c6 f9 90 b7 a2 57 d0 b7 0c 99 ae b7 10 a2 5a 37
       -1.7282448e-05 -2.483634e-05 -2.0813684e-05 1.3031546e-05
000030 28 23 7d 37 88 33 d6 35 40 13 c0 33 cc 7a 3b 36
       1.5088161e-05 1.595924e-06 8.944198e-08 2.7936649e-06
000040 e4 0e a0 b7 b7 8f 99 37 e5 4a 0b b7 2a 91 a4 37
       -1.908042e-05 1.8305944e-05 -8.302483e-06 1.961792e-05
000050 65 1b c8 b6 49 22 78 37 f9 f7 b5 37 12 70 2c b7
       -5.9636536e-06 1.47899345e-05 2.1692353e-05 -1.0278092e-05
000060 9f b8 a4 b7 94 c8 0a 36 08 bd 55 36 b6 fb 32 36
       -1.9636294e-05 2.0680354e-06 3.1849504e-06 2.6670582e-06
000070 22 c4 17 b7 11 c5 54 b7 b8 9a ff 35 2f d1 5c b7
       -9.045967e-06 -1.2682068e-05 1.904401e-06 -1.3161726e-05
000080 b4 1c 3c b4 48 6b 2f b6 c1 c0 3f 38 d2 30 81 36
       -1.7519307e-07 -2.6139478e-06 4.5717465e-05 3.850183e-06
000090 35 d8 bf 36 e0 2f a4 b7 56 93 a3 b6 80 7c ba b4
       5.7174134e-06 -1.9572617e-05 -4.8749307e-06 -3.4735785e-07
0000a0 e9 b7 89 37 92 9f 57 37 98 56 f1 35 3f 82 b1 37
       1.6417313e-05 1.28521515e-05 1.7981101e-06 2.1160695e-05
0000b0 b1 e0 87 36 84 16 15 b7 09 2b 98 36 11 0c 14 b8
       4.049471e-06 -8.886334e-06 4.534963e-06 -3.5297187e-05
0000c0 5d 4c d7 b6 bd 73 be b6 53 15 e4 37 c4 cd b1 37
       -6.416389e-06 -5.675915e-06 2.7189648e-05 2.1195861e-05
0000d0 48 e6 61 38 10 1b 76 b7 6e 11 40 38 3a de 9e b7
       5.3858646e-05 -1.4669044e-05 4.57926e-05 -1.893855e-05
0000e0 16 51 44 38 e9 6c c3 37 80 65 51 36 aa fb 07 b8
       4.680556e-05 2.3296527e-05 3.1202508e-06 -3.242089e-05
0000f0 a3 6b f1 37 df e0 b3 36 ff fe d6 b7 eb 6f c2 b7
       2.8779561e-05 5.360794e-06 -2.562953e-05 -2.3178718e-05

inertial_net.net.8.weight f4 [64, 64]
000000 6f 8f c8 ba f9 6c 3f 3c 61 0a ce 3b de ae 06 3c
       -0.0015301536 0.011683696 0.0062878584 0.0082204025
000010 c8 53 12 3b fa 95 af ba 33 23 58 3b 61 b4 50 3c
       0.002232777 -0.0013396137 0.0032979965 0.012738318
000020 4a 4d 84 bc b2 71 10 bc 40 a0 3c b9 a5 c2 97 bc
       -0.016150136 -0.00881617 -0.00017988775 -0.018525431
000030 03 a3 9c bc a6 8c ab bc be 37 74 bc f4 5b f2 ba
       -0.019120699 -0.02094109 -0.014905868 -0.0018490539
000040 7c 10 53 bc ef f3 95 3b 48 51 04 3a ff 9d d0 b9
       -0.012882348 0.0045761983 0.0005047512 -0.00039790568
000050 46 f6 26 3c c0 2c d4 bb d6 e3 5a 3c 75 90 e3 bb
       0.010190552 -0.006475061 0.013359984 -0.006944711
000060 22 5f e2 3b 79 62 c4 3b b0 37 c3 3b 40 ec 1d bc
       0.0069083134 0.005993184 0.005957566 -0.009638846
000070 f3 9b 1a 3b c2 6e 0b bc 39 b7 41 bc 23 ec 3c bc
       0.0023591488 -0.008510293 -0.011823469 -0.011530909
000080 8f a1 29 3c 88 c1 50 ba c7 f3 a8 3b 9d 53 6b bb
       0.01035346 -0.0007963409 0.0051560136 -0.0035907992
000090 c4 e8 90 bc 61 0e 71 bc 6b 51 60 bb f0 fd 61 bb
       -0.017689116 -0.014712901 -0.0034228216 -0.0034483634
0000a0 c9 67 cd 3b ca 32 22 bc 0a 31 9d 3c 2e a7 b2 3b
       0.0062684757 -0.009899804 0.019188423 0.0054520583
0000b0 0c 0a 9f ba 96 31 3d 3b a7 ce b3 bc 19 bc 74 bb
       -0.0012133732 0.0028868667 -0.021949125 -0.003734356
0000c0 69 7f b7 3b 15 1b 35 bc 33 52 17 3c ee 54 d7 3b
       0.0055999053 -0.01105382 0.009235906 0.0065714037
0000d0 fc c6 bc 3c 60 d4 7a 3c 0f 69 32 3c 6a f6 84 3b
       0.023044102 0.015309423 0.010889306 0.004057695
0000e0 24 2f 2a bc 84 a6 47 bc d3 90 4c bb 05 61 07 3c
       -0.010387216 -0.0121856965 -0.0031214252 0.008262877
0000f0 fc 5a 07 bc e0 cf c8 bc 7b ba a9 3c a6 d7 b8 39
       -0.008261438 -0.024513185 0.020718804 0.00035255885
000100 74 14 98 bc 63 15 ea b9 9b 38 18 3c 87 1f 4b 3c
       -0.01856444 -0.00044647892 0.00929084 0.012397653
000110 cd 25 49 3c 9e db 91 3c 47 0e 38 3c 6c 4e 46 bc
       0.012277079 0.017804917 0.011233873 -0.012103658
000120 11 5e 57 3b 4c 09 c3 bb ec 13 81 39 cf 30 a3 bc
       0.0032862464 -0.005952036 0.0002461964 -0.019920735
000130 f1 f6 91 bc 7a 80 8e bc 83 b6 aa bc c1 4c f8 3b
       -0.017817946 -0.017395247 -0.020838981 0.007577509
000140 57 71 74 b9 7b 44 f8 bb 77 5a 95 3c 26 08 3f 3c
       -0.00023311876 -0.007576523 0.018231614 0.011659658
000150 f4 4c af 3b be 38 14 bc 65 c3 52 3c d3 9d 9c 3b
       0.0053497497 -0.0090467315 0.0128639685 0.0047795563
000160 32 64 25 3c 5c 97 63 3c e5 91 fe ba eb da f1 bb
       0.010094689 0.013891067 -0.0019422142 -0.0073808334
000170 a7 c4 c5 39 ae 93 c4 3b ec 52 7c 3b 15 99 50 bc
       0.00037721285 0.00599905 0.0038501574 -0.01273181
000180 9a a8 3e bc 4a e9 58 bc ad 36 28 3d 29 f7 4b 3c
       -0.011636877 -0.013239214 0.041067768 0.012449064
000190 61 8a cc bb a0 fc d6 ba 54 cb 84 b9 8a eb 07 bc
       -0.006242082 -0.0016402192 -0.00025328493 -0.008295903
0001a0 f3 87 e9 3c 66 6f 57 bc fc c9 dd 3b 50 d2 e7 bb
       0.028507208 -0.013149118 0.006768463 -0.0070746318
0001b0 cb b8 05 3c 5d bc c6 3b a4 40 09 bc 96 dd a3 bc
       0.008161734 0.006064935 -0.008377228 -0.020003121
0001c0 54 33 dd 3c b1 fb 1a 3c 53 5a a3 3c 0b 08 c7 3c
       0.027002014 0.009459422 0.01994053 0.024295827
0001d0 e9 75 38 3c 53 8d 87 3c 85 0f 6e 3c db e2 b4 bc
       0.011258581 0.01654688 0.014530067 -0.02208083
0001e0 73 49 95 bc 66 91 d4 bb 0f 4b 8a 3c 6f aa c2 bb
       -0.0182235 -0.0064870594 0.016881494 -0.0059407274
0001f0 f3 2d 0e bc d9 f0 c9 ba 12 2d 6e 3a 50 d5 9d b9
       -0.008677947 -0.0015406861 0.00090856955 -0.00030104304
000200 35 9d 6c 3c bf 68 bb bc b4 ad a5 bc 6c e7 3d 3b
       0.014441778 -0.022877095 -0.02022443 0.002897705
000210 89 8c ad bc 3e 75 43 b9 a5 97 fb bc ba b6 13 bc
       -0.021185176 -0.00018640325 -0.030711958 -0.009015733
000220 73 72 5e 3c e8 b5 a6 3c 66 7a 88 bc f2 8d a7 39
       0.0135770915 0.020350412 -0.016659927 0.0003195848
000230 01 26 eb 3b dd 30 31 3c ec c3 80 ba 4b c0 99 bb
       0.0071761613 0.010814873 -0.0009824014 -0.0046921126
000240 7e 8b 50 3a eb ae 37 bc ce 7a f5 bb ea 5b de bb
       0.0007955356 -0.011211137 -0.007491446 -0.0067858594
000250 14 e9 1e bc 22 65 c6 3b da b9 87 bc 0c 11 ba bc
       -0.009699125 0.0060545364 -0.016568113 -0.022713207
000260 6c 9c 29 bc 3b 61 2d 3c 59 63 42 bc 44 73 a2 3b
       -0.010352235 0.010582264 -0.011864507 0.0049575884
000270 fd 7e 31 3c f1 40 f9 3b 08 a7 76 3b 32 9e a1 3c
       0.010833499 0.0076066186 0.003763618 0.019728754
000280 97 7e 8e bb a2 4e d1 bb 48 54 e1 bc 4c 1e 66 bc
       -0.004348587 -0.0063875476 -0.027506009 -0.014045309
000290 c1 88 a1 3b 4b 14 17 3a ec a0 38 bc 72 c1 0d 3b
       0.0049296324 0.0005763217 -0.0112688355 0.0021630195
0002a0 58 ff bd 3b 32 ab af 3b 33 b3 75 bc 00 ce b3 3c
       0.0057982616 0.0053609842 -0.014996338 0.021948814
0002b0 82 9a 81 3b 62 b7 0c bc 51 ee 10 3d 74 0b 37 bc
       0.0039551863 -0.008588644 0.035383526 -0.011172164
0002c0 b7 1e 12 3c 42 03 29 bb d7 37 2d bc f7 92 be bb
       0.008918456 -0.0025789295 -0.010572395 -0.0058158594
0002d0 3c b7 a9 bc 1c 1b 56 3a ea 1b a5 bc 96 ba 35 3b
       -0.020717256 0.0008167492 -0.020154912 0.0027729622
0002e0 34 dd d2 3c b0 68 3f 3c 40 de 61 bc ee 1e 07 3a
       0.025740243 0.011682674 -0.013785899 0.000515445
0002f0 9b 85 15 bc a9 38 9a 3b e5 91 92 3a 04 f7 23 3b
       -0.009126092 0.0047064614 0.0011182396 0.002501906
000300 c7 e5 87 bb aa 27 6c 3c 02 ab 9d 3b e0 4d a8 b8
       -0.0041472646 0.0144137535 0.0048116455 -8.0253696e-05
000310 7e 63 6c 3c d7 bb 2b 3b 0f 70 af 3c 75 57 73 bb
       0.014428018 0.002620449 0.021415738 -0.0037130986
000320 77 3f 49 3b 43 38 c8 bc 39 b0 1c 3b e2 ec 7b 3c
       0.0030707994 -0.02444089 0.0023908748 0.0153763015
000330 80 28 5f b9 96 ac 95 3b 48 77 11 bb ca 29 fb 38
       -0.00021282025 0.004567693 -0.0022196341 0.000119763965
000340 ad be 77 bb 38 a0 ae 3c 8c d3 d0 ba 16 06 1d bb
       -0.003780286 0.021316633 -0.0015932187 -0.0023959926
000350 fb b0 5c bc 32 a3 a7 bc c1 36 ba 3b 1e 22 bf bb
       -0.01346993 -0.02046356 0.0056827967 -0.0058329245
000360 77 54 0a bb a9 eb 88 bb 85 d9 98 3c d3 2f 6c 3c
       -0.0021107474 -0.0041784835 0.018658409 0.014415699
000370 c7 f8 c2 bb 0d 83 16 39 25 46 68 3c 8b 25 06 bc
       -0.0059500667 0.00014353935 0.01417688 -0.008187662
000380 2f 70 2e 3c 0c 56 14 3c 52 3b 8d 3c 5f ca 02 3c
       0.010646864 0.009053718 0.0172402 0.007982819
000390 25 8b 53 bc 92 49 6a bb 84 38 22 3c 52 e4 4d bc
       -0.012911593 -0.0035749418 0.00990117 -0.012566643
0003a0 63 ed 77 bb 63 90 43 bc 51 b8 7c bb 5f 4b 69 bc
       -0.0037830702 -0.01193628 -0.003856201 -0.014239161
0003b0 ae d8 56 ba 25 55 7a bc b4 94 ca bc 2f 51 2c bc
       -0.000819574 -0.015279089 -0.02472911 -0.010517403
0003c0 2d 7f 8c bb e1 63 9c bb 94 d4 5e 3c 44 47 60 3c
       -0.0042876215 -0.0047726487 0.013600487 0.013688866
0003d0 7d e1 93 3a 70 fd 49 bc 84 b5 5a 3c 02 c2 ed bb
       0.0011282411 -0.012328491 0.013348941 -0.0072557935
0003e0 45 11 87 bb 91 65 b5 bb 05 15 b8 3b be 50 43 3b
       -0.0041219317 -0.0055357893 0.00561774 0.0029802765
0003f0 54 58 79 bc d7 1e 50 3b a5 1a ca 3a 72 61 ae bc
       -0.015218813 0.0031756663 0.0015419318 -0.0212867

inertial_net.net.8.bias f4 [64]
000000 a2 54 fd bb 96 ee 0d 3b 9d 6a 43 3c 29 22 6b bb
       -0.0077310363 0.00216571 0.011927274 -0.0035878515
000010 15 6f ef 3a a9 b5 26 bc 27 d8 85 3b b8 7b 15 3b
       0.0018267358 -0.010175147 0.0040846053 0.0022809338
000020 95 dd 87 3b 74 60 15 bc d1 a3 5d bc 16 13 03 3c
       0.0041462877 -0.0091172345 -0.013527826 0.008000156
000030 35 d6 06 bb dc d1 21 bc bd c8 ee 3b 83 3b 57 3b
       -0.0020574455 -0.0098766945 0.0072871135 0.0032841868
000040 f6 85 12 3c b7 e0 b3 bb 6a 1e 30 3a 45 73 25 bb
       0.008943072 -0.0054894346 0.0006718399 -0.0025245708
000050 74 f3 06 3c 29 54 f8 3a c6 ff 11 3a 82 c9 01 bc
       0.008236755 0.001894598 0.0005569424 -0.007921578
000060 75 5e 2b 3c cd 84 15 3c db 71 72 bb 15 b4 06 3c
       0.010459532 0.0091259 -0.0036994133 0.008221646
000070 57 e7 7d 3b fc d5 64 3b 0e e9 db 3b 32 df 54 bb
       0.0038742626 0.0034917584 0.006711132 -0.0032481668
000080 4d 31 0d 3c ad 26 cd 3b e1 96 0c 39 6f 8e 9f bb
       0.008617711 0.006260714 0.00013407647 -0.0048692743
000090 23 0d 2c bc ea ae 49 bb d7 6f c2 3b 2c ae 43 bc
       -0.010501179 -0.0030774423 0.0059337425 -0.011943381
0000a0 83 af 55 bc 8d e7 21 bb 2c ad 71 bb 42 67 08 3c
       -0.013042334 -0.0024704665 -0.00368769 0.0083254
0000b0 23 02 94 3b 64 22 88 3b 92 2d 4a ba 53 f8 2e 3c
       0.0045168563 0.0041544903 -0.0007712479 0.010679322
0000c0 43 58 45 bc 47 18 e4 3b 49 4e 8c bb b9 6a 49 3c
       -0.012044969 0.006960902 -0.0042817933 0.012293511
0000d0 77 09 e5 bb 56 55 d7 bb eb af 34 bc f8 1f 45 bb
       -0.0069896537 -0.006571452 -0.01102827 -0.003007887
0000e0 d6 88 c5 3a dd 23 26 bb 7b 3b 05 bc c3 f1 54 3b
       0.0015070688 -0.0025350966 -0.008131857 0.0032492734
0000f0 8b 06 39 3a d4 f4 68 3b 16 f2 77 3c eb ff cd b9
       0.0007058165 0.003554632 0.015133401 -0.0003929132

inertial_net.net.9.weight f4 [64]
000000 68 2f 8e 3f 4c 79 83 3f c1 78 8d 3f 62 53 8d 3f
       1.1108217 1.0271392 1.1052476 1.1041071
000010 12 72 90 3f db 9e 8d 3f 17 96 8f 3f 43 8c 8e 3f
       1.1284811 1.1064104 1.1217679 1.1136554
000020 10 1d 93 3f d2 45 8f 3f 8d a5 8e 3f ae 6e 8e 3f
       1.1493244 1.1193182 1.1144272 1.1127527
000030 61 f9 8c 3f 04 29 90 3f f2 a6 87 3f 89 ae 8d 3f
       1.1013604 1.1262517 1.0597823 1.1068889
000040 c4 19 85 3f 11 96 90 3f 65 f4 8e 3f a8 38 89 3f
       1.0398488 1.1295797 1.1168333 1.0720415
000050 b9 93 8d 3f d6 21 89 3f 1d 29 8b 3f f3 fc 8e 3f
       1.1060706 1.0713451 1.0871922 1.1170944
000060 63 81 90 3f 08 7a 8f 3f 85 20 8c 3f 90 52 8e 3f
       1.1289486 1.1209116 1.0947424 1.1118946
000070 79 3d 81 3f a5 47 91 3f 63 f7 8e 3f dd ac 90 3f
       1.0096885 1.1349989 1.1169246 1.1302754
000080 60 f4 8d 3f cb 48 8b 3f 29 8d 90 3f 23 b3 85 3f
       1.1090202 1.088159 1.1293079 1.0445293
000090 d4 d8 85 3f 46 5b 8f 3f b2 0b 8a 3f d6 d8 8f 3f
       1.0456796 1.119973 1.0784819 1.1238048
0000a0 21 e4 8a 3f 13 d0 84 3f c6 34 91 3f 83 68 8f 3f
       1.085087 1.0375999 1.134423 1.120377
0000b0 03 f4 8e 3f e0 7b 8d 3f 2c 5c 8a 3f 4b 39 90 3f
       1.1168216 1.1053429 1.0809379 1.1267484
0000c0 93 07 8d 3f 20 cd 83 3f 6a c1 8c 3f 8d 16 8d 3f
       1.1017936 1.0296974 1.0996525 1.1022507
0000d0 4f 61 8b 3f 9f f8 8e 3f 8b e4 8d 3f 85 4f 8e 3f
       1.0889071 1.1169623 1.1085371 1.1118017
0000e0 00 84 92 3f 3a ce 8e 3f df 4f 8f 3f a3 2f 8d 3f
       1.1446533 1.1156685 1.119625 1.1030163
0000f0 9b 8d 8a 3f c0 7a 87 3f 8f 4a 8e 3f d6 79 8a 3f
       1.0824465 1.0584335 1.1116503 1.0818431

inertial_net.net.9.bias f4 [64]
000000 70 75 bf bd 55 98 48 3c 5e 57 b4 3d ab 8a ac 3d
       -0.09348571 0.01224335 0.088057265 0.08424886
000010 ef cf be bd 77 0f a2 bd 72 23 96 3d 0b 77 a9 bd
       -0.09317004 -0.07913106 0.073309794 -0.08274659
000020 9a ac dc 3d 7c 25 b9 bd 34 48 d2 bd 5f fa c7 3d
       0.10775109 -0.09040353 -0.10267678 0.09764551
000030 97 89 2e 3d a2 23 cb bd d2 79 51 bd 1d 42 a0 bd
       0.042611685 -0.09918906 -0.051141568 -0.0782511
000040 c8 a3 03 bd f7 e9 da bd ea 23 d5 3d 9a 56 a5 bd
       -0.032138616 -0.106891565 0.10407241 -0.080731586
000050 bb d3 c1 3d 3d 72 ea 3d b0 01 4f bd 9a d3 b8 bd
       0.094642125 0.114475705 -0.05053872 -0.09024735
000060 38 98 c7 3d 70 37 b2 3d be 08 d8 3d c0 a1 c0 3d
       0.0974583 0.0870198 0.105485424 0.09405851
000070 be 80 5c bc fb df c7 3d 2f 91 c4 3d 70 e8 bd bd
       -0.013458429 0.09759518 0.09598004 -0.092728496
000080 1a e3 0f bd 48 94 09 bd be 0d b2 bd 3b f0 64 3d
       -0.03512869 -0.033588678 -0.08694027 0.055893164
000090 12 90 22 3d c0 5a d3 bd 5f 37 c7 3d 2f 00 d6 bd
       0.039688177 -0.103200436 0.09727358 -0.10449254
0000a0 a7 69 77 3d 7a 63 7d 3d 70 37 d7 bd 10 98 ed 3d
       0.060403492 0.061862446 -0.10508621 0.11601269
0000b0 54 75 e2 3d 3a 3b 96 bd d1 83 c8 3d 14 44 cb 3d
       0.11057535 -0.07335515 0.09790767 0.09925094
0000c0 0d 45 af bd 3f 72 fa bc 8a 00 4b 3d 2a 86 b7 3d
       -0.08558092 -0.030572055 0.04956106 0.08961137
0000d0 bd 4f f3 bd 6d 2e e0 bd 21 0d ab bd 7e 15 d1 bd
       -0.11880443 -0.10946355 -0.083521135 -0.102091774
0000e0 c2 6d bf 3d a8 35 a1 3d cf d6 dc bd 92 15 80 3d
       0.093471065 0.07871562 -0.10783159 0.06254114
0000f0 d1 9f 4a bd 8a 6e c9 3d f3 74 ab 3d 1a 68 a7 3d
       -0.04946882 0.09835537 0.08371916 0.08174153

inertial_net.net.11.weight f4 [9, 64]
000000 76 ec d9 3d 95 6f 18 bd f9 ba db bd e0 f8 e6 bd
       0.106408045 -0.037215788 -0.107290216 -0.11277938
000010 db 25 ec 3d 1f 28 ff 3d 51 d9 f5 bd d7 55 f0 3d
       0.11530658 0.12458824 -0.120043404 0.11735123
000020 29 db f3 bd 1e 6d ef 3d b2 99 ed 3d d0 b2 d9 bd
       -0.11907036 0.11690734 0.11601581 -0.10629809
000030 df 99 00 be d1 e9 ec 3d a3 44 da 3d 19 02 d3 3d
       -0.12558697 0.115680344 0.10657623 0.103031345
000040 21 38 ad 3d c5 93 d5 3d 08 7b b8 bd e9 ac e1 3d
       0.08457971 0.104285754 -0.09007841 0.11019308
000050 50 39 e7 bd b7 46 c4 bd 5a 95 f1 3d 22 23 e5 3d
       -0.11290228 -0.095838 0.11796065 0.11188342
000060 c4 57 e7 bd 1b bd dc bd 52 af b9 bd cd fc fe bd
       -0.11296037 -0.107782565 -0.09066643 -0.12450562
000070 16 aa 67 3d d4 8b cd bd 26 58 d8 bd 55 60 ef 3d
       0.05655869 -0.10036436 -0.10563688 0.11688296
000080 3e 73 f5 3d 55 c9 f1 3d 94 73 dc 3d 56 f1 a4 bd
       0.11984871 0.11805979 0.10764232 -0.08053844
000090 5a fe d0 bd cb 28 f3 3d 1e a3 d5 bd 5e 55 17 3e
       -0.10204764 0.11873015 -0.10431503 0.14778659
0000a0 ca 8c b6 bd 49 d7 da bd 05 c5 d9 3d 7a 76 cc bd
       -0.08913572 -0.10685594 0.106332816 -0.09983535
0000b0 a7 b7 f9 bd 85 79 cb 3d 80 c2 ce bd 06 2d f9 bd
       -0.12193232 0.099352874 -0.10095692 -0.12166791
0000c0 89 f0 dc 3d a1 53 a6 3d ff 72 0a be c2 fb dc bd
       0.10788066 0.0812142 -0.1352043 -0.107902065
0000d0 45 7e cc 3d 25 42 d2 3d b7 f0 d5 3d ad d6 a7 3d
       0.099850215 0.10266522 0.10446303 0.08195243
0000e0 90 a2 02 be 79 c9 e8 bd 35 f3 dc 3d 8c 3c 09 be
       -0.12757325 -0.11366553 0.107885756 -0.13402003
0000f0 21 ff ef 3d 1a dd e3 bd 0b 07 f8 bd 4c 36 d7 bd
       0.11718584 -0.11126156 -0.12110718 -0.10508403
000100 09 23 8c bb 85 56 af 3c e5 83 02 3c 83 19 03 3c
       -0.0042766375 0.02140356 0.007966016 0.008001688
000110 4f 78 34 bc 88 6c 66 bc 60 82 90 3c 48 79 fb 3b
       -0.011015012 -0.014063962 0.017640293 0.00767437
000120 3c 3f 09 b8 f1 46 8c bc 07 f1 ae bc 27 ea 32 3c
       -3.2722237e-05 -0.017123671 -0.021355165 0.010920084
000130 ba 5e 0e 3d e1 9d 5f bc 91 66 59 3c 0b ca 86 bc
       0.034758307 -0.013648481 0.013269083 -0.016453763
000140 76 a3 43 bc ab 87 79 bc 22 0d 9f 3c 42 b3 2e 3c
       -0.011940828 -0.0152301 0.019415442 0.010662856
000150 29 02 33 3c 4b eb bd 3c 03 a0 13 bd ff af ce bc
       0.010925808 0.023183485 -0.03604127 -0.025230406
000160 42 05 49 3c 4e 28 89 3c b8 32 03 3d 5b 3e 22 3d
       0.01226932 0.016742852 0.03203079 0.039610248
000170 01 23 a0 bb 16 c4 bd 3c e5 74 10 3d 87 cb 03 bc
       -0.0048869853 0.02316479 0.03526773 -0.00804413
000180 89 43 23 bd b5 dc 3c bd 76 20 83 bc 26 fd 18 3c
       -0.03985933 -0.04610892 -0.01600669 0.009337699
000190 75 8d 83 bc fd 88 52 ba 35 f1 87 ba 3d 83 aa 3b
       -0.016058663 -0.0008031277 -0.0010371568 0.005203633
0001a0 84 8b 6b 3c 02 8b 93 bc bf 73 91 bb 2d 7b f0 3c
       0.014376525 -0.01801062 -0.004438847 0.02935561
0001b0 74 9a 52 3c a7 51 07 bd 59 a2 77 3b aa 6a 0c 3c
       0.012854207 -0.033036854 0.0037785976 0.008570353
0001c0 db 8a 06 bd 9b 9d 2b bc e3 10 d3 3c b7 6e 2b 3d
       -0.032847267 -0.010474588 0.025764888 0.041853633
0001d0 63 d1 86 bc 5d 76 30 bd fb 25 31 bd ae f0 4c bd
       -0.016457265 -0.04308163 -0.04324911 -0.050034218
0001e0 8e 13 56 bb a9 ec a6 bb f9 c3 ce bc ac f9 b6 3c
       -0.0032665464 -0.00509413 -0.025239931 0.02233585
0001f0 8d a9 38 bd 90 35 2b 3c a1 01 06 3d ac 13 47 3b
       -0.04508357 0.010449782 0.032716397 0.0030376716
000200 32 08 e6 bc 2d 5d 48 bd 7f a9 e8 3c e4 88 3c 3d
       -0.02808008 -0.048916984 0.028401135 0.046028987
000210 24 67 08 bd 78 b4 74 bc b9 bd ac 3c b4 f5 2a bd
       -0.033301488 -0.014935605 0.02108656 -0.041738227
000220 1d fc d7 3c d1 a9 c3 bc 53 18 cf bc f2 4e e0 3c
       0.026365334 -0.023884686 -0.025280153 0.027381394
000230 2b cd 88 3c 2b 4f d2 bc 8a 00 6b bd a5 a5 57 bd
       0.016699394 -0.025672516 -0.05737356 -0.052648205
000240 ac 5a 4c bd 46 54 dd bc d6 f9 27 3d db f6 ee bc
       -0.04989116 -0.027017724 0.041009746 -0.029170444
000250 54 e8 c1 3c 1d 80 32 3d 68 7a 6e bc 94 6d 03 bd
       0.023670353 0.04357921 -0.014555551 -0.032086924
000260 5d c2 f5 3c 66 4e ee 3c e9 2e 4d 3d 34 b8 42 3d
       0.029999906 0.029090118 0.050093565 0.04753895
000270 66 02 2b bd bc 8c fa 3c 65 5b 1b 3d 52 06 c1 bc
       -0.041750334 0.030584686 0.037928957 -0.023562584
000280 e4 a4 15 bc d3 69 86 bb 21 d7 bf bc 95 a0 47 3d
       -0.009133551 -0.0041019707 -0.023418011 0.048737127
000290 bf fc 81 3d 95 7f 1a bd 75 68 00 3d 27 61 a3 bc
       0.063470356 -0.037719328 0.031349618 -0.019943787
0002a0 f9 ad 6e 3d 6f d3 15 3d 3b f7 ff bc 1d cc 34 3d
       0.058271382 0.036578592 -0.031245818 0.04413997
0002b0 e1 3e 44 3d 56 77 6d bd 21 1a 17 3d e0 07 c4 3c
       0.04791153 -0.057975136 0.036890153 0.023929536
0002c0 3f 30 95 bc 1c ca 18 bd e5 ba 89 bb ab d5 d0 3c
       -0.018211482 -0.03730212 -0.004203188 0.02549251
0002d0 52 6b 02 bd d6 2e 1a bd 98 65 eb bc 7c 6d 23 bd
       -0.03184063 -0.037642322 -0.028734967 -0.039899334
0002e0 6d 4d 46 3c c9 36 1b 3d 74 93 37 bd e0 97 7e 3c
       0.012103421 0.037894044 -0.044818357 0.0155391395
0002f0 c4 4b 9a bc b6 0b 26 3d 9b 82 ca 3c 36 8f 47 3d
       -0.018834956 0.040538512 0.02472048 0.04872056
000300 b6 d7 25 3d 28 9c 12 bd 45 30 b8 bc 3c 3d 27 bd
       0.04048892 -0.035793453 -0.022483954 -0.040829882
000310 20 48 06 3d c2 86 b5 3c 44 a8 28 bd e0 e2 b3 3b
       0.032783628 0.022158984 -0.041176096 0.005489692
000320 54 dc 0b bc 41 02 51 3d 72 a0 24 3c f9 8b c5 bc
       -0.008536417 0.05102754 0.010048019 -0.024114596
000330 32 92 85 bd 6e 6e eb 3c b6 21 b9 b9 a6 85 a6 ba
       -0.06522025 0.02873918 -0.00035311066 -0.0012704625
000340 c3 6d 22 3c d4 61 87 3c 10 e4 59 bd 77 ed 95 3b
       0.009913865 0.01652614 -0.053196013 0.004575427
000350 80 b3 22 bd b1 78 46 bc ac 37 b6 3c 62 20 23 3d
       -0.039721966 -0.012113736 0.022243343 0.039825805
000360 b5 69 17 bd 89 30 8f bd 4f 41 69 bd 01 6e 33 bd
       -0.036966044 -0.06991679 -0.05694705 -0.04380608
000370 8f a1 1a bd 17 29 59 bb ea 4d 1d 3c d1 66 84 3b
       -0.03775173 -0.0033136064 0.009601096 0.004040577
000380 44 a2 98 3d 88 c2 9c 3d 86 7c 00 3d c8 49 3a bd
       0.07452825 0.076542914 0.031368755 -0.04548052
000390 ac c5 d3 bb 12 2c 05 3c d7 76 ff bc 53 e8 cf 3c
       -0.0064627733 0.008128183 -0.031184597 0.025379336
0003a0 31 c0 db bc 2a c0 2a bd 09 77 36 3c 39 d0 ec bc
       -0.026825042 -0.04168717 0.011136779 -0.028907882
0003b0 fb 73 ba bc 43 d6 db bb 0f 00 28 bd be 08 13 bb
       -0.022760382 -0.0067088916 -0.04101568 -0.002243563
0003c0 79 3f 07 3d 62 ec 97 3c 24 da ba bd cd df 4a bd
       0.033019517 0.018545333 -0.09123638 -0.04952984
0003d0 f4 73 d4 bb 82 c4 0f 3d f3 1c 71 3d f7 e7 68 3d
       -0.0064835493 0.035099514 0.0588655 0.056861844
0003e0 20 59 71 bd 40 ff 37 3c ac f7 8a 3c b9 92 96 bc
       -0.058922887 0.01123029 0.016963802 -0.01838051
0003f0 50 8a 19 3d e3 3c b7 bc d9 3a 1f bd ec 09 af bc
       0.03748542 -0.0223679 -0.03887448 -0.021367036

inertial_net.net.11.bias f4 [9]
000000 54 be bc bd 1c ac 53 3c 1b cd 3a 3c a3 c3 f3 bc
       -0.0921599 0.012919452 0.01140144 -0.029756373
000010 3e 5a 1a bc 56 2f 64 39 35 e8 b5 bc 16 30 1d 3c
       -0.0094209295 0.00021761408 -0.022205452 0.009593984
000020 ff 43 72 ba
       -0.00092416996
