PINN_RNN/models/pinn_rnn_model_20250726_001946/best_model.pth (torch, 748386 bytes, 14 tensors)

gru.weight_ih_l0 f4 [384, 9]
-0.19052823 -0.49356294 -0.50224316 0.35083446 0.32685897 0.085468 0.07462913 -0.05926728
-0.1088057 -0.43075088 -0.49572632 -0.43230194 0.65605724 0.4866528 0.59265363 -0.22550704
-0.008183186 0.026316583 -0.31999168 -0.504375 -0.6346561 -0.17983794 0.057650294 0.08509987
-0.17069328 -0.028860657 0.14352699 -0.5140704 -0.5945665 -0.6462719 -0.26375848 -0.18260959
0.17315163 -0.15166275 0.30377802 -0.11272763 -0.14449313 -0.05404943 0.07764699 -0.4930917
0.2388089 0.21386865 -0.25630406 0.035232972 -0.07393713 -0.5337638 -0.3694064 -0.2686142
-0.6596585 -0.40717366 0.12133311 0.030854233 -0.24106637 0.023802258 -0.030782629 -0.06634713
-0.093275934 -0.51288944 0.25855812 -0.40176445 -0.23969993 -0.22596657 0.16036576 -0.44784802
-0.24695846 -0.29745713 0.64023834 0.06878629 0.43460906 -0.14731053 -0.00049945706 0.15239586
-0.262199 -0.42921484 -0.45354882 -0.056397654 0.054453988 0.034472294 -0.24031907 -0.08756356
0.3877548 -0.14135963 -0.3756285 -0.33207864 -0.35281587 0.004960191 0.7055836 -0.08243424
-0.04024445 0.2376074 -0.3729302 -0.28490704 -0.3419554 -0.31561062 0.20097771 0.083345
-0.098796114 -0.12819947 0.03999199 -0.10118037 -0.3292794 -0.5458358 0.51660234 -0.1991642
-0.1486748 0.14725107 0.09804219 -0.089976385 -0.6255707 -0.19175707 -0.266542 -1.310458
0.063662805 -0.65671474 0.10316141 -0.08364631 -0.012530918 -0.40715924 -0.7016973 -0.6739446
-0.25388935 0.33682916 0.36228532 -0.21045479 0.14869788 0.19011033 -0.30145225 -0.38660982
-0.4610998 -0.30517444 0.017956542 0.51362467 0.12027454 -0.099015824 0.122292526 -0.33397648
-0.5163168 -0.40203783 0.025763288 0.13106585 0.016953122 -0.23563486 0.17936419 0.18045735
-0.68330723 -0.6655816 -0.59777313 0.004773623 0.25579694 -0.054518946 -0.0090218065 -0.016622562
0.11424798 -0.4528334 -0.4730809 -0.4877698 -0.015483289 0.718533 0.42784822 -0.08326227
-0.19336691 -0.0007008385 -0.0072908695 -0.15307988 -0.14831169 -0.4881463 0.08633059 0.32012528
0.10656686 -0.028123489 0.18575361 -0.41599044 -0.5637136 -0.5225544 -0.06668736 0.085311696
0.7540026 0.08575248 -0.13810547 0.14971955 0.03721946 -0.29156992 -0.43457702 -0.31718007
0.27779618 -0.15219557 -0.32722646 0.12951052 -0.12468675 -0.31419954 -0.23778164 -0.38062176
-0.72267216 -0.8441115 -0.18596227 0.13222584 -0.11286461 0.25009194 0.008888105 -0.35330805
-0.39242432 -0.0035590646 0.059129108 -0.05787613 0.18934518 -0.11928233 0.027434375 -0.29232785
-0.44505742 -0.6655503 0.10768358 0.8045344 0.11648434 -0.16315417 -0.018667212 -0.062842034
-0.55895674 -0.50916946 -0.52115476 -0.6629187 0.14665756 -0.0909598 -0.013481268 -0.069468305
-0.031634584 -0.2867427 -0.25579047 -0.38017792 0.29311654 0.06365009 -0.15815568 -0.07360766
0.17349811 -0.18318526 -0.36809945 -0.15242141 -0.1588163 -0.7485536 0.3272762 -0.1815964
0.1540646 -0.11543185 0.019172372 0.056663696 0.08015419 0.12188048 0.31910318 0.0019178389
0.14619105 -0.056950472 -0.19043267 0.18470109 -0.17310423 -0.24402548 -0.37540638 -0.026297688
00000000: d519 43be 48b4 fcbe 0293 00bf 93a0 b33e
00000010: 0f5a a73e d909 af3d 28d7 983d 3fc2 72bd
00000020: 86d5 debd 618b dcbe d7cf fdbe ae56 ddbe
00000030: 5ef3 273f 8e2a f93e 26b8 173f 51eb 66be
00000040: c512 06bc e095 d73c f3d5 a3be b81e 01bf
00000050: d278 22bf 7027 38be b722 6c3d d748 ae3d
00000060: 38ca 2ebe 2f6d ecbc bdf8 123e 1e9a 03bf
00000070: 8335 18bf 1372 25bf 5a0b 87be 02fe 3abe
00000080: a94e 313e 7b4d 1bbe cb88 9b3e bedd e6bd
00000090: 02f6 13be ef62 5dbd 6305 9f3d 8476 fcbe
000000a0: 528a 743e 6200 5b3e 493a 83be 7350 103d
000000b0: 5a6c 97bd bfa4 08bf d622 bdbe cd87 89be
000000c0: 61df 28bf 1179 d0be 7e7d f83d 04c2 fc3c
000000d0: 1ada 76be f4fc c23c da2b fcbc 01e1 87bd
000000e0: 7407 bfbd b94c 03bf bb61 843e 12b4 cdbe
000000f0: e673 75be c863 67be ec36 243e 564c e5be
00000100: aee2 7cbe 4d4c 98be a9e6 233f d4df 8c3d
00000110: 1485 de3e 92d8 16be ffed 02ba a90d 1c3e
00000120: f33e 86be 0cc2 dbbe 8d37 e8be 3a01 67bd
00000130: 250b 5f3d d232 0d3d 3416 76be 8654 b3bd
00000140: cc87 c63e 94c0 10be 6152 c0be 3606 aabe
00000150: 48a4 b4be 1989 a23b 20a1 343f 48d3 a8bd
00000160: 5dd7 24bd 5b4f 733e b5f0 bebe 56df 91be
00000170: c714 afbe b797 a1be 1acd 4d3e c9b0 aa3d
00000180: 9e55 cabd b946 03be a4ce 233d a737 cfbd
00000190: 4f97 a8be e5bb 0bbf 0d40 043f b3f1 4bbe
000001a0: 353e 18be fcc8 163e 58ca c83d 8a45 b8bd
000001b0: 6725 20bf f75b 44be 3178 88be 16bd a7bf
000001c0: a561 823d 751e 28bf 4a46 d33d c24e abbd
000001d0: 7b4e 4dbc 2d77 d0be 6fa2 33bf a287 2cbf
000001e0: c9fd 81be df74 ac3e 767d b93e 7681 57be
000001f0: 4244 183e 48ac 423e f357 9abe b9f1 c5be
00000200: 4615 ecbe d33f 9cbe 9919 933c e87c 033f
00000210: 7f52 f63d cfc8 cabd 8174 fa3d f7fe aabe
00000220: 562d 04bf e7d7 cdbe 880d d33c 2036 063e
00000230: 46e1 8a3c 444a 71be 3fab 373e d0c9 383e
00000240: 39ed 2ebf 8e63 2abf a907 19bf 0d6c 9c3b
00000250: d1f7 823e 424f 5fbd 33d0 13bc 0a2c 88bc
00000260: d8fa e93d c8d9 e7be a937 f2be f7bc f9be
00000270: 9fad 7dbc c7f1 373f ec0e db3e 6985 aabd
00000280: fa01 46be 7ab8 37ba 3fe8 eebb f9c0 1cbe
00000290: 05df 17be 50ee f9be 18ce b03d 76e7 a33e
000002a0: ba3f da3d 3b63 e6bc 3236 3e3e b3fc d4be
000002b0: 894f 10bf 20c6 05bf 6293 88bd e6b7 ae3d
000002c0: 5006 413f ff9e af3d 856b 0dbe 1550 193e
000002d0: 6f73 183d a748 95be e180 debe 6d65 a2be
000002e0: 4d3b 8e3e 28d9 1bbe 3a8a a7be 689e 043e
000002f0: c45b ffbd c3de a0be 087d 73be dbe0 c2be
00000300: 0b01 39bf b117 58bf e56c 3ebe 3666 073e
00000310: 9025 e7bd 0d0c 803e 6a9f 113c cbe4 b4be
00000320: d7eb c8be 323f 69bb 5d31 723d 850f 6dbd
00000330: b4e3 413e 4b4a f4bd 0ebe e03c ffab 95be
00000340: 91de e3be 8161 2abf 3589 dc3d f7f5 4d3f
00000350: 578f ee3d e311 27be fbeb 98bc 53b3 80bd
00000360: ca17 0fbf ee58 02bf 666a 05bf 0ab5 29bf
00000370: 662d 163e 2249 babd 89e0 5cbc 6645 8ebd
00000380: 4493 01bd f0cf 92be f8f6 82be aea6 c2be
00000390: 5f13 963e fa5a 823d 90f3 21be 9dbf 96bd
000003a0: 7da9 313e eb94 3bbe 8877 bcbe 5c14 1cbe
000003b0: bda0 22be 35a1 3fbf bf90 a73e 68f4 39be
000003c0: 1cc3 1d3e 8967 ecbd 610f 9d3c 3118 683d
000003d0: e127 a43d 799c f93d 7e61 a33e ff5f fb3a
000003e0: 1bb3 153e e644 69bd c800 43be 4822 3d3e
000003f0: 3c42 31be d1e1 79be 4435 c0be 406e d7bc

gru.weight_hh_l0 f4 [384, 128]
0.1994413 -0.017883806 0.09136408 0.49835208 -0.38422632 -0.22993857 -0.055558715 -0.11504365
0.016037377 -0.3490465 0.22954063 -0.40625584 0.0825748 -0.09588652 0.35004532 -0.13761303
0.05121386 0.30924523 -0.2584445 -0.20577773 0.10599757 -0.2485185 -0.56871957 0.11413701
-0.13633665 -0.24034484 0.4830154 -0.43894845 0.16875662 -0.021898769 -0.13451867 -0.26845962
0.22784004 -0.23443252 0.30071068 -0.25958553 -0.13664918 0.22498786 0.19031437 0.010080896
0.14625946 -0.08788743 0.33079043 -0.010923573 -0.30775732 -0.09105161 0.2074225 -0.08957701
0.35586402 -0.08269636 0.11136012 0.023763336 0.051908437 0.462672 -0.3216108 -0.4216587
0.11714415 -0.5995145 0.009000773 0.12440179 -0.21430238 0.18859597 0.23436764 0.26818773
0.3736369 0.41953635 0.34859008 0.025775384 0.14689702 -0.4643092 0.50259626 0.064256586
0.28621256 -0.062332842 -0.49669656 -0.1527715 0.08351854 0.117710635 0.24647327 0.14699705
0.1609705 0.2238792 -0.086906224 0.085978314 0.46703145 0.42552745 0.022731379 0.048171334
0.47622123 -0.06002038 0.5041073 0.087044924 0.16890776 0.35877153 0.27838534 0.36111984
-0.57924074 0.014879554 0.46056348 -0.48354205 -0.25349775 0.22137879 -0.10389553 0.5307071
-0.22806166 -0.096499346 -0.17803903 0.41314247 0.27185234 0.33300993 -0.18417338 0.032437727
0.20709808 0.19477691 0.18083484 -0.10902499 0.02861951 -0.3839793 -0.26996446 -0.04799315
-0.35017955 0.26034468 0.12446765 0.05250103 0.36748186 0.23884818 0.28016618 -0.35060364
0.03926668 -0.3779016 -0.22495002 0.2832515 -0.34220818 -0.2021861 -0.053503886 -0.025431735
0.18480738 -0.29812685 0.273092 -0.2636526 0.19362378 0.019847127 0.3170466 -0.30972394
0.14938554 0.3293676 -0.30849507 -0.17449358 0.39128602 -0.20371957 -0.30531225 0.093469776
-0.3110244 -0.12304334 0.3352772 -0.23087499 0.11789739 0.04554074 -0.21104881 -0.14597116
0.25402993 0.0065178163 0.10665943 -0.26398036 -0.06309452 0.21682143 0.32358298 0.1559601
0.19847806 0.15293695 -0.016548863 0.27644694 -0.07677571 -0.38941956 0.15708813 -0.03770313
0.27672675 -0.2206291 -0.043313347 0.012402281 -0.14191456 0.27009386 -0.34228203 -0.3848325
0.09178399 -0.19983724 -0.06261817 -0.0015721826 -0.16641375 0.17411128 0.15246056 0.15861204
0.31249815 0.5154935 0.38725844 0.06693791 0.24356036 -0.37897816 0.37078905 -0.07589087
-0.051334195 0.017908085 -0.18177824 -0.20176515 -0.093681015 -0.072166614 0.34844694 0.22136685
0.08328932 0.08257566 -0.09346737 -0.2643531 0.27930233 0.36333895 -0.13948391 -0.064785786
0.24589145 -0.20126823 -0.006146443 -0.09368524 0.058963675 0.19668387 0.23092501 0.159037
-0.26520178 -0.07064241 0.43123597 -0.3467161 -0.08585115 0.23959377 -0.15724461 0.22639297
-0.13880341 -0.09951409 -0.15446398 0.22309585 0.035873167 0.15877432 -0.30652112 -0.0042078267
0.358238 0.022311749 0.107507005 0.12635043 0.31131223 -0.3680446 -0.26391938 -0.09870956
-0.20731252 -0.1581844 0.0994931 0.09329437 0.18269928 0.08043745 0.30022082 0.12825134
00000000: 573a 4c3e 0f81 92bc 171d bb3d 0128 ff3e
00000010: 50b9 c4be 0475 6bbe 8991 63bd 019c ebbd
00000020: d160 833c 39b6 b2be b30c 6b3e c400 d0be
00000030: fa1c a93d 2760 c4bd 2439 b33e 6eea 0cbe
00000040: a0c5 513d 6455 9e3e d652 84be 66b7 52be
00000050: 4115 d93d a27b 7ebe 9b97 11bf aac0 e93d
00000060: d69b 0bbe f51c 76be cb4d f73e dabd e0be
00000070: 89ce 2c3e 0c65 b3bc 43bf 09be 8a73 89be
00000080: e64e 693e 140f 70be c0f6 993e 65e8 84be
00000090: c3ed 0bbe 3863 663e c5e1 423e 582a 253c
000000a0: 0ac5 153e 53fe b3bd 5d5d a93e c9f8 32bc
000000b0: 5e92 9dbe 4479 babd 9066 543e 2774 b7bd
000000c0: cf33 b63e b65c a9bd c610 e43d 54ab c23c
000000d0: f19d 543d 58e3 ec3e 2caa a4be a6e3 d7be
000000e0: 46e9 ef3d c879 19bf fa77 133c 5ec6 fe3d
000000f0: 1572 5bbe 4d1f 413e 12fe 6f3e e74f 893e
00000100: 564d bf3e 78cd d63e 667a b23e e626 d33c
00000110: 2c6c 163e efb9 edbe 26aa 003f f598 833d
00000120: 748a 923e b950 7fbd 034f febe 2270 1cbe
00000130: c50b ab3d 4612 f13d 7d63 7c3e 6586 163e
00000140: 73d5 243e 9740 653e e4fb b1bd 6615 b03d
00000150: bf1e ef3e bcde d93e 2837 ba3c 4e4f 453d
00000160: 45d3 f33e eed7 75bd 2d0d 013f 9c44 b23d
00000170: 28f6 2c3e e7b0 b73e 8688 8e3e b3e4 b83e
00000180: 1f49 14bf 5fc9 733c face eb3e d392 f7be
00000190: 75ca 81be 1fb1 623e 2ec7 d4bd 6cdc 073f
000001a0: ff88 69be 73a1 c5bd dd4f 36be 6987 d33e
000001b0: 3b30 8b3e 4780 aa3e f297 3cbe 6cdd 043d
000001c0: 8511 543e 9973 473e c52c 393e 7e48 dfbd
000001d0: 7673 ea3c ef98 c4be c838 8abe 7794 44bd
000001e0: bc4a b3be e64b 853e e5e8 fe3d 520b 573d
000001f0: 9526 bc3e 9e94 743e f171 8f3e 5282 b3be
00000200: 19d6 203d 527c c1be 4c59 66be 5706 913e
00000210: e935 afbe df09 4fbe e426 5bbd 3756 d0bc
00000220: 253e 3d3e 15a4 98be b7d2 8b3e 79fd 86be
00000230: 5045 463e 7196 a23c ef53 a23e 2394 9ebe
00000240: 86f8 183e dfa2 a83e 11f3 9dbe 72ae 32be
00000250: a456 c83e dd9b 50be e351 9cbe 156d bf3d
00000260: 973e 9fbe 26fe fbbd 74a9 ab3e 7e6a 6cbe
00000270: 3074 f13d ed88 3a3d 2e1d 58be 7779 15be
00000280: 3610 823e 6893 d53b 4270 da3d 6f28 87be
00000290: b337 81bd 7006 5e3e abac a53e 01b4 1f3e
000002a0: d53d 4b3e 819b 1c3e 7b91 87bc 748a 8d3e
000002b0: 953c 9dbd 0062 c7be b6db 203e 996e 1abd
000002c0: 21af 8d3e 98ec 61be 5669 31bd f032 4b3c
000002d0: 0d52 11be be49 8a3e 973f afbe c408 c5be
000002e0: 3ff9 bb3d 22a2 4cbe f53d 80bd b211 ceba
000002f0: 5e68 2abe 3a4a 323e 9f1e 1c3e 326b 223e
00000300: c2ff 9f3e 62f7 033f bd46 c63e be16 893d
00000310: e367 793e 6d09 c2be 10d8 bd3e ac6c 9bbd
00000320: ce43 52bd fab3 923c 1324 3abe 869b 4ebe
00000330: d5db bfbd 17cc 93bd a367 b23e fead 623e
00000340: 9793 aa3d 6d1d a93d d26b bfbd 4a59 87be
00000350: b700 8f3e 9007 ba3e dfd4 0ebe 69ae 84bd
00000360: f8ca 7b3e 4219 4ebe 1a68 c9bb 0cde bfbd
00000370: e583 713d 7f67 493e 9b77 6c3e 98da 223e
00000380: 87c8 87be f8ac 90bd f6ca dc3e c684 b1be
00000390: bad2 afbd 1258 753e bb04 21be 8fd3 673e
000003a0: 7b22 0ebe 0bce cbbd ce2b 1ebe 3d73 643e
000003b0: beef 123d bc95 223e 56f0 9cbe cfe1 89bb
000003c0: f96a b73e 21c7 b63c a22c dc3d 0262 013e
000003d0: 5164 9f3e 5870 bcbe 7120 87be 3d28 cabd
000003e0: bc49 54be 17fb 21be 0ac3 cb3d 1e11 bf3d
000003f0: 8515 3b3e 64bc a43d 8bb6 993e 5254 033e

gru.bias_ih_l0 f4 [384]
-0.31194338 -0.2691019 -0.22225975 -0.5528319 -0.29109684 -0.46011075 -0.13552296 -0.018511925
-0.41529575 -0.28889984 -0.34669915 -0.06652258 -0.4571751 -0.50361085 -0.38077366 -0.44114003
-0.58636963 -0.28689268 -0.070263326 -0.4117055 -0.106997564 -0.45577937 -0.20589612 -0.38814554
-0.46406046 -0.0601058 -0.168534 -0.003296477 -0.36258295 -0.042213142 -0.4411833 -0.22339849
-0.481718 -0.37193438 -0.32412124 -0.20549764 -0.38432 -0.12599634 -0.36665216 -0.00907305
-0.48116237 -0.14408161 -0.05832604 -0.17920071 -0.14400943 -0.25058302 -0.023902621 -0.27418917
-0.6557912 -0.22141823 -0.32379222 -0.31745288 -0.3823932 -0.3237338 -0.3288864 -0.016494898
-0.18222333 -0.10948324 -0.18933935 -0.20096005 -0.3374575 -0.13151474 -0.22934844 -0.5632076
-0.3572586 -0.1558424 -0.32881692 -0.38569853 -0.29103807 -0.17639217 -0.30002293 -0.21797705
0.026234398 0.063920565 -0.06786076 -0.26258436 0.056464672 -0.2787574 -0.24520274 -0.27124095
-0.15021035 -0.25529158 -0.0280391 -0.19368072 -0.23538071 -0.009518115 -0.30725732 -0.42954957
-0.75519955 -0.13886236 -0.30752555 -0.36405995 -0.215413 -0.355864 -0.06852715 -0.38492572
-0.15654461 -0.053208843 -0.6976966 -0.18729562 -0.05597828 0.06088056 -0.36709827 -0.43803093
-0.32562038 -0.21833599 -0.2405776 0.21790743 -0.21539974 -0.39601412 -0.29944432 -0.24116269
-0.18385726 -0.06491527 -0.015470645 -0.08715332 -0.32441473 0.11586633 -0.31593394 -0.18583065
-0.007165039 -0.08209425 -0.33093578 -0.13387829 -0.048486657 -0.10141374 -0.48851138 -0.057290792
-0.59027493 -0.52323794 0.030003766 -0.35027987 -0.035191912 -0.3670171 -0.21025306 -0.01361289
0.11134536 0.090584986 -0.25508252 0.012328981 -0.60974514 0.33840826 -0.14196053 0.17231524
-0.03908486 -0.36755624 -0.4161553 -0.3107772 -0.16644989 -0.5870864 -0.10991999 -0.38292593
-0.3464781 -0.24646038 -0.23902963 0.06356713 -0.074837565 -0.19717665 -0.35437462 -0.5202481
-0.12987332 -0.36920905 -0.32454678 -0.44509935 -0.17355694 -0.09825244 0.3050081 -0.5041816
-0.37319475 0.10896628 -0.025815358 -0.00038371302 -0.24237703 -0.11660605 -0.21500555 -0.44894072
-0.5707848 -0.6594899 -0.17259412 -0.41634026 -0.24985561 -0.118692644 -0.29604456 -0.15244041
0.03139056 -0.30375513 -0.27251348 -0.08159795 -0.4651248 -0.30283165 -0.2124638 -0.3154297
-0.106474206 -0.050209064 -0.13816208 -0.24355143 0.08654049 -0.24105716 -0.20036572 -0.4229732
-0.11024873 -0.108280696 0.012590657 -0.14269856 -0.3580426 -0.45136017 -0.2673869 -0.54681486
-0.35546795 -0.025024127 -0.06774982 -0.02589174 -0.33164063 0.07746738 -0.32052836 -0.39650843
-0.15323052 -0.16203985 -0.3356794 -0.44771713 -0.23978527 -0.2921178 -0.21321233 -0.1744544
0.116261244 -0.19119254 -0.43735477 -0.15915465 -0.28074297 -0.4781041 -0.27805403 -0.15018514
-0.6279966 -0.13743863 -0.030351266 -0.1862438 -0.49804786 0.38825384 -0.36627373 -0.4715008
-0.387105 0.19809154 -0.19462928 -0.4306229 0.48242584 -0.43933114 -0.34426713 0.0043684742
0.13674188 -0.3151657 -0.27255422 -0.3343485 -0.36001396 -0.09655702 -0.2255 -0.08744903
00000000: 0bb7 9fbe b9c7 89be 0f98 63be 6486 0dbf
00000010: a50a 95be a393 ebbe 88c6 0abe 52a6 97bc
00000020: a5a1 d4be aeea 93be 8d82 b1be fe3c 88bd
00000030: db12 eabe a4ec 00bf c4f4 c2be 1bdd e1be
00000040: 521c 16bf 99e3 92be 38e6 8fbd 10cb d2be
00000050: 8a21 dbbd ea5b e9be 6fd6 52be 03bb c6be
00000060: 5599 edbe 8031 76bd 2d94 2cbe b509 58bb
00000070: 79a4 b9be b0e7 2cbd c7e2 e1be 93c2 64be
00000080: bea3 f6be 2f6e bebe 38f3 a5be f96d 52be
00000090: 97c5 c4be 2f05 01be d5b9 bbbe 21a7 14bc
000000a0: ea5a f6be 218a 13be 49e7 6ebd 6480 37be
000000b0: 3577 13be 6b4c 80be 6ecf c3bc 8662 8cbe
000000c0: efe1 27bf 76bb 62be 18c8 a5be 2f89 a2be
000000d0: 0bc9 c3be 70c0 a5be cc63 a8be 4f20 87bc
000000e0: c198 3abe c038 e0bd 2de2 41be 79c8 4dbe
000000f0: 3bc7 acbe cdab 06be 51da 6abe 602e 10bf
00000100: 99ea b6be 2695 1fbe b15a a8be 477a c5be
00000110: f102 95be 26a0 34be 9b9c 99be 6035 5fbe
00000120: 85e9 d63c c9e8 823d 95fa 8abd 7571 86be
00000130: 8047 673d 4ab9 8ebe 6d16 7bbe 18e0 8abe
00000140: bed0 19be 94b5 82be 41b2 e5bc 3d54 46be
00000150: a407 71be def1 1bbc d550 9dbe eced dbbe
00000160: c254 41bf ef31 0ebe fd73 9dbe 1166 babe
00000170: 3a95 5cbe ce33 b6be f657 8cbd fc14 c5be
00000180: 3b4d 20be 84f1 59bd 3f9c 32bf 6cca 3fbe
00000190: 7b49 65bd e55d 793d 4ef4 bbbe 9745 e0be
000001a0: b7b7 a6be 7893 5fbe f959 76be 2023 5f3e
000001b0: c091 5cbe 5dc2 cabe c450 99be 5af3 76be
000001c0: 1445 3cbe 4cf2 84bd 9778 7dbc 717d b2bd
000001d0: b019 a6be 544b ed3d 18c2 a1be 644a 3ebe
000001e0: b4c8 eabb 0821 a8bd 6a70 a9be 6417 09be
000001f0: f299 46bd 02b2 cfbd 2a1e fabe c0a9 6abd
00000200: 421c 17bf ecf2 05bf 75ca f53c e257 b3be
00000210: 6525 10bd aae9 bbbe 944c 57be 9908 5fbc
00000220: 0909 e43d 9f84 b93d 2d9a 82be 7fff 493c
00000230: 4218 1cbf d943 ad3e 1a5e 11be 6873 303e
00000240: 7217 20bd 5530 bcbe 4f12 d5be 301e 9fbe
00000250: d771 2abe 4b4b 16bf bb1d e1bd de0e c4be
00000260: 9465 b1be 1c60 7cbe 2fc4 74be 7c2f 823d
00000270: 7044 99bd ade8 49be 9770 b5be fb2e 05bf
00000280: 83fd 04be f808 bdbe ff2a a6be 10e4 e3be
00000290: e9b8 31be 9338 c9bd 062a 9c3e 0c12 01bf
000002a0: 6213 bfbe b729 df3d bb7a d3bc 172d c9b9
000002b0: af31 78be 27cf eebd 6a2a 5cbe 8fdb e5be
000002c0: f41e 12bf 55d4 28bf 83bc 30be 8d2a d5be
000002d0: 26da 7fbe 2115 f3bd 2793 97be 5719 1cbe
000002e0: 6393 003d cb85 9bbe e386 8bbe d31c a7bd
000002f0: d624 eebe c00c 9bbe 1c90 59be 0080 a1be
00000300: 260f dabd 05a8 4dbd 5c7a 0dbe 8c65 79be
00000310: 243c b13d b0d7 76be ac2c 4dbe f18f d8be
00000320: 16ca e1bd 45c2 ddbd 0b49 4e3c 921f 12be
00000330: 5c51 b7be ae18 e7be f0e6 88be 0ffc 0bbf
00000340: e5ff b5be 66ff ccbc 6bc0 8abd ea1a d4bc
00000350: cdcc a9be 38a7 9e3d 4b1c a4be 2703 cbbe
00000360: 76e8 1cbe c6ed 25be 2cde abbe 2e3b e5be
00000370: 458a 75be 7790 95be 5554 5abe 2da4 32be
00000380: 601a ee3d fac7 43be f7ec dfbe 70f9 22be
00000390: 8bbd 8fbe 10ca f4be 195d 8ebe 22ca 19be
000003a0: 63c4 20bf b6bc 0cbe 38a3 f8bc b2b6 3ebe
000003b0: 2100 ffbe 35c9 c63e 3b88 bbbe 8e68 f1be
000003c0: a032 c6be 82d8 4a3e e64c 47be 9b7a dcbe
000003d0: 8500 f73e 03f0 e0be c843 b0be 6b25 8f3b
000003e0: 1006 0c3e 665d a1be 3a8c 8bbe ba2f abbe
000003f0: c053 b8be b0bf c5bd 79e9 66be 7a18 b3bd

gru.bias_hh_l0 f4 [384]
-0.34057757 -0.2861505 -0.34116188 -0.5187086 -0.2022106 -0.3308061 -0.023536006 -0.025156802
-0.39068216 -0.21921557 -0.472443 -0.007734812 -0.37687576 -0.6014236 -0.37768638 -0.37072766
-0.6958688 -0.3479439 -0.10615138 -0.52429783 -0.1051787 -0.46550727 -0.23093458 -0.2892029
-0.46595693 -0.17889997 -0.17140436 0.018947717 -0.25447056 -0.014219775 -0.4393092 -0.1432107
-0.4115943 -0.3415961 -0.20192969 -0.14998424 -0.35590357 -0.10136059 -0.46679655 -0.024302784
-0.46220633 -0.23498653 -0.09114621 -0.11208366 -0.12013715 -0.3148856 -0.038795616 -0.29318658
-0.59193134 -0.09869118 -0.45188028 -0.2240843 -0.38035744 -0.4124293 -0.23348723 0.07873318
-0.09149939 -0.23743169 -0.329077 -0.15374503 -0.35431474 -0.041047405 -0.13266924 -0.4241417
-0.32330206 -0.09284959 -0.2742083 -0.40453365 -0.3520597 -0.21339446 -0.38684407 -0.27513036
0.13290045 -0.0010976343 -0.11400054 -0.24715327 -0.038399972 -0.20788652 -0.3012953 -0.40034857
-0.016202858 -0.37121373 -0.023267511 -0.17012309 -0.19431019 -0.109826595 -0.2810145 -0.32827112
-0.67154306 -0.2671537 -0.205798 -0.3837676 -0.15345438 -0.4581384 -0.02576261 -0.35484713
-0.17095588 -0.20032595 -0.6292882 -0.18730631 -0.14161913 0.17328365 -0.3519115 -0.40295678
-0.24571347 -0.33078742 -0.32201535 0.26941243 -0.14862701 -0.42230418 -0.29900536 -0.29080793
-0.16711944 -0.19357234 -0.114715196 -0.067432895 -0.22629689 0.15801744 -0.25535893 -0.23324044
-0.09838786 0.007988951 -0.44528252 -0.13639243 -0.18595994 -0.07461834 -0.5598247 0.0657501
-0.5055412 -0.5350947 0.038312405 -0.41277373 0.02333068 -0.36136872 -0.23425364 -0.044917725
0.0726511 -0.008259517 -0.10036967 0.014396697 -0.540621 0.3847919 -0.12184617 0.017989095
-0.078616135 -0.34079546 -0.29069602 -0.31383595 -0.037351497 -0.55838627 -0.052749995 -0.43922025
-0.3106675 -0.35065284 -0.23652382 -0.013378811 -0.11756776 -0.26109415 -0.3218705 -0.47633854
-0.08329401 -0.3787284 -0.19555514 -0.36624667 -0.29536033 -0.01528368 0.37230852 -0.53130895
-0.45725682 0.12852952 0.058459524 -0.084394835 -0.23780602 -0.051090587 -0.27554956 -0.50635374
-0.7085844 -0.5717583 -0.06651251 -0.42802837 -0.2544512 -0.21777086 -0.18184291 -0.21792112
0.025961088 -0.30529922 -0.30509132 0.07073948 -0.48935753 -0.2086503 -0.2390644 -0.30819464
-0.023677178 -0.022756748 -0.12796547 -0.2742365 0.08805317 -0.27549958 -0.14896305 -0.41511703
-0.09476466 -0.08199601 0.03738129 -0.059054397 -0.29918376 -0.4498857 -0.09707204 -0.59866995
-0.45287797 0.15069245 -0.00285987 -0.036252446 -0.33658507 -0.004553386 -0.22331169 -0.4281683
-0.14388229 -0.11304687 -0.3204431 -0.5729339 -0.21616422 -0.3546585 -0.07736387 -0.09781989
0.18791302 -0.2598708 -0.5225329 -0.0473209 -0.36538225 -0.47010377 -0.25594735 -0.17542975
-0.5385952 -0.07071551 -0.08636831 -0.13563035 -0.5421047 0.36907867 -0.32760116 -0.53274006
-0.41189244 0.21142018 -0.09133712 -0.32845062 0.4663803 -0.58693856 -0.22084646 -0.029104965
0.049484074 -0.16586094 -0.22392379 -0.33632684 -0.36104897 -0.18663888 -0.26592943 -0.18846908
00000000: 2f60 aebe 5182 92be c5ac aebe 16ca 04bf
00000010: 4c10 4fbe 6b5f a9be 95ce c0bc a315 cebc
00000020: 7e07 c8be 0c7a 60be 0de4 f1be 4e74 fdbb
00000030: dcf5 c0be e6f6 19bf 1c60 c1be 04d0 bdbe
00000040: 7524 32bf b425 b2be e565 d9bd 6238 06bf
00000050: ee67 d7bd f856 eebe 1d7a 6cbe 6712 94be
00000060: e891 eebe 8e31 37be a084 2fbe 3e38 9b3c
00000070: f749 82be 0ffa 68bc 23ed e0be d3a5 12be
00000080: 7dbc d2be afe5 aebe a8c6 4ebe 7895 19be
00000090: fe38 b6be 2496 cfbd f5ff eebe a216 c7bc
000000a0: 4fa6 ecbe 4fa0 70be ddaa babd 1e8c e5bd
000000b0: 770a f6bd af38 a1be 27e8 1ebd 8d1c 96be
000000c0: d088 17bf 9a1e cabd da5c e7be 5b76 65be
000000d0: 36be c2be ef29 d3be 4717 6fbe dd3e a13d
000000e0: 0864 bbbd 4b21 73be c87c a8be 566f 1dbe
000000f0: be68 b5be 5321 28bd 72da 07be 1a29 d9be
00000100: d987 a5be ed27 bebd 0865 8cbe 091f cfbe
00000110: 2b41 b4be 1484 5abe 6d10 c6be e3dd 8cbe
00000120: 0e17 083e 7fde 8fba 1d79 e9bd bf15 7dbe
00000130: 4a49 1dbd 34e0 54be 6143 9abe 7dfa ccbe
00000140: dbbb 84bc ba0f bebe 829b bebc bf34 2ebe
00000150: 40f9 46be c4ec e0bd 22e1 8fbe 2713 a8be
00000160: 3fea 2bbf 5fc8 88be b6bc 52be 307d c4be
00000170: 2523 1dbe 1e91 eabe 1c0c d3bc 86ae b5be
00000180: 0f0f 2fbe 3f22 4dbe 0819 21bf 3acd 3fbe
00000190: 9b04 11be 4571 313e be2d b4be 5a50 cebe
000001a0: 509c 7bbe f85c a9be 32df a4be 6df0 893e
000001b0: ae31 18be 4138 d8be 3b17 99be c7e4 94be
000001c0: 5c21 2bbe d437 46be cdef eabd 421a 8abd
000001d0: 5fba 67be 53cf 213e 68be 82be 95d6 6ebe
000001e0: 937f c9bd 17e4 023c 12fc e3be 75aa 0bbe
000001f0: 486c 3ebe 80d1 98bd ac50 0fbf fda7 863d
00000200: 266b 01bf f7fb 08bf 78ed 1c3d 1457 d3be
00000210: fb1f bf3c 5205 b9be 30e0 6fbe a6fb 37bd
00000220: 1aca 943d ed52 07bc 9d8e cdbd 20e0 6b3c
00000230: 2366 0abf 7203 c53e 7c8a f9bd de5d 933c
00000240: 7f01 a1bd be7c aebe 1cd6 94be 1baf a0be
00000250: e2fd 18bd 67f2 0ebf 6110 58bd 7ae1 e0be
00000260: d00f 9fbe c588 b3be 4d33 72be cd32 5bbc
00000270: 5ec7 f0bd 22ae 85be 36cc a4be a5e2 f3be
00000280: 0d96 aabd b0e8 c1be 9b3f 48be af84 bbbe
00000290: 7839 97be 6668 7abc 399f be3e dd03 08bf
000002a0: 911d eabe 3e9d 033e 4173 6f3d 33d7 acbd
000002b0: 6c83 73be 5d44 51bd d514 8dbe 66a0 01bf
000002c0: ca65 35bf c05e 12bf b637 88bd 8926 dbbe
000002d0: 6d47 82be 53ff 5ebe 0735 3abe b726 5fbe
000002e0: 59ac d43c 2e50 9cbe ee34 9cbe dcdf 903d
000002f0: 128d fabe 6da8 55be 4ccd 74be b0cb 9dbe
00000300: a4f6 c1bc 5c6c babc 6109 03be ba68 8cbe
00000310: 3855 b43d 480e 8dbe c589 18be 388a d4be
00000320: f913 c2bd 86ed a7bd 201d 193d 06e3 71bd
00000330: 9d2e 99be 6b57 e6be b5cd c6bd 6f42 19bf
00000340: 9fdf e7be 1f4f 1a3e a86c 3bbb 727d 14bd
00000350: e154 acbe 9234 95bb d2ab 64be e038 dbbe
00000360: e155 13be 1e85 e7bd 1e11 a4be ccab 12bf
00000370: 275a 5dbe cd95 b5be f370 9ebd cb55 c8bd
00000380: 456c 403e c90d 85be b7c4 05bf 8fd3 41bd
00000390: 6213 bbbe 71b1 f0be 880b 83be dba3 33be
000003a0: 60e1 09bf 4bd3 90bd dee1 b0bd afe2 0abe
000003b0: 60c7 0abf e1f7 bc3e 57bb a7be a761 08bf
000003c0: 91e3 d2be 887e 583e f50e bbbd ae2a a8be
000003d0: 66c9 ee3e 9b41 16bf 9325 62be 896d eebc
000003e0: d0af 4a3d 73d7 29be 474c 65be 0833 acbe
000003f0: 69db b8be 431e 3fbe e727 88be 0afe 40be

gru.weight_ih_l1 f4 [384, 128]
-0.5457298 0.45342278 0.16590203 -0.5457189 0.088539645 -0.006264108 -0.04114024 -0.41353184
-0.051524874 0.04948281 -0.1679527 0.10068626 -0.29097137 0.04180939 0.15716706 -0.08223879
-0.1327337 0.5138038 -0.27267483 0.05239531 -0.51458025 -0.6310218 0.06800902 -0.19175762
-0.14674151 -0.21197265 0.042112272 0.041007344 -0.13998453 -0.3898717 0.3082006 0.2450814
0.08730007 -0.2640717 0.442549 -0.34089628 -0.14612351 0.098134466 -0.19225967 0.4815831
0.6646834 -0.037092716 0.5257749 0.022198737 -0.08214777 0.089838885 -0.117666095 0.025117563
0.87777764 -0.10222446 -0.15936309 0.010136851 0.30342245 0.011440279 0.27727646 -0.3120063
0.016866736 -0.26064858 0.12826428 -0.020431332 0.54479176 -0.18703894 0.2103285 0.23503956
0.17606193 -0.28866115 -0.15673849 -0.04714641 -0.020862008 -0.0122557655 -0.14583142 -0.09222675
0.24002838 0.26349345 -0.16595626 -0.10147997 -0.13738306 0.58622634 0.113817364 -0.14296156
0.110234946 0.14829496 0.005967902 -0.051550113 -0.0071986914 -0.2788348 0.4008149 0.7067077
0.16111608 0.020479696 0.00350397 -0.094801255 0.004308211 0.31072438 0.20038623 -0.21909347
0.0929964 -0.07322154 0.25507692 -0.005226559 0.024558915 0.043275937 0.005358774 -0.15719597
-0.88680464 -0.19311094 -0.10455314 -0.00839214 0.16958554 -0.17768714 -0.4279963 0.21919219
0.38786802 -0.07827475 -0.19393809 -0.45481864 -0.26227972 0.13096409 -0.09258444 0.23301853
0.19131048 0.19574638 0.36551547 0.07157746 -0.1589604 0.0073313345 0.0080612 -0.4419819
-0.1338174 0.024933081 -0.32879865 -0.22452591 -0.3857578 -0.37606257 -0.022854649 -0.44343302
0.24833083 0.058627173 0.3595944 -0.15615769 -0.32795173 -0.09595703 0.21805431 0.28001288
0.3088567 0.15093367 -0.3762143 -0.5313748 -0.016397761 -0.21947774 0.12324955 0.01995148
0.08990069 -0.23685013 -0.20517413 0.0007399827 0.37363142 0.4711402 0.20371959 0.29330167
0.36274946 -0.36117586 0.5698282 0.3992075 -0.262909 -0.12620056 -0.48846748 -0.15235493
0.21079302 0.04660406 -0.22958602 -0.29652727 -0.5609064 -0.12680005 -0.04775152 0.10049234
0.070764355 0.084846176 -0.32136 0.30164272 -0.16982359 0.15920815 -0.39857954 -0.12184417
-0.49506545 -0.25371748 -0.2621449 -0.10748269 0.337398 -0.27969745 -0.032569874 -0.27607703
0.051295087 -0.07319431 0.08943965 -0.015197359 -0.026259843 -0.11911187 0.50057644 0.48096913
-0.38869137 0.16585183 -0.21776943 0.10109547 -0.18200693 -0.07912917 0.2628458 0.16676521
-0.1087219 -0.06212336 -0.21451233 0.11072593 0.51311344 0.18659754 0.0679711 0.24194977
0.003946671 -0.12560186 -0.54805225 -0.36356813 -0.19045967 0.01733547 0.17070386 0.39336514
0.03524558 -0.111200266 0.2973764 -0.2049814 -0.38240156 -0.16761412 -0.48348975 0.12544213
0.13044167 0.3585897 0.24312185 0.07261193 -0.09415066 -0.08083475 -0.4782647 -0.34959626
0.10867723 0.19146012 0.37323248 0.40558207 0.030910503 -0.17042366 -0.3459929 0.014816472
-0.13994224 -0.16690803 -0.2509446 0.07450872 0.24885775 -0.114434935 0.2843734 0.31159866
00000000: f3b4 0bbf 0827 e83e 39e2 293e 3cb4 0bbf
00000010: 4654 b53d 2543 cdbb ab82 28bd 72ba d3be
00000020: bf0b 53bd 7dae 4a3d cbfb 2bbe 9934 ce3d
00000030: 33fa 94be 5340 2b3d 67f0 203e d06c a8bd
00000040: 58eb 07be a588 033f 099c 8bbe 779c 563d
00000050: 88bb 03bf a58a 21bf 5048 8b3d 1c5c 44be
00000060: 6843 16be 5c0f 59be eb7d 2c3d 51f7 273d
00000070: 1b58 0fbe 439d c7be 78cc 9d3e 9ef6 7a3e
00000080: 61ca b23d 6834 87be c895 e23e f589 aebe
00000090: 67a1 15be b9fa c83d b8df 44be 0f92 f63e
000000a0: b128 2a3f 88ee 17bd 2f99 063f 20da b53c
000000b0: 173d a8bd 73fd b73d ecfa f0bd 59c3 cd3c
000000c0: 09b6 603f 0f5b d1bd 1430 23be 0915 263c
000000d0: 305a 9b3e 0270 3b3c 2ef7 8d3e 4abf 9fbe
000000e0: 1c2c 8a3c bb73 85be b657 033e 9c5f a7bc
000000f0: 7977 0b3f 2387 3fbe 5b60 573e 36ae 703e
00000100: 9449 343e 65cb 93be 0e80 20be 981c 41bd
00000110: cde6 aabc 68cc 48bc d554 15be 61e1 bcbd
00000120: 00ca 753e 9de8 863e 70f0 29be bbd4 cfbd
00000130: 25ae 0cbe ee12 163f 1419 e93d 8464 12be
00000140: dcc2 e13d a2da 173e 648e c33b 3626 53bd
00000150: 00e3 ebbb 6fc3 8ebe 9c37 cd3e ccea 343f
00000160: 9dfb 243e 09c5 a73c dda2 653b 2927 c2bd
00000170: e52b 8d3b 4417 9f3e 0c32 4d3e 0a5a 60be
00000180: e674 be3d 2df5 95bd 7199 823e 8e43 abbb
00000190: c72f c93c 1c42 313d a898 af3b fbf7 20be
000001a0: a105 63bf e0be 45be f51f d6bd 307f 09bc
000001b0: d5a7 2d3e 9ef3 35be 5522 dbbe eb73 603e
000001c0: a396 c63e 834e a0bd b597 46be fddd e8be
000001d0: 8749 86be 731b 063e e99c bdbd 699c 6e3e
000001e0: e5e6 433e bd71 483e d824 bb3e 3497 923d
000001f0: 84c6 22be b13b f03b 2013 043c 744b e2be
00000200: 6e07 09be 7640 cc3c 4c58 a8be 1fea 65be
00000210: 0c82 c5be 468b c0be ac39 bbbc a709 e3be
00000220: 704a 7e3e 0c23 703d c21c b83e cde7 1fbe
00000230: 4ae9 a7be 1f85 c4bd a149 5f3e d95d 8f3e
00000240: 7722 9e3e 5b8e 1a3e 299f c0be 2e08 08bf
00000250: 9954 86bc c6be 60be 436a fc3d 4971 a33c
00000260: da1d b83d d788 72be 2b19 52be 66fb 413a
00000270: 9e4c bf3e 4a39 f13e de9b 503e a32b 963e
00000280: 4cba b93e 0bec b8be 43e0 113f ed64 cc3e
00000290: 029c 86be b83a 01be 6918 fabe ee02 1cbe
000002a0: 20da 573e e6e3 3e3d 9918 6bbe 6cd2 97be
000002b0: 9097 0fbf dfd7 01be 1997 43bd eece cd3d
000002c0: e7ec 903d d5c3 ad3d 4c89 a4be ea70 9a3e
000002d0: 3ce6 2dbe 7607 233e 9e12 ccbe 7089 f9bd
000002e0: 3879 fdbe 42e7 81be db37 86be e21f dcbd
000002f0: 6ebf ac3e 8134 8fbe fd67 05bd f859 8dbe
00000300: cc1a 523d e6e6 95bd 232c b73d 58fe 78bc
00000310: e21e d7bc edf0 f3bd c725 003f 9641 f63e
00000320: 8e02 c7be 10d5 293e f3fe 5ebe 240b cf3d
00000330: 0660 3abe 790e a2bd ba93 863e 80c4 2a3e
00000340: 96a9 debd 1075 7ebd 1fa9 5bbe 47c4 e23d
00000350: 675b 033f 6d13 3f3e 6f34 8b3d aec1 773e
00000360: 1353 813b c69d 00be 274d 0cbf 9a25 babe
00000370: dc07 43be 1e03 8e3c fecc 2e3e 2867 c93e
00000380: ab5d 103d f7bc e3bd b841 983e a5e6 51be
00000390: 23ca c3be 09a3 2bbe f88b f7be e773 003e
000003a0: 8092 053e 1299 b73e eff4 783e 90b5 943d
000003b0: 10d2 c0bd b08c a5bd 1cdf f4be 48fe b2be
000003c0: 2b92 de3d 1f0e 443e 5418 bf3e 74a8 cf3e
000003d0: 0638 fd3c 8a83 2ebe fb25 b1be cac0 723c
000003e0: 054d 0fbe f0e9 2abe d07b 80be 0798 983d
000003f0: 91d4 7e3e dd5c eabd 6499 913e dc89 9f3e

gru.weight_hh_l1 f4 [384, 128]
0.12736563 -0.05468464 -0.10376721 0.32827973 0.18135552 0.0008612406 -0.1328329 -0.07552587
-0.1394667 0.039386753 0.042072933 0.22426432 0.045730587 -0.27231723 -0.037846338 0.0106928935
0.120006904 -0.0724113 0.03643541 0.10323514 -0.044479568 -0.16713965 0.08627329 -0.05139646
0.21700074 0.29156703 -0.32899657 0.4017168 -0.030653372 -0.08036051 0.15974069 -0.061132897
0.12342238 0.1546731 -0.1371497 -0.16545945 -0.212016 0.47414523 -0.07015483 0.2181823
0.04775087 -0.10131887 0.15522751 0.12473827 0.11120079 -0.34601378 0.16283281 0.2916584
0.39693 -1.01537 0.03321944 -0.074628845 -0.3321617 0.028398685 0.04063798 0.03463574
-0.025468964 -0.00038956213 -0.14871936 0.25466022 0.05072112 0.18780112 -0.15816939 -0.07848358
0.044149548 -0.21419379 -0.035495926 -0.18806869 0.03732279 -0.31603846 -0.5110365 -0.027925381
0.17406377 0.05838384 0.23568538 0.13394453 0.3176777 0.2683052 0.068756044 -0.1882525
-0.049241707 0.28936228 0.18346666 0.065549925 -0.2872205 -0.06651308 0.34253198 -0.017863845
-0.23339441 -0.30747932 0.099593714 -0.12723105 -0.10491648 -0.0032951576 0.03768238 -0.06483597
-0.026335998 -0.058320645 -0.09131988 0.14360544 0.23688981 0.19448537 0.060980003 -0.19324797
0.14878887 0.124464035 -0.18804823 0.12694292 0.33072633 -0.02746424 0.21982408 -0.06327684
0.17412901 0.047563504 0.2524749 -0.057155676 -0.050441287 0.020736082 -0.0637411 -0.26344472
-0.12895009 0.06835584 0.08062135 0.3137347 0.11453998 0.22662745 -0.07649452 -0.06823674
0.19587016 -0.40546438 -0.1735405 -0.23110506 -0.19607182 0.24005783 0.16123906 0.33921033
-0.24234425 -0.037901223 -0.066708446 0.19037578 0.3130259 -0.17707936 -0.071382396 0.02719845
0.40897554 -0.09251153 0.102937385 0.13172558 0.15034433 0.0066944095 0.11699908 -0.08206296
-0.067566365 0.31966493 -0.13374144 -0.095886536 0.01202716 0.5675506 -0.0009857964 0.2252418
0.28586096 -0.1460101 -0.28734654 -0.1647686 0.11250358 -0.09839837 -0.11201218 -0.10988549
-0.1576086 0.0626047 -0.17040168 -0.023606332 0.2950413 -0.3505674 0.41830465 0.13423069
-0.35532662 -0.038649306 -0.0055467985 0.24860972 -0.110899344 -0.12175993 -0.060721036 0.063631974
-0.18076599 -0.19100668 -0.042986147 0.1213767 0.13760576 0.30328548 0.041673884 0.27387002
-0.36126715 -0.18080114 -0.044399075 -0.006920299 0.13066104 0.06965802 -0.104336545 0.060386673
0.1413635 -0.10319724 0.22743806 0.025934603 -0.14508288 -0.36721072 -0.07397658 0.21017112
0.023560585 0.09537778 0.2591333 -0.034566432 0.21666597 -0.26636904 -0.12740777 -0.18226424
-0.10075368 0.12278666 0.17908323 -0.18341312 -0.035767395 -0.14024226 0.09153857 0.2450715
0.087519534 0.0068529737 0.3103479 0.45328403 -0.5005474 -0.6181482 -0.34334397 -0.2450902
0.066235155 -0.29995543 -0.12328816 0.09016184 -0.1317038 -0.024208762 -0.15661456 0.18032154
-0.11753338 0.21239778 -0.0015311167 0.2447165 -0.16835372 0.10298931 -0.21679361 0.14119044
0.14661378 -0.079951495 -0.13445605 -0.25002363 0.16314572 0.032431465 -0.39484084 -0.14420712
00000000: 236c 023e 00fd 5fbd e783 d4bd 4814 a83e
00000010: 43b5 393e e1c4 613a 5905 08be 4fad 9abd
00000020: 5cd0 0ebe 0154 213d ab54 2c3d 8ca5 653e
00000030: ff4f 3b3d 2a6d 8bbe c304 1bbd 3f31 2f3c
00000040: 2ec6 f53d 604c 94bd 4c3d 153d f26c d33d
00000050: 3530 36bd a826 2bbe 0db0 b03d 1885 52bd
00000060: 7135 5e3e 4648 953e 3d72 a8be d3ad cd3e
00000070: c81c fbbc 0d94 a4bd 1093 233e 7d66 7abd
00000080: dfc4 fc3d a062 1e3e f970 0cbe 346e 29be
00000090: b91a 59be 2ac3 f23e 56ad 8fbd 2e6b 5f3e
000000a0: 6b96 433d 4580 cfbd f6f3 1e3e c776 ff3d
000000b0: 3dbd e33d b828 b1be a5bd 263e 4054 953e
000000c0: 693a cb3e a5f7 81bf 1c11 083d 02d7 98bd
000000d0: 1911 aabe 5ca4 e83c 0374 263d 35de 0d3d
000000e0: 4aa4 d0bc 253e ccb9 e349 18be d362 823e
000000f0: f3c0 4f3d f04e 403e 28f7 21be 00bc a0bd
00000100: 28d6 343d 9e55 5bbe 2d64 11bd 1495 40be
00000110: c8df 183d cbcf a1be 4ad3 02bf c5c3 e4bc
00000120: c63d 323e e523 6f3d 8257 713e c128 093e
00000130: a7a6 a23e 4d5f 893e f8cf 8c3d 43c5 40be
00000140: acb1 49bd 4b27 943e afde 3b3e 0a3f 863d
00000150: 910e 93be 0238 88bd 5a60 af3e 3357 92bc
00000160: f2fe 6ebe ee6d 9dbe caf7 cb3d db48 02be
00000170: 74de d6bd 92f3 57bb d758 1a3d b9c8 84bd
00000180: 97be d7bc a1e1 6ebd eb05 bbbd 4e0d 133e
00000190: 3e93 723e 2c27 473e 2bc6 793d cce2 45be
000001a0: 1c5c 183e 00e7 fe3d b78f 40be 53fd 013e
000001b0: f654 a93e b0fc e0bc 9019 613e 4a97 81bd
000001c0: e04e 323e f3d1 423d 6444 813e 121c 6abd
000001d0: 869b 4ebd b7de a93c b28a 82bd 3ae2 86be
000001e0: 7e0b 04be 26fe 8b3d ce1c a53d d6a1 a03e
000001f0: f093 ea3d 0711 683e 29a9 9cbd b4bf 8bbd
00000200: 3092 483e 0799 cfbe 9ab4 31be cea6 6cbe
00000210: 0dc7 48be b8d1 753e da1b 253e faac ad3e
00000220: 1729 78be 503e 1bbd 709e 88bd def1 423e
00000230: ee44 a03e 4b54 35be ef30 92bd 49cf de3c
00000240: 3e65 d13e af76 bdbd d6d0 d23d 12e3 063e
00000250: ddf3 193e c75c db3b 379d ef3d a010 a8bd
00000260: 3c60 8abd 1fab a33e 84f3 08be 2960 c4bd
00000270: 910d 453c ff4a 113f d735 81ba c9a5 663e
00000280: 5e5c 923e ac83 15be 161f 93be 1ab9 28be
00000290: 4768 e63d 1685 c9bd a466 e5bd a50b e1bd
000002a0: 2664 21be e536 803d c77d 2ebe 1162 c1bc
000002b0: a70f 973e 927d b3be 072c d63e c573 093e
000002c0: 5fed b5be bc4e 1ebd ebc1 b5bb 8c93 7e3e
000002d0: 321f e3bd 455d f9bd 9fb6 78bd 7b51 823d
000002e0: b81a 39be 4197 43be 3e12 30bd 5994 f83d
000002f0: 86e8 0c3e 3c48 9b3e 3cb2 2a3d b138 8c3e
00000300: 02f8 b8be ef23 39be cedb 35bd adc3 e2bb
00000310: 02cc 053e dda8 8e3d 66ae d5bd 0458 773d
00000320: 98c1 103e 1359 d3bd 86e5 683e ce74 d43c
00000330: 9b90 14be 0b03 bcbe 0881 97bd 1937 573e
00000340: 2102 c13c 6d55 c33d 1fad 843e 8895 0dbd
00000350: afdd 5d3e 8661 88be 2f77 02be 7aa3 3abe
00000360: f257 cebd 9377 fb3d 9861 373e a6d0 3bbe
00000370: d580 12bd ab9b 0fbe 9378 bb3d 06f4 7a3e
00000380: 713d b33d e98e e03b ece5 9e3e d814 e83e
00000390: e023 00bf f63e 1ebf c8ca afbe edf8 7abe
000003a0: 4ca6 873d c293 99be 817e fcbd c5a6 b83d
000003b0: 5cdd 06be 7451 c6bc 915f 20be 36a6 383e
000003c0: 57b5 f0bd ce7e 593e c0af c8ba f696 7a3e
000003d0: eb64 2cbe 0fec d23d 25ff 5dbe 3a94 103e
000003e0: ec21 163e 9cbd a3bd d9ae 09be 1903 80be
000003f0: ac0f 273e dbd6 043d 9428 cabe 08ab 13be

gru.bias_ih_l1 f4 [384]
0.2425174 -0.078910686 -0.10359072 -0.13097692 -0.52966255 -0.023708412 -0.45950738 0.15730269
0.015513489 -0.2320445 -0.3989104 -0.21882732 0.061784588 0.21132538 0.019270072 0.30588463
-0.0422463 -0.1202396 -0.02777315 -0.21538343 0.5054343 0.13954227 -0.49568582 -0.0015564158
-0.14378475 -0.36132035 -0.4550948 0.012406033 -0.32729554 -0.1254808 -0.002460338 -0.103959695
-0.0973788 -0.15056811 -0.16137283 -0.21797632 -0.31607223 -0.09367775 0.12881432 -0.17349963
-0.048522282 -0.16988567 -0.0971953 -0.089915365 -0.11624332 -0.108365595 -0.12706402 0.15857469
0.14933461 0.26669237 0.17787436 -0.22698809 0.14196849 -0.37603915 -0.24131155 -0.3438938
-0.25035197 -0.1294794 0.025952326 -0.04271128 -0.39866856 -0.48444816 0.34211037 -0.22573015
-0.09747531 -0.034470223 -0.24247076 -0.33499333 -0.33761704 -0.22737268 0.20898534 -0.15114376
-0.32758692 0.6194372 -0.094196305 0.021302514 -0.053792067 0.18163162 -0.15959617 -0.11054161
0.2350042 0.100277714 0.3419523 0.87414426 0.38393986 0.009951539 0.3393465 -0.20594303
0.35489178 0.18647738 -0.042186394 -0.42943317 0.116761915 0.13931932 0.19324547 -0.123203255
-0.05999407 -0.1448431 -0.27657846 -0.19106337 -0.002748796 -0.2108823 -0.20982753 -0.15481521
-0.12356053 -0.009251655 0.19732717 -0.07026158 -0.067187235 0.40548155 -0.0651997 -0.30400023
-0.18648496 -0.07098735 0.2765855 -0.12299896 -0.25223365 0.29877105 0.113400795 0.11371833
0.4156133 -0.25576398 0.01252854 0.5156365 0.061018143 -0.060140874 -0.24877562 0.11103665
-0.3052346 0.30634096 0.7137711 0.45515773 0.45790365 0.49228853 0.06284009 0.052435953
0.010702308 0.36094734 0.6553693 0.37422946 0.23628393 -0.25058562 0.62180847 0.004233636
0.5197391 0.4664195 0.5231693 0.250008 -0.34268373 -0.0583362 0.33938584 0.64215994
0.6036981 0.6802996 0.35574684 0.2711854 0.6730768 -0.045780823 0.71974343 0.48390767
0.7206128 0.6113035 0.65357405 0.43688768 0.62072724 0.15080538 0.508471 0.8385367
0.7092326 0.6068008 0.4287799 -0.35126114 0.24066621 0.6138178 0.24457787 0.3175247
0.063303515 -0.28420213 0.19353822 0.24875937 -0.45194727 0.6713374 0.8380074 0.6213562
0.21412307 -0.025530247 0.6213714 0.62542295 0.39905223 0.13498615 -0.24449697 -0.082286716
-0.26410308 -0.4119573 0.68241453 0.4956891 0.35348326 0.35754466 0.36568296 0.35596287
0.5852145 -0.4649515 0.58532333 0.122257955 0.7767946 0.76925594 0.60460156 0.41652322
-0.34688148 0.49608603 0.30223978 -0.0091973245 0.55171454 0.59191066 0.24061374 0.65602
0.66206026 0.022839947 0.71522105 0.87196255 0.3275328 -0.007560931 0.17067644 -0.24110954
0.23903605 0.43806487 0.587799 0.7804799 -0.055997044 0.06671961 0.21411014 0.37058815
0.3259775 0.54829603 0.1211631 0.23394506 -0.11167245 -0.45253116 0.62797856 0.32095608
0.22011319 0.48550305 0.35622197 0.30913708 -0.050305884 0.17105235 0.6541013 0.4414684
-0.0009985855 0.3526876 0.73561937 0.3277495 0.10502184 0.22381121 0.16789594 0.014520548
00000000: 7b56 783e ed9b a1bd 5f27 d4bd d01e 06be
00000010: f797 07bf 2538 c2bc 8d44 ebbe f513 213e
00000020: 4a2c 7e3c 139d 6dbe fc3d ccbe 4514 60be
00000030: d611 7d3d ae65 583e 45dc 9d3c e99c 9c3e
00000040: 750a 2dbd 2e40 f6bd 8484 e3bc 798d 5cbe
00000050: 2464 013f 2be4 0e3e 88ca fdbe a600 ccba
00000060: 4f3c 13be fbfe b8be 3002 e9be ad42 4b3c
00000070: 4893 a7be 0a7e 00be 9f3d 21bb d2e8 d4bd
00000080: 896e c7bd 872e 1abe eb3e 25be 2f35 5fbe
00000090: 38d4 a1be 1fda bfbd e7e7 033e e3a9 31be
000000a0: 4dbf 46bd 82f6 2dbe 540e c7bd 8c25 b8bd
000000b0: fa10 eebd c8ee ddbd 121d 02be 6761 223e
000000c0: 2ceb 183e e78b 883e b224 363e 916f 68be
000000d0: 3060 113e 3488 c0be 601a 77be d912 b0be
000000e0: 222e 80be 3f96 04be f999 d43c 06f2 2ebd
000000f0: 491e ccbe 9709 f8be 1729 af3e ce25 67be
00000100: 23a1 c7bd a630 0dbd 414a 78be 3f84 abbe
00000110: 24dc acbe 62d4 68be 4100 563e 6ec5 1abe
00000120: 79b9 a7be 7093 1e3f fee9 c0bd 9c82 ae3c
00000130: 1255 5cbd a4fd 393e 2e6d 23be a463 e2bd
00000140: f1a4 703e 675e cd3d 5f14 af3e ebc7 5f3f
00000150: c493 c43e c80b 233c d3be ad3e bbe2 52be
00000160: 60b4 b53e edf3 3e3e a4cb 2cbd aade dbbe
00000170: df20 ef3d b9a9 0e3e 24e2 453e fd51 fcbd
00000180: 58bc 75bd c051 14be b19b 8dbe 1ea6 43be
00000190: 2525 34bb 88f1 57be 07dd 56be e187 1ebe
000001a0: 4e0d fdbd 4194 17bc 2210 4a3e 4ee5 8fbd
000001b0: 7699 89bd 479b cf3e 6c87 85bd eba5 9bbe
000001c0: eaf5 3ebe d161 91bd 9d9c 8d3e e1e6 fbbd
000001d0: c524 81be 85f8 983e ad3e e83d 28e5 e83d
000001e0: 44cb d43e 7ff3 82be 8144 4d3c c100 043f
000001f0: 29ee 793d 4756 76bd 09bf 7ebe 2f67 e33d
00000200: b647 9cbe b9d8 9c3e b4b9 363f 6f0a e93e
00000210: 5972 ea3e 3e0d fc3e 4eb2 803d 15c7 563d
00000220: bc58 2f3c 17ce b83e 48c6 273f 019b bf3e
00000230: 6af4 713e c24c 80be d72e 1f3f 50ba 8a3b
00000240: 9f0d 053f 89ce ee3e 6cee 053f 0c01 803e
00000250: 3e74 afbe f0f1 6ebd fbc3 ad3e 9864 243f
00000260: f58b 1a3f 1d28 2e3f 7324 b63e d0d8 8a3e
00000270: c34e 2c3f ac84 3bbd 1b41 383f bfc2 f73e
00000280: 157a 383f 637e 1c3f a150 273f beaf df3e
00000290: fbe7 1e3f ba6c 1a3e 282b 023f 57aa 563f
000002a0: 4590 353f 4c57 1b3f 0a89 db3e 80d8 b3be
000002b0: 3471 763e 2a23 1d3f 9f72 7a3e 9992 a23e
000002c0: 46a5 813d f182 91be e22e 463e c7ba 7e3e
000002d0: a265 e7be c5dc 2b3f a787 563f 3311 1f3f
000002e0: 1443 5b3e cf24 d1bc 3212 1f3f b81b 203f
000002f0: 9350 cc3e cf39 0a3e 6a5d 7abe f085 a8bd
00000300: 8538 87be 11ec d2be b8b2 2e3f f6ca fd3e
00000310: c2fb b43e 1810 b73e cc3a bb3e c440 b63e
00000320: 9ed0 153f 1f0e eebe c0d7 153f 6162 fa3d
00000330: 03dc 463f f5ed 443f 2bc7 1a3f 8842 d53e
00000340: 739a b1be fdfe fd3e 2cbf 9a3e 60b0 16bc
00000350: 2a3d 0d3f 7587 173f 7363 763e edf0 273f
00000360: c87c 293f d71a bb3c ba18 373f f038 5f3f
00000370: 61b2 a73e b0c1 f7bb cec5 2e3e 6be5 76be
00000380: dec5 743e 0a4a e03e ff79 163f 88cd 473f
00000390: 285d 65bd 4aa4 883d b03f 5b3e bbbd bd3e
000003a0: 86e6 a63e 215d 0c3f 5c24 f83d 4b8f 6f3e
000003b0: 87b4 e4bd 2ab2 e7be 34c3 203f 5b54 a43e
000003c0: 5a65 613e db93 f83e ba62 b63e 3747 9e3e
000003d0: 8b0d 4ebd 5928 2f3e 2f73 273f 2508 e23e
000003e0: f8e2 82ba 7893 b43e 8d51 3c3f c8ce a73e
000003f0: b115 d73d c42e 653e eaec 2b3e 98e7 6d3c

gru.bias_hh_l1 f4 [384]
0.3039143 -0.12789501 -0.021150233 -0.22542293 -0.43051395 0.049171224 -0.59797966 0.06786017
-0.027043045 -0.22401914 -0.2712239 -0.22712852 -0.037578374 0.3110999 0.08460584 0.2723974
-0.15035339 -0.13826083 0.019689467 -0.3181595 0.58540124 0.07940894 -0.6269225 0.041488618
-0.18874066 -0.31858867 -0.40676638 -0.11200991 -0.1592492 -0.22798212 0.0145700425 -0.08627315
-0.11506596 -0.087531 -0.21168718 -0.19169837 -0.31287202 -0.09582672 0.028559642 -0.19145116
-0.072550334 -0.26680964 -0.122171566 0.05489524 -0.013889261 -0.22860782 -0.14333652 0.1263702
0.27299178 0.26891008 0.13552289 -0.28086513 0.14397189 -0.26977268 -0.12204895 -0.43779218
-0.22575708 0.022231558 0.09353391 -0.13338447 -0.40205437 -0.38224024 0.48037183 -0.30705097
-0.24948849 -0.012277886 -0.26588482 -0.3555463 -0.34546018 -0.22807801 0.16127917 -0.29424894
-0.21856418 0.6029149 -0.0014491149 -0.016188595 -0.1069534 0.0724885 -0.21733816 -0.18066034
0.35618922 0.2002294 0.29083717 0.9010518 0.23745051 0.023439901 0.35003802 -0.2363117
0.3177485 0.30245334 -0.005560985 -0.49056512 0.19398363 0.20825523 0.20553923 -0.1819094
-0.021341635 -0.17266467 -0.27733988 -0.20232326 -0.119688734 -0.14133646 -0.28381675 -0.22355653
-0.117002554 0.02160798 0.12897544 -0.19088762 -0.019890908 0.27956536 -0.17772032 -0.36364275
-0.20038772 -0.009800132 0.23040977 -0.0356098 -0.24239746 0.2498679 0.12136594 0.15841988
0.3053583 -0.22666876 -0.011604203 0.522321 0.048772305 0.06326057 -0.29257324 0.13076362
-0.3210752 0.21586215 0.64019793 0.47483468 0.46566248 0.5278031 0.078816794 0.11297425
0.05325393 0.38082084 0.66221005 0.46650332 0.21044137 -0.1324099 0.6319317 0.13274221
0.5010733 0.5273429 0.4805898 0.36287445 -0.4928279 0.05216316 0.30607158 0.6351614
0.69870204 0.63102263 0.26795107 0.22898078 0.746565 -0.09395243 0.7406471 0.44959268
0.7725425 0.4858195 0.66813403 0.46043515 0.6100825 0.08333936 0.40431237 0.8643358
0.58510935 0.64255565 0.5323921 -0.2688813 0.20093288 0.6249762 0.2623091 0.2582259
-0.009403014 -0.2530463 0.19214085 0.16605438 -0.3641347 0.56778264 0.9253132 0.5637753
0.2165282 0.04492493 0.6755041 0.53893405 0.3675924 0.013100776 -0.24025533 -0.064928815
-0.30005494 -0.41642943 0.6136164 0.49180275 0.40862083 0.3330024 0.46571213 0.35115138
0.49487993 -0.46339524 0.4960333 0.058381297 0.8575759 0.6357532 0.504822 0.49517813
-0.2478454 0.51306605 0.4235088 -0.06971096 0.5637155 0.7428666 0.20498544 0.55622953
0.62200886 -0.06068759 0.76344 0.77538306 0.35475358 0.055794224 0.15362236 -0.325665
0.21443023 0.48504454 0.5481442 0.69319665 -0.106187075 0.12544066 0.36380833 0.31883335
0.30279282 0.5873701 0.050949104 0.38168922 -0.12462596 -0.47570908 0.5352268 0.42040223
0.2492656 0.5062948 0.4645199 0.4020609 -0.034967836 0.19484568 0.610666 0.48206732
-0.0870172 0.3147936 0.7186097 0.37702847 -0.005459587 0.22804345 0.21957158 0.1357595
00000000: a89a 9b3e e9f6 02be 4143 adbc 45d5 66be
00000010: 536c dcbe c467 493d 3215 19bf 46fa 8a3d
00000020: 6089 ddbc 4665 65be dcdd 8abe 6194 68be
00000030: c8eb 19bd 7c48 9f3e d445 ad3d ac77 8b3e
00000040: 3df6 19be 3f94 0dbe ce4b a13c cde5 a2be
00000050: dbdc 153f 28a1 a23d fe7d 20bf f8ef 293d
00000060: 3b45 41be 0e1e a3be af43 d0be 7465 e5bd
00000070: 3912 23be 2574 69be 30b7 6e3c faaf b0bd
00000080: b4a7 ebbd 7443 b3bd 86c4 58be 944c 44be
00000090: c330 a0be cd40 c4bd e9f5 e93c c60b 44be
000000a0: 4595 94bd 469b 88be 1635 fabd d5d9 603d
000000b0: c88f 63bc 2b18 6abe cfc6 12be 3167 013e
000000c0: 94c5 8b3e 95ae 893e 83c6 0a3e 8ecd 8fbe
000000d0: 5e6d 133e a51f 8abe cdf4 f9bd 4c26 e0be
000000e0: dd2c 67be f51e b63c b58e bf3d f095 08be
000000f0: 12da cdbe feb4 c3be 4cf3 f53e c935 9dbe
00000100: e979 7fbe 3029 49bc 0e22 88be 2a0a b6be
00000110: 28e0 b0be 488d 69be 5e26 253e cca7 96be
00000120: 4acf 5fbe a258 1a3f 3af0 bdba f29d 84bc
00000130: 620a dbbd da74 943d e58d 5ebe 06ff 38be
00000140: 6f5e b63e f008 4d3e 9ce8 943e 55ab 663f
00000150: 3a26 733e 0905 c03c 2f38 b33e b2fb 71be
00000160: eeaf a23e 2adb 9a3e ec38 b6bb 5a2b fbbe
00000170: a5a3 463e dc40 553e e078 523e 7546 3abe
00000180: a7d4 aebc 02cf 30be 7eff 8dbe d42d 4fbe
00000190: 5e1f f5bd 81ba 10be 6e50 91be 01ec 64be
000001a0: 099f efbd 3803 b13c 2312 043e 0b78 43be
000001b0: 42f2 a2bc 3123 8f3e 51fc 35be 622f babe
000001c0: 7032 4dbe bc90 20bc 8af0 6b3e 95db 11bd
000001d0: 0a37 78be 5fdd 7f3e b58e f83d d238 223e
000001e0: ec57 9c3e db1b 68be 8e1f 3ebc d4b6 053f
000001f0: 78c5 473d c28e 813d 29cc 95be e6e6 053e
00000200: f863 a4be f80a 5d3e 03e4 233f 881d f33e
00000210: 506b ee3e 1b1e 073f b36a a13d 0b5f e73d
00000220: cb20 5a3d f3fa c23e 9986 293f 86d9 ee3e
00000230: f17d 573e 7696 07be 47c6 213f 93ed 073e
00000240: 5746 003f f2ff 063f de0f f63e aeca b93e
00000250: f053 fcbe 0aa9 553d 6ab5 9c3e f099 223f
00000260: 23de 323f b38a 213f e230 893e f079 6a3e
00000270: e21e 3f3f 226a c0bd 0c9b 3d3f 0331 e63e
00000280: 58c5 453f 55bd f83e d50a 2b3f 28be eb3e
00000290: 5e2e 1c3f d4ad aa3d 0802 cf3e 1c45 5d3f
000002a0: bac9 153f 877e 243f d94a 083f cfaa 89be
000002b0: 59c1 4d3e 71fe 1f3f 614d 863e 2f36 843e
000002c0: 190f 1abc 498f 81be 92c0 443e 290a 2a3e
000002d0: dd6f babe 345a 113f 53e1 6c3f 9453 103f
000002e0: 92b9 5d3e 3403 383d d6ed 2c3f 95f7 093f
000002f0: 1235 bc3e a3a4 563c 7e05 76be 66f9 84bd
00000300: cda0 99be 3d36 d5be f715 1d3f 92cd fb3e
00000310: c036 d13e 4a7f aa3e d271 ee3e 1dca b33e
00000320: e760 fd3e 2442 edbe 14f8 fd3e 3a21 6f3d
00000330: 188a 5b3f b9c0 223f 043c 013f fd87 fd3e
00000340: 2fcb 7dbe 4c58 033f 25d6 d83e 9fc4 8ebd
00000350: a94f 103f 812c 3e3f b4e7 513e 0f65 0e3f
00000360: f93b 1f3f 8d93 78bd ce70 433f 817f 463f
00000370: 43a2 b53e 7c88 643d 2e4f 1d3e 90bd a6be
00000380: 9993 5b3e c257 f83e 2e53 0c3f 5675 313f
00000390: 9c78 d9bd 8473 003e 1645 ba3e 203e a33e
000003a0: a907 9b3e e35d 163f 02b0 503d c56c c33e
000003b0: e53b ffbd 2490 f3be a004 093f f63e d73e
000003c0: 7b3f 7f3e 899c 013f 8dd5 ed3e edda cd3e
000003d0: 6f3a 0fbd a085 473e 9b54 1c3f 87d1 f63e
000003e0: 1336 b2bd a02c a13e cef6 373f e009 c13e
000003f0: 56e6 b2bb 3984 693e 5fd7 603e 8a04 0b3e
