models/pinn_model_20250723_155053/best_model.pth (torch, 657058 bytes, 62 tensors)

network.0.weight f4 [128, 9]
00000000: b7d2 0d3e feec 243e e694 7ebe 527d cabd
00000010: c225 c33d beae a5bc 8bcf ad3a 239f 393e
00000020: afbe dcbd 8945 0c3a e43a 13be 4400 fd3d
00000030: 86a5 84be bb11 13be f278 18bd f750 c2bd
00000040: fe79 8f3e ef34 a63d 6277 e83d 87d0 c4bd
00000050: 6e83 1d3e 0f5f 523d 8c0d 2e3b 7307 ca3c
00000060: 4146 a439 cbff 13bb 2b74 5e3e 88a1 513d
00000070: f539 90be 36e3 303c 1216 03be c445 a3bd
00000080: 45b9 56bd 1eb4 273e cc8a eebd d50c 653d
00000090: 2423 a33d cadf 4ebe 1f79 90bd 1550 a43c
000000a0: ae43 c2bd 7211 90bd acf2 04bd 5a2b 92bd
000000b0: 2246 a83d 7b3e c23d fde2 7f3d 4cf4 813e
000000c0: 2f68 3ebb b054 96be f1e5 3fbd 7eb4 44be
000000d0: c480 e83d 63be cebd c13e 52bd 2f04 f63d
000000e0: 82a7 7ebd 8794 e63b a0f0 f53d d38d 50bd
000000f0: 9f15 e83d 3cb1 61be f687 efbb ae96 973d
00000100: 5554 fabb f5ac 7b3d 5582 14be 7448 8abd
00000110: 2a08 cebc 286d babd 55df 113b fe16 84be
00000120: 98b6 5f3e 00f6 14bb 4aa2 0cbe 8aa5 97bc
00000130: f993 b1bc 4c7d f5bd 697b 09be 4258 62bd
00000140: 2cae 06be 535f 6e3d c897 c7bb 4391 d03d
00000150: 9eec cfbc b5e7 173d e75a 9a3d 6daa 21be
00000160: c32b 813e a367 043d e740 c7bd a02f 35bd
00000170: caf0 92bd eb0e 813d 5064 abbc ac0e 11bd
00000180: c594 07be f61a 023e 117e 0dbe 7583 c2bd
00000190: 4a1d a93d f5ae 683d 3f1b 5f3d b95c c2bd
000001a0: a596 673d 143f 93bd 42e0 763e 6a98 333c
000001b0: 7176 943c 2b50 1fbe 5964 643d 200d 5ebc
000001c0: 2a40 4fbd aaa9 083b f6f0 20be 56fb 02be
000001d0: ccf6 7ebd 8669 4cbd 6799 76bd e553 2fbc
000001e0: 4fd8 0e3e 8466 d9bd be9e d33d b1de e13d
000001f0: 1f0e 14bd 8e5f 143d 6748 a0be 5041 153d
00000200: 9792 11be 3ed9 503c aa85 eb3d 3a38 23be
00000210: 637d c23c 5648 6ebd 2c29 8ebd ebb2 413e
00000220: 9c32 d53d 7756 dcbc 1e7e 99bd 880a 3e3e
00000230: 462a 43be 2b05 fbbd b398 0e3e c306 6c3e
00000240: 4a5e 5d3d 8680 56be 3d1e 8f3d 0c81 7dbe
00000250: 0f66 49bd fb19 e9bc 440b 6bbb 422f ee3c
00000260: 2a77 dabd 531c 363e 5426 393e 2ab0 643d
00000270: 7c29 9b3d 31bc 46bc 4f9b 0fbe 6d4e 093c
00000280: a719 353e 1c96 ebbd f059 66be f100 0a3e
00000290: 8a71 1b3e f6ac e4bc 24df 1ebe dfc6 d93a
000002a0: 5efb 7abd 8da0 49bd 3577 18bd db12 8bbd
000002b0: 7e99 023e 2d4d af3c 923f 20be 4c46 743e
000002c0: 16ee 85be 7d9b 68be a3df 83be f531 383e
000002d0: 6993 ab3c 59bd 113e 71fe 4abe 7930 02be
000002e0: 909a 103c d3b6 01bc 3133 80bd ff34 af3d
000002f0: 7d8d 3cbe 0b85 b6bd 6a45 eabd d51c 58bd
00000300: 71c7 b6bd 4d37 9c3c 8de2 3bbb ce90 8c3d
00000310: bb40 27bd c113 c03c 00a9 063e 4514 01bd
00000320: b5c4 913d 3349 53bd fa61 f3bc 2d36 12bd
00000330: 6f15 7abd 8041 1ebd 7135 01be 14df c93e
00000340: e029 3dbe c6c2 79bd c3dd 493d 567f 353d
00000350: 7dea 763d 97b8 a63d 5fb2 4cbd ecbc 473d
00000360: 1e6b 093c 463a 583e 03e9 0e3d 8018 4c3d
00000370: 186f 3c3e 3e05 a1bc 02ec 6ebd 69b1 063e
00000380: da99 9ebe cb86 103e 4bc4 5a3d 17f2 07be
00000390: a18d 90bc bf78 b03d 6ba9 3d3d 76d8 68bb
000003a0: 66af febd 5dd0 31be 3c58 073e d055 74bd
000003b0: aac7 8cbd 58f6 483b b13d 823e b767 963d
000003c0: 82b9 a03d 6614 36bd 196c 03be 879e dbbd
000003d0: 8b51 ca3d 4f30 86be baa6 953d a2ef 253e
000003e0: 63e7 30be 859d 433e 42a2 733e fa8e 41be
000003f0: 2357 7cbe a915 48be fd39 c23d 161a fd3d
0.13849913 0.1610603 -0.24861488 -0.09887184 0.09528686 -0.020224925 0.0013260705 0.18127112
-0.107785575 0.0005350938 -0.14377934 0.12353566 -0.25907534 -0.14362232 -0.037224717 -0.09488099
0.2802276 0.08115565 0.113508955 -0.09610086 0.15382168 0.051360186 0.0026558368 0.024661755
0.0003133286 -0.0022582884 0.21724002 0.05117944 -0.28169218 0.010796359 -0.12801388 -0.07972291
-0.05242278 0.16377303 -0.11647567 0.05592044 0.07965687 -0.20202556 -0.07054352 0.020057717
-0.09485565 -0.070345774 -0.032457992 -0.07137175 0.08216502 0.094845735 0.062472332 0.25381696
-0.0029053797 -0.29361486 -0.04685015 -0.19209477 0.11352685 -0.10094907 -0.051329378 0.12012517
-0.062171467 0.007036749 0.12008786 -0.050916504 0.11332249 -0.22040266 -0.007309909 0.07401787
-0.0076394477 0.06144424 -0.14502843 -0.067521006 -0.025150377 -0.09102851 0.002225836 -0.25798792
0.21846998 -0.0022729635 -0.13733783 -0.018511552 -0.021677004 -0.11986789 -0.13425983 -0.05525995
-0.13152379 0.058196377 -0.006091092 0.101839565 -0.025381383 0.037086207 0.075368695 -0.15787669
0.252287 0.0323254 -0.09729176 -0.044234872 -0.07174833 0.063016735 -0.020921856 -0.035414383
-0.13240345 0.12705597 -0.13817622 -0.0949773 0.082575396 0.056807477 0.054469343 -0.09490342
0.05654015 -0.071897656 0.24108985 0.010961631 0.018122884 -0.15557925 0.05575976 -0.013552934
-0.0505983 0.002085308 -0.1571692 -0.1279119 -0.062247083 -0.049905322 -0.06020489 -0.010701154
0.13949703 -0.106152564 0.10333012 0.11028803 -0.03614628 0.03622394 -0.3130524 0.03643924
-0.14216076 0.012747107 0.11500104 -0.15939417 0.02374143 -0.058174454 -0.06941447 0.18915908
0.104100436 -0.026896698 -0.07494758 0.18558705 -0.19059095 -0.12256845 0.13925438 0.23049454
0.054045 -0.20947465 0.06988189 -0.24756259 -0.049169596 -0.028454771 -0.003586487 0.029075269
-0.1066726 0.17784242 0.18081027 0.055832066 0.07576272 -0.012129829 -0.1402409 0.008380515
0.17685567 -0.115032405 -0.22495246 0.13476922 0.1518003 -0.027914505 -0.15514809 0.0016615054
-0.06127488 -0.04922538 -0.03722306 -0.06790706 0.12753865 0.021399105 -0.1564925 0.23854941
-0.26158208 -0.22715564 -0.2575656 0.17987807 0.020944314 0.14232387 -0.19823624 -0.12713803
0.008825913 -0.007917124 -0.06259764 0.0855503 -0.18413348 -0.08912095 -0.11439021 -0.05276187
-0.08924759 0.019069338 -0.002866897 0.06863557 -0.040833216 0.02344692 0.13150406 -0.03151347
0.07117597 -0.05158348 -0.029709805 -0.035696197 -0.061055597 -0.038636684 -0.12618043 0.39428008
-0.18473005 -0.060976766 0.049283754 0.04431089 0.06028222 0.081406765 -0.049974795 0.048764154
0.008387355 0.2111598 0.034890186 0.049828053 0.18401754 -0.01965582 -0.058330543 0.13153614
-0.30976754 0.1411392 0.053409856 -0.13275944 -0.017645659 0.086167805 0.046304148 -0.0035529411
-0.12435798 -0.1736464 0.13217252 -0.05965215 -0.068740204 0.003066441 0.25437692 0.07344001
0.07847883 -0.044453047 -0.12834205 -0.10723596 0.09878834 -0.26208732 0.07307191 0.16204694
-0.17275767 0.19103058 0.23792365 -0.18902197 -0.24642615 -0.19539513 0.09483717 0.12358491

network.0.bias f4 [128]
00000000: 482c afbb 99f9 bebc cff9 f8bb 16f8 403c
00000010: d1b4 113b 661b 073c 49ae 95ba 3590 3dbc
00000020: cf37 133c b82d 793c 9d1e 633c f3e6 873b
00000030: 8af7 bebb c62e 533c a855 adbc 2e8c 6dbb
00000040: cb65 253b 157f 443c d175 20bc 7d59 343b
00000050: de08 de3b 10bc 50bc d70c 69b9 348d 16bc
00000060: 5433 56bb fa72 cebb ba5f 22bc dc24 cc3c
00000070: 96f1 08bc a72c 5dbc 1262 803c 6d36 79bb
00000080: a099 263b 27dd d03b a884 3cbc 3652 c53c
00000090: 584b a93c ddae e5bb 9c48 403d 20b1 8dbb
000000a0: 3399 9dbc 59d5 aeba 699b 43bb 7329 e03b
000000b0: 3e0a a13b cd38 58bc d345 50bc 4ebd 693b
000000c0: 991f 423b 7d28 26bc d62e 12bc 433d 8539
000000d0: 7288 06bc a6be 07bb fd1c 803c 2e0f b23c
000000e0: 077b 533c 5f71 293c 276a 4bbc f8e2 a83b
000000f0: da05 0e3c 05cb 543b c8d3 b33c 4c56 b03c
00000100: e412 21bc 630a f3ba c121 763a ed33 38bc
00000110: 3b5c 78bb b2e3 cdbb 7226 5c3c deee a13b
00000120: 4da9 7b3c df34 39bb aff1 8e3c ada3 0bbc
00000130: 42d3 f23b 0044 8bbc 6a70 aa3a a0e1 0abd
00000140: 323f 01bb 892b 7cbc d41f 013c 31e6 3fbb
00000150: 4418 37bc a07f e0bb 872c 1e3c fff8 9fbb
00000160: 7f04 bfbb 0a36 27bb fefb 1db8 5915 6abb
00000170: 2292 8dbc 80bf 603b 6119 123c d477 0cbc
00000180: a3e8 053c 0a59 023b 06ad 1dbc 96c5 823b
00000190: ffc7 6abc f783 84ba 2ef7 17bb 8a4b 39bb
000001a0: 9a81 cc3c a914 0cbc e9f5 253b e93f 8c3b
000001b0: 6196 863c 2032 c2bc 254e 6a3a dc60 e93b
000001c0: e5aa 51bc 94ce 6f3c 3f27 8c3b f8ad 5fbb
000001d0: aff3 93bb 015e 56bb 5510 963a 6c7a 093c
000001e0: 44e7 14bb b9ec 05bc 48c1 b1bc c58c 0f3c
000001f0: 5590 9a3b d375 e0b9 782e 1fb9 673e 8cbc
-0.005345855 -0.023312377 -0.007598139 0.011777898 0.002223302 0.008246278 -0.0011419739 -0.011570026
0.008985474 0.015208654 0.013862279 0.0041474043 -0.005827849 0.01288957 -0.021159008 -0.0036246884
0.0025237675 0.011993189 -0.009793715 0.002751916 0.0067759594 -0.01274015 -0.00022225395 -0.009188939
-0.0032684403 -0.0063003274 -0.009910518 0.02491992 -0.00835838 -0.0134994155 0.015671764 -0.0038026825
0.0025421157 0.0063740197 -0.011506237 0.024087053 0.02066581 -0.0070093707 0.046944246 -0.0043240935
-0.01923809 -0.0013338729 -0.002984727 0.0068408786 0.004914551 -0.013197136 -0.01271196 0.0035665813
0.0029620884 -0.010141489 -0.008922299 0.0002541338 -0.008211242 -0.0020713 0.015638823 0.021735754
0.01290775 0.010341971 -0.012415445 0.00515401 0.008668387 0.0032469642 0.021951571 0.021525525
-0.009831164 -0.0018542524 0.0009389185 -0.011242849 -0.003789677 -0.006283247 0.0134369 0.0049418053
0.015360189 -0.0028260273 0.017449228 -0.00852291 0.007410438 -0.017000198 0.0013003473 -0.03390658
-0.0019721505 -0.015391239 0.007881124 -0.0029281492 -0.011175219 -0.0068511516 0.009654171 -0.0048819776
-0.0058293934 -0.0025514388 -3.7666403e-05 -0.003571829 -0.017281596 0.003429383 0.008917184 -0.008573491
0.008173141 0.0019889497 -0.0096237715 0.0039908392 -0.014329909 -0.0010110129 -0.0023188102 -0.0028273785
0.024964143 -0.008549848 0.0025323576 0.0042800796 0.016429128 -0.023705542 0.0008938036 0.0071221422
-0.012797092 0.014636654 0.0042771394 -0.0034130793 -0.0045151333 -0.003270984 0.0011448959 0.008391004
-0.0022720853 -0.008174115 -0.021698609 0.008761589 0.0047169128 -0.00042812395 -0.00015180733 -0.0171196

network.2.weight f4 [128]
00000000: fcfb 7b3f e219 813f c2c2 7e3f ac3d 823f
00000010: 945e 823f 51d0 793f 057d 803f 674c 833f
00000020: 9bc8 7e3f 1a6b 7e3f c358 7c3f e0c2 7d3f
00000030: 122d 823f 5bd5 803f bf9a 803f d91b 7f3f
00000040: aa76 7c3f 06e1 7e3f 8265 803f 0c17 813f
00000050: a90b 803f dba7 7f3f f29d 7a3f 19bd 833f
00000060: a201 813f fec5 813f 6454 7e3f b2a0 7e3f
00000070: d2b4 813f ddea 803f 649d 7b3f b9c7 7d3f
00000080: 709e 803f 8bff 803f 964d 7f3f 3644 803f
00000090: 6d37 7c3f 5199 823f a60b 803f 5d5d 7d3f
000000a0: e9c8 803f 7e46 803f 5c81 813f 2681 7c3f
000000b0: c4d3 7d3f cb1f 7d3f 3eaa 803f 9bd6 7e3f
000000c0: 9c11 7f3f d2a2 813f 14e3 7d3f 616a 7d3f
000000d0: 1589 7d3f e787 7c3f e34a 803f aa33 823f
000000e0: 3ff5 803f 9d0c 813f 2935 803f 5fab 7f3f
000000f0: 4c3f 7c3f a47d 7f3f 06fb 7e3f 6ebe 7e3f
00000100: 426e 813f f728 823f 8045 7d3f 44d3 803f
00000110: 07b8 7c3f 1ba2 7e3f da87 813f fde5 7f3f
00000120: 670d 7e3f 6595 7e3f 8819 823f 57f0 813f
00000130: e604 803f 2344 803f c2b0 813f 7dec 803f
00000140: 6bb7 7d3f 3f24 803f 651b 7f3f 1ae6 7c3f
00000150: 11e1 7c3f a309 813f 8681 803f 010a 803f
00000160: 7543 7c3f 75ec 7e3f 271a 803f 6ab9 793f
00000170: 3038 833f 4f66 7e3f de96 7d3f c37d 813f
00000180: 79ec 813f 5bbd 783f 84ed 803f 88f8 833f
00000190: 3872 7d3f ccac 813f 4652 7d3f 7ba2 813f
000001a0: d38e 7d3f f266 803f 855f 823f 6a5b 803f
000001b0: b296 803f c5db 7e3f 812f 7f3f 161c 7d3f
000001c0: 658f 803f 1f9f 803f 57db 7a3f fa20 823f
000001d0: b53f 803f ab3f 803f a892 7c3f 2ade 803f
000001e0: 24d9 7b3f e290 803f a93a 813f 3b25 773f
000001f0: 162b 7f3f 8016 813f 6268 7f3f 4b62 803f
0.9843137 1.0086024 0.99515927 1.0175071 1.0185113 0.9758349 1.0038153 1.0257691
0.9952485 0.99382174 0.9857294 0.9912548 1.0170004 1.0065111 1.0047225 0.9965187
0.98618567 0.9956211 1.0030978 1.0085158 1.0003558 0.998655 0.97897255 1.0292083
1.0078623 1.0138547 0.9934752 0.9946395 1.0133307 1.0071675 0.98287034 0.9913288
1.0048351 1.0077986 0.9972776 1.0020816 0.98522073 1.0203038 1.0003555 0.98970586
1.0061313 1.0021513 1.0117602 0.98634565 0.99151254 0.9887664 1.0051954 0.9954621
0.99636245 1.0127814 0.9917462 0.98990446 0.99037296 0.9864487 1.0022854 1.0172017
1.0074843 1.0081974 1.0016223 0.99870867 0.98534083 0.9980109 0.9960178 0.9950932
1.0111773 1.0168751 0.98934174 1.0064473 0.98718303 0.99466103 1.0119584 0.9996031
0.992392 0.9944671 1.0164042 1.0151471 1.0001495 1.0020794 1.0132067 1.007217
0.99108 1.0011061 0.99651176 0.9878861 0.98780924 1.0081066 1.0039527 1.0003053
0.9854043 0.99579555 1.0007981 0.97548544 1.0251522 0.9937486 0.9905833 1.0116504
1.0150291 0.97163934 1.0072484 1.0310221 0.9900241 1.0130858 0.98953664 1.012771
0.9904606 1.0031416 1.01854 1.0027897 1.0045989 0.9955409 0.9968186 0.9887098
1.004376 1.004856 0.97990936 1.0166314 1.0019442 1.001943 0.9866128 1.0067799
0.98378205 1.0044215 1.0096027 0.96541184 0.9967512 1.0084991 0.9976865 1.0029997

network.2.bias f4 [128]
00000000: b8b4 9bbc 0310 283c ce09 acbc 879b cfbb
00000010: 9876 32bc ecdc 463c 1cd5 f13b b953 4a3c
00000020: 9e0e 7c3c e292 323b 63bb 033c 6509 01bb
00000030: 49cb e2bc cf1d b2ba dd9a bdba a30a 33bc
00000040: 77a7 75bb 1d74 d93b d624 663c 45a4 e6bb
00000050: 72e2 0f3c eece 19bb 7a58 eb3b 7695 debb
00000060: dec8 67bc a0b6 723b 660b 733c a456 0abd
00000070: 0095 703c 2723 46bb b695 b13b f8bb a1bb
00000080: 25a4 4d3c 2f1b 3f3c 413c 383b 09a2 5fbc
00000090: 1a38 0c3b 2971 7ebc e8f8 d2bb 7c56 8e3c
000000a0: b1d1 a53b c374 b4bb f5e6 143c 00f0 0abd
000000b0: fa69 f13c 7195 07bc d20c c3bc 3904 0f3c
000000c0: dc4e 0f3b cde1 b73c c35e 753c 4f4a b23b
000000d0: 44a7 3c3c 9fee 9dbc 3462 e5bb 0084 843c
000000e0: 8b18 713b f74d dbbb eb60 9ebb f1b5 183c
000000f0: d2cf c5ba d357 643b a1b1 8fb9 4095 67ba
00000100: b937 63bc 821d 683c aad6 3038 740a 07ba
00000110: 178a 973b 7a79 2d3c 87b5 f23a 4ac3 ddbb
00000120: a346 ea3b 607d 153c f01a 573c 9d51 0abb
00000130: 004e 333c 23fc 72bc 58be bfbb 08a5 45bb
00000140: 7fff c73b ba2d aebb e76a 8fbc fd28 383c
00000150: 220a 103b e17d 5f3b 6fde 003c 19d5 843c
00000160: 059e 743c 0aac 13bb bf83 0a3c bdba 7d3c
00000170: bbc8 61bb d85a 16bc 3843 cb3c ac4d 873c
00000180: fc1c 243c e505 14bc ef57 98bb e47d b437
00000190: d3cb 78bc 1958 8b3c d6c0 933c 7eba c3bc
000001a0: 09e7 903b 36ae 71bc 9b5c e1ba 531c 8b3b
000001b0: ab06 e0ba 2369 ea3a 2f67 c8bc 4092 d8bb
000001c0: abd4 713b 54f3 973c a396 da3b 92a8 1d3c
000001d0: 1888 ea3b d1e9 98bb 3f53 7e3c b08e 1bbc
000001e0: 519c 393c 92db c83a be6b 10bc be34 bcbc
000001f0: 5963 763b 9227 39bc 6107 22bc d88f c93b
-0.019007072 0.010257724 -0.021000769 -0.006335679 -0.010892533 0.012137633 0.007380141 0.012349063
0.015384344 0.0027248194 0.008040282 -0.0019689437 -0.027684825 -0.0013589206 -0.0014465709 -0.010927829
-0.003748385 0.0066361562 0.014046868 -0.0070386254 0.008782016 -0.0023469287 0.007182178 -0.0067927195
-0.014147012 0.0037035123 0.014834261 -0.033774033 0.014683962 -0.0030233355 0.0054194583 -0.0049357377
0.012551342 0.011664196 0.0028112086 -0.013649472 0.0021395744 -0.015529909 -0.0064383633 0.017375223
0.0050603976 -0.005507083 0.009088268 -0.033920288 0.029469479 -0.008275376 -0.023809824 0.008729034
0.0021867072 0.022446537 0.014976206 0.005440987 0.011514489 -0.019278822 -0.007000232 0.016176224
0.003678831 -0.0066926437 -0.004833331 0.009320722 -0.0015091843 0.0034842386 -0.0002740743 -0.00088341907
-0.013868266 0.014167191 4.216159e-05 -0.0005151399 0.004624616 0.010588044 0.0018517234 -0.006767665
0.007149534 0.00912413 0.013128981 -0.0021105774 0.01094389 -0.014830622 -0.005851548 -0.003015818
0.0061034556 -0.0053155096 -0.01750703 0.011240241 0.0021978696 0.003410213 0.007865532 0.016214894
0.014930253 -0.0022532963 0.008454262 0.015486416 -0.003445192 -0.009176932 0.024812326 0.016516529
0.010016676 -0.0090346085 -0.0046491544 2.1516295e-05 -0.015185314 0.017009782 0.018036287 -0.023892637
0.004422073 -0.014751008 -0.0017193736 0.00424532 -0.0017091831 0.0017884116 -0.024463264 -0.0066092312
0.0036900442 0.018548645 0.0066707893 0.00962271 0.007157337 -0.004666545 0.015522777 -0.009494469
0.011328773 0.0015324226 -0.00881475 -0.022974368 0.0037595837 -0.011300938 -0.009889455 0.0061511807

network.2.running_mean f4 [128]
00000000: 415d 083e be85 c83d bd0a 8b3d 7bd5 1b3e
00000010: 0801 313e 8aea 303e 9a38 f03d 2e43 8c3d
00000020: cc99 2b3e e56a 073e e075 de3d 1153 d33d
00000030: 15a7 4f3d cda4 c83d dfe7 d03d c637 f33d
00000040: 9cb1 dc3d 1f3f 043e e0b9 483e 407f 053e
00000050: 3734 c23d 99f4 703d cce7 563d 32a2 813e
00000060: 6066 1c3e 3598 c83d 8a8f 203e 4ba5 f13d
00000070: 1d15 1a3e 0dcd 3a3e c432 7b3e 825d 0b3e
00000080: 1d33 c03d a2e8 e83d 38a0 ca3e 6157 043e
00000090: 8082 df3d ed92 6d3e 23d0 d53d 794e d63d
000000a0: e0f9 cb3d 35a8 e83d 4fca bf3d ca6d 143e
000000b0: 2805 7a3d 12e3 b93d 08e8 283e c8f7 053e
000000c0: f8ab 513e 3aae dc3d bbb7 193d db70 223e
000000d0: 342c 083e 1200 a03e 3172 323e d2d1 8c3e
000000e0: a8d1 163e b3e3 9f3d e441 6b3e 79d7 363e
000000f0: c598 513d 413d 003e 9aed 303e 52b5 d83d
00000100: 67f1 c23d a9d6 e23d 1454 013e 10a5 ae3d
00000110: 5889 2a3e 810d bb3d 838d be3d 7ec4 dd3d
00000120: 5e28 e73d 987d 4d3d 7141 c63d 1aea 3c3e
00000130: ae84 fa3d 5e62 d93d 84fd 6c3e 7a12 ba3d
00000140: 3a55 5f3e 72bd 053e 84cc 953d 8eef 253e
00000150: cac1 ed3d 0412 283e 1d08 603e 1bee 303d
00000160: 2645 ec3d eea6 ca3d b896 893d a311 e93d
00000170: 1294 a93d fd93 da3d 326a 183e 4067 923d
00000180: c588 f93d 04b9 953e 763b b93d a7db a03d
00000190: 72d4 143e b726 193e 0880 993d ebaf a23d
000001a0: 7ebd c33d 18b8 de3d 058f d73d 73c3 993d
000001b0: 509e f03d ddb9 f03d af76 ea3d 8092 9a3d
000001c0: fcc1 763d aa15 053e 6e84 463e 25bf 9d3d
000001d0: f8a9 d83d a864 f33d 5ef0 1e3e 8afb 403d
000001e0: a175 d23d 0a9b bf3d b360 413e 4f65 133e
000001f0: bacc 123e 2e52 fc3d ccf9 003e 25b8 463e
0.13316824 0.09791134 0.067891575 0.15218155 0.1728555 0.1727697 0.11729546 0.06848751
0.16757888 0.13224371 0.108623266 0.10318578 0.05069645 0.09797058 0.10200476 0.11875872
0.10776064 0.12914704 0.19602156 0.13036823 0.094826154 0.058827017 0.052467152 0.25319058
0.15273428 0.09794656 0.15679756 0.11799105 0.15047117 0.18242283 0.24531084 0.13609889
0.09384749 0.11372496 0.39575362 0.12923957 0.10913563 0.23200579 0.104400896 0.10464186
0.09959769 0.11360208 0.09364759 0.14495006 0.061040074 0.09076513 0.16494763 0.13082802
0.20475757 0.107754186 0.037528735 0.15863363 0.13298112 0.31250054 0.17426373 0.2750383
0.14728415 0.07807102 0.22974354 0.17855634 0.051171083 0.12523367 0.17278138 0.10581459
0.095187 0.110760994 0.1262973 0.08527577 0.16653955 0.09133435 0.09304335 0.108284935
0.11286996 0.050168604 0.09680451 0.18448678 0.12232338 0.10614465 0.23143584 0.090855554
0.21809855 0.13060549 0.07314399 0.16204664 0.11609228 0.16413122 0.21878095 0.043195825
0.115366265 0.098951206 0.067182004 0.11380317 0.08280195 0.10672758 0.1488426 0.071485996
0.1218429 0.29242718 0.090445444 0.07854395 0.14534166 0.14956175 0.07495123 0.0794371
0.09557627 0.10874957 0.10525326 0.07507982 0.11748946 0.117542006 0.11448418 0.07547474
0.06024359 0.12996545 0.19386455 0.077024736 0.10579294 0.11884433 0.1552138 0.047114886
0.10276342 0.09355743 0.18884544 0.14394115 0.1433591 0.12320362 0.1259529 0.19406183

network.2.running_var f4 [128]
00000000: 5548 753d ddd7 d53d 462d a93c 2c64 2e3d
00000010: a42e 9b3d 527f 6d3d 5cea b23c e3d1 fb3c
00000020: 40f9 7f3d c3ba f33d 36c4 f73c dceb 1f3d
00000030: 1e9f b83b 3046 5f3c 2e0d 823c ba8d 0c3e
00000040: 37f9 f63c aff7 013d 90b7 253d 4251 2e3d
00000050: 4c2e f13c fbbd 093c 62d7 cf3b 4f8a 1a3e
00000060: 8128 bb3d 3269 d53c f831 8b3d 327f f73c
00000070: 3bb0 693d 9fc4 943d a917 b03d a154 de3c
00000080: 9fb7 093c c300 bf3c fa33 3b3e 9ae3 4b3d
00000090: edbc e23c 310d a93d 8d07 863c 2bbc 563c
000000a0: 1606 833c 6d65 7d3c 0741 d03c d8a2 633d
000000b0: d323 d13b 5e96 b83c 6868 523d 8d47 903d
000000c0: 6091 703d a389 d33c edcb 803b d0d2 7f3d
000000d0: e9ab 083d 20d5 d33d 65a0 ef3c 86b0 303e
000000e0: e799 683d a5a3 273c 5628 6d3d 6e47 253d
000000f0: 3b9f fb3b 6c5f f03c 2bde a73d b11e c13c
00000100: f78f a73c 3c1a e43c 08d2 bb3c 07c4 0a3c
00000110: 3781 623d d974 7b3c 706d e23c d6dd bb3c
00000120: 3539 b73c 7cf8 9c3b af17 363c 25d5 323d
00000130: 4b6f 953c 60de c93c a814 933d b365 4a3c
00000140: c8c8 b03d 3294 173d 8593 233c 0a1d 1f3d
00000150: 7d16 b63c 91c6 8c3d 1028 cb3d 0ee5 c93b
00000160: 5c6c c83d 2d7a 833c 29f8 ea3b 977a b03c
00000170: bf4b 663c 2d89 e63c 0360 e23c 6e46 283c
00000180: f29e ca3c 8af5 ac3e a8a2 813c cd3d 3c3c
00000190: 16bd 773d f176 5a3d 1ed0 b83c 25b8 b53c
000001a0: d946 a93c 92ff be3d 868b 273d eaa0 4a3c
000001b0: 4561 3a3c 00ef ef3c 769b c53c b1e2 663c
000001c0: 15bb 2d3c f36c a63c 7cad 163d 057c 543c
000001d0: ec55 d73c 6cd4 9a3c 809e 953d 6102 5f3b
000001e0: 870e 843c c08b b63c 07d3 f43d 10cf 023d
000001f0: 99c0 b13c 5a88 c43c 0617 ad3d 7e2c 1e3e
0.059883434 0.10441563 0.02065147 0.042576 0.07577255 0.05798275 0.021840267 0.03073973
0.062493563 0.11900856 0.030244928 0.039043292 0.0056342026 0.013627574 0.015875425 0.1372594
0.030148132 0.03173035 0.040458262 0.042557962 0.029441021 0.008407111 0.0063428143 0.15091823
0.09138585 0.026051138 0.0679664 0.030212019 0.057052832 0.07264065 0.08598263 0.027139964
0.008405595 0.023315793 0.18281546 0.049777605 0.027677977 0.08254469 0.016361022 0.013106386
0.015994113 0.015466076 0.025421632 0.05557522 0.0063824444 0.022532638 0.0513691 0.07044897
0.05873239 0.025822466 0.00393056 0.062456906 0.03336707 0.10343385 0.029251287 0.17254838
0.056787398 0.010231887 0.057899795 0.040351324 0.007678894 0.029342376 0.08196672 0.023574205
0.02045439 0.02784454 0.0229273 0.008469588 0.05529901 0.015347683 0.027640074 0.022932928
0.022366146 0.004790364 0.011114045 0.0436603 0.018241545 0.02464217 0.07181674 0.012353349
0.08632046 0.037006564 0.009983902 0.038846053 0.02222752 0.06873811 0.09919751 0.0061613386
0.09786293 0.016049469 0.0071706963 0.02154283 0.014056145 0.028141582 0.027633673 0.010270698
0.024733994 0.3378108 0.01582463 0.011489344 0.06048306 0.053336088 0.022560176 0.022182534
0.020663666 0.0932609 0.040904544 0.012367466 0.01137573 0.029288769 0.024121981 0.014092133
0.010603686 0.020315623 0.03678654 0.012969022 0.026286088 0.018900119 0.07305622 0.0034028518
0.016120208 0.022283435 0.11954313 0.03193575 0.021698283 0.023990799 0.08451657 0.1544666

network.4.weight f4 [128, 128]
00000000: c7b6 34be 17fa 103d 001d 9a3d e097 c1bb
00000010: d188 653b 2d03 b03c 9399 223d 9116 c0bd
00000020: 0f9c d6bd 7645 0f3e 31b4 ad3c 78c1 ca3c
00000030: cd6a a93c bbf7 f7bd a45c 3fbb 68b4 293c
00000040: 50d1 9a3d ba64 56ba 413e 6dbc 5a11 833d
00000050: 3525 333c e7ed dd3d 131a e93c a881 22bd
00000060: fac4 223d c268 4bbc a07a 133d 73d5 25be
00000070: 331a aebc d10f ebbd f036 f93d 5604 863c
00000080: 4601 4fbd 1277 e63d 9cea 90bd 3b1d 663c
00000090: af89 f1bd 76e4 61bd 557b 293e 8760 823d
000000a0: 048d 94bd 413b ef3d b3a7 b6bc 8136 1d3b
000000b0: a8b6 e83d f82a 8abd 3595 97bd fe39 803e
000000c0: b411 9b3d 268b 18bd e984 843c 8a51 18be
000000d0: be81 60bd 67c6 e2bb 46fa 9a3d 4a6e b5bd
000000e0: 1025 203e 7741 23bd 80da bfbd ca9d d83c
000000f0: 3ed0 893c 4316 26be 4596 2dbe c4e3 98bd
00000100: f648 adbd a163 5abc 56e0 b43c 145c d53c
00000110: b164 0abe 287b ccbb c9ae 85bd e918 f53d
00000120: b8b1 01bd 258d b23d 9cca 963c 828c 9f3d
00000130: e191 14be da7b 0cbd 3f80 0ebd 65de e3bd
00000140: beae ea3b 8130 d73d 9b88 37bd de39 32be
00000150: dc7f 9bbd 2a40 32be e953 1d3b eb96 0f3d
00000160: 87d9 8a3d e9f8 dfbd ff36 1d3d ed2a b2bb
00000170: 0002 2f3d e15e 233e 578a 843d 8f01 f93c
00000180: a09f 55be be97 ce3c ba6e babd 08ce 343d
00000190: 0c04 013e 66a4 0dbe 92a8 04be 3971 bfbc
000001a0: fe1c 93bc f582 83bd f128 51bd f0e3 163e
000001b0: 9431 68be 02fd a7bc 3871 e9bc 9fe3 10bd
000001c0: fc99 743d 5fa9 303e d1a3 adbd 3f3b 90bd
000001d0: 7233 03bd 13a5 88bd ee66 afbd 77f0 ab3c
000001e0: ac93 da3c 7b86 16be bc91 793d 5e77 6cbe
000001f0: ce96 2cbd 3c6f 37be ca53 0cbe 701b b13c
00000200: 7a1b 1dbd 6a9b 83bd 8fc6 b0bd 1b25 2bbc
00000210: 3630 073d 902a d63c c9e4 ef3c 97df c5bd
00000220: 18ba ff3d c1a5 e93d 52be 953d 8f54 373d
00000230: 7dc1 babd 7335 473d d316 34bd 7861 c33d
00000240: bf37 65bc 4182 1bbc ab1b 113e 4bcd 2fbe
00000250: 5d91 2abd d57a 19be 2376 d13b c3af 113c
00000260: 9d4c acbc 3a2f 5c3d 8b54 81bd b483 8fbd
00000270: 91f6 b43b 20cf 003e fe29 ffbc 75b9 cdbd
00000280: de07 613d b29a cebc 5616 c8bd 3a24 8a3d
00000290: a21c 8d3d d818 f1bd f7f4 10be deb1 703d
000002a0: d8b7 39bd bea9 34bd 4683 253e 260b 24be
000002b0: 6167 b1bd a13e 1cbd 153b 2bbd 733f 80bd
000002c0: b2ff 753d 7789 d8bd 3fff 88bd 8a00 0b3e
000002d0: f135 0d3d c276 28be 422a 4abd a386 12bd
000002e0: 06f5 1dbd 5a81 8dbc e0e5 82bd b584 df3c
000002f0: 3a6f 93bd 4bfe de3c 7771 ae3d aaee 61be
00000300: 8495 78bd 85ab 533d 0cbe 803d c6a9 acbd
00000310: 9f12 fabc 2123 6b3d de27 2abd af90 9b3c
00000320: e529 16bc 8267 b7bd d198 703e a750 dabd
00000330: 6835 173c 092c e13d 5f56 b23d c8d7 07bd
00000340: 19a2 b13c 1b7d 04bd 3edb 363e ebd4 34be
00000350: c1d7 363e c178 61bd 4109 cabd be09 05be
00000360: 832f 913b e6b8 4dbd 952c 48be fbb8 1cbc
00000370: f226 12be b493 293c e4e0 77bd 60b4 0a3d
00000380: 4808 aa3c 80db dc3d 52a9 293e 3690 eabd
00000390: a943 b13d 8455 b13d 1bfc c6bc da4b a3bd
000003a0: 5bf5 933c d592 25bd 750f ea3d ecfa cfbd
000003b0: b8eb 0ebe cd6e 32bd 93e1 2fbd be7f 44bd
000003c0: e5ff 8b3d 27bd 8f3d 09d2 b93b 7fbd 8d3d
000003d0: d449 ad3d 3a86 da3b 3162 e4bd 41ca 2abd
000003e0: 4bb0 153d d04c 78be b0e9 1a3e f954 54be
000003f0: 9b38 89bd 158f a7bd eb09 8fbd 4bbd 793d
-0.17647849 0.035394754 0.075250626 -0.0059079975 0.0035024176 0.02148589 0.03969724 -0.09379304
-0.104789846 0.13991341 0.021204086 0.024750456 0.02068081 -0.12107798 -0.0029199505 0.010357954
0.075594544 -0.00081784616 -0.0144801745 0.06399794 0.010934164 0.10836392 0.028454816 -0.03967443
0.039738633 -0.012415113 0.036005616 -0.16194706 -0.021252727 -0.11477626 0.121686816 0.01635949
-0.050538324 0.112531796 -0.07075998 0.014045055 -0.11793839 -0.055149518 0.16550954 0.063660674
-0.07253459 0.11681224 -0.022296762 0.0023988786 0.11362964 -0.06746477 -0.07401506 0.25044245
0.07571736 -0.037242077 0.016176658 -0.14874855 -0.05481123 -0.006920624 0.07567267 -0.088589266
0.15639138 -0.039857354 -0.093678474 0.026442427 0.01682293 -0.1621943 -0.16951855 -0.07465318
-0.08461182 -0.013329417 0.022079628 0.026044883 -0.13514973 -0.0062402673 -0.06527478 0.11967642
-0.031663626 0.087183274 0.018407159 0.077904716 -0.14508773 -0.0342978 -0.034790274 -0.11126403
0.007161944 0.10507298 -0.04480801 -0.17404887 -0.075927466 -0.17407289 0.0024006313 0.035056036
0.06779771 -0.10936148 0.038382526 -0.005437246 0.042726517 0.15954162 0.06471699 0.030396251
-0.20861673 0.02521884 -0.09103151 0.0441418 0.125992 -0.13832244 -0.1295493 -0.023369418
-0.01795816 -0.064214624 -0.051064435 0.14735389 -0.22675163 -0.020506386 -0.02849637 -0.035373326
0.059717163 0.1725211 -0.08478511 -0.0704255 -0.032031484 -0.066721104 -0.08564554 0.020988686
0.026681744 -0.14699738 0.06093 -0.2309241 -0.042136006 -0.17913526 -0.13703838 0.021619529
-0.03835628 -0.06426127 -0.08631622 -0.010445858 0.033004962 0.026143342 0.029283898 -0.09661787
0.124866664 0.11408568 0.07311691 0.044758376 -0.09118936 0.048634958 -0.04396708 0.09540075
-0.013990342 -0.009491504 0.1417071 -0.17168157 -0.041642535 -0.14988263 0.006392257 0.0088920025
-0.021032626 0.053755976 -0.063149534 -0.07007542 0.005522557 0.12579012 -0.031147953 -0.10045139
0.054939143 -0.025220249 -0.09769885 0.06745191 0.06890227 -0.11772317 -0.14155947 0.058763377
-0.045341343 -0.04410719 0.16163358 -0.16019878 -0.08662296 -0.038145665 -0.041804392 -0.06262102
0.060058303 -0.10573094 -0.06689309 0.13574424 0.03447527 -0.16451553 -0.049356706 -0.03577293
-0.03856375 -0.017273594 -0.063915014 0.02728496 -0.07198949 0.027220866 0.085177355 -0.220637
-0.060689464 0.051677246 0.062862486 -0.08430819 -0.030526457 0.05740655 -0.041541927 0.018989889
-0.009165262 -0.089552894 0.23495795 -0.106599145 0.009229042 0.10994727 0.0870788 -0.03316477
0.02168374 -0.032345872 0.17857072 -0.17659347 0.17855741 -0.0550468 -0.09865046 -0.12991998
0.0044307127 -0.05022516 -0.19548257 -0.009565587 -0.14272669 0.010350157 -0.060517207 0.033863425
0.020755902 0.10784054 0.16568497 -0.11453287 0.08655483 0.08658889 -0.024290135 -0.07973452
0.01806133 -0.040423233 0.114287294 -0.101552814 -0.13957107 -0.0435627 -0.042939734 -0.047973387
0.068359174 0.070185 0.00567079 0.06920909 0.08461347 0.006668833 -0.11151541 -0.04169679
0.03654508 -0.24248052 0.15128207 -0.2073554 -0.0670025 -0.081815876 -0.069843136 0.06097154

network.4.bias f4 [128]
00000000: 423f d33b a9fa 423c c985 103c 7188 c6bb
00000010: 44c8 25bc 9e13 4dbc 0d95 03bc 82bf 343c
00000020: 7ac3 24ba 0010 813c dcbf 243a 16a8 dc3c
00000030: 96c2 1d3c b637 163b 0150 c83b ee6c 42bc
00000040: 4fdc 5b3b 2a2c eb3c b8e6 b33c 5f85 acbb
00000050: 1088 2b3c 5509 d539 ec47 86ba 06e9 a23b
00000060: 8c36 6bbb 6961 a53c bcf9 a43b c476 70bc
00000070: 68c5 ed3a 0b1f b93b 90f9 2abc bbda f8bb
00000080: 27b8 d8bb 0412 223a 3d04 a43b 17cd 813c
00000090: 1152 c83b baef 25bb 2acf 74bb da7d 83bb
000000a0: 11dc bf3c 8536 5a3b 5ef7 313c 7ef1 bdbb
000000b0: 2d74 c9bc 8b56 313c 8678 9c3c f2d3 38ba
000000c0: 06b9 3fbb 86e8 41bc d6a5 593b 29ca d03c
000000d0: 4ba5 45bb b162 c438 77da d03c f278 34bc
000000e0: 4d23 c63c b1e7 8e3c 7e22 2b3b 74d5 1f3d
000000f0: d341 9ebb 9ca5 e53c 2dee b03b 38a6 ba3b
00000100: 063b 4e3a 9b82 efbb 1a8b 8f3b 9ed2 03bc
00000110: ac94 b2bc 5b7a 3c3a 2c48 063b 8941 b73c
00000120: 4cf0 363c 590a 2f38 7d44 61bc 437f c73c
00000130: 448d 6cbb c0a4 ebbb ae8f 0abb 4879 953c
00000140: c6eb 1c3b f3f3 1ebb 3cbc b1bb a71d 1e3d
00000150: bb37 6d3b 0ee0 243b 5897 2ebc f0a1 a9bb
00000160: a000 313c 374f d43c a88f b8bb 4a35 833c
00000170: b84b 743c e16e 38bb 8721 bc3a 3487 e13b
00000180: a1e9 78b9 6504 b8bb 753a cf3b 4210 a93c
00000190: 882d 86bb 4fb2 313a 9a65 c93c 3b9a a2bc
000001a0: e87f 753a 8b25 453c 597e e33b 59f3 773c
000001b0: 899a 1abc 66d5 2bbb d5a3 d6bb 6c25 2d3c
000001c0: 3fdc 8bb8 90b1 643a c08e 6b3a 8e0c 723c
000001d0: 99e5 213b f680 afbc 926d c83c df50 203b
000001e0: 8679 abb9 ebd8 8fbc eecc 78bc e1df 02bb
000001f0: 2918 813c b017 6b3b f670 4ebb 9f6e 573a
0.00644675 0.011900582 0.008820959 -0.0060587456 -0.010118548 -0.012516884 -0.008031142 0.011031987
-0.0006285232 0.0157547 0.0006284693 0.026935618 0.009628912 0.002292139 0.006113053 -0.011866791
0.0033548062 0.028707583 0.021960601 -0.0052649225 0.010469452 0.0004063348 -0.0010244823 0.004971626
-0.0035890667 0.02018805 0.0050346535 -0.014676753 0.0018140497 0.0056494526 -0.010435477 -0.007594434
-0.0066137495 0.0006182494 0.005005388 0.015844865 0.0061132987 -0.002531989 -0.0037354925 -0.0040128054
0.023420366 0.0033296656 0.0108622 -0.0057966104 -0.02459153 0.010823856 0.019100439 -0.0007050625
-0.002925457 -0.011835223 0.0033210418 0.025487022 -0.0030158337 9.364391e-05 0.025494797 -0.011015164
0.024186755 0.017444463 0.0026113088 0.039021924 -0.004829624 0.02803307 0.0053994865 0.0056960844
0.00078670715 -0.0073092706 0.004380596 -0.0080458205 -0.021799408 0.0007189863 0.0020489795 0.022370117
0.01116569 4.173289e-05 -0.013749239 0.024352675 -0.0036094943 -0.0071912706 -0.0021142769 0.018246308
0.0023944243 -0.0024254292 -0.0054240506 0.038602497 0.0036196548 0.002515796 -0.0106562 -0.005176775
0.010803372 0.025916679 -0.0056323595 0.016016621 0.014910631 -0.002814226 0.0014353254 0.0068825725
-0.00023738157 -0.0056157582 0.0063241073 0.020637635 -0.004094783 0.0006778584 0.02458458 -0.019848933
0.0009365068 0.012032877 0.006942552 0.015133702 -0.009436258 -0.0026219725 -0.006550292 0.010568004
-6.6690605e-05 0.00087239686 0.000898581 0.014773501 0.0024703501 -0.021423798 0.02446631 0.0024462265
-0.00032706204 -0.01755949 -0.015185578 -0.0019969868 0.01575859 0.0035872273 -0.0031500435 0.0008218083

network.6.weight f4 [128]
00000000: f564 803f 7099 7f3f 48b6 803f 49a9 803f
00000010: 91e7 7f3f dd19 7c3f 690d 823f 821d 803f
00000020: f906 813f e1e2 7c3f 2158 803f 74ad 803f
00000030: 87ce 7b3f ead8 7d3f 52de 813f e293 7f3f
00000040: 572c 813f 0da4 7d3f d9e0 803f c2b6 813f
00000050: 2e58 813f 60d2 813f 8269 7c3f 8962 7a3f
00000060: 87c2 7f3f 187e 7c3f df51 7f3f 309c 823f
00000070: 4649 813f d6ff 7d3f 08da 7d3f 4b0f 803f
00000080: a359 803f 1b33 813f 3207 803f efa3 7a3f
00000090: e615 7a3f 83e4 7c3f e66d 813f 14bf 803f
000000a0: 15e7 773f ab81 7d3f 991e 803f d34c 823f
000000b0: bf0e 803f 8722 803f 60e3 7f3f 9761 7f3f
000000c0: 1940 813f 9fae 803f bf1f 7c3f cc31 803f
000000d0: 99e9 7c3f 51db 7f3f 48bc 823f b000 813f
000000e0: a76d 823f d127 7f3f 4624 803f d4a8 7d3f
000000f0: ff4a 7e3f 4a04 7d3f b89e 803f 8a8c 7e3f
00000100: b386 7d3f 724e 803f 0d23 823f 6a80 7f3f
00000110: 1828 7d3f 9bd3 823f ddf1 7f3f f993 803f
00000120: e53b 7c3f e2ea 7d3f 197d 813f c8e9 7f3f
00000130: 16ca 7e3f 9529 7c3f 2fcc 803f a8ab 7e3f
00000140: 5fd7 7c3f e65f 803f 8c7f 813f d59d 803f
00000150: 9652 823f ba16 813f e4da 7e3f 1643 813f
00000160: c31b 7f3f 1756 803f 5338 7d3f 1062 7e3f
00000170: c5c1 7c3f 81d3 7e3f 3a83 7d3f c505 7c3f
00000180: f17f 803f 3e22 803f 138d 7d3f 2f34 7e3f
00000190: 8d21 803f f730 833f 99ae 803f 1700 833f
000001a0: 1a48 7b3f d654 7e3f c8d8 7d3f bd86 803f
000001b0: 656f 7c3f 49de 7c3f 82a4 803f bb37 843f
000001c0: 2765 7a3f 1845 7f3f 4601 823f 2245 7e3f
000001d0: 8620 803f 9826 7d3f 7831 833f 7680 7d3f
000001e0: 7071 7c3f c498 7e3f 12d2 7f3f 8194 823f
000001f0: 7983 813f 1e91 853f 2041 823f f846 7f3f
1.003081 0.998435 1.0055628 1.0051662 0.9996272 0.98476964 1.0160342 1.0009005
1.0080253 0.9878369 1.0026895 1.0052934 0.9836201 0.9915911 1.0145972 0.99835026
1.0091656 0.99078447 1.0068618 1.0133898 1.0105035 1.0142326 0.9859849 0.978066
0.999062 0.98629904 0.997343 1.0203915 1.0100486 0.992185 0.99160814 1.0004667
1.0027355 1.0093721 1.0002196 0.9790639 0.97689664 0.9878618 1.0111663 1.0058312
0.9683698 0.9902598 1.0009338 1.0179695 1.00045 1.0010537 0.9995632 0.99758285
1.0097686 1.005329 0.9848594 1.0015197 0.9879394 0.99944025 1.0213709 1.0078335
1.0189713 0.9967013 1.001107 0.99085736 0.99333185 0.9883467 1.0048437 0.99433196
0.9903366 1.002394 1.0166947 0.9980532 0.98889303 1.0220827 0.9997843 1.0045158
0.9852889 0.9918653 1.0116302 0.99966097 0.9952711 0.9850095 1.0062312 0.99480677
0.9876613 1.0029266 1.0117049 1.0048167 1.0181453 1.0085061 0.9955275 1.0098598
0.99651736 1.0026273 0.9891407 0.9936838 0.9873317 0.9954148 0.9902836 0.98446304
1.0039045 1.001045 0.9904339 0.99298376 1.0010239 1.0249318 1.0053283 1.0234402
0.98156893 0.993482 0.99158907 1.0041119 0.98607475 0.9877668 1.0050204 1.0329508
0.97810596 0.99714804 1.0156639 0.9932424 1.0009925 0.98887014 1.0249472 0.9902414
0.9861059 0.9945185 0.99929917 1.020157 1.0118247 1.0434911 1.0176125 0.99717665

network.6.bias f4 [128]
00000000: 2603 d43c 55ae 9f3b 132e 3abc 4fd0 743c
00000010: b680 9ebc 44ee dcbb 2eaf ffba 5fbe 173b
00000020: f509 9bbb 1a80 c53a 20e2 a5bc 5193 93bc
00000030: 81e3 0cbb ba38 463b f9c2 b73b 0812 f1bb
00000040: 353c 973c a106 963b bcdd 7a3b a3c9 68bc
00000050: 56f5 abbb 6601 8d3c 6989 8b3c 1e65 9b39
00000060: 2a72 80bc 3283 d6ba e616 1e3c 8dc3 1bbc
00000070: 4ff1 0bbd a4cd db3c 53b2 873c c03f ac3b
00000080: 8c29 513c 0933 093c b8f1 313c 0a72 7a3c
00000090: 6bd4 fbbb 8c95 363c 5233 aa3c 4baf 64bb
000000a0: da0d 86bc 84d2 97bc 4c9e 7e3c 0541 603b
000000b0: 88cf a83b 3edd e53a deb0 28bb ce13 f9bb
000000c0: 31fd 89bc 4583 b33b 27c1 883b 969c 6b3c
000000d0: 1f7e b63b c54d aa3b da33 6d3c 0317 c53c
000000e0: bf7c 2fbb 1223 403a 7ef2 8b3c 2f10 0fbd
000000f0: 6663 1abc 6658 8e3b 31f9 33bc 1153 3b3b
00000100: 177a b1bb b076 2c3c 9fd1 e43b e562 623c
00000110: 35d6 06bc e9ef 41bc 4d77 0c3c a1b9 91bc
00000120: 75d0 a2bc 869a 9639 05fe ec3b bd9d 0cbc
00000130: 6db0 abbc 8cd3 a3bb 0e14 95bc faa9 6dbb
00000140: 3d62 433c 6d2c 49bc b9a4 0a3c 553b c03b
00000150: 7fdd 043d 56fb 983b b3d3 2d3a ff77 40bb
00000160: e196 993b ef74 c13a 8e98 e4bb 7029 d93a
00000170: 211e cabb e320 9cba a5f0 6ebb 3b45 47bb
00000180: 89a5 4fbc 11c4 35bc bf0e 91bb 9986 b43a
00000190: d9d8 e739 12c4 c53b 53aa 25bc ac3c 1a3b
000001a0: e423 b13c 6a97 c63b dc93 4c3c 42e2 573c
000001b0: b057 923c 639e acbc a05b 15bd c351 6a3c
000001c0: cff2 e73a e0d5 943c 1f16 563b bc9c 6dbc
000001d0: fc65 843b a6ed 7ebb 9481 3e3c 7400 2a3b
000001e0: 2e57 733c 53d3 91bb a688 96bb 2ac5 913c
000001f0: 2841 e13c a845 11bc 3dd1 b0bb e991 2fbc
0.025880408 0.004873077 -0.011363524 0.014942243 -0.019348484 -0.0067422707 -0.0019507164 0.0023154241
-0.0047314116 0.0015068084 -0.020249426 -0.018014582 -0.0021497908 0.0030246214 0.0056079593 -0.007356886
0.018461326 0.004578427 0.0038279137 -0.01420823 -0.005247752 0.01721258 0.017033296 0.00029639242
-0.015679438 -0.0016366004 0.009649014 -0.009507072 -0.034165677 0.026831456 0.016564524 0.005256623
0.012766253 0.008373984 0.010860853 0.015285978 -0.0076852343 0.011144053 0.020776425 -0.0034894522
-0.016364027 -0.018532999 0.015540671 0.0034218442 0.005151693 0.0017537249 -0.0025740187 -0.007601238
-0.016844364 0.005478295 0.004173416 0.014380595 0.005569234 0.005197259 0.014477694 0.024058824
-0.0026777235 0.00073294446 0.017083403 -0.034927543 -0.0094231125 0.004344034 -0.010984705 0.0028583447
-0.0054161656 0.010526344 0.0069829966 0.013817524 -0.008229782 -0.011836984 0.008573365 -0.01778871
-0.01987479 0.00028725358 0.00723243 -0.00858253 -0.02095815 -0.0049995836 -0.01819804 -0.0036264644
0.011925277 -0.012278658 0.0084621245 0.005866448 0.032437798 0.0046686335 0.0006630972 -0.0029368398
0.0046871756 0.001475958 -0.0069761937 0.0016568135 -0.0061681424 -0.0011911656 -0.0036459353 -0.0030406255
-0.012673744 -0.011094109 -0.0044268067 0.0013773023 0.00044221318 0.0060353363 -0.010111409 0.0023534698
0.02162356 0.0060605304 0.012486424 0.013176503 0.017864078 -0.021071618 -0.036464334 0.01430172
0.0017696264 0.01816839 0.0032666994 -0.0145027 0.004040478 -0.0038898974 0.0116275735 0.0025940211
0.014852328 -0.0044502406 -0.0045939265 0.01779421 0.02749689 -0.008866705 -0.005396037 -0.01071594

network.6.running_mean f4 [128]
00000000: ff75 f33e 7802 043f ea3b 173f 2761 b13e
00000010: 5dca f83e 9cba dd3e 5cd5 c03e af80 f53e
00000020: ffdc 043f af45 0d3f cf73 033f e313 0e3f
00000030: 9f05 e33e 3b74 223f b632 113f 4011 003f
00000040: 766f fc3e 6acd f23e c0bc ba3e aa86 ee3e
00000050: 9d09 1d3f f751 2e3f da5a b33e b8dd f43e
00000060: a4ac d53e 8047 e23e 3746 303f 30d5 1f3f
00000070: ea96 203f f43a 303f 02ec 353f c107 0d3f
00000080: 891c fa3e 39a4 c83e 936b 163f 711a 103f
00000090: 3489 073f c825 df3e 7d87 ea3e daaa 0b3f
000000a0: 723f d43e 6e98 f63e 603a f73e 1e28 e23e
000000b0: 54e3 a33e fe3a 493f 8a3a c53e 3f69 c63e
000000c0: a789 173f e949 353f da49 bd3e 4e5b 0d3f
000000d0: 68c4 c73e fb6f e73e e16c f73e a4e3 a63e
000000e0: 9e4e db3e 230a f43e 538f da3e 1279 d03e
000000f0: a476 ca3e 1293 153f fac1 1e3f 313b d23e
00000100: 36b2 b53e 5d72 c03e c519 b83e 6607 b73e
00000110: 2a80 bb3e 1917 ec3e bee2 1b3f 72a5 f33e
00000120: e899 dc3e 7087 df3e bd1a b93e 9d28 ce3e
00000130: 2611 9f3e f0c9 ea3e 2dd4 f13e 9fd5 d33e
00000140: f679 0b3f cfa3 1b3f 291f 233f 2f54 0c3f
00000150: 3e96 cd3e b968 9e3e a18f 1a3f 99c7 de3e
00000160: bb69 103f c6f4 283f ed73 143f c4da 633f
00000170: 528a d23e 606e 1a3f d88e e13e e311 d33e
00000180: 67bb db3e 4e3b e93e 9651 da3e ad83 c23e
00000190: c231 0a3f 0658 f23e 65b6 223f fec4 b43e
000001a0: 6f99 da3e c5aa 0d3f c990 023f f483 033f
000001b0: 5212 ca3e 3066 063f f1ef d93e bd48 f03e
000001c0: 5c58 bb3e 63ff db3e 2e42 e83e 9ea9 a63e
000001d0: 2488 103f 3105 c93e f168 213f adad cf3e
000001e0: 5890 ed3e 873b e73e d034 8a3e 6306 af3e
000001f0: fb40 223f f493 033f 6fc2 de3e 7dac f43e
0.4755096 0.51566267 0.59075797 0.34644434 0.4859189 0.43306434 0.3766278 0.4794974
0.51899713 0.55184454 0.51348585 0.55499095 0.44340226 0.63458604 0.56718004 0.5002632
0.49303788 0.47422343 0.3647213 0.46587116 0.61342794 0.6809382 0.35030252 0.47825408
0.41733277 0.44195175 0.6885714 0.62434673 0.62730277 0.68839955 0.71063244 0.55089957
0.48849896 0.39187792 0.58757895 0.56290346 0.5294373 0.43583512 0.45806494 0.54557574
0.41454655 0.4816317 0.48286724 0.44171232 0.32009375 0.7860564 0.38521224 0.3875217
0.59194416 0.708159 0.36970407 0.55217445 0.39017034 0.45202622 0.48325256 0.3259555
0.42833418 0.47663984 0.42687473 0.4071737 0.3954364 0.58427536 0.62014735 0.41060784
0.35487527 0.37587252 0.3595716 0.35747832 0.3662122 0.46111372 0.60892856 0.47587162
0.4308617 0.43658018 0.36153212 0.4026536 0.3106777 0.4585719 0.4723219 0.41373917
0.5448297 0.6079683 0.6371942 0.54815954 0.40153688 0.30939272 0.6037541 0.43511656
0.5641133 0.65998495 0.5798939 0.89005685 0.41121155 0.6032467 0.44054294 0.41224584
0.42916414 0.45553058 0.4264037 0.37991086 0.53982174 0.47332782 0.6355956 0.35306543
0.42695186 0.553387 0.51002175 0.5137322 0.39467102 0.52499676 0.42565873 0.46930495
0.3659085 0.42968282 0.4536299 0.32551283 0.56457734 0.39261773 0.6305075 0.40562192
0.46399188 0.45162603 0.26993418 0.3418456 0.633804 0.51397634 0.43507716 0.47787848

network.6.running_var f4 [128]
00000000: 6ad9 ee3e fa49 453f 2848 333f a610 bb3e
00000010: a819 a93f 7d81 fd3e 49d6 963e b197 093f
00000020: 8ce0 103f 72f3 293f 3c86 163f 7c27 2f3f
00000030: c80c 243f be3e 433f a183 003f acc1 283f
00000040: 54ed 203f 4ade e63e 594e 813e 4d00 003f
00000050: a2c8 103f 801b 3f3f cb56 aa3e e415 353f
00000060: 4691 ca3e 3c4b d83e 3bb3 553f 5174 a23f
00000070: b8b0 673f 2c33 723f 0a3c ce3f 6d8c 203f
00000080: 846c 603f eaf2 bd3e 2399 253f 667f eb3e
00000090: a268 523f 976a f13e ddbc 073f 124e 473f
000000a0: 88f8 f13e 240f 1e3f 8dfa bd3e 6bba de3e
000000b0: 8a5f 983e e1b5 8d3f bd12 e83e d7f1 813e
000000c0: a3b8 633f df66 673f ee07 a03e fe72 5b3f
000000d0: f579 ad3e 9158 0d3f eab3 2e3f 32fb cc3e
000000e0: 1825 173f 4c09 2d3f 0a3c d53e 1c9c d33e
000000f0: 0f42 a43e 34f9 223f d302 123f f432 8d3e
00000100: 85a8 af3e 45b8 923e 9602 603e 46a6 ac3e
00000110: 152f cb3e 6edc 703f 382a a13f e174 073f
00000120: 3736 9d3e 05ec ea3e a921 bc3e f644 e53e
00000130: cdfd 513e 0549 c63e ee47 fe3e 09e1 923e
00000140: 1663 1b3f 178c 693f 6631 da3f 08ec fd3e
00000150: daca b73e 79ec 733e f1ac 763f 0a33 fd3e
00000160: d746 7d3f aff9 1c3f 5793 363f fdb7 a43f
00000170: 0843 cb3e 6664 883f 875c d43e 285b e23e
00000180: c99f 443f 900f 8a3f 3340 cf3e 25b0 b73e
00000190: 0d42 5b3f f63e f33e c735 723f 4606 c53e
000001a0: 5c69 253f 9650 3a3f 30a2 163f 9ac3 e93e
000001b0: ae28 143f 97c7 1d3f 16d0 0b3f d8d4 2f3f
000001c0: b63f 093f 16d1 7f3e 59b4 d23e aaa3 5e3e
000001d0: 76b7 fc3e 80d4 9f3e 4657 283f 14fe a53e
000001e0: f2fd 253f 61f2 873f 7607 873e 739b 8b3e
000001f0: 8537 2d3f 65dd 1a3f 3067 1a3f 4ff7 b53e
0.4665025 0.77066004 0.70031977 0.3653614 1.3210955 0.49512854 0.29460362 0.5374709
0.5659263 0.66387093 0.58798575 0.68419623 0.64082 0.7626761 0.5020085 0.6592052
0.62862134 0.45091468 0.25255087 0.5000046 0.5655614 0.74651337 0.33269343 0.7073653
0.3956396 0.422449 0.8347661 1.2691747 0.90504026 0.9460933 1.6112072 0.6271427
0.8766558 0.3709939 0.64686793 0.45995635 0.82190907 0.47151634 0.5302256 0.778535
0.47259927 0.6174185 0.37105218 0.435016 0.2976039 1.107113 0.45326796 0.25379822
0.8895361 0.90391344 0.3125605 0.8572234 0.33882108 0.55213267 0.6824328 0.40035397
0.59040976 0.6759231 0.4164737 0.4133004 0.3208165 0.63661504 0.5703556 0.27577937
0.34308258 0.28656211 0.21875986 0.33720607 0.39684358 0.9408635 1.2591009 0.5291272
0.30705425 0.45883194 0.3674443 0.44779176 0.20506974 0.38727584 0.49664253 0.28687313
0.6069807 0.91229385 1.7046325 0.4959414 0.3589695 0.23820676 0.9635764 0.49453002
0.9893622 0.61318487 0.7131857 1.2868649 0.39699578 1.0655639 0.41476843 0.44210172
0.7680631 1.0785999 0.40478668 0.35876575 0.8564766 0.47508973 0.9461331 0.3848135
0.6461389 0.72779214 0.5884123 0.45657045 0.5787457 0.61632675 0.5461439 0.6868415
0.5361284 0.24982104 0.4115322 0.2174212 0.4935872 0.31216812 0.6575817 0.3242041
0.64840615 1.0620843 0.2637288 0.27267036 0.6766284 0.6049407 0.603137 0.35540244

network.8.weight f4 [128, 128]
00000000: 4ccc 133e 6273 f03c 9121 ff3d 54da 2cbe
00000010: afa7 f63c 22a1 b8bd 107f 95bd 3bc6 6a3d
00000020: 68a3 b7bd 5ce8 c939 05d3 94bd 6f58 08bc
00000030: e0dc 4ebc 90ba 833d 4ffb 7e3e 468b 89be
00000040: 9cb3 70bd a496 2a3d 755b 7d3d e14d d63b
00000050: 8542 983d 2bc8 22bd f888 853b 65aa cfbd
00000060: 4c64 c33d 3ac5 2cbc c039 bc3d d12a 1fbe
00000070: ac1b 593d 8751 433d 9d48 643d f066 8abc
00000080: d003 9abb 0b0e 0c3d c165 923d 10c6 b9bb
00000090: a5af a03b ecb3 483d 0c99 403e 11c9 32bc
000000a0: 1081 1e3c b09f 243e c911 27bd 2f0f 0c3e
000000b0: 2bd5 ddbd a891 a9bc 4e63 19be 3828 a23b
000000c0: a1ae f7bd 3aff 053d d907 b7bd efa6 0fbe
000000d0: 9c2c cebb 0ce6 29bd c632 ac3d d08b 91bc
000000e0: f859 b13d 6797 42be f33a 08bc 6c21 0fbe
000000f0: 6540 9fbc 85b2 803d 6e36 033b f809 95bd
00000100: e555 89bd 8915 4f3d 14bb a53d 036d 223d
00000110: 70d8 1bbd 28e2 d83c bd25 223d 2f1b f53c
00000120: 8b27 913c 1e05 013d 65cf 10bd 67cc 583d
00000130: a9cf f03c b52b c3bb 57ee 33be d208 82bd
00000140: 8444 eb3d ea77 dfbd 308c 283c be08 bdbc
00000150: 357d 103e 6f21 513c 5d7c 18be 98de 4e3a
00000160: 7fd1 c7bc 3b5d 0dbe d3d3 87bc cfca 033e
00000170: a4a4 143c e833 303d 511c aa3d 8905 ea3c
00000180: 085c e53d ab3d bdbd ad4a 1ebe 0e45 1d3d
00000190: e122 163d 7874 6abd 8852 9bbd 3657 3cbd
000001a0: 5c0b 08be f148 553c 9d19 213e 1e53 9abd
000001b0: 8088 363e 08e1 fdbd 358d a63b 1e52 24be
000001c0: 123f a3bd 5298 013c 315d bebd 2e58 dabc
000001d0: 2eff 5fbc 26c9 34bd ba55 8d3c ced6 52bb
000001e0: f819 e339 888b 85bd 410a 133e 8c9a 74bc
000001f0: 0031 1a3e 6e2e a3bd 5f99 ffbd 1468 f9bb
00000200: 7d5f c43d c648 503c 0c21 173e 29fc 8a3d
00000210: 0fac 183c 1472 9e3b a61d 083e 7689 7f3c
00000220: 52fd 743d 6085 e23c 4329 733d 242e 313d
00000230: 7808 46bd af1f d93d d531 21bd 13f9 823c
00000240: 08cb 88bd f6da 763d 9e3a e1bd 143c 013d
00000250: 0e07 cdbd 2ff0 8e3d 4515 21be 5255 4c3c
00000260: 3042 3bbd 466f 9dbd a8db 1cbe cbaf 0cbe
00000270: 37ec cb3d ee39 0fbd f70c 83bc 6010 89bd
00000280: 7d11 693c 535d f6bc 3691 a8bc 0732 243e
00000290: 64c9 793c 4d06 82bd e422 debd 392f edbd
000002a0: bf1e ea3d 1c6b e13d a02f 143d 95b0 21bc
000002b0: f7b5 0bb9 aa44 46bd 0c9c 353c 3256 d63d
000002c0: 9ae6 cdbc f1cb f73c 1e5f 003d b2ae a83d
000002d0: b4a6 fe3c 2a46 fd3b b326 e73d 9240 87bd
000002e0: 9975 f1bd 6f80 edbd a78e b03c ed18 693d
000002f0: 33c0 d8bd 0504 bc3d 39d2 f9bd 64f4 3fbc
00000300: b52a edbc 732c 49bd a921 8f3d f987 023e
00000310: 811a 05bd 4986 b5bd 8cb3 003e 3715 473e
00000320: b177 bd3d 2fb0 583e a40f e3bc fd76 33bd
00000330: ec99 f23c eb50 ec3c 3217 413e 80db b13d
00000340: 7f27 acbc d71b 0e3d 5013 0e3c 5add 163e
00000350: 204e 803d 2c59 20bd 4c06 c1bb e40d ccbd
00000360: f12e d63d 1b1f 9bba 7b62 0cbe f6f4 11be
00000370: f8d5 d9bc 842f feba e4ec dc3c 0ca0 793d
00000380: aeda eb3c 34f1 23bd 89ef a4bc 1ddd 93bd
00000390: 5770 5c3d de94 06bc 77f1 0b3e 8c90 81bd
000003a0: 4551 c9bc 8805 eabc efac 223d bb1f b0bd
000003b0: ebd9 a9b8 fc16 babd f80e 873d 01d7 c63d
000003c0: a5cf 35bd 6d86 7b3d 46c7 8c3d 2382 dc3c
000003d0: bacb 4d3d 72b6 323d 20bf bcbd 91b1 7cbd
000003e0: d7ae 32bd aae6 113d d02c cd3d 99cc 843c
000003f0: 2e76 1ebe 93ab 3bbd d556 bcbd c06b e5bd
0.14433402 0.029351894 0.12457574 -0.1688016 0.030109255 -0.09015109 -0.07299626 0.057317954
-0.08966714 0.0003851083 -0.07266811 -0.008321865 -0.012625903 0.06432068 0.24900554 -0.2686407
-0.05876504 0.04164757 0.0618548 0.0065400456 0.074345626 -0.039741676 0.004075166 -0.10139922
0.095406145 -0.010545069 0.091907024 -0.15543677 0.053004906 0.047685172 0.055733312 -0.016894788
-0.0047001615 0.03419308 0.07148314 -0.005669363 0.004903751 0.048999712 0.18808383 -0.010912196
0.009674326 0.16076541 -0.040788446 0.13677667 -0.10831674 -0.020699337 -0.14979288 0.004948642
-0.12093855 0.032714106 -0.08937044 -0.14028524 -0.006291939 -0.041479155 0.08408122 -0.017766863
0.08659738 -0.19003068 -0.008314836 -0.13977593 -0.019439885 0.0628405 0.0020021456 -0.07277292
-0.06705836 0.050557647 0.08092323 0.039654743 -0.038048208 0.026475027 0.03958677 0.029920189
0.01771905 0.03149902 -0.035354037 0.05292931 0.029395895 -0.005956138 -0.17571388 -0.063493386
0.11487678 -0.10911544 0.01028733 -0.023075458 0.14110263 0.012764319 -0.14891191 0.00078914454
-0.024391888 -0.13805096 -0.016580498 0.12870334 0.0090724565 0.04301825 0.08306182 0.028567092
0.11199194 -0.09240278 -0.15458174 0.038395934 0.036654357 -0.05723998 -0.07584101 -0.04598161
-0.13285583 0.013017879 0.15732427 -0.075353846 0.17825508 -0.12396437 0.005082751 -0.1604695
-0.07971014 0.007909851 -0.092951186 -0.026653375 -0.013671679 -0.044137143 0.017252792 -0.003217149
0.00043316162 -0.06520754 0.1435938 -0.014929425 0.15057755 -0.0796784 -0.12480425 -0.007611284
0.095885254 0.012712663 0.147587 0.06786377 0.009318366 0.0048353765 0.1329256 0.015596738
0.059811898 0.027651489 0.059365522 0.043256894 -0.04834792 0.10601746 -0.039354164 0.015987908
-0.0667935 0.06026741 -0.109975085 0.031551436 -0.10011111 0.06979405 -0.1573077 0.012471514
-0.04571742 -0.07687239 -0.15318167 -0.13738935 0.09957164 -0.034967355 -0.015997393 -0.066925764
0.014225361 -0.030073797 -0.020577054 0.16034709 0.015245769 -0.06348858 -0.108464986 -0.11581273
0.114316456 0.110067576 0.03617823 -0.009868761 -0.0001332386 -0.048405327 0.011084568 0.10465659
-0.025134373 0.030248614 0.03134071 0.082364455 0.03108535 0.0077293115 0.11286678 -0.06604113
-0.11790008 -0.115967624 0.021552397 0.056908537 -0.10583534 0.09180454 -0.121983 -0.011715982
-0.028951028 -0.049114656 0.06988842 0.12747182 -0.03249598 -0.088635035 0.12568492 0.19441687
0.09251345 0.21160959 -0.027717419 -0.043814648 0.029614411 0.028847178 0.18856505 0.086844444
-0.021014927 0.03469452 0.008671597 0.14732876 0.06264901 -0.03914754 -0.005890643 -0.09963587
0.10458172 -0.0011834832 -0.13709442 -0.14253601 -0.026591286 -0.0019392823 0.026968427 0.06094365
0.028790798 -0.04002495 -0.02013375 -0.072199084 0.053818073 -0.008214204 0.1366633 -0.06326398
-0.024574885 -0.02856709 0.039715704 -0.08599802 -8.099138e-05 -0.09086415 0.06594652 0.097089775
-0.04438748 0.061407495 0.06873946 0.026917523 0.050243117 0.043631025 -0.09216142 -0.061692778
-0.04362377 0.03562037 0.10018313 0.016210841 -0.1547477 -0.045817923 -0.091962494 -0.11202192
