E2NN/Trained_models_h128_s20_20250726_155735/e2nn_model.pth (torch, 439266 bytes, 42 tensors)

inertial_net.net.0.weight f4 [128, 3]
000000 a8 75 3a bc 23 95 54 3b 1c c8 99 3b 50 4e ce 37
       -0.0113805905 0.0032437525 0.0046930443 2.459358e-05
000010 c0 5a 8f 3c 96 d0 ce bc 12 df 18 3c 2f c3 6e bc
       0.017499328 -0.025245946 0.009330528 -0.014572903
000020 dc 91 43 bb ca df b0 3b aa 1f 0c bc 86 35 a5 bb
       -0.0029841578 0.0053977715 -0.008552471 -0.005041781
000030 9b ac 89 bc b8 82 83 3c 7e 7f 21 bc 60 e5 70 3c
       -0.016805938 0.016053542 -0.009857057 0.014703125
000040 c9 95 b8 bb de 16 27 bc 9c 3f c4 bc e0 f6 4e 3c
       -0.00563309 -0.010198323 -0.023956113 0.012632102
000050 86 f6 9a 3c 67 78 05 bc 1a 91 83 3c cd e2 9f bc
       0.01891638 -0.008146382 0.0160604 -0.019517327
000060 d3 13 17 b9 df 30 7b bc a8 08 38 3c 14 5f 23 3b
       -0.00014407867 -0.015331476 0.011232533 0.0024928497
000070 f9 c5 43 bc d1 f9 16 3c c5 44 20 3b 72 fc fa 3b
       -0.011949056 0.009214834 0.0024455052 0.0076594884
000080 4e 81 51 ba d4 26 61 3c 3b 60 ed bb 66 08 9f bb
       -0.0007991985 0.0137421675 -0.0072441376 -0.004853296
000090 77 1f bb 3c fb 4c ba bb 1c 7e 0e bc 3b cf f9 3a
       0.022842152 -0.0056854463 -0.008697059 0.0019058952
0000a0 e7 b7 a2 bb cb d6 66 3c 0c d9 06 3c 79 9e e3 ba
       -0.0049657705 0.014089297 0.008230459 -0.0017365954
0000b0 e4 b6 63 bc 6f d6 5d 3b 17 a2 d6 bc ff a2 f5 3c
       -0.013898585 0.0033849736 -0.026200337 0.02998495
0000c0 18 32 00 3c cb 99 1a 3b f5 31 0d 37 fa e8 05 3b
       0.007824443 0.0023590203 8.415886e-06 0.0020433054
0000d0 92 df a3 bb 53 c3 48 bc d0 8d 9d b9 4d 53 9b 3c
       -0.005001017 -0.0122536 -0.00030051032 0.01896062
0000e0 85 fb c7 bc e2 70 d4 bc 92 51 60 3b 48 24 a2 3c
       -0.024411926 -0.025932733 0.0034228307 0.01979269
0000f0 00 eb 06 3c 56 9a a7 ba 23 fa 78 3a 01 b9 fe bb
       0.008234739 -0.0012787085 0.00094977225 -0.007773519
000100 cc 3b 16 3c ad 6b 7a 3b 4f ba 91 3b ee 4b 88 bc
       0.00916953 0.0038211152 0.0044472585 -0.016637769
000110 31 fa a6 3c 5b d4 04 3d fa a2 7b bc 9a 08 18 bc
       0.020382972 0.03242908 -0.015358681 -0.0092793945
000120 6d cc 5c bc 6f dd 20 3b a0 dd 8c 3c 56 7b 1e 3b
       -0.013476473 0.0024546047 0.017195523 0.00241824
000130 23 27 33 3b 64 fa 0c 39 63 84 35 bc 9f 3e 04 3c
       0.002733656 0.00013444718 -0.011078927 0.008071571
000140 72 21 b9 ba 05 f1 43 3b 5f cf 49 bc b2 15 09 3b
       -0.0014124347 0.0029898298 -0.0123175075 0.0020917472
000150 22 9b 68 3c 60 c8 91 3b e3 d3 70 bc 88 a8 3f bb
       0.014197143 0.0044489354 -0.014698955 -0.002924474
000160 24 10 70 3c a2 7d 9c bc fd aa 9a 3c 7f b0 2c bc
       0.014652286 -0.019102875 0.018880362 -0.010540127
000170 00 4f 0c 3c a4 53 15 bb af 6e 8b 3b 0d d0 81 3c
       0.008563757 -0.002278545 0.004255138 0.015846277
000180 d1 95 7d bc f3 9a 51 3a 5f a2 dc 3c d8 e9 ff bb
       -0.015477614 0.00079958065 0.026932893 -0.007809859
000190 8f 6f 3a 3c 26 ec 84 bb aa a2 a8 3c c1 4e ad bc
       0.011379137 -0.0040564714 0.020585377 -0.021155717
0001a0 42 ac 8d ba d7 bb 94 3b 09 dc a6 ba d6 a7 a0 bc
       -0.0010808783 0.004538994 -0.001273037 -0.01961128
0001b0 dc 9f 21 bc 6f 89 75 bc d9 89 b9 3c 8b 8f a6 3b
       -0.009864774 -0.01498638 0.022648739 0.0050830296
0001c0 aa ea 85 bc 3a 89 d9 3c 7a 5a b5 bc 8f d9 a2 3c
       -0.016347248 0.026554693 -0.02213787 0.01987913
0001d0 05 23 3b bc ae cb fd bb 0f f2 1f bb 37 4b 31 3b
       -0.0114219235 -0.007745228 -0.0024405753 0.0027052888
0001e0 56 bd 0c 3c 60 30 d5 bb 8a 01 fc bb c7 e6 13 bc
       0.008590063 -0.006506011 -0.007690613 -0.00902719
0001f0 94 a0 09 3b 6e 9f 1f bc 4c 39 10 bc 0e dd cc 3b
       0.0021000253 -0.009742601 -0.008802723 0.0062519377
000200 7b 60 72 bc d0 18 7a bb 79 6d ce 3a 89 e0 39 bc
       -0.014793511 -0.0038161762 0.0015749178 -0.011345037
000210 43 37 cd 3b 2c 30 53 39 20 1f cf 3b 90 f6 96 bc
       0.006262691 0.00020140473 0.006320849 -0.018428117
000220 6e 7a 32 3c 4c 74 05 3c 20 ac 1f bc 3e e1 e7 3a
       0.010893447 0.008145403 -0.009745628 0.0017691029
000230 91 d1 34 3c 59 91 16 3c 2e c8 47 bc 8e 39 21 3c
       0.011036293 0.009189927 -0.012193723 0.009840382
000240 9c 92 89 bb 7b af d8 3a b1 b8 46 bc b7 16 c9 bb
       -0.0041983854 0.001653179 -0.012128995 -0.006136741
000250 59 46 a6 ba ef 29 b1 3c 3e bc 9a 3c 9f 59 ce bb
       -0.001268576 0.02162644 0.018888589 -0.0062973048
000260 57 64 93 bc fd 59 17 bc 99 df 34 3c 76 16 a0 bc
       -0.017992182 -0.0092377635 0.011039638 -0.01954196
000270 1f c8 10 bc 77 ee bb bb ba 1b f7 3b 08 1b c8 3b
       -0.008836775 -0.0057352143 0.007541147 0.006106738
000280 8d af 39 bc 49 4d 27 3c 36 33 d0 bb 2a 19 14 3b
       -0.0113333585 0.010211297 -0.006353761 0.0022598007
000290 1f a0 16 bc f0 ad 3a ba 8c 28 b6 3a f5 cc 0a bb
       -0.009193449 -0.00071212556 0.0013897582 -0.0021179293
0002a0 7f 4e d6 bc 5c 41 07 3b 02 b0 dc 3c a5 89 71 3c
       -0.026160477 0.0020638322 0.026939396 0.01474229
0002b0 ce 33 e1 bb 31 df 35 bc b4 47 c3 bc f9 da 2d 3c
       -0.0068726307 -0.011100576 -0.023837902 0.010611289
0002c0 24 c0 a5 39 5c e5 3e 3c 7e da a1 bb b3 d6 7f 3a
       0.00031614408 0.011651363 -0.0049393764 0.00097594707
0002d0 f7 ec 03 3b c4 68 2b 3c 9b fa 25 3a 49 d2 a4 bb
       0.0020130256 0.01046199 0.00063315936 -0.0050299508
0002e0 c7 71 3d 3b 18 c5 d6 3c ab 15 31 3c 18 46 52 bc
       0.0028906928 0.026217028 0.010808389 -0.012834094
0002f0 dc 47 d2 3b 62 ba ad 3c 0a 73 06 bc 86 00 f4 bb
       0.0064172577 0.021207038 -0.008206138 -0.0074463515
000300 7c 02 9a bc 02 eb 9e 3c 25 99 0f bc d5 5c 5f 3c
       -0.018800013 0.01939917 -0.00876454 0.013632973
000310 c7 3a 70 bc ca c0 dc bb 25 7f 16 3d 65 65 29 bc
       -0.014662451 -0.0067368494 0.03674235 -0.010339116
000320 98 f3 4a bc 7c 5e 42 bc f1 64 67 3b d9 03 ae 3b
       -0.012387179 -0.011863347 0.0035307969 0.0053105173
000330 a1 89 f3 bb f2 2a 11 bc 35 43 65 3c 8a 6d 9c 3a
       -0.007432178 -0.008860337 0.013993074 0.0011934501
000340 b2 52 77 bc 04 6d ca 3a b2 a9 33 3b a2 09 09 3b
       -0.0150954 0.0015443866 0.0027414379 0.0020910283
000350 7d f8 a1 bc 34 c1 1a bc 00 0f 99 bc 33 f1 e5 3c
       -0.019771809 -0.009445477 -0.01868391 0.028069114
000360 a6 c1 2c 3b 6e d3 22 bc 3e 04 7f bc da 24 49 3c
       0.002636054 -0.009938104 -0.015564976 0.0122768525
000370 81 a6 b9 bb e8 fa 7d 3b 01 2b 4f bc 29 15 47 3b
       -0.0056656008 0.0038754288 -0.01264453 0.0030377603
000380 e0 e3 84 bb da 48 2d 3c 57 73 98 bb a7 e7 82 3b
       -0.004055485 0.010576451 -0.0046524215 0.0039949003
000390 d4 c4 bc 3b 93 fc 94 bb 7b 45 e7 bb 7b 1f 9c 3b
       0.0057607684 -0.0045467108 -0.0070578433 0.004764495
0003a0 63 29 09 3c c0 96 e8 bc ba 13 14 bb 90 29 6a 3b
       0.008371684 -0.028392196 -0.0022594766 0.003573034
0003b0 55 c0 60 bc 94 63 aa 39 6f 6e 86 3b af 7a 9e 3b
       -0.0137177305 0.00032499118 0.00410252 0.0048364024
0003c0 3f 66 43 3b c9 71 be 3b 73 04 46 bc 29 da eb bc
       0.0029815582 0.005811904 -0.012086022 -0.02879055
0003d0 b5 27 84 3c 70 92 61 3a 54 ac e8 bb 89 73 42 3c
       0.016132215 0.000860489 -0.0071006212 0.011868366
0003e0 76 07 f4 bb 7e 38 64 bb 23 1b da bb 0c ec 33 3b
       -0.0074471785 -0.003482371 -0.006656067 0.0027453927
0003f0 92 a0 c2 bb c7 ba 0e bc 5e 9a 89 3c 3b 35 a9 3a
       -0.0059395516 -0.008711523 0.01679724 0.0012909541

inertial_net.net.0.bias f4 [128]
000000 83 1b 5b 3a 45 f9 d4 bb 6e 54 35 3c d7 b1 0b 3c
       0.00083582866 -0.006499442 0.011067493 0.008526287
000010 c9 e8 63 bb e8 f9 69 3b d3 4a 2d bc 95 28 9f bb
       -0.0034776202 0.0035701934 -0.0105769215 -0.0048571327
000020 1e 7d 25 3b d8 d9 b4 ba bc 19 ac bb 6f 91 43 3b
       0.0025251578 -0.0013797833 -0.005252091 0.0029841324
000030 14 50 4d bc 6b 21 00 3b 88 d1 9b 3b e2 ab c5 3b
       -0.012531299 0.0019551169 0.0047552027 0.006032453
000040 8c 82 42 bc 87 9f ee ba 7b e1 0c bc f3 21 bd ba
       -0.011871945 -0.0018205502 -0.008598681 -0.0014429673
000050 4d a4 4c bb c3 ff 10 bc dd 15 e1 3b 58 1b 62 3a
       -0.003122586 -0.008850041 0.0068690614 0.00086252904
000060 50 fa 9c bb bd 70 23 ba 63 9b 5a bb 74 be d6 3a
       -0.0047905818 -0.0006234756 -0.0033356778 0.0016383664
000070 92 69 4c bc d2 0c 74 bb 25 4c 59 bc 14 60 46 3a
       -0.012476342 -0.0037239087 -0.013262783 0.00075674173
000080 b0 19 f6 bb d9 44 2c bb 4d 4a 27 3b b7 ef 9a bb
       -0.0075103864 -0.0026286154 0.0025526464 -0.0047282833
000090 0a d1 43 3c 83 86 cb 39 e2 84 c4 b9 9b 2a c1 3b
       0.011951694 0.00038819396 -0.0003748304 0.0058949715
0000a0 09 a8 00 3b 38 37 f2 3b 21 22 1f 3b 2d 61 42 3b
       0.0019631407 0.0073918365 0.0024281817 0.0029659972
0000b0 9a 9a ac bb df 0d 84 3b 8c ae bc 3b 53 87 9a 3a
       -0.0052674534 0.004029974 0.0057581123 0.0011789597
0000c0 86 6e ff 3a 0b d0 3d 3b a1 2e 77 3b d2 a7 9d 3b
       0.0019487895 0.0028963115 0.0037717002 0.0048112655
0000d0 03 7a df 3b c6 3a be ba 39 09 75 3b 36 bd 9a ba
       0.006819965 -0.0014513365 0.003738953 -0.0011805657
0000e0 68 1d 5d bb 81 64 49 3b 90 13 c7 3a f4 27 ba bb
       -0.0033739451 0.003073007 0.0015188325 -0.0056810323
0000f0 f9 c6 2d bc 94 8b 34 3b db 4c 8a 3b 18 c7 b9 bb
       -0.010606521 0.0027549015 0.0042205877 -0.005669486
000100 e6 7c 86 bb d7 3b 9e 3b 8b 0e 3a bb e0 67 a2 3b
       -0.0041042445 0.004828911 -0.0028390016 0.0049562305
000110 89 e2 a9 3b 88 a6 a5 3b 6b a5 a5 bb 1c 5c 50 3c
       0.005184476 0.0050552525 -0.0050551197 0.012717273
000120 0f fd 7c 3a 9d 8b 9c bb 81 42 82 3b 33 4f 0c bb
       0.0009650746 -0.0047773854 0.003975213 -0.002140951
000130 fa f0 ea 3a 33 3d 54 bb d9 8b 8e 3b b1 3e 13 bb
       0.00179246 -0.003238511 0.0043501672 -0.0022467787
000140 88 b9 94 bb 1f 09 a7 bb 8f e1 2e bb 35 c6 8a 3b
       -0.0045387186 -0.005097523 -0.0026684736 0.004235054
000150 93 8c 08 3c f5 02 ec ba 58 49 3a 3b 5b ac 06 3b
       0.008334297 -0.0018006252 0.0028425064 0.002054951
000160 f5 03 3a bc 47 ac 43 3b c5 4a 15 3c 02 31 b8 ba
       -0.0113534825 0.0029857324 0.009112065 -0.0014052691
000170 d5 cd 66 bc 0e a4 38 39 9f d1 18 ba ac 78 f6 b9
       -0.01408716 0.00017608723 -0.0005829576 -0.00047010684
000180 2d fd df bb 54 65 03 3c 29 d9 38 3b 43 d7 35 3c
       -0.006835601 0.008019764 0.002820561 0.011098686
000190 31 92 3c 3c 92 78 de ba 53 13 e5 3a fd e8 22 3c
       0.011509464 -0.0016973189 0.0017477073 0.009943244
0001a0 e6 d4 ee 3b 29 e3 6c 3b f2 6f bd bb 28 44 9d bb
       0.007288563 0.003614614 -0.005781167 -0.0047993846
0001b0 95 20 36 bc f7 50 4b 3a 16 0c f8 3b a4 b9 6a 3c
       -0.011116167 0.00077559 0.0075698 0.014326487
0001c0 59 4b 23 3b 34 e7 a7 3b b2 28 6f 3b 92 0c 1b bb
       0.0024916737 0.005123997 0.0036492762 -0.0023658616
0001d0 74 01 19 3c fa f5 de ba 8d e5 03 bb 9e f9 8e bb
       0.009338725 -0.0017010563 -0.0020125837 -0.004363253
0001e0 ca 12 60 3c 4c b2 99 ba 44 cb e4 bb 6e 65 c5 ba
       0.013676355 -0.001172611 -0.006982239 -0.0015060136
0001f0 04 4f 1d bc 8f 14 03 3b 25 98 b9 bb d2 c2 a3 3b
       -0.009601358 0.0020001268 -0.005663889 0.0049975896

inertial_net.net.1.weight f4 [128]
000000 ed 00 80 3f 94 8b 7f 3f 87 17 81 3f 96 5e 81 3f
       1.0000283 0.99822354 1.0085305 1.010699
000010 fb 3b 80 3f 24 0b 81 3f 20 00 83 3f 62 c6 7e 3f
       1.0018305 1.0081525 1.0234413 0.9952146
000020 77 10 80 3f da 3f 7f 3f 76 aa 7f 3f f5 d5 7e 3f
       1.0005025 0.99706805 0.9986948 0.9954522
000030 22 61 80 3f 86 9d 7e 3f 5e ab 7f 3f 84 8a 7f 3f
       1.0029643 0.9945911 0.9987086 0.99820733
000040 83 f8 80 3f e6 22 82 3f 00 18 80 3f 56 c9 82 3f
       1.007584 1.01669 1.0007324 1.0217693
000050 45 6f 7f 3f 03 c3 7f 3f 10 3c 7f 3f 33 b1 82 3f
       0.9977916 0.9990694 0.99701023 1.0210327
000060 ac 87 80 3f 95 07 7f 3f ab 81 7f 3f 90 09 80 3f
       1.0041404 0.99620944 0.9980723 1.0002918
000070 ce e8 80 3f ed 72 7f 3f e1 d2 7f 3f 95 72 82 3f
       1.0071046 0.9978474 0.9993115 1.0191218
000080 c5 41 81 3f 33 b6 7e 3f 74 1b 81 3f 15 bc 80 3f
       1.0098196 0.99496764 1.0086503 1.0057398
000090 35 0c 80 3f 51 aa 80 3f cb 87 80 3f 18 5f 7f 3f
       1.0003725 1.0051976 1.0041441 0.99754477
0000a0 c5 3b 7f 3f aa 23 80 3f 05 ca 7e 3f 0d 5b 80 3f
       0.99700576 1.0010884 0.9952701 1.0027786
0000b0 2e 97 80 3f 8f c5 80 3f 1d 72 7f 3f 4c 28 81 3f
       1.0046136 1.006029 0.997835 1.0090423
0000c0 d4 33 80 3f af d0 80 3f 4e e9 81 3f f0 0d 81 3f
       1.0015817 1.0063685 1.0149324 1.0082378
0000d0 c0 58 80 3f ee 68 7e 3f 28 47 7f 3f e7 59 80 3f
       1.0027084 0.9937886 0.9971795 1.0027436
0000e0 02 0e 82 3f 5e 15 81 3f 4f 8e 80 3f 86 8f 81 3f
       1.0160525 1.0084646 1.0043429 1.0121925
0000f0 a6 47 82 3f f6 11 82 3f 0e 50 81 3f 82 67 81 3f
       1.0178115 1.0161731 1.0102556 1.0109713
000100 1c b2 80 3f 48 15 81 3f 82 39 82 3f 8e 6f 7e 3f
       1.0054355 1.008462 1.01738 0.9938897
000110 11 93 80 3f ce 25 81 3f 0b c0 80 3f 52 c6 7f 3f
       1.0044881 1.0089662 1.0058607 0.9991199
000120 3f 95 82 3f 6d 54 80 3f b2 92 7e 3f 80 b9 7e 3f
       1.0201796 1.0025765 0.9944259 0.995018
000130 7d 08 80 3f ed 7c 80 3f 1a 1f 80 3f ca 4f 80 3f
       1.000259 1.0038124 1.0009491 1.002435
000140 c9 fe 7e 3f 7e 2b 84 3f 38 44 7f 3f 85 f1 7f 3f
       0.9960752 1.0325773 0.9971347 0.99977905
000150 8b e4 7f 3f 81 d4 80 3f fd fa 80 3f bd d2 80 3f
       0.99958104 1.0064851 1.0076596 1.0064312
000160 bd 33 85 3f 1b 17 80 3f 22 c5 7f 3f 88 49 82 3f
       1.0406414 1.0007051 0.99910176 1.017869
000170 4b d4 7f 3f b6 5d 82 3f 11 1f 83 3f ba 16 80 3f
       0.9993331 1.0184848 1.0243856 1.0006936
000180 18 a7 7e 3f 81 cd 7e 3f 81 f8 81 3f 6e 8d 81 3f
       0.99473715 0.99532324 1.0153962 1.0121286
000190 37 6b 80 3f cf 56 80 3f 9d 2a 80 3f 91 b6 81 3f
       1.0032719 1.0026492 1.0013005 1.013384
0001a0 ad 4e 80 3f 34 89 80 3f 08 8e 7f 3f ca 27 81 3f
       1.002401 1.0041871 0.998261 1.0090268
0001b0 a4 5d 80 3f 20 fb 80 3f 34 7d 80 3f d9 7f 81 3f
       1.0028577 1.0076637 1.0038209 1.0117141
0001c0 f2 0f 80 3f dc 45 80 3f 60 7f 81 3f eb 51 80 3f
       1.0004866 1.0021319 1.0116997 1.0024999
0001d0 48 60 80 3f 4d a7 81 3f c1 dd 80 3f 19 e3 7e 3f
       1.0029383 1.0129181 1.0067674 0.99565274
0001e0 9e df 80 3f de 7b 81 3f cb a2 7e 3f 1d 34 80 3f
       1.0068243 1.0115926 0.9946715 1.0015904
0001f0 c7 9a 7f 3f 68 32 80 3f 39 cb 7e 3f 96 02 81 3f
       0.99845546 1.0015383 0.99528843 1.0078914

inertial_net.net.1.bias f4 [128]
000000 29 69 2c bb 28 e8 93 ba 08 b0 34 3b e9 d3 18 bb
       -0.0026307798 -0.0011284398 0.0027570743 -0.0023319668
000010 ef b1 fd ba c0 c2 df ba b9 de 8d bb dc 8f fb 39
       -0.0019355397 -0.001707159 -0.004329529 0.00047981634
000020 62 ac bf bb 68 6d 43 ba 10 51 3f 3a d1 fc 1e 38
       -0.005849407 -0.00074549625 0.0007298151 3.790559e-05
000030 79 e3 02 3c da 67 bd bb c7 17 14 bb eb bc 83 bb
       0.007988804 -0.0057802023 -0.002259718 -0.0040203235
000040 1c b2 94 3c 0a f3 bb 3b ea 30 69 3b 63 3e 45 3b
       0.018151335 0.0057357596 0.0035582134 0.0030097
000050 8b b2 bb 3b c2 d2 19 3b fd 5a 0c bc 3a 0f e2 ba
       0.005728071 0.0023471569 -0.008566615 -0.001724697
000060 d8 52 b3 3a 4d 5a 5d 3a ba 74 4d 3b 70 fa 02 ba
       0.0013681306 0.0008443937 0.0031350092 -0.00049964245
000070 ce ac 44 3c 5f dd 63 3a 97 e4 37 3c dd ff 79 bb
       0.0120040905 0.00086923497 0.011223934 -0.0038146891
000080 68 aa 8c ba 7a 9f 38 3c 0f ea ef 3a 2e 55 ba ba
       -0.0010731937 0.011268491 0.0018304008 -0.0014216059
000090 fc 65 71 3b 71 19 4e bb 37 01 15 3b 57 62 73 bb
       0.003683447 -0.003144827 0.002273632 -0.0037137473
0000a0 bf 73 88 b9 ea 96 a6 bb e3 a1 5f 3b 42 d2 da bb
       -0.0002602618 -0.0050839083 0.0034123592 -0.0066778967
0000b0 e7 aa 69 3c 09 4b 62 3b ad 17 3d ba 5a fe a6 bb
       0.014261938 0.0034529588 -0.0007213306 -0.005096239
0000c0 14 8d 33 ba 43 55 75 ba 76 70 74 3a 54 d2 d9 bb
       -0.00068493304 -0.0009358713 0.00093246193 -0.0066473875
0000d0 a1 0b e6 bb 03 4a b1 ba 56 83 cc bb d7 11 50 3c
       -0.0070204292 -0.0013526086 -0.0062412424 0.012699566
0000e0 ac 1b 98 3a 27 8a d4 3a 89 32 c0 bb fa ed 35 3c
       0.0011604927 0.0016215489 -0.0058653993 0.011104101
0000f0 17 a0 53 3b 16 f6 05 bb 39 81 a2 ba b9 5e 33 3c
       0.0032291466 -0.0020440868 -0.001239813 0.010947877
000100 f5 1a fe ba bb 3d 85 ba f1 84 fa ba 90 f9 37 3b
       -0.0019386696 -0.0010165492 -0.0019113106 0.0028072335
000110 60 0e d7 bb 1f ec ec ba 29 4a 0b 3a e6 af 5f 3b
       -0.006562993 -0.0018075741 0.000531348 0.0034131943
000120 16 c5 9e bb b7 7c c4 3b be b3 80 3b 16 0f 61 bb
       -0.004845272 0.0059963125 0.003927677 -0.0034341267
000130 35 85 f4 bb 99 ea b6 38 aa 68 28 3b 43 9f 14 3c
       -0.0074621686 8.7221335e-05 0.002569715 0.009071174
000140 26 33 b2 3b e2 92 14 ba c1 ff de 3a 70 87 18 bc
       0.0054382263 -0.0005667639 0.0017013476 -0.009309635
000150 ae b1 fa bb 5d dd 55 3c 89 0b 2e bc 79 96 7c bb
       -0.0076505756 0.013053265 -0.010622867 -0.0038541837
000160 6a 0e 9f bb 1b 70 91 bb cf 0a eb ba 6f 2f 28 39
       -0.004854013 -0.004438413 -0.0017932298 0.00016039399
000170 0a 53 27 3c ea c2 11 3b 0d 13 ba ba a3 12 03 3b
       0.010212669 0.0022241422 -0.0014196351 0.0020000122
000180 7f 46 34 3b 1a f7 14 bb 42 f2 83 3b 70 2c 39 bc
       0.002750784 -0.0022730292 0.004026682 -0.011302099
000190 00 b0 cc bb a0 94 c0 3a 2a af a9 bb 3b 79 54 bb
       -0.006246567 0.0014692731 -0.005178352 -0.0032420892
0001a0 fa 10 31 bc 6e 84 c2 bb 7a 29 a8 3b 71 a9 3c 3b
       -0.01080727 -0.005936197 0.0051318975 0.0028787518
0001b0 fd 7c 50 3c da 68 9f bb 7d 38 2f bc 6a 39 c2 bb
       0.012725112 -0.004864794 -0.01069462 -0.0059272544
0001c0 1c 0c 10 bc fd d9 6a bb 59 0c b2 ba 41 d6 80 3b
       -0.00879195 -0.0035835498 -0.0013584002 0.003931791
0001d0 fe 24 b0 ba 47 de 6e bb fa 4f 41 3b 40 96 4c bb
       -0.0013438759 -0.0036448406 0.0029497133 -0.0031217486
0001e0 25 92 77 ba a1 9e df 3a 54 96 cb 3a 19 15 4d 3b
       -0.00094440795 0.0017060825 0.0015532472 0.0031293093
0001f0 a8 e1 97 3a 6e c5 81 3b d2 ad fe ba ed e5 09 bc
       0.0011587637 0.003960303 -0.0019430465 -0.008416635

inertial_net.net.4.weight f4 [128, 128]
000000 13 34 20 3b 43 40 64 3a 26 ca 42 3b 24 95 62 bb
       0.00244451 0.00087070855 0.002972254 -0.0034573758
000010 3f b7 39 3c 11 d8 de ba 3b f6 28 bc 40 e9 d4 3b
       0.011335193 -0.0017001649 -0.010312612 0.006497532
000020 b3 53 c3 3b 77 90 42 3c f1 a0 b1 3b bf bc e4 b9
       0.0059609055 0.011875263 0.005420797 -0.00043628176
000030 6c 62 d2 3b 23 07 03 3b 74 9f d3 bb 8b 36 41 ba
       0.006420424 0.0019993267 -0.0064582173 -0.0007370493
000040 87 44 28 3c 76 3b d7 3b 5b 11 65 bc 50 67 53 bc
       0.010270244 0.0065683676 -0.013981189 -0.01290305
000050 71 0f f6 b9 f9 42 b5 3b 89 f8 75 bb 5b 1e bf 3b
       -0.0004693228 0.0055316654 -0.0037532172 0.005832476
000060 c2 83 0a bc d2 b5 40 bc fd d3 2f 3c 75 54 a5 ba
       -0.008454265 -0.011762099 0.010731694 -0.0012613671
000070 5a ed 74 3c cb 82 0b 3b 07 c7 8b bc bc b5 7a bc
       0.014949167 0.0021287675 -0.017062677 -0.015302118
000080 03 5a 08 bc e3 5a e2 bb d6 54 5e 3c 2c 52 11 3c
       -0.008322242 -0.006907807 0.013570031 0.008869689
000090 99 12 a1 bc f7 0f 3c bc 82 b2 c6 bb 62 17 54 bb
       -0.019662188 -0.011478416 -0.0060637603 -0.003236257
0000a0 a8 de 99 bb e0 f6 cc 3a 2b 57 cc 3b 83 67 02 3c
       -0.004695732 0.0015637539 0.006235977 0.007959249
0000b0 30 a6 99 bb 8a a2 ae bb 50 f6 66 3b c4 11 bf ba
       -0.0046890005 -0.0053294348 0.0035242029 -0.0014577438
0000c0 ea cb 16 3b dd 4e 24 bb 8a 6d 78 ba 4c 97 45 3b
       0.0023009726 -0.002507142 -0.0009476772 0.0030149994
0000d0 d8 ef 34 3c e5 66 9e 3a f7 7b 0c 3c 8e d3 f3 ba
       0.011043511 0.0012085108 0.008574477 -0.0018602477
0000e0 cd 86 bf bb ed 5c 3a bb 98 e4 d3 bb 14 93 60 3a
       -0.005844927 -0.0028436736 -0.0064664595 0.0008566838
0000f0 1f 31 28 bc 90 ce b4 ba e0 bf 42 bc 54 99 d9 3a
       -0.010265618 -0.001379447 -0.011886567 0.0016601481
000100 65 d5 30 3b 1a c7 10 3c b7 7f 42 3b 0c 69 09 bc
       0.0026982662 0.008836532 0.0029678175 -0.0083868615
000110 d7 f7 ce bb f9 b6 9b 3c e1 2d d5 3c eb ef 1f bc
       -0.006316166 0.019008147 0.026022853 -0.009761791
000120 7e 55 8f 3c 78 93 33 bc 62 b0 39 3c cc d1 b6 3b
       0.01749682 -0.010960452 0.011333557 0.005579209
000130 d4 81 41 3b ac 04 49 3c 9c 9d a4 3a 8e 71 2d ba
       0.0029526846 0.01226918 0.0012559178 -0.0006616347
000140 b0 17 e7 bb 0d 23 d6 3b 52 dc b4 bb c0 a5 86 3a
       -0.0070523843 0.00653494 -0.0055194283 0.0010272786
000150 8a 96 22 33 5c 5c fc 3a 99 35 14 bc 1d a1 8e 3a
       3.785548e-08 0.00192536 -0.009045982 0.0010881756
000160 82 9a b4 3b 31 69 62 bc 59 4e a1 bb 7a d7 3a 3c
       0.005511583 -0.013819025 -0.00492267 0.011403913
000170 7c c5 45 3b 12 13 11 3b 92 c9 ee bb f1 3b f4 bb
       0.0030177524 0.002213661 -0.0072872126 -0.0074534346
000180 a2 f4 cf b9 0b 09 10 3b 9d 24 90 3c aa 93 9e 3b
       -0.00039664382 0.0021978046 0.017595584 0.0048393803
000190 ab a0 a9 3c b5 36 b4 3b f3 e8 1b 3c bd eb eb 3b
       0.020706495 0.0054996856 0.009515989 0.007199733
0001a0 c0 8b 31 3c d2 d1 5d bc 42 6f 4f 3a 47 18 10 bc
       0.010836542 -0.013538795 0.0007913002 -0.008794851
0001b0 2a 4c 2d 3c 81 e9 f6 bc 02 8c bc bb a3 8c 1a 3c
       0.010577241 -0.03014064 -0.005753995 0.0094329445
0001c0 a2 ce 21 3c ec 74 bb bb 8b db 87 bc 44 8f b7 3c
       0.009875925 -0.0057207253 -0.016584178 0.022407182
0001d0 71 89 65 3a 61 bd 99 bb 90 35 33 bc 2d 62 a4 bb
       0.0008756137 -0.004691765 -0.010938063 -0.0050165863
0001e0 4f 41 02 bb 2b 34 72 bb 97 c0 01 3b 0d 08 47 3c
       -0.0019875353 -0.0036957364 0.001979863 0.012147916
0001f0 17 b7 2d bc 59 6e 5b bb 37 b8 25 37 91 e3 9d 3b
       -0.010602734 -0.003348252 9.877657e-06 0.004818388
000200 a5 d5 89 3c 16 98 66 3b 10 86 25 3c c9 4b 92 bb
       0.016825506 0.0035185865 0.010102764 -0.0044646007
000210 b5 8d a9 3b 5d 01 20 3c 72 3a 64 bc fc db 81 bb
       0.0051743635 0.00976595 -0.01392995 -0.0039629918
000220 e0 36 c9 39 74 ef c0 b8 2a cb 68 3c 2a 2a 80 3c
       0.00038378593 -9.199875e-05 0.014208594 0.015645105
000230 06 85 61 bc ce 8d 05 bb 5b 26 4d 3a e8 bc 21 3b
       -0.013764625 -0.0020378712 0.0007825845 0.0024679247
000240 28 4e 86 3b 3e a9 4d bb ef a8 8c 39 3e 71 91 3c
       0.0040986724 -0.0031381394 0.00026828746 0.017754193
000250 84 9a 8c bb 5e cf e1 3b 43 e0 28 ba c9 16 dd b9
       -0.0042908806 0.006891175 -0.0006442109 -0.0004216938
000260 d6 8f cb 3b 82 59 1a 3c dd 8c 4e 3b 10 c0 13 bc
       0.006212215 0.009420754 0.0031517067 -0.009017959
000270 71 22 32 3c da 19 b8 ba 9d d4 9a 3c 7b 27 c0 bb
       0.010872469 -0.001404579 0.01890021 -0.0058640814
000280 3e 09 41 3c 77 0d 1d bc ae 23 3b 3c 66 95 b1 bb
       0.011781989 -0.00958573 0.011422081 -0.005419421
000290 f3 8c 20 3c 1d 88 88 3c 62 0c f1 bb 7c 09 f1 3a
       0.00979923 0.016666466 -0.0073562125 0.0018389667
0002a0 1e fc f6 ba 13 1f 51 bb e6 c0 49 3a c9 95 93 3b
       -0.0018843447 -0.003190939 0.00076962856 0.0045039398
0002b0 18 ef d9 bb 54 8b c1 3a 6e a6 d8 3b c1 49 7a 3c
       -0.0066508166 0.0014766254 0.006611637 0.015276373
0002c0 fc 24 46 bb dc 39 96 3c 47 b8 8a bb ac a3 03 3c
       -0.0030234447 0.018338136 -0.0042333934 0.008034628
0002d0 f9 cd a8 3b 2c 7f cc 3b 18 60 9f bb 35 20 bc ba
       0.005151507 0.006240746 -0.00486375 -0.001435286
0002e0 82 e7 03 3a c0 cb c1 3b dd 83 5a 3c d0 2d 49 bc
       0.0005031751 0.0059141815 0.013337103 -0.012278989
0002f0 fd d6 fa 3b 92 a1 5b 3c c8 07 e5 bb f1 3d 6b bc
       0.007655023 0.013405221 -0.006989453 -0.01435803
000300 02 6c ad ba 9a 2e 57 3b 65 2d 0e 3b e2 e3 20 bc
       -0.0013231041 0.0032834173 0.0021694538 -0.0098199565
000310 81 fa 44 bc 49 f2 e9 bb 23 eb 04 bc a7 5c d3 bb
       -0.012022615 -0.0071394783 -0.008112702 -0.006450254
000320 92 71 df bb b2 89 c5 bb c9 ec d5 3b 0e 52 18 3c
       -0.0068189586 -0.0060283775 0.006528471 0.009296907
000330 0f be eb 3b f1 dc 8b bb 06 54 96 bb 1b 8a b8 bb
       0.0071942876 -0.0042682816 -0.004587653 -0.005631698
000340 e4 bc 61 bc 39 58 82 bc 3c 9e 0a 3a 8a d2 71 3b
       -0.013777945 -0.015911208 0.0005287861 0.0036899173
000350 69 9f b0 3b d0 8b b7 3a 08 87 a0 3c df 7f eb 3b
       0.005390097 0.0014003459 0.019595638 0.0071868743
000360 1c 25 43 3b 69 b8 06 3c 60 d2 44 bc 6e 50 01 bc
       0.0029776758 0.008222678 -0.012013048 -0.007892711
000370 9d f7 c4 3b 83 69 85 bc 2b 29 34 3c 94 44 5e 3c
       0.006010963 -0.016285663 0.010996143 0.013566155
000380 b5 64 9b bb 53 80 b5 bb ae 86 23 bc e0 8d f8 ba
       -0.00474223 -0.005538979 -0.009980841 -0.001896318
000390 a0 f0 92 bb 16 f0 06 3b fc 27 c2 3b b5 10 e4 3c
       -0.004484251 0.002058988 0.0059251767 0.027839998
0003a0 c2 7b ae 3c 50 17 15 3c e0 49 a3 b9 a9 2f 6c bb
       0.021299247 0.009099796 -0.00031144824 -0.003603915
0003b0 2b 5f 07 bc 9b d2 96 3c 21 c7 3e 3c 02 24 2d bc
       -0.008262436 0.018410971 0.011644156 -0.010567667
0003c0 39 67 ae b9 16 3c 2c ba 1d 52 94 3a 7a d2 97 ba
       -0.00033264773 -0.0006570233 0.0011315976 -0.0011583113
0003d0 8d da e9 bb f5 00 24 3a 57 83 44 3b ca 93 96 3a
       -0.007136649 0.0006256246 0.0029985511 0.0011488136
0003e0 dd b1 d6 bb a8 be ba 3c 8f a7 4c 3c 3f 92 2d bc
       -0.0065519647 0.02279599 0.012491121 -0.01059395
0003f0 ed f7 f0 3b 7a 1d 15 ba d6 46 dd 3c 14 89 cb 3b
       0.007353774 -0.0005688291 0.027011316 0.0062114093

inertial_net.net.4.bias f4 [128]
000000 75 ba 0f bb 30 dd 9c bb dd 10 38 3b 0c 82 6f 3b
       -0.0021931205 -0.00478711 0.0028086223 0.003654602
000010 47 12 ad 3b c1 cf 70 3a 52 6d c6 bb 23 80 d0 bb
       0.00528172 0.0009186231 -0.0060555125 -0.0063629313
000020 46 a4 61 bb d7 4a a3 3a 82 a6 7a 3b 51 b0 1c bc
       -0.003443019 0.0012458217 0.003824622 -0.0095635215
000030 1e 21 62 bb a2 f7 a7 3b c0 5f 99 bb 6e 8c b1 3b
       -0.0034504603 0.0051259557 -0.0046806037 0.005418352
000040 94 12 4d 3b 68 19 a0 3b 23 15 3c 3a 6c 7f cc bb
       0.003129159 0.004885841 0.00071747805 -0.006240776
000050 9c a8 a5 3b c0 17 4e ba 39 e1 f7 3b c2 12 44 bc
       0.0050555 -0.00078618154 0.0075646904 -0.011967363
000060 3c 7d 12 bc cf 36 19 3c ee 0b 0c ba 9c 26 a7 3a
       -0.008940991 0.009351446 -0.0005342354 0.0012752595
000070 e4 eb 0e 3c fc 99 01 b9 d2 ce e7 3b 18 a0 8b 39
       0.008723233 -0.00012359762 0.0070742154 0.00026631425
000080 0f 33 c5 bb 01 45 9e bb 85 78 2d 3c af eb a6 ba
       -0.0060180495 -0.0048300033 0.010587816 -0.0012735034
000090 95 7f 8c bb d1 c7 11 bb 1f 17 57 39 4d f0 44 3a
       -0.00428767 -0.0022244344 0.00020512611 0.0007512614
0000a0 64 85 3f ba 15 9b 80 3b 4f 36 50 bb 64 77 44 bb
       -0.00073059485 0.003924737 -0.0031770652 -0.002997839
0000b0 ad d4 16 3c df 6c 33 3b c7 61 62 bb d9 14 36 bb
       0.009205979 0.0027378125 -0.0034543143 -0.0027783422
0000c0 01 a2 cb 39 d1 0c 51 bb bf a9 b2 3b 23 04 82 b9
       0.0003883988 -0.0031898508 0.005452364 -0.00024798614
0000d0 be 1e 56 ba f5 f8 d4 bb 4c 25 2d bb 41 fd fb 3a
       -0.0008168033 -0.0064994046 -0.0026419936 0.0019225256
0000e0 27 59 bb 3b 6a 40 f5 bb 8e bf 85 3b 8e 6c 08 bc
       0.005717415 -0.0074844854 0.004081673 -0.008326663
0000f0 9a ad f7 38 87 13 96 bb fd 2a 35 bb da cf ea 3b
       0.000118102136 -0.0045799646 -0.0027644031 0.007165891
000100 b3 58 14 ba 4d 36 49 bb 9d 5f 02 b9 05 0f a3 bb
       -0.0005658969 -0.0030702532 -0.00012433385 -0.0049761557
000110 1a 31 9e 39 13 ab ec 3b 79 c0 16 3b 1d 9d 34 ba
       0.00030172692 0.007222542 0.0023002906 -0.0006889867
000120 49 11 6b bb cb 75 69 bb dc 5f 09 3c 1f b3 13 bc
       -0.0035868457 -0.0035623189 0.008384671 -0.009014874
000130 28 24 d0 3a 6c d2 1d 3b 92 be 9c 3b e6 02 a8 b9
       0.0015879916 0.002408172 0.00478346 -0.00032045617
000140 b3 fa 62 ba a1 88 5c b7 82 d8 c7 bb 2c fb db 3b
       -0.0008658573 -1.3144833e-05 -0.006098808 0.0067132916
000150 d9 4f f1 3b ca d9 ea ba 49 55 85 3b 55 be 29 3b
       0.007364255 -0.0017917689 0.0040690047 0.00259008
000160 75 cc 62 3b fd 9f 80 bb e5 a1 c9 3b 3b 4a 3d bb
       0.003460673 -0.003925322 0.0061533325 -0.0028883356
000170 cb 73 c2 3b 3d d9 ae bb 0b a1 a3 3b ab ba 85 3b
       0.0059342138 -0.0053359554 0.004993563 0.0040810904
000180 0d 6e d4 3b b2 5d 85 3b d8 69 ce 39 b7 70 cd ba
       0.0064828456 0.0040700072 0.00039370242 -0.001567385
000190 47 ae 19 3b de 25 4b 3b c8 57 f1 ba d2 b3 a0 bb
       0.0023449825 0.0030997912 -0.0018413002 -0.0049042488
0001a0 d9 17 0f 39 ab 10 69 3b ef 8a ad 3b 94 38 b3 bb
       0.00013646427 0.0035562913 0.005296103 -0.005469391
0001b0 8a 72 98 39 8f 09 a4 bb 47 24 36 3a 7b 27 58 ba
       0.00029077037 -0.0050060223 0.0006948155 -0.0008245629
0001c0 01 15 6e bc 04 54 0b bc d6 ca 3f bb 14 da 71 3a
       -0.014531375 -0.008503918 -0.0029265187 0.00092259166
0001d0 88 27 93 39 71 f9 cc 3b c5 44 e8 ba f1 a5 00 bc
       0.00028067478 0.0062553217 -0.001772069 -0.0078520635
0001e0 f1 a2 b4 bb 19 78 ed 3b 07 2f a6 bb 1c b1 bb 3a
       -0.005512588 0.007246983 -0.005071524 0.001431975
0001f0 88 07 25 39 f7 48 f0 b9 10 8e df bb 72 55 cc 3b
       0.00015738432 -0.0004583073 -0.006822355 0.006235772

inertial_net.net.5.weight f4 [128]
000000 f7 5c 81 3f aa 10 7f 3f ab 5e 80 3f 91 4d 83 3f
       1.0106496 0.996348 1.002889 1.0258046
000010 ed b0 80 3f f7 a6 82 3f bc 8f 80 3f c4 34 80 3f
       1.0053993 1.0207204 1.0043864 1.0016103
000020 71 b7 7d 3f 85 d7 84 3f f7 36 7f 3f 67 c7 80 3f
       0.99108034 1.0378271 0.99693245 1.0060853
000030 ca 87 7f 3f c4 e8 7e 3f b1 46 80 3f f3 71 80 3f
       0.9981657 0.9957392 1.0021573 1.0034775
000040 ca 9e 80 3f 0e 8c 7d 3f 70 0f 82 3f b3 9f 80 3f
       1.0048459 0.9904183 1.0160961 1.0048736
000050 e0 7c 7e 3f af d3 84 3f 06 ba 82 3f c3 ca 83 3f
       0.99409294 1.0377101 1.021302 1.0296253
000060 51 b6 80 3f b1 05 83 3f 16 de 7f 3f 1e 54 81 3f
       1.0055639 1.0236112 0.9994825 1.0103796
000070 ee 9b 82 3f d6 3c 80 3f 79 3e 82 3f 6c 45 7e 3f
       1.0203836 1.0018566 1.0175315 0.9932468
000080 0d 82 81 3f 9f ff 80 3f 46 78 81 3f b8 58 7e 3f
       1.0117813 1.0078009 1.011483 0.99354124
000090 b5 d3 7f 3f 72 4d 7f 3f a6 4d 83 3f d0 a0 80 3f
       0.99932414 0.9972755 1.0258071 1.0049076
0000a0 be e1 80 3f ac ed 7f 3f c8 52 81 3f 81 be 7f 3f
       1.0068891 0.99972034 1.0103388 0.9990006
0000b0 45 47 82 3f b1 ed 7e 3f ae c0 80 3f b5 48 82 3f
       1.0178 0.9958144 1.0058801 1.0178438
0000c0 f8 17 7e 3f 2b 89 80 3f cf ba 80 3f 8b 02 80 3f
       0.99255323 1.004186 1.005701 1.0000776
0000d0 e8 ca 80 3f 45 a3 7f 3f 0a 31 81 3f f4 18 7f 3f
       1.0061922 0.99858505 1.009309 0.9964745
0000e0 1a 14 80 3f 71 23 82 3f 0e 9e 7f 3f b7 f0 81 3f
       1.0006135 1.0167066 0.9985055 1.0151585
0000f0 a1 9f 80 3f 5b 19 7e 3f 17 49 80 3f da df 81 3f
       1.0048715 0.9925744 1.0022305 1.0146439
000100 90 c5 82 3f 84 5d 7f 3f 1f 2f 81 3f e3 e2 80 3f
       1.0216541 0.9975207 1.0092505 1.006924
000110 dc 01 80 3f 78 50 80 3f 55 c7 7f 3f 73 68 80 3f
       1.0000567 1.0024557 0.9991353 1.0031875
000120 d9 22 80 3f 19 89 80 3f 53 77 81 3f b1 da 7f 3f
       1.0010635 1.0041839 1.011454 0.9994307
000130 99 e4 7f 3f db e4 7e 3f 51 bc 7f 3f 99 2d 81 3f
       0.9995819 0.99567956 0.99896723 1.009204
000140 4d b0 83 3f 16 20 7e 3f 49 bf 7e 3f d4 d8 80 3f
       1.0288178 0.9926771 0.9951063 1.0066171
000150 c5 67 82 3f e7 4b 80 3f e2 ae 83 3f cc b8 81 3f
       1.0187918 1.0023164 1.0287745 1.013452
000160 17 3d 7f 3f cf 31 80 3f e0 bd 7e 3f 70 c0 80 3f
       0.9970259 1.00152 0.99508476 1.0058727
000170 f2 41 80 3f 88 5f 7f 3f 61 03 80 3f 71 f0 7e 3f
       1.0020125 0.99755144 1.0001031 0.99585634
000180 db 25 7f 3f 43 9e 7f 3f 96 eb 81 3f 17 6e 81 3f
       0.9966714 0.99850863 1.015002 1.0111722
000190 74 a0 83 3f 26 da 7d 3f 51 ec 7e 3f 49 d2 7c 3f
       1.0283341 0.99160993 0.9957934 0.9875837
0001a0 c5 d3 80 3f f1 f6 7d 3f e9 ed 7f 3f a5 8c 7e 3f
       1.0064627 0.9920493 0.999724 0.99433357
0001b0 b9 9a 80 3f c5 e1 7f 3f 15 28 80 3f 1b c6 83 3f
       1.0047218 0.9995387 1.0012232 1.0294832
0001c0 76 ea 81 3f 70 f4 80 3f af 26 81 3f 95 d6 80 3f
       1.0149677 1.0074596 1.008993 1.0065485
0001d0 03 b3 84 3f 3d 81 7f 3f e2 a3 7f 3f 1b a0 81 3f
       1.036713 0.99806577 0.9985944 1.0126985
0001e0 43 dd 7e 3f f2 38 80 3f 96 56 80 3f 31 3a 82 3f
       0.9955637 1.0017378 1.0026424 1.0174009
0001f0 27 29 84 3f 79 5d 7f 3f af 9c 7f 3f 86 21 80 3f
       1.0325059 0.99752 0.99848455 1.001023

inertial_net.net.5.bias f4 [128]
000000 70 59 60 bb fd 08 01 bc d3 c1 74 3b 92 3d dc 3b
       -0.0034232996 -0.007875678 0.0037346974 0.006721207
000010 24 bb 34 3c b3 b9 39 3b 7b cc 4b bc b3 2a 71 bc
       0.011030946 0.0028339445 -0.012438889 -0.014719653
000020 f1 0c f5 bb 65 0d ab 3b 22 f1 32 3c ba 34 84 bc
       -0.0074783494 0.0052201026 0.010921748 -0.016138423
000030 29 98 07 bc d0 f9 3a 3c d5 95 38 bc 2c 27 49 3c
       -0.008276024 0.011412099 -0.0112661915 0.012277406
000040 a1 31 d0 3b b2 0c e5 3b 42 4b 07 bb 68 25 4f bc
       0.0063535725 0.006990039 -0.0020644222 -0.012643196
000050 43 a4 35 3c 82 0f c0 bb 2b 26 97 3c 1c bb cf bc
       0.011086526 -0.0058612237 0.018450817 -0.025357775
000060 9a 18 95 bc fc 0d aa 3c 3b ae 3d 3a b5 e2 70 bb
       -0.018200208 0.020758621 0.000723574 -0.0036756222
000070 d9 45 9c 3c 45 4f b1 3b 41 ec 96 3c 05 a0 ca b7
       0.019076275 0.005411061 0.018423202 -2.4154791e-05
000080 56 9c 85 bc f3 42 0d bc 89 25 ca 3c 3e 60 b3 bb
       -0.016309898 -0.008621919 0.024676101 -0.0054741194
000090 0c 57 0b bc 71 0b a7 ba 63 a2 41 bb cb 4d a6 3b
       -0.00850464 -0.0012744499 -0.0029546253 0.0050751916
0000a0 40 a9 62 b9 d9 7f 24 3c 1a 6b e7 bb 83 05 79 bb
       -0.0002161609 0.010040247 -0.007062328 -0.003799767
0000b0 1b c6 a1 3c 87 ab 54 3c 6a a7 10 bc 53 5c 23 bb
       0.019747784 0.012980348 -0.008828977 -0.0024926856
0000c0 bb c2 cd 39 8b 10 21 bc 10 66 2b 3c bd 5d 91 3b
       0.00039245732 -0.009830604 0.010461345 0.0044362233
0000d0 56 97 ef b9 a7 11 4c bc 0a f1 6a bb 46 f1 01 3c
       -0.00045698386 -0.0124553805 -0.0035849237 0.007931059
0000e0 e2 24 5a 3c b5 56 a9 bc 1f 9d 43 3c b3 de 93 bc
       0.013314458 -0.020671228 0.011939316 -0.018050527
0000f0 c4 a0 5f 3b e3 4c 06 bc 1b e8 d5 bb dd c5 95 3c
       0.0034122923 -0.008197042 -0.0065279133 0.018282825
000100 96 66 95 3b 95 5a 92 bb 01 7c a4 3a 54 5a 0f bc
       0.0045593483 -0.0044663646 0.0012549163 -0.008749563
000110 8b 56 0a 3b 75 a1 66 3c b7 46 d8 3b 12 d7 ed 3a
       0.0021108713 0.01407658 0.0066002267 0.0018145761
000120 e7 e8 cd bb 7a 40 a0 3a 49 a2 8b 3c e5 0a 84 bc
       -0.0062838676 0.0012226247 0.017045157 -0.016118476
000130 0b 24 88 3b ac b8 e0 3b 0e 93 2a 3c be 24 06 bb
       0.0041546873 0.006857952 0.010411037 -0.0020468677
000140 4a 7c 41 bb 00 04 6b 3b d1 00 34 bc 43 b6 c7 3c
       -0.0029523545 0.0035860538 -0.010986523 0.024378901
000150 5e a1 95 3c 0e dd 19 bb 37 70 ed 3b 7c d5 dc 3b
       0.018265422 -0.0023477706 0.007246043 0.0067393165
000160 57 64 08 3c 17 71 00 bc 38 52 36 3c 96 25 00 bb
       0.008324704 -0.007839463 0.011128001 -0.0019553653
000170 1f 3e 60 3c 13 f7 22 bc 9a a9 17 3c 9d 20 dc 3b
       0.013686686 -0.009946602 0.009256745 0.006717755
000180 69 5e 43 3c ce cf 90 3b d9 62 e9 39 b1 fe 9e 3a
       0.011924365 0.0044193035 0.0004451487 0.0012130347
000190 e3 6e b9 3b cf 12 36 3c e4 97 1c bb 78 6d 18 bc
       0.0056589707 0.011112883 -0.0023894245 -0.009303443
0001a0 d8 98 ec ba aa 56 0b 3c 03 25 30 3c 0a 40 99 bb
       -0.0018050922 0.008504549 0.010751012 -0.0046768235
0001b0 98 6f 2f ba 8b b8 16 bc 88 c1 29 b9 fb c6 94 bb
       -0.0006692349 -0.009199272 -0.00016189192 -0.004540322
0001c0 8d 6c f4 bc ae 3d 90 bc 62 ef f2 39 39 10 8c 3b
       -0.029836917 -0.017607536 0.0004633619 0.004274395
0001d0 27 27 94 bb 44 5e 1d 3c d2 f3 eb ba 4b 63 88 bc
       -0.004521269 0.009604994 -0.0018001741 -0.01664891
0001e0 c0 0b 18 bc c7 05 61 3c a2 87 41 bc 03 d0 d6 b9
       -0.009280145 0.013734288 -0.011812123 -0.00040972242
0001f0 12 aa 8b 3b 2b 20 d0 ba aa b7 6c bc 6f 61 44 3c
       0.0042622173 -0.0015878727 -0.014448086 0.011986121

inertial_net.net.8.weight f4 [128, 128]
000000 b3 f2 43 3b 2a 35 9b bb 76 49 e6 bb 58 ba bd 3c
       0.0029899299 -0.0047365623 -0.0070278 0.023160145
000010 ae 8c 31 bb fc 3d e7 3b fc 7c da 3b 01 6c a5 3b
       -0.0027091908 0.0070569497 0.0066677313 0.0050482755
000020 4b ee 40 bc 44 4d c6 3b 28 c0 03 3c 88 5c 73 bb
       -0.0117755635 0.0060516912 0.008041419 -0.003713401
000030 c8 03 21 3b 90 6c 29 3c 35 c5 26 3c c2 89 66 b9
       0.0024568904 0.010340825 0.010178854 -0.00021985828
000040 1a 19 8e ba c2 9e 27 3b 76 a4 ab bb 85 df 8d 3a
       -0.0010841221 0.0025576805 -0.005238111 0.001082406
000050 1f 3b c6 bb 0d 51 cc bc 86 e5 76 bb bc c4 89 bb
       -0.0060495283 -0.024940992 -0.0037673428 -0.004204361
000060 99 a6 f0 3a 7e ab 0c 3b 1a fa ef 39 24 fa 56 bb
       0.0018360197 0.0021464522 0.00045771973 -0.0032802904
000070 b5 e3 c0 bb 60 7f 79 bb bd 57 83 bc 55 d2 2f 3b
       -0.00588652 -0.0038070306 -0.016033048 0.0026828249
000080 fc 06 f9 3a 86 58 89 b9 0a 2d d3 3b 8a a0 e4 bb
       0.0018999274 -0.0002619663 0.006444578 -0.0069771456
000090 f0 c5 8a 3a 3b 88 bb ba 73 48 73 bc d8 9f a7 3c
       0.0010587554 -0.0014307568 -0.014848816 0.020461962
0000a0 56 d5 00 3b 50 1a 0d 3c f5 79 21 3c ce 3b 56 3c
       0.0019658408 0.00861223 0.009855737 0.013075782
0000b0 95 0f d2 bb f8 d2 ef 3b 8e b5 00 3b f8 6b 85 ba
       -0.006410549 0.0073188506 0.0019639465 -0.0010179272
0000c0 89 df b8 bb 84 5c 09 bb 06 40 c5 3b 3b 6a ae 3b
       -0.005641882 -0.0020959685 0.006019595 0.0053227223
0000d0 a2 67 bd bb 34 4d ef 3a 9b 23 51 39 d7 6b 40 3a
       -0.0057801763 0.0018257261 0.00019945057 0.0007340288
0000e0 91 9e 20 3c 25 bd 2f bc a8 cc b8 3b 9f 7b 39 3b
       0.00980343 -0.010726248 0.0056396313 0.0028302444
0000f0 10 90 da 3b fa dc b3 bb 05 4c 5d 3b 90 48 a7 3b
       0.0066700056 -0.005488989 0.0033767235 0.0051050857
000100 23 8b a5 3b 6c cf 4a 39 2c 9e 06 ba 64 8c 33 bb
       0.005051987 0.00019341492 -0.0005135264 -0.0027396912
000110 a7 c2 73 3c 9f 98 a9 bb 91 c4 e4 3b aa 16 a0 3b
       0.014877952 -0.0051756646 0.0069814404 0.0048855143
000120 ef fe 0d 3b 10 2b b3 3a 59 75 17 3b 73 41 c2 bc
       0.0021666845 0.001366945 0.0023110716 -0.02371285
000130 40 ab 46 3c 90 d3 ac ba da 7e c0 3b 77 a0 5f bc
       0.01212579 -0.0013185609 0.005874497 -0.013649098
000140 a6 71 f0 bb db bc 0d bb b6 be 8c bb a4 8e 4a 3b
       -0.0073377667 -0.002162746 -0.0042951955 0.0030907774
000150 c0 ba 98 3c 71 48 28 ba a4 22 25 3c 1a cd 34 3c
       0.018643737 -0.0006419486 0.01007906 0.011035228
000160 ca a1 ee 3b 94 aa 5d 3c f9 3d 5c bb ce 08 4e 3c
       0.0072824704 0.0135294385 -0.0033606275 0.012575341
000170 91 4f 0f 3b ed 2d 4d bb d2 10 fa 3b b3 59 1b 3c
       0.0021867494 -0.0031307891 0.0076313997 0.009481835
000180 80 16 eb 3b a2 75 08 bc de 07 12 bc 1f 73 2d 3c
       0.007174313 -0.008328827 -0.0089130085 0.010586529
000190 b1 fa 9a 3c 96 fe 94 3b c6 48 06 bc fc 6e 83 3b
       0.018918367 0.0045469506 -0.0081960615 0.004011033
0001a0 f6 e5 5b 3b 2a 86 8b bb 32 49 85 3b e5 a4 38 bc
       0.0033553815 -0.004257937 0.0040675635 -0.011269783
0001b0 30 9f 6f 3c 7c 24 44 bc 74 32 a7 bb f4 24 6e bb
       0.014625356 -0.011971589 -0.00510245 -0.0036337944
0001c0 c3 43 5d bc b8 c9 05 bc ca 3b 3a 3a 09 cf af bb
       -0.013504925 -0.008165769 0.0007104246 -0.0053652567
0001d0 b8 fe 30 bc 56 34 24 3c 2d 04 e1 3b 3d ea 0d 3b
       -0.010802917 0.0100222435 0.006866953 0.002165451
0001e0 53 11 6b bc 7b ed 12 bb 69 d4 16 3c 70 ce 29 3c
       -0.014347392 -0.0022419381 0.009205916 0.01036416
0001f0 6b ee 84 3c 5f 92 48 ba 94 ba 36 3a 1e 46 35 3b
       0.016226968 -0.00076512055 0.00069705513 0.0027660201
000200 08 e2 22 3c 15 26 a4 3a e7 0b 9b bb 32 46 7f bb
       0.009941585 0.0012523556 -0.0047316435 -0.0038951752
000210 63 79 72 bb 1b 92 f2 bb 97 ac b1 bb 95 9e 07 bc
       -0.0036998622 -0.007402671 -0.0054221856 -0.008277555
000220 71 73 82 3a d2 75 00 3c 33 ec 8f bb 0b cd 24 3b
       0.0009952617 0.007840591 -0.004392171 0.002514663
000230 2e 6b 80 bb 8b 0b d3 3b b7 2d 07 bc b5 3c 57 b9
       -0.003919027 0.006440585 -0.008250645 -0.00020526613
000240 99 d4 40 3b 6c 4b 01 3c 41 5c 41 bb da 29 36 bb
       0.0029423593 0.007891517 -0.002950445 -0.0027795942
000250 77 89 93 3b 80 cf d7 3a f5 1c b8 bb 15 ed de bb
       0.004502471 0.0016465038 -0.0056186863 -0.0068031647
000260 63 5f fe 3b 48 38 2a bc 02 d8 ad 3b 96 b4 60 bc
       0.007762836 -0.010389395 0.005305291 -0.01371493
000270 03 7a 83 3a c0 ad 1a 3b c1 df 21 3c 23 27 30 3c
       0.0010030869 0.0023602098 0.009880007 0.010751518
000280 cd 83 48 bb 2e c2 48 3b 5d 44 ba 3a 93 59 1b b9
       -0.0030596138 0.0030633318 0.0014211048 -0.00014815321
000290 f5 cd 3f bc 21 6b b8 38 78 a6 33 39 31 2c a8 3b
       -0.011706819 8.793758e-05 0.00017132785 0.005132221
0002a0 21 af 85 3b 36 c7 db 3b 29 9f 90 ba cf 5b ca bb
       0.004079715 0.0067070974 -0.0011033762 -0.006175495
0002b0 b1 f2 1d bc b6 38 bd 3b 37 df 5f bc ba 14 cf 3b
       -0.009640382 0.0057745827 -0.013664058 0.0063196095
0002c0 51 82 5d bc cd fb 10 3b 80 bf 75 bb 37 68 4f bb
       -0.013519839 0.0022122741 -0.0037498176 -0.003164781
0002d0 de e8 f8 3b 90 05 98 bb 60 84 e1 bb da 29 0d bc
       0.0075961193 -0.004639335 -0.0068822354 -0.008615935
0002e0 87 c3 fd 3b 3d a7 97 3c 1d 5e 60 3c 75 ab b4 3b
       0.007744256 0.018512363 0.013694313 0.0055136033
0002f0 b9 d6 cf 39 6f 9a d3 ba 0a f0 62 bb 17 64 af 3b
       0.00039642098 -0.0016144047 -0.0034627938 0.005352508
000300 d2 63 48 3c 33 f1 04 bc 0f bb 88 bc 79 0d 0f ba
       0.01223083 -0.008114147 -0.016690759 -0.00054570247
000310 35 39 82 3b 52 a2 e9 bb 42 d9 05 bc d7 f0 b6 3b
       0.0039741048 -0.007129946 -0.008169474 0.0055829096
000320 e9 0d 12 bc 70 3c 2e b9 2c 63 57 bc 19 c8 20 3c
       -0.008914449 -0.00016616448 -0.013146203 0.009813332
000330 77 ed fb 3a a5 60 12 3b d7 1a 7f 3b 14 2c 1b bc
       0.001922055 0.0022335437 0.003892591 -0.009470958
000340 6c 68 a8 3b a7 f7 23 3b f3 02 ec bb ae a1 7c bb
       0.005139401 0.0025019438 -0.0072025 -0.0038548517
000350 c9 94 be 3b 36 5d 8c 3a 74 04 e0 3b ed 09 9a 3b
       0.0058160764 0.0010708931 0.0068364684 0.0047008903
000360 5f eb a5 3b 02 65 c1 bb c0 0b 1b 3c 10 33 01 3c
       0.005063459 -0.0059019336 0.009463251 0.007885709
000370 1c 61 1d 3c 56 7d 2a 3a 07 b0 1f 3b 15 b6 a3 3b
       0.009605672 0.0006503662 0.0024366395 0.004996071
000380 ef 9d ac bb 29 1b 84 bb da d3 1e bb 70 08 37 bb
       -0.0052678506 -0.004031558 -0.002423516 -0.0027928613
000390 89 7b 0a 3c 37 7e dc bb 8f 85 b6 ba b8 79 82 bb
       0.008452305 -0.006728913 -0.0013925302 -0.003981795
0003a0 1d 09 de bb c9 8d b6 bb fe 23 82 bc 57 6f a3 3b
       -0.0067759887 -0.0055711013 -0.015886303 0.004987638
0003b0 04 d0 f3 bb 94 4b d7 ba 3f 35 3b bc ae 12 a1 bc
       -0.007440569 -0.0016425722 -0.011426269 -0.019662227
0003c0 5b 78 76 3b 9b a5 ad ba d3 81 79 bb 52 6c 9a 3b
       0.0037608359 -0.0013248207 -0.0038071766 0.00471262
0003d0 e0 61 f2 3b 64 2e bf ba d5 ae df 3b 24 0e 67 3a
       0.0073969215 -0.0014585969 0.0068262615 0.0008814058
0003e0 55 88 a3 3a 39 54 75 bb b6 72 9a bb ec 05 dc 3b
       0.0012476543 -0.0037434234 -0.0047133816 0.006714573
0003f0 00 23 19 bb 3a d6 23 3c f1 84 67 bb 40 4d ad 3b
       -0.002336681 0.009999806 -0.0035327042 0.00528875

inertial_net.net.8.bias f4 [128]
000000 76 92 17 bb 2b 90 35 bc 2b 45 ea 3b ae 41 33 bc
       -0.002312807 -0.011081736 0.0071493587 -0.010940952
000010 84 07 93 39 26 ff 46 bb 97 43 da 3a 0c dd 91 bb
       0.00028043624 -0.0030364483 0.0016652223 -0.0044513997
000020 90 32 0a bc 31 3c 86 3a d2 a0 8f 3b 62 be 6c 38
       -0.008434907 0.0010241327 0.004383185 5.6444092e-05
000030 58 bc 28 3a a7 1f b9 3b e0 f8 85 37 c5 d6 02 bb
       0.0006436757 0.005649525 1.5970727e-05 -0.0019964438
000040 b7 48 ea bb 92 26 07 3c bf 0f 61 bc 2d ca 41 3c
       -0.0071497816 0.008248942 -0.013736664 0.011827988
000050 aa ee 1c bc fb 52 a1 b9 a1 8b f0 bb 87 25 5a 3c
       -0.009578386 -0.00030770138 -0.007340864 0.013314611
000060 05 53 a7 bb 44 74 89 3b 93 9c 32 bb f5 63 2a b9
       -0.0051063322 0.004194768 -0.002725397 -0.000162497
000070 db ef a5 3b ba 85 2b 3c 18 38 2d bb 4c 85 98 3a
       0.0050639934 0.010468895 -0.002643114 0.0011636405
000080 7c ba 51 3c c2 4a a3 3b 86 b1 96 3b 84 ad 0b 3b
       0.012800809 0.004983277 0.004598799 0.002131314
000090 c3 07 58 3c 90 26 86 3c 0e f2 3f 3c 6d 16 b6 3b
       0.013185444 0.01637581 0.011715425 0.0055568726
0000a0 b5 4b b0 3a ce 14 db b9 1c 0b 60 bb d7 72 d0 3a
       0.0013450297 -0.00041786436 -0.003418631 0.0015903366
0000b0 9a f2 02 3b 6e 3a 23 3c 77 d0 c8 3a 7e 80 75 bc
       0.0019981028 0.009962661 0.0015320916 -0.014984248
0000c0 d7 ea 2a 3c bb 22 19 3c 37 88 db bb d5 22 01 bc
       0.010431967 0.009346659 -0.0066995877 -0.00788184
0000d0 2d ac c3 3b 9e 10 3f 3c a1 f1 b7 bb c1 7e fc 3a
       0.0059714527 0.011661677 -0.005613521 0.001926385
0000e0 9a 7c 8e ba c2 a7 cc 3b 7c 36 ad bb 77 56 c1 3b
       -0.0010870874 0.006245584 -0.005286036 0.0059002
0000f0 a0 fb d0 ba af 09 5c 3b e7 0b ad 39 36 a4 a1 bb
       -0.0015944131 0.0033575108 0.00033006 -0.0049329055
000100 fc 5b 18 bc 04 be 1c 3c cc 42 0a bc 78 b3 b4 3a
       -0.0092992745 0.009566788 -0.008438777 0.0013786396
000110 04 79 24 bc 49 a9 33 3b 93 7a 6f bb 64 87 b4 b9
       -0.010038618 0.0027414134 -0.0036541566 -0.0003443315
000120 05 3b d2 38 df 47 f9 ba 21 ec 67 bb 14 e3 b0 bb
       0.000100245736 -0.0019018612 -0.0035388547 -0.0053981636
000130 5b 6b 58 bb 18 91 49 bc 83 08 bd bb 6e ad fc 3b
       -0.0033022973 -0.012302659 -0.005768837 0.007711104
000140 2c fd e6 3a 6d 90 25 bc 3a ee 27 bc 84 ed 38 3c
       0.0017623059 -0.010105235 -0.010249669 0.011287097
000150 ff 9c 0e bc a1 d9 e8 ba 5c a9 8b bb e5 f5 e0 bb
       -0.008704423 -0.0017765054 -0.0042621326 -0.0068652504
000160 19 15 93 bb 05 d9 29 3c d6 36 3f bb 16 36 0d 3b
       -0.004488599 0.010366683 -0.0029176972 0.002154713
000170 2b 96 48 bc 2b ce bd 3b 8d 40 0c bc 22 9c 90 3b
       -0.012242834 0.0057923994 -0.008560312 0.0044131437
000180 0a 26 ae 3b 5a bd 15 bc 2d 29 1b 3c cb d8 35 3c
       0.005314593 -0.009139383 0.009470266 0.011099051
000190 3e 7e 19 bc a5 67 d8 3b cf 69 74 bb ac 0e 42 39
       -0.009368477 0.0066041523 -0.0037294512 0.00018506747
0001a0 31 e0 47 3b 30 cc 1d 3b 58 c5 99 3b 2f 6a 20 3b
       0.0030498619 0.0024078004 0.0046927147 0.0024477353
0001b0 fa 67 8c bb c4 88 1f bc d9 43 4a bb b2 3b 8f 3b
       -0.004284856 -0.009737197 -0.0030863194 0.00437113
0001c0 d8 d5 01 3c 62 70 77 bb 58 8b 38 3c ae 8b 63 3c
       0.0079245195 -0.0037756194 0.011263691 0.013888283
0001d0 24 e6 20 bc 27 0b d9 bb 3e 80 81 3b 0b d9 36 3c
       -0.009820495 -0.006623644 0.0039520552 0.0111601455
0001e0 6b b3 24 bc 31 8b e1 3b 7a 5b 3a bb 21 e9 2a ba
       -0.010052542 0.006883048 -0.0028435872 -0.0006519724
0001f0 6d 9f 13 3b 59 c6 24 3b 9e a3 4e bb 53 e3 45 bc
       0.0022525445 0.0025142638 -0.003153063 -0.012078124

inertial_net.net.9.weight f4 [128]
000000 56 58 8a 3f 93 ab 8a 3f 20 48 8b 3f 27 c4 87 3f
       1.0808208 1.083361 1.0881386 1.0606736
000010 69 6d 89 3f 4b c5 88 3f 2f 7f 8a 3f 5c dd 85 3f
       1.0736514 1.0685209 1.0820063 1.0458179
000020 fb 6e 8a 3f 1a 69 85 3f 47 bf 8b 3f 13 47 87 3f
       1.0815119 1.04227 1.0917748 1.0568565
000030 54 00 85 3f 8d 5e 89 3f d8 79 87 3f 2b 12 89 3f
       1.0390725 1.073198 1.0584059 1.070867
000040 a7 8a 87 3f 41 2b 89 3f a8 a6 8b 3f 60 52 89 3f
       1.0589188 1.0716325 1.0910234 1.0728264
000050 ad f5 88 3f 3a 08 88 3f cd ad 89 3f 9e 82 8b 3f
       1.0699974 1.062751 1.0756165 1.0899236
000060 51 4f 86 3f 32 57 86 3f 29 9c 88 3f ae 3d 8b 3f
       1.0492955 1.049536 1.0672656 1.0878198
000070 3d d0 87 3f 9f bb 89 3f 02 54 87 3f 01 57 86 3f
       1.0610424 1.0760382 1.0572512 1.0495301
000080 94 8d 8b 3f 5c 15 8a 3f 39 15 89 3f dc c4 8a 3f
       1.0902581 1.0787768 1.0709602 1.0841327
000090 09 58 89 3f f0 e5 8a 3f 06 1b 8a 3f 3f 16 89 3f
       1.0729991 1.0851421 1.0789497 1.0709914
0000a0 e8 2a 88 3f 68 fb 85 3f 9c d9 89 3f af 5d 88 3f
       1.0638094 1.0467348 1.0769534 1.065359
0000b0 50 05 88 3f 3e 64 87 3f 2d bc 88 3f 6b fd 89 3f
       1.0626621 1.0577466 1.0682427 1.0780462
0000c0 75 b9 8a 3f d0 b2 8a 3f 84 be 89 3f 49 ce 85 3f
       1.0837847 1.0835819 1.0761266 1.0453578
0000d0 7e 99 88 3f db 08 89 3f 6a 54 8a 3f d7 1b 8a 3f
       1.0671842 1.0705827 1.0807011 1.0789746
0000e0 94 2d 89 3f 2e 13 8a 3f 80 8c 81 3f 76 8c 8a 3f
       1.0717034 1.0787103 1.0121002 1.0824115
0000f0 70 44 8a 3f 58 b4 89 3f 69 51 87 3f a1 e7 84 3f
       1.0802135 1.0758162 1.057172 1.0383188
000100 68 70 89 3f 59 6d 8a 3f 3a 42 8b 3f 5a 0d 88 3f
       1.0737429 1.081462 1.0879586 1.0629075
000110 a0 16 8b 3f c0 37 88 3f de 87 85 3f b3 10 87 3f
       1.086628 1.0642014 1.0432088 1.0551971
000120 8f 53 85 3f a0 7c 87 3f 64 0e 87 3f 65 21 8c 3f
       1.0416125 1.0584908 1.0551267 1.0947691
000130 35 97 8a 3f f0 1f 89 3f e0 26 89 3f 73 a2 89 3f
       1.0827395 1.0712872 1.0714989 1.07527
000140 ba b1 86 3f 65 48 88 3f 74 d6 89 3f ba 7c 8a 3f
       1.0522988 1.0647093 1.0768571 1.0819314
000150 8b e4 89 3f df d4 89 3f 96 7c 8a 3f ae 06 85 3f
       1.0772871 1.0768088 1.0819271 1.0392663
000160 bb 8e 88 3f 6b 39 8a 3f 53 ea 8a 3f 51 0b 89 3f
       1.0668558 1.0798773 1.085276 1.0706578
000170 23 b9 8a 3f 5f 1b 88 3f a4 32 8b 3f db 39 85 3f
       1.0837749 1.0633353 1.0874829 1.0408281
000180 96 5d 88 3f 87 1c 8a 3f 14 5b 89 3f 9e 8b 8a 3f
       1.065356 1.0789956 1.073092 1.0823858
000190 3e e9 88 3f 80 fa 87 3f 07 43 86 3f 8a 49 89 3f
       1.069618 1.0623322 1.0489205 1.0725567
0001a0 2c 44 8a 3f dd 1a 86 3f eb 61 8a 3f 4e 21 89 3f
       1.0802054 1.0476948 1.0811132 1.0713289
0001b0 8f 96 87 3f f1 0e 8a 3f 2d be 8b 3f 0f b4 86 3f
       1.0592822 1.078581 1.0917412 1.05237
0001c0 a2 9f 89 3f cf e2 85 3f fb 9e 88 3f ea 10 8b 3f
       1.0751841 1.0459841 1.0673517 1.0864537
0001d0 23 e0 88 3f a6 30 8a 3f f8 f3 89 3f 54 43 89 3f
       1.0693401 1.0796096 1.0777578 1.0723672
0001e0 10 9d 88 3f 56 fc 88 3f 27 43 87 3f e3 95 87 3f
       1.0672932 1.0702007 1.0567368 1.0592617
0001f0 cd 06 87 3f d9 54 89 3f 73 38 86 3f 3b bf 8a 3f
       1.054895 1.0729018 1.0485977 1.0839609
