E2NN/Trained_models_h128_s20_20250726_155735/vanillafnn_model.pth (torch, 117572 bytes, 20 tensors)

net.0.weight f4 [128, 9]
0	0x3ef150fe	0.47132105
1	0x3db4e5fa	0.08832927
2	0xbee36cba	-0.4441889
3	0x3f896879	1.0735008
4	0x3e920dc9	0.28526142
5	0xbe90b55c	-0.28263366
6	0x3e7ee3ed	0.24891634
7	0x3e82befc	0.25536335
8	0xbe1092af	-0.14118455
9	0xbf4e9567	-0.8069672
10	0xbdcc2c79	-0.0996942
11	0xbf06a657	-0.52597564
12	0x3e04ed33	0.1298111
13	0xbe843af3	-0.25826225
14	0x3edaa699	0.4270523
15	0x3f1df02a	0.61694586
16	0x3e360840	0.17776585
17	0x3e3c1f93	0.1837142
18	0x3e8ffa13	0.2812048
19	0x3e8747f7	0.26422092
20	0x3f443a22	0.76651204
21	0xbec42224	-0.38307297
22	0x3f8ad423	1.0845989
23	0xbef347ce	-0.4751572
24	0x3f21f3a1	0.63262373
25	0xbd9d1133	-0.07669296
26	0xbdbb2258	-0.0913741
27	0xbea3e9f0	-0.32014418
28	0x3e528358	0.20557916
29	0x3f7798ba	0.9671742
30	0x3e083be3	0.13304095
31	0x3e2daf5e	0.16961429
32	0xbfa7d851	-1.311289
33	0x3e823ab1	0.25435403
34	0xbe134531	-0.14381863
35	0xbf2591de	-0.646757
36	0xbf12496f	-0.571433
37	0x3f2f739d	0.68535787
38	0x3edce4d6	0.43143338
39	0xbe7d3bc4	-0.2472983
40	0x3f759a41	0.959385
41	0x3e2a501b	0.1663212
42	0xbe5efed6	-0.217769
43	0x3e8cdffb	0.27514634
44	0xbe72cb05	-0.23710258
45	0x3e7a7786	0.24459657
46	0x3d53b14e	0.051682763
47	0x3e538c86	0.20659074
48	0x3ec623c9	0.38699177
49	0x3f1e27ce	0.6177949
50	0xbe507576	-0.20357308
51	0xbf6cd602	-0.9251405
52	0x3d979108	0.074007094
53	0x3efda022	0.49536234
54	0x3f0bbd77	0.54585975
55	0xbf23505a	-0.6379448
56	0xbe9e2411	-0.3088689
57	0x3f0b015d	0.54298955
58	0xbe7436cc	-0.23849028
59	0x3e96fff4	0.29492152
60	0x3f020e64	0.5080321
61	0x3ed050bc	0.40686595
62	0x3f080f3c	0.53148246
63	0x3f230702	0.6368257
64	0xbea94677	-0.33061573
65	0xbc420c37	-0.011843733
66	0xbed3d6cd	-0.41374817
67	0x3d9fae0e	0.0779687
68	0x3da3e5d8	0.080028236
69	0x3ed6068c	0.4180187
70	0x3ec6d7ea	0.38836604
71	0x3e21d188	0.15802586
72	0xbd64c461	-0.055851344
73	0x3e9b84d3	0.30374774
74	0x3c22a696	0.0099274125
75	0xbf4df946	-0.80458486
76	0x3db1bb91	0.086783536
77	0x3d8d95af	0.069133155
78	0x3ea22cc5	0.3167478
79	0x3f015d56	0.50533044
80	0x3e4a5738	0.19759834
81	0xbe016751	-0.12637068
82	0x3e54750d	0.20747776
83	0x3f08c09c	0.534189
84	0xbe6ac53f	-0.22926806
85	0xbf15c152	-0.5849811
86	0x3e7b9ce3	0.24571566
87	0xbd0534d4	-0.032521084
88	0xbef3cd1f	-0.47617432
89	0x3f1ed515	0.6204389
90	0x3e449392	0.19196919
91	0x3f8d81a7	1.1055192
92	0xbd3f73eb	-0.046741407
93	0x3e4b5bde	0.19859263
94	0x3f4fca2f	0.8116788
95	0x3d239b54	0.039943054
96	0x3e0132da	0.12617055
97	0xbd1cbdec	-0.03826706
98	0xbe394867	-0.18094026
99	0xbf7ae98a	-0.980126
100	0x3e196660	0.14980459
101	0xbf307099	-0.6892181
102	0x3e21347e	0.1574268
103	0x3e30fbbd	0.1728353
104	0x3ecd0760	0.4004469
105	0x3e5bba7c	0.21457857
106	0xbe0b333a	-0.1359376
107	0xbd63bfde	-0.0556029
108	0xbf47e092	-0.7807704
109	0x3e2eed89	0.170828
110	0x3eb21b27	0.3478634
111	0xbd0f390d	-0.034966517
112	0x3f31c512	0.6944133
113	0x3f401593	0.7503292
114	0xbf0ea424	-0.5571921
115	0xbe22cc19	-0.1589817
116	0xbe57ee10	-0.21086907
117	0x3ef57feb	0.47949156
118	0xbf3494a8	-0.7053933
119	0x3ddac219	0.106815524
120	0xbe0e4e90	-0.13897157
121	0x3ec2a87d	0.3801917
122	0xbf26dd31	-0.6518126
123	0xbb699f0f	-0.0035647785
124	0xbdca6f1f	-0.09884476
125	0x3d332895	0.043739874
126	0x3d3f342a	0.046680607
127	0x3e3efdcc	0.18651503
128	0xbf48f2ec	-0.7849567
129	0xbad8ecda	-0.001655008
130	0x3d5b7e54	0.053587273
131	0xbe707c58	-0.23484933
132	0xbd67694f	-0.056496914
133	0xbf72dc65	-0.94867545
134	0xbde65457	-0.11246555
135	0xbe7c14db	-0.2461733
136	0xbe728815	-0.23684724
137	0x3eb15497	0.3463485
138	0xbeb6a97d	-0.35676184
139	0x3d3c37a8	0.045951515
140	0x3ed0bdcf	0.40769812
141	0x3d041a6a	0.032251753
142	0xbc6bbb2b	-0.014387886
143	0x3f85d413	1.0455345
144	0xbf1b4839	-0.6065708
145	0xbf46e42f	-0.7769193
146	0xbeec08a9	-0.46100357
147	0x3e017122	0.12640813
148	0x3f2266de	0.6343821
149	0x3ee375e2	0.44425875
150	0x3e76d250	0.24103665
151	0x3d13d217	0.03608903
152	0x3f880cbc	1.0628886
153	0xbe61c4c5	-0.22047718
154	0xbf113440	-0.5672035
155	0x3ee86c63	0.45395193
156	0xbf197d0e	-0.59956443
157	0x3e892dd4	0.26792777
158	0x3e89614f	0.26832053
159	0xbf22ea2e	-0.6363858
160	0x3ee0ed8e	0.4393124
161	0x3cd8ee3d	0.026480788
162	0x3fbe79d5	1.488093
163	0xbe79ff7b	-0.24413864
164	0x3dbee62c	0.093212456
165	0x3d80ae68	0.06283265
166	0xbedca18b	-0.43091998
167	0xbea45034	-0.3209244
168	0x3e320578	0.17384899
169	0x3f49c83f	0.78821176
170	0xbe95b573	-0.29239997
171	0x3e6648f8	0.22488773
172	0x3e9318e3	0.28729925
173	0xbf01e574	-0.5074074
174	0x3eb9a7a1	0.36260703
175	0xbed000e4	-0.4062568
176	0x3e6fce41	0.23418523
177	0x3d128842	0.035774477
178	0xbec252b0	-0.3795371
179	0x3e949c64	0.29025567
180	0xbf58f570	-0.8474951
181	0xbdf9cebb	-0.12197634
182	0x3db96d76	0.09054081
183	0xbe994c33	-0.29940948
184	0xbe6ccb23	-0.23124366
185	0x3ed74129	0.420419
186	0xbf19b6a0	-0.6004429
187	0xbf5a5497	-0.85285324
188	0x3f579d38	0.8422427
189	0xbde6c7e8	-0.11268598
190	0x3d203bc8	0.03911951
191	0x3f84ddbf	1.0380172
192	0xbe79a444	-0.24379069
193	0xba0bb6f2	-0.000532969
194	0xbe2b2ff5	-0.16717513
195	0x3e6c792e	0.23093101
196	0xbe130956	-0.1435903
197	0xbeaa5cde	-0.33273977
198	0x3f1cccb2	0.6124984
199	0xbf13c28b	-0.57718724
200	0x3d35c9c0	0.044381857
201	0x3f1d4ff4	0.61450124
202	0x3e1cc0f2	0.15307978
203	0xbf40e155	-0.7534383
204	0x3ea216d1	0.31658033
205	0xbf38642e	-0.7202786
206	0x3e93b055	0.28845468
207	0x3bb71ef4	0.0055884067
208	0xbeae40bd	-0.34033766
209	0xbf203e04	-0.6259463
210	0x3ea9dbc8	0.33175492
211	0x3f4a984f	0.79138654
212	0xbfbd9f4e	-1.4814241
213	0x3f0304ad	0.5117901
214	0x3f2879f0	0.6581106
215	0x3c50ae39	0.01273685
216	0x3db54bc5	0.088523425
217	0x3eeb79fd	0.45991507
218	0x3eb4432c	0.35207498
219	0x3e93754b	0.28800425
220	0x3e412531	0.18861844
221	0x3d0465d5	0.032323677
222	0xbd67b99c	-0.056573495
223	0xbe9aa46d	-0.30203572
224	0xbe50cef5	-0.20391448
225	0xbf30d6e0	-0.69077873
226	0x3edf14d7	0.43570587
227	0x3f5375d6	0.8260168
228	0x3e413dfd	0.18871303
229	0xbf13fe3c	-0.57809806
230	0x3e3b4e3c	0.18291563
231	0x3dbcaf11	0.09213079
232	0xbefebdb9	-0.49754122
233	0x3d2a82de	0.04162871
234	0x3e700b5c	0.23441833
235	0xbdf61ea1	-0.12017561
236	0x3f56605d	0.8374079
237	0xbdc20b29	-0.09474785
238	0x3f59d1b6	0.8508562
239	0x3e82394c	0.2543434
240	0xbea41f4d	-0.3205513
241	0x3e5b80db	0.21435873
242	0x3edd8fd3	0.43273792
243	0xbebcebbd	-0.36898604
244	0x3f1430fd	0.5788725
245	0x3f075042	0.5285684
246	0xbf511969	-0.816794
247	0x3f09251a	0.5357224
248	0xbdc787fc	-0.09742734
249	0x3e4a6a9e	0.19767234
250	0x3ef4637f	0.4773216
251	0x3f3cd483	0.7376177
252	0xbf76c86a	-0.9639956
253	0xbc072c37	-0.008250288
254	0xbe8a2d53	-0.26987705
255	0xbef4ee1b	-0.4783791

net.0.bias f4 [128]
0	0x398ff69d	0.00027458827
1	0xbaee84a3	-0.0018197488
2	0xb9cab53c	-0.00038663473
3	0x39c5d3da	0.0003773261
4	0xba875d71	-0.001032753
5	0x3ac9fd8e	0.0015410648
6	0xb8aed9e1	-8.33755e-05
7	0xbb530506	-0.003219904
8	0xb9b90e62	-0.00035296666
9	0xb96fde7d	-0.000228757
10	0xbaed79d9	-0.0018117978
11	0x39fc20bf	0.00048089583
12	0xb9332525	-0.00017084608
13	0xb8838ccf	-6.2727944e-05
14	0xb9f5d6be	-0.00046890037
15	0xb94c3eae	-0.00019478306
16	0xb8f09f49	-0.00011473761
17	0xba8d1ebd	-0.0010766607
18	0x3885aba2	6.373903e-05
19	0x39cb947f	0.00038829815
20	0x38aaec11	8.1502025e-05
21	0x3a1ddc5a	0.00060219096
22	0x3a183628	0.000580641
23	0xba62e7a0	-0.00086557306
24	0x399d06a8	0.00029950333
25	0x3963e5e4	0.00021734048
26	0x3a66c07f	0.0008802488
27	0x3a5566ac	0.00081406045
28	0xb8a82503	-8.017758e-05
29	0xba3d7b9f	-0.0007228199
30	0xba27df39	-0.0006403807
31	0xb7b5f9c9	-2.1693197e-05
32	0x3988689f	0.0002601789
33	0xb8aa15f9	-8.1103244e-05
34	0xbb08f179	-0.0020895882
35	0x390d5d60	0.00013481593
36	0x3a0ebdb7	0.000544514
37	0xba0c00c2	-0.0005340689
38	0x3a0e66b2	0.0005432173
39	0x3a6f589e	0.00091303315
40	0x38cbbd3c	9.715042e-05
41	0xb868c7a9	-5.549906e-05
42	0x39ca9f53	0.00038647148
43	0xb9d176b2	-0.0003995202
44	0x39a6178d	0.00031679534
45	0xb90daf12	-0.00013512027
46	0xba5a8f52	-0.00083373964
47	0xb9c2757d	-0.000370901
48	0xb9e033a6	-0.0004276309
49	0x39f8cd2b	0.00047455108
50	0xb9d9c962	-0.00041539507
51	0x39bd9628	0.00036160764
52	0xb9ae4389	-0.00033238184
53	0x3b858cb8	0.004075613
54	0x3aeaa8cb	0.0017903087
55	0xbb4007cb	-0.002930152
56	0x3a125f23	0.00055836345
57	0xb9ad1ec0	-0.00033020042
58	0x39e62eac	0.00043903792
59	0xb9e1bf4a	-0.00043057866
60	0x393fa9ec	0.0001827848
61	0xba9509c0	-0.0011370704
62	0x38b75705	8.742329e-05
63	0xbacd6704	-0.001567096
64	0x3b564adc	0.0032698428
65	0x39f35be2	0.0004641703
66	0x399ed59c	0.0003029526
67	0xba3541d3	-0.00069144106
68	0x3a625bfc	0.00086349226
69	0xb9792268	-0.00023759308
70	0xb9ae0cb9	-0.00033197345
71	0xbaa1e8de	-0.0012352725
72	0x3a019ef2	0.0004944644
73	0xb9740878	-0.00023272808
74	0x390c6e4b	0.00013392528
75	0x39909583	0.00027577215
76	0xba1b1647	-0.00059161003
77	0xb7146860	-8.845789e-06
78	0xb9eef8ac	-0.00045580172
79	0x382a1da7	4.0558774e-05
80	0xbaa5daf9	-0.001265376
81	0x38808f70	6.130233e-05
82	0xba09a6c6	-0.00052509864
83	0x3abb032f	0.0014267917
84	0xb9d9d1a3	-0.00041545657
85	0xb88452be	-6.3096624e-05
86	0xb9c213d6	-0.00037017342
87	0xb8c4fc3d	-9.392991e-05
88	0xb998cd09	-0.00029144462
89	0xba126ac2	-0.0005585366
90	0x39d1dba1	0.00040027223
91	0x393f75a3	0.00018259003
92	0xbb0bea78	-0.002134947
93	0x3a1a2691	0.00058803806
94	0xb958860e	-0.00020649304
95	0x3ac89cce	0.001530552
96	0xbac15180	-0.001474902
97	0xb9d80a65	-0.00041206475
98	0x39a01636	0.00030534127
99	0xb9e1b5be	-0.00043050753
100	0x39a7ecf4	0.00032029266
101	0x39c8e8cb	0.00038320417
102	0x39bd96dc	0.00036161288
103	0x3a44d95d	0.00075091963
104	0xb93111f1	-0.00016886719
105	0x3b761b5d	0.003755293
106	0x3a87b95d	0.0010354925
107	0x396e2bc2	0.0002271375
108	0xb9fa90cc	-0.00047791598
109	0xba1f0aeb	-0.00060669956
110	0x3b1b91de	0.0023738067
111	0xba5dccf3	-0.0008461021
112	0xb7d2ee63	-2.5144958e-05
113	0x39bcd24d	0.0003601484
114	0xbac318b4	-0.0014884681
115	0xba8606dc	-0.0010225433
116	0xba4ffee3	-0.00079344044
117	0x3a2698e5	0.00063551805
118	0xb9d12029	-0.00039887548
119	0x3a8b355b	0.001062076
120	0xb9f5a1f3	-0.00046850703
121	0xb8ed6234	-0.000113193324
122	0x3ab77f8b	0.0013999803
123	0x39bd5b5e	0.00036116963
124	0xb9a50028	-0.0003147137
125	0x38e5e8a4	0.000109629036
126	0xba019cd0	-0.00049443264
127	0x39abcc05	0.00032767668

net.1.weight f4 [128]
0	0x3f7e5a7b	0.9935681
1	0x3f7dcf8d	0.9914482
2	0x3f811be6	1.0086639
3	0x3f7fda76	0.9994272
4	0x3f7a1373	0.9768593
5	0x3f800d35	1.000403
6	0x3f8186d5	1.0119272
7	0x3f786368	0.9702668
8	0x3f837a43	1.0271686
9	0x3f8116e4	1.0085111
10	0x3f8174e8	1.0113802
11	0x3f856af0	1.042326
12	0x3f7dbc3c	0.9911535
13	0x3f839d70	1.0282421
14	0x3f78327f	0.9695205
15	0x3f7ad591	0.97982126
16	0x3f7627bf	0.961544
17	0x3f7d35e4	0.98910356
18	0x3f80c114	1.0058923
19	0x3f7a1192	0.9768306
20	0x3f778f15	0.967027
21	0x3f8213f1	1.0162336
22	0x3f77f02c	0.9685085
23	0x3f8085c3	1.0040821
24	0x3f8bcce1	1.0921899
25	0x3f80dd47	1.0067528
26	0x3f7d7e33	0.9902069
27	0x3f856928	1.0422716
28	0x3f77be02	0.96774304
29	0x3f8119e7	1.008603
30	0x3f8482a9	1.0352374
31	0x3f8194de	1.0123556
32	0x3f7a1218	0.9768386
33	0x3f7578e2	0.9588758
34	0x3f7a645e	0.978094
35	0x3f7e67ff	0.99377435
36	0x3f7f15ba	0.9964253
37	0x3f7bea3b	0.9840428
38	0x3f76970c	0.9632423
39	0x3f814058	1.0097761
40	0x3f74407b	0.9541089
41	0x3f8348c6	1.0256584
42	0x3f780709	0.96885735
43	0x3f7c6512	0.9859172
44	0x3f7f01bc	0.9961202
45	0x3f7c2616	0.98495615
46	0x3f8464fb	1.0343317
47	0x3f799a34	0.9750092
48	0x3f85f921	1.0466653
49	0x3f7d7588	0.99007463
50	0x3f7b9cea	0.98286307
51	0x3f81315a	1.0093186
52	0x3f84b6af	1.0368251
53	0x3f82de7e	1.0224149
54	0x3f8067a0	1.0031624
55	0x3f7ab538	0.9793277
56	0x3f7bc4f5	0.9834741
57	0x3f8038dd	1.0017353
58	0x3f7c6571	0.9859229
59	0x3f7fc223	0.99905604
60	0x3f7cdc8b	0.9877402
61	0x3f905967	1.1277283
62	0x3f79bd9e	0.9755496
63	0x3f76f95b	0.96474236
64	0x3f91cbc7	1.1390313
65	0x3f8110a2	1.0083201
66	0x3f87a527	1.0597275
67	0x3f7bf3e7	0.9841904
68	0x3f807fea	1.0039036
69	0x3f78f282	0.9724504
70	0x3f7be815	0.98401004
71	0x3f847f07	1.0351266
72	0x3f7ebaae	0.995036
73	0x3f76f0e3	0.96461314
74	0x3f80361f	1.0016516
75	0x3f7c8f81	0.9865647
76	0x3f70bd19	0.9403854
77	0x3f7d04ab	0.9883525
78	0x3f83752d	1.0270134
79	0x3f761c98	0.9613738
80	0x3f7a8fb4	0.97875524
81	0x3f7927da	0.97326434
82	0x3f7105b6	0.9414934
83	0x3f83799e	1.027149
84	0x3f7a1240	0.976841
85	0x3f7c2890	0.98499393
86	0x3f82c559	1.0216476
87	0x3f77bd36	0.9677309
88	0x3f764b86	0.9620899
89	0x3f7aea37	0.98013633
90	0x3f784916	0.9698652
91	0x3f7b4ac6	0.9816097
92	0x3f81bbda	1.0135453
93	0x3f81607a	1.0107567
94	0x3f7a74b7	0.9783434
95	0x3f804659	1.0021468
96	0x3f864413	1.0489525
97	0x3f8b890f	1.0901202
98	0x3f77b1d9	0.9675575
99	0x3f8183a1	1.0118295
100	0x3f7c2ad3	0.98502845
101	0x3f78a941	0.9713326
102	0x3f7b4e2f	0.98166174
103	0x3f80b4b6	1.0055149
104	0x3f7c44ca	0.98542464
105	0x3f81f45b	1.0152696
106	0x3f83d912	1.030062
107	0x3f7d7456	0.9900564
108	0x3f7937b1	0.97350603
109	0x3f7cdad2	0.98771393
110	0x3f75e1dd	0.96047765
111	0x3f81248b	1.0089277
112	0x3f78f622	0.9725057
113	0x3f7bd21d	0.9836748
114	0x3f82cff2	1.021971
115	0x3f80e309	1.0069286
116	0x3f7be6d2	0.9839908
117	0x3f7c2476	0.98493135
118	0x3f77a419	0.9673477
119	0x3f7aa5e5	0.97909385
120	0x3f82222a	1.0166676
121	0x3f7536ae	0.9578656
122	0x3f803d7a	1.0018761
123	0x3f7d83ae	0.9902905
124	0x3f8029a6	1.001271
125	0x3f7930b7	0.9733996
126	0x3f7e638c	0.99370646
127	0x3f7e43a2	0.9932195

net.1.bias f4 [128]
0	0xbcb5ce14	-0.022192992
1	0x3b874225	0.004127758
2	0x3c4c8161	0.012482018
3	0xbb3f31d6	-0.0029173992
4	0x3be6d4dc	0.007044418
5	0xbc0218c8	-0.007940479
6	0xbc8ee062	-0.017440978
7	0x3d1eaa7e	0.038736813
8	0x3cf2f9cc	0.029660128
9	0xbb149f4f	-0.0022677963
10	0xbad3d545	-0.0016161582
11	0x3d80b6c6	0.06284861
12	0xbc9a104e	-0.018806603
13	0x3c30076d	0.010743958
14	0xbc6ccf11	-0.014453665
15	0xbd23cb70	-0.039988935
16	0xbd17220d	-0.036897708
17	0xbc0e4a45	-0.008684699
18	0xbb0b00f0	-0.0021210276
19	0xbd0bd2bf	-0.03413653
20	0xbd0ba031	-0.034088317
21	0xbb2220f0	-0.002473887
22	0xbd1bf454	-0.038074806
23	0x3d0c790e	0.034295134
24	0x3d086c89	0.033306632
25	0xbc581093	-0.013187545
26	0xbc837cfb	-0.016050806
27	0x3d0785df	0.033086654
28	0xbcdcb350	-0.026940972
29	0x3c888250	0.0166637
30	0xbc3c2341	-0.011483015
31	0x3c89b4c5	0.01680983
32	0xbd4c522b	-0.04988305
33	0xbd25b7df	-0.040458556
34	0xbd234b34	-0.03986664
35	0xbd1dfa99	-0.038569067
36	0xbd3b7c8d	-0.045773078
37	0xbd97ae1c	-0.074062556
38	0xbd6ca133	-0.05777092
39	0xbcff0e3a	-0.031134713
40	0xbcdd0807	-0.026981367
41	0x3c3c9376	0.011509767
42	0xbd239e10	-0.039945662
43	0xbc382f7e	-0.011241792
44	0x3cbe59af	0.023236124
45	0xbcc12791	-0.023578437
46	0xbc5756bb	-0.013143237
47	0xbd5d6a8b	-0.054056685
48	0x3d38b09e	0.04509031
49	0x3c491cdc	0.012274947
50	0xbd03d042	-0.032181032
51	0xbd198acf	-0.037485894
52	0x3cce4ea2	0.02518398
53	0xbccb2bd0	-0.024801165
54	0xbc2015e8	-0.009770848
55	0xbc46670c	-0.012109529
56	0xbcc9a143	-0.024613028
57	0xbcef4616	-0.029208224
58	0xbc06d093	-0.008228439
59	0xbc936664	-0.01799316
60	0xbcba21b2	-0.022721145
61	0x3d83b19f	0.06430363
62	0xbcc494b6	-0.023996692
63	0xbce062d9	-0.027390884
64	0x3d5a4461	0.053287867
65	0xbce17db0	-0.027525753
66	0xbc203251	-0.009777621
67	0x3b8c0762	0.004273341
68	0xbb231e3c	-0.0024889847
69	0xbd5315e1	-0.051534537
70	0xbbb9562a	-0.0056560235
71	0x3d37eb6d	0.044902254
72	0xbc863e9f	-0.016387282
73	0xbd47da56	-0.048792206
74	0x3d8da415	0.06916062
75	0xbce8c7cd	-0.028415585
76	0xbd54262e	-0.051794223
77	0xbd9870b1	-0.07443369
78	0xbceec4ee	-0.029146638
79	0xbd2911d8	-0.041276783
80	0xbd166772	-0.036719747
81	0x3c91d48c	0.017801546
82	0xbd941090	-0.072297215
83	0xbc57466f	-0.013139351
84	0xbd5d9d6a	-0.0541052
85	0x3da8bbbc	0.082389325
86	0x3c704749	0.014665433
87	0xbbd84b97	-0.006600808
88	0xbd78c474	-0.060734227
89	0xbd35939d	-0.044330228
90	0xbd235d0a	-0.03988365
91	0xbd8462a3	-0.06464126
92	0xb90db246	-0.0001351322
93	0x3cb38adb	0.021916797
94	0xbd0550dd	-0.03254782
95	0x3cad5ff5	0.02116392
96	0x3d2440a0	0.040100694
97	0x3d363d41	0.04449201
98	0xbcfa7e28	-0.030577734
99	0xbd8e1733	-0.06938019
100	0xbd6bd1e2	-0.057573207
101	0xbcbfc5ca	-0.023409743
102	0xbd1b4438	-0.037906855
103	0xbd3184e6	-0.043339632
104	0xbd41af71	-0.047286455
105	0x3cb80e32	0.022467706
106	0xbd418685	-0.04724743
107	0xbcf097a9	-0.029369192
108	0xbd81db6d	-0.0634068
109	0xbc5837a0	-0.013196856
110	0xbd99ce35	-0.07510034
111	0x3c87d213	0.016579663
112	0xbd6a4522	-0.057194836
113	0xbd99db0f	-0.07512485
114	0xbd28f74b	-0.041251462
115	0x3c91148e	0.017709997
116	0xbcfdef10	-0.030997783
117	0x3bd5fc40	0.0065303147
118	0xbcd61ff6	-0.026138287
119	0xbc0e5543	-0.00868732
120	0xbd3c73a4	-0.04600872
121	0xbcdbc3f6	-0.02682684
122	0x3bcd00eb	0.006256213
123	0xbd459c97	-0.04824504
124	0xbc7c2da3	-0.01539174
125	0xbd776d90	-0.06040722
126	0xbd17f6d3	-0.037100624
127	0xbd88cd2c	-0.066797584

net.1.running_mean f4 [128]
0	0x3ed83e35	0.4223496
1	0xbf8c7f07	-1.0976266
2	0x3fa657fb	1.29956
3	0x3f6eaa89	0.93228966
4	0x3eae09b6	0.33991784
5	0xbd8b1900	-0.06791878
6	0xbecdd6ec	-0.40203035
7	0x3e6a4ef4	0.2288168
8	0x3e86ac77	0.26303455
9	0x3efc6a3c	0.492998
10	0x3fc86bd2	1.5657904
11	0xbf9552a2	-1.1665843
12	0xbf2387e6	-0.6387924
13	0xbeabdcde	-0.33566946
14	0xbd28e350	-0.041232407
15	0xbf0e4ede	-0.5558909
16	0xc00702bb	-2.1095417
17	0xbf8aa30b	-1.0831007
18	0x3fa56c58	1.2923689
19	0x3eae731c	0.34072196
20	0xbf99ad3f	-1.2005996
21	0x3f4f2da0	0.80928993
22	0x3e56a8a6	0.20962772
23	0xbf37711d	-0.7165697
24	0x3f790112	0.9726726
25	0x3f1aee58	0.60519934
26	0x3e82fb2a	0.25582248
27	0x3eec0a95	0.46101823
28	0xbf5e5ede	-0.86863506
29	0xbfb3a36a	-1.4034245
30	0xbf14cb0d	-0.5812233
31	0x3f86c6ba	1.0529397
32	0xbed78433	-0.42093047
33	0xbd0fc715	-0.03510197
34	0x3d918b3f	0.07106637
35	0x3fb9efb3	1.4526275
36	0x3db5d891	0.088791974
37	0x3f7afcf0	0.980422
38	0x3ec5ece2	0.3865729
39	0x3f514003	0.817383
40	0xbd8f54a2	-0.06998564
41	0x3f0d78bf	0.5526237
42	0xbdfd85f1	-0.12379063
43	0x3f13379e	0.5750674
44	0xbe8a773e	-0.270441
45	0x3f830070	1.0234509
46	0x3f19d697	0.60093063
47	0x3e1cfb7d	0.1533031
48	0x3f51443f	0.8174476
49	0xbd825fbb	-0.063659154
50	0xbe5f615e	-0.21814486
51	0x3f73c46c	0.9522159
52	0x3fd30956	1.6487224
53	0xbfc12807	-1.509034
54	0x3e38aa4d	0.18033715
55	0x3f4bdeb7	0.7963671
56	0x3ec54fe0	0.38537502
57	0xbf11beac	-0.5693157
58	0x3f3811d0	0.7190218
59	0xbf27141c	-0.6526506
60	0xbe6c2e7f	-0.23064612
61	0x3fbd1fc8	1.4775324
62	0xbf6f9d57	-0.93599457
63	0x3f2b4018	0.66894674
64	0x3fc5e97a	1.5461876
65	0xbf45e9ef	-0.7731008
66	0x3f434510	0.76277256
67	0x3fb41d3a	1.4071419
68	0xbebaf61d	-0.36515895
69	0x3f1c5f16	0.6108259
70	0x3e90eb68	0.283046
71	0xbeb2466e	-0.3481936
72	0xbf34a351	-0.705617
73	0xbf7b4cc2	-0.98164
74	0xc02e069c	-2.7191534
75	0x3f44e5d3	0.76913184
76	0xbec10a78	-0.377033
77	0xbea63b4a	-0.3246711
78	0xbf365e6d	-0.7123783
79	0x3f4fd66f	0.81186575
80	0x3fa5c352	1.2950232
81	0x3e405a65	0.18784483
82	0x3c96b646	0.018397462
83	0xbf5c45fc	-0.8604429
84	0x3e82ebf8	0.25570655
85	0xbf129916	-0.5726484
86	0x3e79fd2e	0.24412987
87	0x3ec82fa0	0.39098835
88	0xbd2a1a4e	-0.041528992
89	0xbeb6c977	-0.3570058
90	0xbedbfefc	-0.42967975
91	0x3f799c27	0.97503895
92	0xbe8bac61	-0.27279952
93	0x3e9a5e2a	0.30149966
94	0x3df1ed15	0.11812798
95	0xbcf31854	-0.029674686
96	0xbddef6ee	-0.10886942
97	0x3e63e7db	0.22256415
98	0x3d8e0a30	0.06935537
99	0x3f61f7c4	0.88268685
100	0x3e8d7fae	0.27636474
101	0x3fd6928c	1.6763473
102	0xbf6c8364	-0.92387986
103	0x3f4cb6dc	0.7996652
104	0x3f975802	1.1823733
105	0x3e6d22dc	0.23157829
106	0x3e9ef217	0.31044075
107	0x3fdd574b	1.7292265
108	0xbf3af543	-0.7303049
109	0x3db74525	0.08948735
110	0xbd40a380	-0.047030926
111	0xbf83c83a	-1.0295479
112	0xbe538f32	-0.20660093
113	0x3f5ce907	0.8629307
114	0xbed6b61e	-0.4193582
115	0x3be7307a	0.0070553394
116	0x3fc46064	1.5341916
117	0xbf6c298b	-0.9225089
118	0x3ee7cb10	0.45272112
119	0x3e3338ba	0.17502108
120	0xbf16480e	-0.58703697
121	0xbece6d03	-0.40317544
122	0x3f1e1cab	0.61762494
123	0xbf04887e	-0.5177077
124	0xbfd7d450	-1.6861668
125	0xbf1065a1	-0.56405073
126	0xbeddca22	-0.43318278
127	0x3f6e21d8	0.9302039

net.1.running_var f4 [128]
0	0x3f141fd2	0.57861054
1	0x3fda12fc	1.7037044
2	0x3faaa3d3	1.3331245
3	0x3fdaf151	1.7104894
4	0x405e5bd1	3.474354
5	0x3f9bd651	1.2174779
6	0x401a9296	2.415197
7	0x3e3ed682	0.18636516
8	0x3e0d7ce9	0.1381718
9	0x410aeb16	8.682394
10	0x3e88b770	0.26702452
11	0x3ee509f3	0.44734153
12	0x3fcad4c6	1.5846183
13	0x3e5b7594	0.21431571
14	0x4074b81c	3.8237371
15	0x4117078b	9.439342
16	0x41307835	11.029347
17	0x409cfecc	4.906103
18	0x40d4a285	6.644839
19	0x4062a95e	3.5415874
20	0x414c7cab	12.7804365
21	0x3ea7af0c	0.32750738
22	0x4119f4ba	9.622248
23	0x3f9c8751	1.2228795
24	0x3de06b4c	0.10957965
25	0x403b7905	2.9292614
26	0x3e8b4887	0.2720377
27	0x3fe5a568	1.7941103
28	0x4193deb1	18.483736
29	0x3e15aab4	0.146159
30	0x3f205be3	0.6264021
31	0x3fe8053e	1.81266
32	0x40ca0f31	6.3143544
33	0x4095fb2b	4.68691
34	0x3e335ad8	0.17515123
35	0x401ba264	2.4317865
36	0x3e983df0	0.29734755
37	0x3fa927f8	1.3215322
38	0x3f10a500	0.5650177
39	0x3f70d62e	0.9407681
40	0x41077c91	8.467912
41	0x40a9ac66	5.3022947
42	0x40a91aab	5.2845054
43	0x4139615f	11.586272
44	0x3f4925e4	0.7857344
45	0x4158aa48	13.541573
46	0x3e437c21	0.1909032
47	0x40adf0b4	5.4356327
48	0x3e729727	0.23690473
49	0x4016db9e	2.3571544
50	0x404970d9	3.1475127
51	0x3f1ae348	0.60503054
52	0x3f0064e3	0.5015394
53	0x3d9e2bb7	0.07723182
54	0x3d9858e7	0.07438832
55	0x3ed3b4b7	0.41348812
56	0x3fee4ea6	1.8617752
57	0x3fd0572c	1.6276603
58	0x40eb1465	7.3462396
59	0x401ccfbe	2.4501796
60	0x40635151	3.5518382
61	0x3f2cb767	0.6746735
62	0x4068b9c9	3.6363394
63	0x3fd90081	1.6953279
64	0x3ebe12b5	0.37123647
65	0x3f1975bf	0.5994529
66	0x3dc3798b	0.09544667
67	0x411c780f	9.779311
68	0x3de29014	0.11062637
69	0x410e838e	8.907118
70	0x3f640cb7	0.890819
71	0x3eba33c6	0.36367625
72	0x3f5c9359	0.86162335
73	0x417450b9	15.269708
74	0x4012588b	2.2866542
75	0x4005a90d	2.088443
76	0x401e3782	2.472138
77	0x407c3685	3.9408276
78	0x4019f163	2.405358
79	0x402b0ef6	2.6727881
80	0x3f78f3e8	0.9724717
81	0x3ef3782c	0.4755262
82	0x406de1b6	3.7169013
83	0x3f28dc39	0.65961033
84	0x40904e45	4.5095544
85	0x3ec40a29	0.38289002
86	0x3de70705	0.11280636
87	0x40831c97	4.09724
88	0x411dc46b	9.860454
89	0x3dbc99e4	0.0920904
90	0x413dcc72	11.862413
91	0x3f750237	0.95706505
92	0x3f07555e	0.52864635
93	0x3f2ee97b	0.6832501
94	0x40930443	4.59427
95	0x3e9dc307	0.30812857
96	0x3f7c3ebb	0.9853322
97	0x3f0d57c2	0.5521203
98	0x4094cf4c	4.650305
99	0x3f09817f	0.5371322
100	0x3f93196a	1.1492131
101	0x409cf372	4.9047174
102	0x40bcbacd	5.897803
103	0x3fd4248c	1.6573653
104	0x416dd3ab	14.864177
105	0x3dabb26a	0.08383639
106	0x3f7c1d6b	0.9848239
107	0x3f3e2fd5	0.74291736
108	0x3d900175	0.07031528
109	0x40984fad	4.759726
110	0x3e76a4cf	0.24086307
111	0x3efb6fd3	0.49108753
112	0x418d2d39	17.647081
113	0x40aa2728	5.31728
114	0x3d709d00	0.058743477
115	0x3f31f788	0.6951833
116	0x3f5e3e7f	0.8681411
117	0x3fdb6a3f	1.7141799
118	0x403136f9	2.7689803
119	0x3fadcd6f	1.3578318
120	0x3e964d7c	0.2935599
121	0x3ec37d43	0.38181505
122	0x3fac07d8	1.3439894
123	0x3f3163e1	0.6929303
124	0x40b521d8	5.6603813
125	0x3fb08420	1.3790321
126	0x41482130	12.508102
127	0x3fd50bd5	1.6644236

net.4.weight f4 [128, 128]
0	0x3d83da17	0.06438082
1	0x3d92d8ef	0.07170283
2	0xbcc89137	-0.024483306
3	0xbdd391b5	-0.10330526
4	0x3d9f4bbf	0.07778119
5	0xbe81ee33	-0.25377044
6	0xbd017750	-0.031607926
7	0x3c7e519f	0.01552239
8	0x3d9ece8b	0.07754239
9	0x3dcea839	0.1009068
10	0x3e0d0be8	0.13774073
11	0x3d6477cc	0.05577831
12	0xbe2b3854	-0.16720706
13	0xbe64982b	-0.22323672
14	0xbe09b2d1	-0.1344712
15	0x3d98143f	0.07425737
16	0xbdd8cbb7	-0.105857305
17	0x3d5c297f	0.05375051
18	0xbe41b1dd	-0.18915506
19	0x3e898ad0	0.26863718
20	0xbe2e1ebd	-0.17003913
21	0x3cd95e43	0.026534205
22	0xbe192bb6	-0.1495808
23	0x3df5a6e0	0.119947195
24	0x3e746d87	0.23869906
25	0xbcc3d402	-0.023904804
26	0xbd2667ce	-0.04062634
27	0xbe0e1c80	-0.1387806
28	0x3bf6d1d6	0.0075323386
29	0xbd0e5e52	-0.03475792
30	0xbced7f42	-0.028991345
31	0xbbd6f63b	-0.0065601147
32	0x3db4da1d	0.08830664
33	0x3e87d5a0	0.2653017
34	0x3e11dc21	0.14244129
35	0x3d1d491d	0.038399804
36	0x3e16c5af	0.14723848
37	0xbd89b38e	-0.067237005
38	0xbcab6d3d	-0.020926112
39	0x3d6d324f	0.057909306
40	0xbd676324	-0.056491032
41	0x3ce3a3ab	0.027788004
42	0x3d48b158	0.048997253
43	0x3ddd32ae	0.10800682
44	0xbe1d8a9e	-0.1538491
45	0xbe3757d8	-0.17904603
46	0xbd353e10	-0.04424864
47	0xbd8ced3b	-0.068811856
48	0xbeb3831d	-0.3506097
49	0xbe0bf3da	-0.1366724
50	0xbe2a9f79	-0.16662396
51	0xbcaa8bdd	-0.020818645
52	0x3c6bd991	0.014395134
53	0x3c48d80c	0.012258541
54	0x3cc57276	0.02410243
55	0xbb873c14	-0.004127035
56	0x3d5bc96d	0.05365889
57	0xbe9bc35b	-0.30422482
58	0xbe209d85	-0.15685089
59	0x3e5b07d1	0.213897
60	0xbd8f946a	-0.070107296
61	0xb738725d	-1.0993882e-05
62	0x3dcaccff	0.09902381
63	0x3e9ddfdc	0.30834854
64	0xbe32426b	-0.17408149
65	0x3dcc8b1b	0.0998747
66	0x3eb8f8a1	0.3612719
67	0xbd593f25	-0.053038735
68	0x3d9684c6	0.07349543
69	0xbe371d74	-0.17882329
70	0xbce8f5a3	-0.028437441
71	0xbd3269b0	-0.043557823
72	0xbe6a0d92	-0.22856739
73	0x3e27acde	0.16374537
74	0x3d51b211	0.051195208
75	0xbd1ccd21	-0.038281564
76	0xbeb413e3	-0.35171422
77	0x3cd70f3d	0.026252383
78	0x3c11cbcb	0.008898686
79	0x3c735d86	0.014853841
80	0xbb429e6b	-0.0029696475
81	0xbca180b6	-0.019714694
82	0x3d743a1d	0.059625734
83	0xbe1bb875	-0.15207084
84	0x3d4e5b81	0.050380234
85	0xbe02340d	-0.12715168
86	0x3e0621c5	0.1309882
87	0xbddedf62	-0.10882451
88	0x3e29b645	0.16573437
89	0xbd699c5e	-0.05703389
90	0x3d70be77	0.05877539
91	0xbe22e105	-0.1590615
92	0x3de365e3	0.11103418
93	0x3d57a5c6	0.05264833
94	0x3dce95c0	0.10087156
95	0xbd8295b7	-0.06376212
96	0x3d00a0f9	0.031403515
97	0xbdbf9617	-0.09354799
98	0x3e414125	0.18872507
99	0x3e47137f	0.19441031
100	0xbd9f1f78	-0.07769674
101	0x3bab3532	0.0052248472
102	0x3d54598d	0.051843215
103	0x3d139f60	0.036040664
104	0xbd597b9a	-0.05309639
105	0x3d9f188f	0.07768356
106	0x3def350e	0.11680041
107	0xbcf275b2	-0.029597137
108	0xbb924e8c	-0.00446493
109	0x3e286af3	0.16447048
110	0x3dbedec6	0.093198344
111	0xbe708531	-0.23488308
112	0xbe089925	-0.1333967
113	0x3d0474d6	0.032337986
114	0x3d95794a	0.07298525
115	0x3d37e34a	0.044894494
116	0xbe1ee56e	-0.15517208
117	0x3c1e30f1	0.009655223
118	0x3e1a3886	0.15060624
119	0x3d8ec259	0.069706626
120	0x3e69be52	0.22826508
121	0x3e423fec	0.18969697
122	0x3d275ce4	0.04086007
123	0xbc613bcf	-0.01374717
124	0x3dc19e9b	0.0945408
125	0x3e092c95	0.13395913
126	0x3e0e8220	0.13916826
127	0x3d3caba9	0.046062145
128	0x3e91f90b	0.28510317
129	0xbd8a0205	-0.067386664
130	0xba8c181d	-0.0010688339
131	0xbaa978ed	-0.0012929715
132	0xbdcd621e	-0.1002848
133	0xbe7382cd	-0.23780365
134	0xbe8cf4cd	-0.27530518
135	0x3e4f9c50	0.20274472
136	0xbd08c99f	-0.033395406
137	0x3c426f76	0.011867395
138	0xbda74a32	-0.081684485
139	0xbce1368c	-0.02749183
140	0xbe35cf5a	-0.1775488
141	0xbd8e3664	-0.06943968
142	0xbe298090	-0.16552949
143	0x3d5a98bf	0.053368326
144	0x3dbbef9d	0.09176562
145	0x3db270cc	0.087129205
146	0x3e1b1edf	0.15148495
147	0x3e852a60	0.26008892
148	0xbcb29aec	-0.021802388
149	0xbddf4738	-0.10902256
150	0xbd8e62c1	-0.069524296
151	0xbe01c9e9	-0.12674679
152	0x3c8c08d7	0.017094059
153	0x3d80d187	0.06289964
154	0x3daed92e	0.085375175
155	0x3d5f7b26	0.054560803
156	0xbd3fc8df	-0.046822425
157	0xbdbaa241	-0.09112979
158	0x3e114609	0.14186873
159	0x3e43c30d	0.19117375
160	0xbe478c10	-0.19487023
161	0xbdd688dc	-0.104753226
162	0x3cd2cd2a	0.025732595
163	0xbd7c26b0	-0.061560333
164	0xb9fb599c	-0.00047941215
165	0x3d290b31	0.04127044
166	0x3e0d3b4b	0.1379215
167	0x3dfb8d0a	0.122827604
168	0x3d2d0303	0.0422392
169	0xbdbbc26b	-0.09167942
170	0x3d0794a6	0.033100747
171	0xbdf5d135	-0.12002794
172	0x3dc72f04	0.097257644
173	0xbcb21f29	-0.021743374
174	0x3ccfc008	0.025360122
175	0x3dfecb18	0.12441081
176	0x3c87836e	0.016542163
177	0x3e20e2ce	0.15711519
178	0x3d349713	0.044089388
179	0xbe1ed19d	-0.15509649
180	0x3d8eae28	0.069668114
181	0xbd63e538	-0.055638522
182	0xbdebc471	-0.115120776
183	0xbd4a312a	-0.049363293
184	0x3e08fe9a	0.13378373
185	0x3e10d710	0.1414454
186	0x3cadf0ae	0.02123293
187	0x3df05bff	0.11736297
188	0x3c1978f0	0.009367213
189	0x3d8c2989	0.0684386
190	0xbd906c15	-0.07051865
191	0x3d22232e	0.03958433
192	0x3d811243	0.06302311
193	0x3d99ce10	0.075100064
194	0x3e3e4a98	0.18583143
195	0xbe2976b1	-0.16549183
196	0x3da7d3dd	0.081947066
197	0x3d2a8211	0.041627947
198	0x3e438d0f	0.19096778
199	0xbe369b5b	-0.17832701
200	0xbd0c8b69	-0.03431264
201	0xbe7a51e3	-0.244453
202	0x3d2779e5	0.040887732
203	0x3d1416d0	0.03615457
204	0xbe1dc37a	-0.154066
205	0xbe3b71e5	-0.18305166
206	0x3db25299	0.087071605
207	0x3de8280d	0.11335764
208	0x3b899183	0.0041982546
209	0x3dc14b97	0.09438246
210	0xbcf44cbb	-0.029821744
211	0x3e196ddb	0.14983313
212	0x3ddfc9b3	0.10927143
213	0xbb60fb4f	-0.003432948
214	0xbd177a31	-0.036981765
215	0xbe336aff	-0.17521285
216	0xbd5b18e7	-0.053490546
217	0x3dac80f6	0.08423035
218	0x3e6c46ac	0.23073834
219	0x3da9f1f7	0.08298104
220	0xbe14b0dd	-0.14520593
221	0x3c9dc7f5	0.019260386
222	0x3dedbfbd	0.11608837
223	0xbdec0880	-0.11525059
224	0x3d8caa1c	0.06868383
225	0xbe944a48	-0.28962922
226	0x3e0bce8d	0.13653012
227	0xbc1f90d6	-0.009739121
228	0x3dbb7fd8	0.09155244
229	0xbdc63ff9	-0.096801706
230	0xbb496367	-0.0030729414
231	0xbb7da387	-0.0038702206
232	0x3d11fd31	0.035641853
233	0x3c91d90c	0.017803691
234	0xbe56c075	-0.20971854
235	0x3cc8b2b4	0.024499275
236	0x3d0d92ea	0.034563936
237	0x3e79edbe	0.24407098
238	0x3e14b98d	0.14523907
239	0x3df41320	0.1191771
240	0xbcd828d0	-0.026386648
241	0xbcaff321	-0.021478238
242	0xbdb36b31	-0.087606795
243	0xbe1cc113	-0.15308027
244	0x3e770c6c	0.24125832
245	0xbd07b951	-0.033135716
246	0x3e09a276	0.1344088
247	0xbe3cb905	-0.18429954
248	0xbdf57edd	-0.11987088
249	0x3d10edf0	0.035383165
250	0x3d93633e	0.07196663
251	0xbd92e089	-0.07171733
252	0x3dd238e2	0.10264756
253	0x3be277b5	0.006911243
254	0xbdc33b08	-0.09532744
255	0xbe701975	-0.23447211

net.4.bias f4 [128]
0	0x39a20153	0.00030900034
1	0xbadb5799	-0.001673448
2	0x39b6f28a	0.0003489445
3	0x3a8a7c15	0.0010565544
4	0x3a6b7bfe	0.0008983015
5	0xba43999c	-0.0007461549
6	0xba445909	-0.0007490074
7	0x371df85d	9.415756e-06
8	0xb9854064	-0.00025415712
9	0x3a68896e	0.0008870576
10	0xba2ad85d	-0.0006517226
11	0xba702dae	-0.000916208
12	0xb8861ae7	-6.394629e-05
13	0x3a7a09ad	0.0009538185
14	0xb8bf7077	-9.128538e-05
15	0x383b2270	4.4616347e-05
16	0x3adb15d5	0.001671488
17	0xb909cd0b	-0.00013141723
18	0xb9c29eb4	-0.00037120807
19	0x3aa17ad7	0.0012319934
20	0x3a483c81	0.00076384103
21	0xb99942a7	-0.00029232094
22	0xb9ed549a	-0.00045267196
23	0xb8049401	-3.1609092e-05
24	0xba3bca5a	-0.00071636366
25	0xba7390d7	-0.0009291297
26	0x3a86a8f3	0.001027374
27	0xba8c5a50	-0.0010708068
28	0x3a7ce83e	0.0009647644
29	0x3a18fc01	0.00058358914
30	0xb99a305e	-0.00029409205
31	0xba964ba7	-0.0011466638
32	0x3aa825eb	0.0012828683
33	0xba8dcf25	-0.001081918
34	0x3a00ccdb	0.00049133383
35	0x3a892360	0.0010462813
36	0xb926e114	-0.00015914842
37	0xb9c8f2b9	-0.00038327815
38	0xb9cc23e8	-0.00038936664
39	0xba51f9bf	-0.00080099324
40	0xb9ef5cdd	-0.0004565482
41	0x3991034b	0.0002765901
42	0xb91ac384	-0.0001475942
43	0x38f92b3c	0.00011881298
44	0x398bd38d	0.00026669764
45	0x3a7feaa4	0.0009762442
46	0xba49a248	-0.00076917233
47	0x3a570eb6	0.0008203791
48	0xba415059	-0.00073743385
49	0x3a90981e	0.0011031663
50	0x398cd0ae	0.0002685836
51	0xb9a9d78a	-0.0003239478
52	0x3a4c8b22	0.0007802715
53	0xba2c66aa	-0.00065765774
54	0x3a7315c5	0.0009272958
55	0x3a46472a	0.0007563705
56	0xba11b481	-0.0005558208
57	0x398f4081	0.00027323145
58	0x39758467	0.00023414344
59	0xb7b06cc4	-2.1031483e-05
60	0x3abe3fb6	0.0014514837
61	0x3998c32b	0.0002913711
62	0xb8b2236c	-8.494299e-05
63	0xba5db744	-0.00084577897
64	0x3702331b	7.760503e-06
65	0xbb235f6c	-0.0024928702
66	0x39da137e	0.00041594723
67	0x39efe775	0.0004575808
68	0xb886b0f4	-6.422578e-05
69	0xb9fa9308	-0.00047793263
70	0xb8d8d89b	-0.000103400285
71	0xb9338cab	-0.00017123173
72	0xb9c03186	-0.00036657992
73	0xb9b0ea6a	-0.00033743988
74	0xba835f02	-0.0010022821
75	0x39dcebb7	0.0004213729
76	0x3a657b66	0.00087540445
77	0xba81b89f	-0.000989694
78	0x3b0bb431	0.002131712
79	0xb8dfe68a	-0.0001067641
80	0xbab99dbd	-0.001416139
81	0x3951a3e5	0.00019992849
82	0x3a663d8f	0.00087829767
83	0xba7210ee	-0.000923409
84	0xb8990031	-7.295644e-05
85	0xba03eea9	-0.00050328166
86	0xba095575	-0.00052388693
87	0x390756c4	0.00012906926
88	0xb996b1a7	-0.0002874259
89	0x39d50127	0.00040627384
90	0x37e867aa	2.7704828e-05
91	0xba3e1cd9	-0.00072522234
92	0xba73328c	-0.00092772464
93	0xbadcb905	-0.0016839808
94	0x3af7d9df	0.0018909535
95	0xba806224	-0.0009794873
96	0xba60ac42	-0.000857059
97	0xb9955b7c	-0.00028487656
98	0xb96c48cc	-0.00022533833
99	0x3a8d5354	0.001078228
100	0xba9925ba	-0.0011684217
101	0xba5081d6	-0.00079539174
102	0xba41413a	-0.0007372085
103	0x39ad51ca	0.0003305807
104	0xb885842c	-6.366553e-05
105	0x38b82558	8.7807595e-05
106	0x3a6a25e9	0.00089320407
107	0xb9369330	-0.00017411704
108	0xb9f0710a	-0.00045860588
109	0xb68336e7	-3.9104957e-06
110	0x3abb5cfb	0.0014294678
111	0x3a88b9fd	0.0010431405
112	0x39c0710d	0.00036705323
113	0x37225b6f	9.677241e-06
114	0x39842bb1	0.00025209555
115	0x3a9f95e7	0.0012175412
116	0xba02725e	-0.00049761485
117	0x39b95c3c	0.0003535467
118	0xb92b7fca	-0.00016355436
119	0x3a3752e7	0.00069932494
120	0x388d39fc	6.734204e-05
121	0x38121cff	3.4836117e-05
122	0xb81b355d	-3.700458e-05
123	0x38aed78b	8.3371146e-05
124	0x399a2009	0.00029397037
125	0x3a5ab7b4	0.0008343414
126	0x39b0bab4	0.0003370844
127	0x39a870ab	0.000321274

net.5.weight f4 [128]
0	0x3f7da34f	0.99077314
1	0x3f813e0b	1.0097059
2	0x3f85193d	1.0398327
3	0x3f77999b	0.9671876
4	0x3f793833	0.9735138
5	0x3f8a0cd3	1.0785164
6	0x3f78074e	0.96886146
7	0x3f749b07	0.9554905
8	0x3f84e467	1.0382203
9	0x3f861b11	1.047701
10	0x3f78aa8b	0.9713523
11	0x3f7845dd	0.969816
12	0x3f6fdfcb	0.93700856
13	0x3f86d236	1.0532901
14	0x3f763e7c	0.96189094
15	0x3f794acb	0.9737975
16	0x3f8e8998	1.113574
17	0x3f7a5456	0.97784936
18	0x3f80da42	1.0066607
19	0x3f7c2855	0.9849904
20	0x3f845c46	1.034066
21	0x3f7b5763	0.98180217
22	0x3f842b5f	1.0325736
23	0x3f837085	1.0268713
24	0x3f81bd2e	1.0135858
25	0x3f754cd7	0.95820373
26	0x3f869de7	1.0516938
27	0x3f70e855	0.9410451
28	0x3f7b5961	0.98183256
29	0x3f75a718	0.9595809
30	0x3f83d6eb	1.0299963
31	0x3f84a30b	1.0362257
32	0x3f802e92	1.0014212
33	0x3f813828	1.0095263
34	0x3f753fb8	0.9580035
35	0x3f8056e3	1.0026516
36	0x3f83696f	1.0266551
37	0x3f7b7711	0.98228556
38	0x3f70ccf2	0.9406272
39	0x3f841216	1.0318019
40	0x3f7d6b55	0.989919
41	0x3f821261	1.0161859
42	0x3f7e3028	0.9929223
43	0x3f775c3d	0.9662512
44	0x3f86ba47	1.0525597
45	0x3f79a9ba	0.9752461
46	0x3f852a24	1.0403485
47	0x3f8138ea	1.0095494
48	0x3f7e4bd4	0.99334455
49	0x3f8ad1c5	1.0845267
50	0x3f7d7840	0.9901161
51	0x3f793c3a	0.97357523
52	0x3f849286	1.0357215
53	0x3f8bb298	1.0913877
54	0x3f76db9c	0.9642885
55	0x3f761e33	0.9613983
56	0x3f856c73	1.0423721
57	0x3f8255d2	1.018244
58	0x3f6df365	0.92949516
59	0x3f839315	1.0279261
60	0x3f7e86e8	0.994246
61	0x3f74e2a1	0.9565831
62	0x3f732db4	0.9499161
63	0x3f7d5b3a	0.98967326
64	0x3f893338	1.0718756
65	0x3f877f10	1.0585651
66	0x3f887f5d	1.0663868
67	0x3f793dab	0.9735972
68	0x3f8070ce	1.0034425
69	0x3f82224b	1.0166715
70	0x3f7d5467	0.9895691
71	0x3f67308e	0.90308464
72	0x3f7a5a5b	0.9779412
73	0x3f7aaedd	0.9792307
74	0x3f73f9b9	0.9530292
75	0x3f793909	0.97352654
76	0x3f73d65f	0.9524898
77	0x3f821479	1.0162498
78	0x3f7f5e1b	0.9975297
79	0x3f77194d	0.9652298
80	0x3f70154f	0.93782514
81	0x3f7fb3d6	0.9988378
82	0x3f80bfc4	1.0058522
83	0x3f789710	0.97105503
84	0x3f7bff7e	0.98436725
85	0x3f7597bd	0.9593466
86	0x3f8251b4	1.0181184
87	0x3f857684	1.0426793
88	0x3f824561	1.0177423
89	0x3f7b62f5	0.9819787
90	0x3f868055	1.0507914
91	0x3f80d2f3	1.0064377
92	0x3f7ecae6	0.9952835
93	0x3f7d7f8e	0.9902276
94	0x3f869e5b	1.0517076
95	0x3f7cb989	0.98720604
96	0x3f785adf	0.9701366
97	0x3f7a7c23	0.9784567
98	0x3f874227	1.0567063
99	0x3f75bac4	0.95988107
100	0x3f7f6eda	0.9977852
101	0x3f71532a	0.94267523
102	0x3f8df72c	1.1091056
103	0x3f7a9595	0.97884494
104	0x3f8014b2	1.0006316
105	0x3f83cf68	1.029767
106	0x3f8306f7	1.02365
107	0x3f8423cd	1.0323426
108	0x3f82895d	1.019817
109	0x3f73b47a	0.9519726
110	0x3f87bab9	1.0603858
111	0x3f79db31	0.97600085
112	0x3f7ae71c	0.98008895
113	0x3f7e89db	0.994291
114	0x3f7872b6	0.97050035
115	0x3f6f4547	0.93465084
116	0x3f7dde19	0.9916702
117	0x3f7f13e0	0.996397
118	0x3f7fb25c	0.9988153
119	0x3f8255e5	1.0182463
120	0x3f7ba47d	0.98297864
121	0x3f7a86fb	0.97862214
122	0x3f760c23	0.9611227
123	0x3f8254b1	1.0182096
124	0x3f78cb6f	0.97185415
125	0x3f81d5ca	1.0143368
126	0x3f7ec766	0.9952301
127	0x3f870db4	1.0551057

net.5.bias f4 [128]
0	0xbd488a4c	-0.048960015
1	0xba3ec1ad	-0.0007276785
2	0x3cd6da97	0.026227279
3	0x3cab9ad3	0.02094785
4	0xbc91f1aa	-0.01781543
5	0x3ce2a066	0.027664375
6	0xbc4a34f9	-0.012341731
7	0x3a90de84	0.0011052643
8	0xbd6a4767	-0.057197
9	0x3d895e96	0.06707494
10	0xbd7c3030	-0.061569393
11	0xbd51d09a	-0.05122433
12	0xbdcf6738	-0.10127109
13	0x3d45c82e	0.04828661
14	0xbcc65bf4	-0.024213769
15	0xbd2b2fa4	-0.04179348
16	0x3d724bf2	0.05915446
17	0x3bbec373	0.005821639
18	0xbb08f31b	-0.0020896855
19	0xbce63a57	-0.02810399
20	0x3d264418	0.040592283
21	0x3c79b05f	0.015239804
22	0xbd224611	-0.0396176
23	0x3d2d8dbc	0.042371497
24	0x3c52bbcc	0.012862157
25	0xbce7b787	-0.028285755
26	0xbcaff788	-0.021480337
27	0xbd674c95	-0.05646952
28	0x3c1da685	0.009622221
29	0xbd59028d	-0.05298095
30	0x3dabd20e	0.08389674
31	0x3cd63e18	0.026152655
32	0xbc34fccd	-0.0110466005
33	0x3c4ecd16	0.0126221385
34	0xbced5c5c	-0.028974704
35	0x3cc9fbf8	0.02465628
36	0x3c0ce84e	0.008600308
37	0xbb796448	-0.0038054157
38	0xbd2014d7	-0.039082374
39	0xbccbf8d8	-0.024898931
40	0xbccc16e1	-0.024913253
41	0x3d89ff1a	0.0673811
42	0x3c7109dc	0.014711823
43	0xbce5d95c	-0.028057747
44	0x3cb901ae	0.022583809
45	0xbcfe7a47	-0.031064166
46	0x3d34d8ff	0.044152256
47	0xbd242e3a	-0.040083148
48	0xbceb529f	-0.02872592
49	0x3db0df08	0.0863629
50	0x3cb01b65	0.021497438
51	0xbd279e44	-0.04092242
52	0x3d40399b	0.046929937
53	0x3d9a7ec2	0.075437084
54	0xbc8c7d20	-0.017149508
55	0xbd17918f	-0.03700405
56	0xbd1cfb7e	-0.03832578
57	0x3cb0205c	0.021499805
58	0xbd85ce5d	-0.06533501
59	0xbaeddf0b	-0.0018148137
60	0xbc88f311	-0.016717466
61	0xbd16e8a6	-0.036842965
62	0xbc332685	-0.010934477
63	0xbae677cc	-0.001758331
64	0x3d487a2a	0.04894463
65	0x3d872df2	0.0660056
66	0x3da258e4	0.07927111
67	0xbccde55f	-0.025133787
68	0x3bbf24bc	0.0058332365
69	0x3cdac32f	0.026704399
70	0xbd3f4237	-0.046694007
71	0xbd897daa	-0.06713422
72	0xbc0ae896	-0.008478304
73	0x37962090	1.7896557e-05
74	0xbd4dbae8	-0.050227076
75	0xbb423124	-0.002963134
76	0xbcfb0006	-0.03063966
77	0x3b1a272e	0.0023521888
78	0xbd207eb3	-0.03918333
79	0xbc83c1d4	-0.016083635
80	0xbd84db49	-0.06487138
81	0x3ca099d6	0.019604605
82	0xbc58a100	-0.013221979
83	0xbbd10442	-0.0063786814
84	0xbd656773	-0.05600686
85	0xbd4e0c1f	-0.05030453
86	0x3b972424	0.0046124626
87	0x3d8b3a74	0.067982584
88	0x3c000d1d	0.007815626
89	0xbd8d7523	-0.06907108
90	0x3cf3cec2	0.029761676
91	0x3c25e77b	0.01012599
92	0xbbaafe5f	-0.0052183117
93	0xbc3b5222	-0.011433156
94	0x3d9a2df6	0.075282976
95	0x3bbfeee0	0.0058573335
96	0xbce6984d	-0.028148795
97	0xbbfc666b	-0.007702639
98	0xbbfe2088	-0.007755343
99	0xbc8ac66d	-0.01694032
100	0x3d46aaaa	0.0485026
101	0xbc9e7ad9	-0.019345688
102	0x3d0d3fc9	0.03448466
103	0xbc7d6b29	-0.0154674435
104	0xbcdd11c4	-0.02698601
105	0x3c9820a0	0.018570244
106	0x3c9da765	0.019244859
107	0x3b15357b	0.0022767473
108	0xbc4e10ab	-0.012577216
109	0xbd736abd	-0.059427965
110	0x3d360e5c	0.044447288
111	0x3bdb4940	0.0066920817
112	0xbcd3a3bc	-0.02583491
113	0xbd21f530	-0.03954047
114	0x3bf67011	0.0075206836
115	0xbd89082d	-0.066910125
116	0x3d4fdd40	0.05074811
117	0x3c99ce01	0.018774988
118	0x3b3e4321	0.0029031711
119	0x3d2118c7	0.03933027
120	0xbcb23dc4	-0.021757968
121	0x3c729e3b	0.014808233
122	0xbd3d898a	-0.046273746
123	0xbcc9f659	-0.0246536
124	0x3cae0c29	0.021246033
125	0x3d381e33	0.044950675
126	0xbd2ba4d0	-0.041905224
127	0x3ce40d34	0.027838327

net.5.running_mean f4 [128]
0	0x3d7b75e4	0.061391726
1	0x3e697a35	0.22800525
2	0x3f4ff875	0.8123849
3	0xbec5cf72	-0.3863483
4	0xbf0cbcf2	-0.5497581
5	0x3ccd054d	0.025026942
6	0x3e25896b	0.16165702
7	0x3f337b52	0.70110047
8	0x3eaff8ce	0.3436951
9	0xbeffbcc7	-0.49948713
10	0x3dfb520d	0.12271509
11	0xbdeff2d6	-0.11716239
12	0x3fb7d2a6	1.436116
13	0xbf42847a	-0.75983393
14	0xbf162bbc	-0.58660483
15	0x3f1b8701	0.60752875
16	0x3e7cfc9e	0.24705741
17	0x3f9d76a5	1.2301832
18	0x3f2922ba	0.66068614
19	0x3e3b065d	0.18264146
20	0xbf38bf1d	-0.72166616
21	0x3f19a6d4	0.60020185
22	0x3f274380	0.6533737
23	0xbeb19d1a	-0.3469017
24	0xbf807598	-1.0035887
25	0x3d9bb787	0.076033644
26	0x3fe4c2b4	1.7871919
27	0x3d2d5e24	0.042326108
28	0xbcddccb8	-0.027075157
29	0xbd1c3dba	-0.038144805
30	0xbf043e00	-0.51657104
31	0x3f05adbe	0.52218235
32	0x3ea1b751	0.31585172
33	0x3e1e29e7	0.15445672
34	0xbf965e61	-1.1747552
35	0xbdd1b4b4	-0.102395445
36	0xbf7ce912	-0.9879314
37	0x3eba4f13	0.36388454
38	0xbd9d69fa	-0.07686229
39	0x3f1d01f1	0.6133109
40	0x3f55372f	0.8328733
41	0x3cd6a5e6	0.026202153
42	0xbf19e026	-0.6010765
43	0x3e695998	0.22788084
44	0x3f57bc99	0.8427215
45	0x3f2bff1f	0.6718616
46	0xbfbc6b99	-1.4720336
47	0x3f8789d2	1.0588934
48	0x3e7bbe50	0.24584317
49	0xbf62ac92	-0.8854457
50	0xbfa09219	-1.2544585
51	0x3ee2aec4	0.4427396
52	0xbf0f5f82	-0.5600511
53	0x3d8b98df	0.06816267
54	0xbf9fd526	-1.2486923
55	0x3e947f03	0.29003152
56	0x3f2ee22d	0.68313867
57	0xbe1413c6	-0.14460668
58	0xbeb2c47e	-0.34915537
59	0x3e8d3379	0.27578333
60	0xbec95719	-0.39324263
61	0x3de1fb00	0.110342026
62	0xbfad0863	-1.3518184
63	0xbf02a616	-0.5103468
64	0xbbe14467	-0.0068746093
65	0xbf615319	-0.8801742
66	0xbe9b7733	-0.3036438
67	0x3f4f200e	0.80908287
68	0x3e380780	0.17971611
69	0xbf16ca22	-0.5890218
70	0x3f1d4689	0.61435753
71	0xbe9508ec	-0.2910837
72	0xbe137acd	-0.14402314
73	0x3e218bbd	0.15775962
74	0xbeff7604	-0.49894726
75	0xbf8b8b7f	-1.0901946
76	0xbcd09645	-0.02546228
77	0x3bae2281	0.005314172
78	0x3eda3a2c	0.42622507
79	0xbf217b87	-0.6307911
80	0x3e90cf9b	0.2828339
81	0xbde81350	-0.113318086
82	0xbd295435	-0.04134007
83	0xbf5d60d5	-0.8647588
84	0x3fb24e0a	1.3930066
85	0x3ea8c7dd	0.32964984
86	0x3f04d1f7	0.5188288
87	0x3e35b072	0.1774309
88	0xbf83c201	-1.029358
89	0x3f397d97	0.7245726
90	0x3e8bcf76	0.27306718
91	0x3f880cc7	1.0628899
92	0x3e8f8ef1	0.28038743
93	0xbec8c8e3	-0.39215764
94	0xbf5b55c0	-0.8567772
95	0xbea85129	-0.3287442
96	0xbf4d435a	-0.80180895
97	0x3ee2e3bb	0.4431437
98	0xbfb0b534	-1.3805299
99	0xbe6c4d73	-0.2307642
100	0xbed01781	-0.40642932
101	0xbf4a6727	-0.7906365
102	0x3ec5d531	0.38639215
103	0xbfabd24c	-1.3423553
104	0x3ea980c5	0.33106056
105	0x3eb22b56	0.34798688
106	0xbf398dc3	-0.72481936
107	0x3f97dc47	1.1864098
108	0x3eae5f1d	0.3405694
109	0x3f1d7d89	0.61519676
110	0xbf51c5cb	-0.81942433
111	0x3f119266	0.5686401
112	0xbf82e19d	-1.0225102
113	0x3f7f355c	0.99690795
114	0xbee287b5	-0.4424416
115	0xbe3f6c9c	-0.18693775
116	0xbf309331	-0.68974596
117	0xbf1d8d0c	-0.61543345
118	0x3efdecb5	0.49594656
119	0xbecf4751	-0.40484098
120	0xbf0acc0c	-0.542176
121	0xbf2dcc3d	-0.6788977
122	0xbf5e4567	-0.8682465
123	0x3fc23156	1.5171306
124	0xbe80a54e	-0.25126117
125	0xbf0cb229	-0.5495935
126	0x3f553989	0.83290917
127	0x3eacd1a0	0.3375368

net.5.running_var f4 [128]
0	0x3f7e26fb	0.9927823
1	0x3f807cfb	1.0038141
2	0x3fdf7979	1.7458946
3	0x3f9fbbaa	1.2479146
4	0x3f626102	0.8842927
5	0x3fabb3c7	1.3414239
6	0x3f9d6b34	1.2298341
7	0x3f95dc4c	1.1707854
8	0x3fff0264	1.9922605
9	0x3fb1208f	1.3838061
10	0x3f416ce4	0.7555678
11	0x406fe5b5	3.7483952
12	0x400b5f33	2.1776855
13	0x3fb60cfb	1.4222711
14	0x401c2734	2.4398928
15	0x3f59f1cb	0.8513457
16	0x3fd6283b	1.6731027
17	0x3f70d21a	0.9407059
18	0x3f6b072c	0.9180782
19	0x3f8d4b1c	1.1038547
20	0x3fafd98b	1.3738264
21	0x3f49fc07	0.7890019
22	0x3f633940	0.8875923
23	0x3fa3f4db	1.2809099
24	0x3fc5593b	1.5417856
25	0x3f82e8fa	1.0227349
26	0x406f9cec	3.7439528
27	0x3f8fb3da	1.1226761
28	0x3f6e8540	0.93172073
29	0x40136e8e	2.3036227
30	0x3fbc2870	1.469984
31	0x3f2c6699	0.6734405
32	0x3f8e6d5f	1.1127127
33	0x3fa75bb8	1.3074865
34	0x402c8613	2.6956832
35	0x3fba3d6b	1.4549993
36	0x3fbd1694	1.4772515
37	0x3f9e751e	1.2379491
38	0x3fb89b5f	1.4422415
39	0x3fede9bc	1.8586955
40	0x3f97c519	1.1857024
41	0x3fe48e2a	1.7855885
42	0x3fd52db4	1.6654572
43	0x3f2df3e4	0.6795027
44	0x400bb188	2.1827106
45	0x3f8764ca	1.0577633
46	0x4008b535	2.13606
47	0x401689f7	2.3521707
48	0x3fdcec8e	1.7259691
49	0x3fd7c6f4	1.6857591
50	0x3f96002d	1.1718804
51	0x3f5b9101	0.85768133
52	0x3f794514	0.9737103
53	0x3faa3939	1.3298713
54	0x402061a3	2.5059593
55	0x3f403999	0.7508789
56	0x3fbcd055	1.4751078
57	0x3f9dc34f	1.2325228
58	0x40034252	2.0509229
59	0x3f516bf7	0.81805366
60	0x3f6f6098	0.93506765
61	0x404dbb6f	3.214565
62	0x403892fc	2.8839712
63	0x3fbc93a1	1.4732553
64	0x3fc899cc	1.5671935
65	0x3fce34d4	1.6109872
66	0x3fb0edbc	1.3822551
67	0x4056baa0	3.3551407
68	0x3f6ca637	0.92441124
69	0x3fa1242e	1.2589166
70	0x3f385af0	0.7201376
71	0x3f3ff5bd	0.7498434
72	0x3f7cf0a5	0.98804694
73	0x3f946d4a	1.1595852
74	0x3f9643c8	1.1739435
75	0x3fe4766f	1.7848643
76	0x3f53f57a	0.8279644
77	0x3fa9a07d	1.3252102
78	0x3fb23fd2	1.3925726
79	0x3ff600d9	1.9219009
80	0x3f6bde83	0.921364
81	0x40472d1b	3.112128
82	0x3fd3d9fe	1.6550901
83	0x3fdbf807	1.7185067
84	0x3fe7c151	1.810587
85	0x3f9c1474	1.2193742
86	0x3fa3d22f	1.2798518
87	0x3fb7f528	1.4371691
88	0x3fe69275	1.8013445
89	0x3fc317b0	1.5241604
90	0x3f802703	1.0011905
91	0x4002fcd0	2.0466805
92	0x3fc1a84b	1.5129484
93	0x3fc7adc7	1.5599908
94	0x3fb58b5b	1.4183153
95	0x3f2039eb	0.62588376
96	0x3fe4a722	1.7863505
97	0x3ff432bb	1.9077982
98	0x4000cdbf	2.0125577
99	0x4017fdea	2.3748727
100	0x4010c3fb	2.2619617
101	0x3fe1ba22	1.7634928
102	0x3fec0648	1.8439417
103	0x40078d01	2.1179812
104	0x3fc1e489	1.5147868
105	0x3f9e4f16	1.2367885
106	0x3f908415	1.1290308
107	0x3fb0aacf	1.3802127
108	0x3f94f80f	1.1638201
109	0x3fb86958	1.4407148
110	0x3ff404e0	1.9063988
111	0x401a900f	2.4150426
112	0x4035af2e	2.8388171
113	0x3fca6b36	1.5813968
114	0x3f5d8af1	0.8654013
115	0x3ff132c5	1.8843619
116	0x3f956acd	1.1673218
117	0x3f7e89f3	0.99429244
118	0x3fa4a7fd	1.2863766
119	0x3fe24d70	1.7679882
120	0x3f626572	0.88436043
121	0x3fa1e88e	1.2649095
122	0x4082692c	4.0753384
123	0x4026e322	2.607613
124	0x3f8e69a0	1.1125984
125	0x3fe3196a	1.7742131
126	0x3f9abbaa	1.208852
127	0x3fa17ab4	1.2615571
