E2NN/Trained_models_h128_s20_20250726_155735/vanillarnn_model.pth (torch, 577266 bytes, 18 tensors)

input_net.0.weight f4 [128, 9]
00000000: d1dd 36be 8127 aa3e 0679 bd3e d27a 793f
00000010: 41d5 90bc 9ebc fd3d e875 55bf 46b8 17bf
00000020: ca04 903e 5799 1c3f 8f22 fb3e 462c c83d
00000030: 5891 003e b81f fbbd 718c e83d 166e cabe
00000040: 108f 51be 4f39 2b3e 3b85 c63e c76b 063f
00000050: 19a8 713f aefd 523f 799f c73d b6ca f33e
00000060: 78c3 b8be 2246 ae3e 6935 babe 21ac d3bd
00000070: 4cff 4e3e 9d86 4ebe b9cb 09be bb54 423f
00000080: 2768 c83d 8d32 d53e 0650 8cbe 333f 0d3f
00000090: 19fe 083c 018a 283f 9f84 7bbf 5dc0 97be
000000a0: e3f1 2c3e b665 1dbf 9b1a 003f 0cad 843e
000000b0: df0f 483f 690c 41bf baf4 c6be 00ed 9cbe
000000c0: f46c a5be 4322 13be b45b 0b3f 7cf0 adbd
000000d0: a387 ec3e 1334 21be 9268 c23d ab24 0fbf
000000e0: ee0b 7cbe 0bd6 e0be ae96 293f b9fd aebd
000000f0: 454b b0be 9bf4 cb3e 4f4b 003f 8397 97be
00000100: 4b85 b03d 1693 0b3e 9d23 a23e 7326 0ebe
00000110: 9486 493f b844 9d3e 3327 033a 9ea1 7fbe
00000120: cf3b 8abe d994 ce3e da0e fd3e 6bf1 d63d
00000130: 48fa 843f 3ba4 1fbd 27da 08bf 335e ab3e
00000140: aa38 f1bd fd33 373f 4346 0d3e ec3b 5e3e
00000150: a2b9 363e 8156 02bf 866b 0c3f b815 983e
00000160: 88b1 a8be 0830 203e 8a24 8c3e 7af8 fdbe
00000170: a965 87be 302e a23d b778 11bf 6c98 953d
00000180: 32d0 333f 82ee 303f 6fa5 e83e 036a 553e
00000190: 8137 8cbe 0f1a 37be f7f5 ed3e 549d 223d
000001a0: 859f 6c3d 1ef2 f43c aeb3 ed3e 9466 8d3e
000001b0: 69d4 973e ae50 203e 36a1 0ebe c3e1 8d3c
000001c0: 98ea 6f3c a5d5 533e 57bc 1a3e 55f2 e8be
000001d0: 8ae2 0d3f 9677 5f3e 2417 e7bc 5ed2 07bf
000001e0: 6a18 18be acf1 23bf 3f96 06bc 32b3 25bf
000001f0: 0ef0 423f a74e 8e3d d5fb aebe 3483 6a3f
00000200: ae8f b43d d6b0 bb3e 5b17 87be 6c1e 36bf
00000210: 2b65 1d3f 8bf5 8d3e 17e7 473e 2dde 1abe
00000220: b3c9 e9be 5131 673f f4a3 253f 57a1 b13e
00000230: fad1 433f e4d7 9ebe cbe8 523e 2ebf a8be
00000240: d79a e13d 8e1b 2b3e df00 493f 9101 123d
00000250: 9ae0 9abe c124 3b3f fa54 47bf ae6e 9dbe
00000260: b401 503e 2e44 d73e 44f8 9a3f 0b7c 25bd
00000270: 499e e6bd df9d d23e 2993 00be 5349 1bbf
00000280: 7f42 3dbd 2fa0 3cbf 2b2c 233e eb42 35be
00000290: 4fb9 39be 19c2 babe 7021 f53d e971 003e
000002a0: 9fa8 11bf 94e8 fbbe 03d9 4dbe d9eb a1be
000002b0: 3ded 23be 6d95 a03e 40d9 f6bd 5719 b4be
000002c0: b614 ef3e a92b 343f d92f cc3d 5dde 57bf
000002d0: 0b09 8bbe 9857 4e3f 93ab 3cbf a55c d4ba
000002e0: 629b 613f 1ae6 d4be 57f5 abbe f9ad 3e3f
000002f0: 9b7d f73e e784 bf3e 159c 39bf a6fc 0a3e
00000300: f624 773e 8b8c 423e e3c4 2e3d 6410 a63e
00000310: c512 03bd 3250 14be fdf3 b03d 6815 6bbf
00000320: 889a 7abe 2fea 09be e4eb 99bf 987a 973d
00000330: 5a61 48be 4f21 29bc fe11 e93d 59a6 a7bd
00000340: 6c4f 26be f376 033d 33fd 7d3e 64c3 b63d
00000350: d890 2cbf f10e 32bf b551 1bbf 02b2 ca3e
00000360: 4003 303f 67b4 703f bb9b 0ebf 1fb9 fabd
00000370: 8542 903e 2e8f 2cbf 35f6 213f 990b fa3d
00000380: f9a9 6ebf f219 d6bd 3ff3 b53e dbf8 b1be
00000390: a8f8 eebe a470 42bf d888 4b3f 46e6 c43d
000003a0: cd9d 35be 55d7 e6be a6b3 12bf 3f7b 34be
000003b0: 0cc7 dfbd a982 3b3e d59c 61bd b1bf b0be
000003c0: 1ee6 793c 0cca ddbe 40c3 dcbd b985 0dbe
000003d0: cd00 f8bc 4f53 d1be 6232 99be 13ec 1abf
000003e0: f69a 4a3f ff57 503f 114a 0abf 0254 1abf
000003f0: 2909 393e 20a0 c3be 9a5f 053f acba 4c3f
-0.17858054 0.33233264 0.37006396 0.97453034 -0.017679812 0.123894915 -0.83383036 -0.59265554
0.28128654 0.6117148 0.49049804 0.097740695 0.12555444 -0.12261909 0.11354912 -0.39537114
-0.2046473 0.1672108 0.38773522 0.52508205 0.9439712 0.82418334 0.09747214 0.47615594
-0.3608663 0.34037882 -0.36368874 -0.10335565 0.20214576 -0.20168538 -0.1345662 0.7591054
0.097854905 0.4164013 -0.27404803 0.5517456 0.008361363 0.6583558 -0.9824924 -0.2963895
0.16889147 -0.61483324 0.50040597 0.25913274 0.7814922 -0.7540956 -0.38858587 -0.30649567
-0.32309687 -0.14368539 0.544368 -0.084931344 0.46197233 -0.15742521 0.094926015 -0.55915326
-0.24613926 -0.43913302 0.66245544 -0.085444875 -0.34432426 0.39835057 0.5011491 -0.29607782
0.086191736 0.13630328 0.31667796 -0.13881855 0.78720975 0.3071649 0.00050030946 -0.24963996
-0.26998755 0.40347937 0.49425393 0.104952656 1.038888 -0.03897498 -0.53457874 0.33470306
-0.11778386 0.715637 0.13796334 0.21702546 0.17844251 -0.50913244 0.5485157 0.2970407
-0.32947946 0.15643322 0.27371627 -0.49603635 -0.26444748 0.07918966 -0.5682482 0.07304463
0.70239556 0.69113934 0.45438716 0.20841222 -0.27386096 -0.17881034 0.4647672 0.03970082
0.057769317 0.029900607 0.46426147 0.27617323 0.29654244 0.15655777 -0.13928685 0.017319566
0.014643334 0.20686968 0.15110908 -0.45497385 0.55423796 0.21822962 -0.028209276 -0.5305537
-0.14853063 -0.64040637 -0.008214532 -0.64726555 0.76147544 0.069485955 -0.34176508 0.9160645
0.08816467 0.36658353 -0.26385006 -0.7114017 0.61482495 0.27726397 0.19521748 -0.15123816
-0.45661697 0.90309626 0.647033 0.34693405 0.76492274 -0.31024086 0.20596616 -0.3295836
0.110158615 0.1670973 0.78516954 0.035646025 -0.30249482 0.73102957 -0.7786404 -0.30748504
0.2031315 0.42044204 1.2107015 -0.0404015 -0.11260659 0.4113607 -0.12556137 -0.6065876
-0.046205994 -0.7368192 0.15934817 -0.17701308 -0.18137096 -0.3647621 0.11969268 0.12543453
-0.5689792 -0.4920088 -0.20102315 -0.3162525 -0.16008468 0.31364003 -0.12053156 -0.35175583
0.4669549 0.7037912 0.09970064 -0.84323674 -0.27155337 0.8060241 -0.736993 -0.0016201927
0.8812772 -0.41581804 -0.33585617 0.7448421 0.48338017 0.37406084 -0.7250379 0.1357294
0.24135193 0.18998925 0.042668235 0.3243438 -0.032000322 -0.14483717 0.08640287 -0.9182954
-0.24473011 -0.1346824 -1.2025113 0.0739643 -0.19568387 -0.010322883 0.11380385 -0.08186025
-0.16241235 0.03209586 0.24803619 0.089239866 -0.67408514 -0.6955405 -0.6067155 0.39588934
0.6875496 0.9402527 -0.55706376 -0.1224234 0.2817575 -0.67405975 0.6326631 0.12209243
-0.9322811 -0.104541674 0.35537145 -0.34760174 -0.46674085 -0.75953126 0.7950568 0.09614234
-0.17735977 -0.4508616 -0.5730537 -0.1762514 -0.10926637 0.18311562 -0.055081207 -0.3452125
0.015252618 -0.43318212 -0.107794285 -0.13820542 -0.03027382 -0.40883872 -0.29921252 -0.6051647
0.791427 0.8138427 -0.54019266 -0.60284436 0.180699 -0.38208103 0.52099 0.7997234

input_net.0.bias f4 [128]
00000000: b110 0d38 ae56 963a 3e0d c839 da38 9138
00000010: 9478 3439 7088 18ba 2fda 94b9 5fb3 5b39
00000020: 431c 0cba 2b05 fa39 5c81 02bb 6fe9 3ebb
00000030: a821 4339 d776 553a 19c0 7bba ce7f 18b9
00000040: 0816 55ba 5e3d 3bba 1a31 3abb fe17 aaba
00000050: 414a 8bba 58f6 d13a 4d33 0bbb cb3f b5b9
00000060: 8a2e f4ba 57aa 03bb 256f 983b 0501 b53a
00000070: b78d b63a c158 363a 7e1c da39 4bbd bd3a
00000080: 7f51 34ba d62a bc3a 362b b939 0251 1eb9
00000090: b270 543b f363 913a 3833 deb7 457e 87b8
000000a0: b0f7 8c3a 4b22 d63a b218 ce37 72f0 ed3a
000000b0: c0cc bc3b e97b c539 5fea b33a ad66 a439
000000c0: c486 783a 7029 c5b8 8db6 84b9 ff80 353a
000000d0: b19a 89ba 8e99 9e3a 073b ac3a 3fba 1038
000000e0: 0491 2a3b 4f46 7839 2f1d adba ae9f 623a
000000f0: 1119 413a 353f c8b9 ad9a 8f3a 730a 953a
00000100: d15c 96ba 454e 4fba 2012 273b 78f3 34bb
00000110: 77cb 3cb9 ba6f 3438 9b11 96ba e03b b7ba
00000120: ad3a 9f3a 3b05 c43a 0780 09bb e03e 22bb
00000130: 0999 053a 591d 00ba ac64 333c 40ea 203b
00000140: 8938 68ba 8a4a 8bba 569b 8bb9 fc2d 4dba
00000150: 1976 42ba b3cf 13bb df96 c339 61ff dcb9
00000160: 1bb5 903a 370b 563b e604 b63a 69c3 0c3b
00000170: c513 68b9 5168 163b c0a8 1cba 9fa0 a1ba
00000180: 6aee ac3b 4811 09b9 985b b0ba 5072 e639
00000190: 0994 e0b9 e8a8 ae3a 19e2 1639 d757 053a
000001a0: 776f 97b9 cc2d 02ba 03d3 463b a33e c839
000001b0: c6ae 77ba 29fc 9fba 51c6 d53a a371 2a3a
000001c0: ecab 21bb d3e6 89ba 9489 13ba 718d 9c38
000001d0: 09d1 c139 dd7c 0e3a bb63 993a 3214 163a
000001e0: eb21 80ba 4e44 b4b9 a73e a8ba b2cd b139
000001f0: 58a5 f8b9 9fc6 a23a dbe6 eeb9 d9b8 233a
3.3632565e-05 0.0011469924 0.0003815684 6.924728e-05 0.00017211057 -0.00058186706 -0.0002839132 0.00020952288
-0.00053447875 0.00047687566 -0.001991353 -0.0029130836 0.00018609187 0.00081430137 -0.0009603515 -0.0001454346
-0.0008128588 -0.00071426283 -0.0028410614 -0.0012977121 -0.0010626988 0.0016018851 -0.0021240294 -0.0003457054
-0.0018629592 -0.0020090544 0.0046519213 0.0013809508 0.0013927732 0.00069559744 0.00041601429 0.0014475969
-0.0006878599 0.0014356028 0.00035318144 -0.00015098232 0.0032415804 0.0011092409 -2.6488313e-05 -6.460821e-05
0.0010754969 0.0016337124 2.4568613e-05 0.0018153323 0.005761713 0.00037667088 0.0013726464 0.00031357017
0.0009480531 -9.40141e-05 -0.00025313013 0.0006923824 -0.0010498372 0.0012100206 0.001314015 3.450573e-05
0.0026026377 0.00023677315 -0.001320755 0.000864501 0.0007366101 -0.00038194066 0.0010956131 0.0011370912
-0.0011471753 -0.00079080864 0.002549298 -0.002761094 -0.00018004874 4.3019398e-05 -0.0011449339 -0.0013979636
0.0012148224 0.0014955172 -0.0020980851 -0.0024756715 0.00050963514 -0.00048871856 0.010949295 0.0024553686
-0.0008858522 -0.0010627073 -0.0002662788 -0.00078269816 -0.00074181106 -0.0022554218 0.00037305706 -0.00042151942
0.0011040302 0.0032660493 0.0013886958 0.0021478778 -0.00022132609 0.002295036 -0.00059760734 -0.0012331194
0.0052774446 -0.00013071776 -0.0013455031 0.00043954188 -0.00042834904 0.0013325484 0.00014389343 0.00050866365
-0.00028884012 -0.0004965931 0.0030338175 0.0003819364 -0.00094483455 -0.0012205887 0.0016309713 0.00065019185
-0.0024669124 -0.0010521061 -0.0005628106 7.465005e-05 0.00036967572 0.0005435476 0.0011702696 0.0005725055
-0.0009775733 -0.00034383166 -0.0012836055 0.00033913326 -0.00047425437 0.0012418813 -0.00045566898 0.0006245501

input_net.1.weight f4 [128]
00000000: 3970 793f aded 793f 60dd 7b3f 516e 793f
00000010: 8436 7e3f b468 7e3f 2f02 803f 84d6 7b3f
00000020: 4396 7b3f 3ac6 7a3f 9c60 7e3f a06c 823f
00000030: fa59 7e3f 286c 7f3f dd0f 7a3f cc3f 7a3f
00000040: b382 7a3f 2541 7e3f 3bcc 7c3f 4452 803f
00000050: 9f87 7f3f a8ee 833f 5b9c 823f afb9 7c3f
00000060: 2c37 7c3f b010 7a3f 4613 7a3f ec25 813f
00000070: 9e68 7c3f 8802 7a3f 0907 7e3f a9bd 803f
00000080: 5c2c 7b3f 52b9 813f 920b 803f 031c 7c3f
00000090: 6cb0 813f 5090 803f 53f0 7c3f 174c 7d3f
000000a0: 2ca6 7b3f c465 7c3f 4931 7c3f 4edf 813f
000000b0: 35fe 823f 78d9 773f 630f 803f e34f 803f
000000c0: 45d5 813f cd2b 813f 4b0b 7e3f 5f96 7d3f
000000d0: f8cb 7d3f e202 7a3f 8442 783f 84db 7b3f
000000e0: 11ff 7f3f da33 7e3f 5c96 7c3f 3ddb 7f3f
000000f0: 9312 793f 7574 7f3f 0a68 7e3f e71f 7b3f
00000100: 77a5 7e3f 5e48 7f3f 6439 823f 0469 7c3f
00000110: 554f 7a3f 6a10 793f 97b7 793f f682 7c3f
00000120: e88d 7c3f 9201 7b3f 958c 823f 5661 823f
00000130: 0d82 783f 3e11 803f 6514 833f e757 7a3f
00000140: deb3 7c3f be1f 793f fa82 793f a8b4 793f
00000150: d1d3 7a3f 3743 7f3f 8144 7b3f 40db 7d3f
00000160: df31 7d3f 6762 7e3f cb38 753f 68b1 7d3f
00000170: 6c1b 793f 9cc9 813f 35ed 7d3f 75fe 793f
00000180: da70 7c3f ba68 7c3f a3d9 753f ee08 7b3f
00000190: aabd 7c3f 69ba 823f 8a12 803f d200 793f
000001a0: 4a79 773f ebcb 793f 280a 7c3f 4e9f 7c3f
000001b0: 5169 7e3f 2c39 7f3f 5651 803f 557c 7c3f
000001c0: 895c 7f3f 2005 853f 72ee 7d3f 1acf 7d3f
000001d0: 3f91 793f e48e 793f a6b8 7e3f 3a14 7c3f
000001e0: bf9f 7c3f fc15 7b3f 1fa3 7f3f 61ff 7c3f
000001f0: 5c5d 783f 2475 7f3f b100 803f 80f2 7d3f
0.97436863 0.9762829 0.98384666 0.97433954 0.99301934 0.99378514 1.0000666 0.983742
0.98276156 0.9795872 0.99366164 1.01894 0.99356043 0.9977441 0.97680455 0.97753596
0.9785568 0.9931815 0.9874913 1.0025105 0.99816316 1.0307207 1.0203966 0.9872083
0.98521686 0.97681713 0.9768566 1.0089698 0.98597133 0.9766011 0.99229485 1.005788
0.9811456 1.013468 1.0003531 0.9848024 1.0131965 1.0044041 0.98804206 0.9894423
0.98300433 0.9859278 0.98512703 1.0146272 1.0233828 0.96816206 1.0004696 1.002438
1.014321 1.0091492 0.9923598 0.99057573 0.99139357 0.9766065 0.96976495 0.9838183
0.99998575 0.9929787 0.9866693 0.99943906 0.97293967 0.99787074 0.993775 0.98095554
0.9947123 0.997198 1.0173764 0.9859774 0.977773 0.9729067 0.9754576 0.9863733
0.9865403 0.9804927 1.0199152 1.0185955 0.9707344 1.0005262 1.0240599 0.9779038
0.98711956 0.9731406 0.9746548 0.97541285 0.97979456 0.99711937 0.98151404 0.99162674
0.9890422 0.993689 0.95789784 0.99098825 0.9730747 1.0139651 0.99190074 0.97653896
0.986097 0.985973 0.9603521 0.980605 0.98726904 1.0213138 1.0005658 0.97266877
0.9666945 0.9757678 0.98453 0.9868058 0.9937945 0.9969661 1.0024822 0.98627216
0.9975057 1.0392189 0.99191964 0.99144137 0.9748725 0.9748366 0.995005 0.98468363
0.98681253 0.9808042 0.9985828 0.9882718 0.97017455 0.9978812 1.0000211 0.9919815

input_net.1.bias f4 [128]
00000000: d377 1cbd a0d7 18bd 54f9 50bc 01ab 71bc
00000010: f292 a4bb 376f d9bc b992 973c 48d3 0fbc
00000020: a567 dabc feb2 c03b 5194 df3c a153 1d3d
00000030: 49eb cabc 468c 0bbc 6d04 96bc 0b76 0ebd
00000040: 8098 9bbc 4625 47bc 276e fdbb d402 fcbb
00000050: 1789 933b a835 e53c 1743 373d e9da a4bb
00000060: 6303 62bc ac72 1ebd da84 54bc 6783 4f3b
00000070: ad58 9ebc 847b 17bc 4cbd dcbc 49a0 913b
00000080: dc05 b4bc 9175 e0bc 01e8 9ebc d956 8bbc
00000090: 828e da3b 9631 8fbc 3fef f8bb de0f c4bc
000000a0: 6d6e 8abc 517b b2bc a04f d1bc fdd4 923c
000000b0: b4c1 d43c dbd4 9fbc 2dcd 3ebc ca77 6dbb
000000c0: 7c7a 23bd cfee e63c 5028 a0bb 87b2 a2bb
000000d0: 0843 2cbc 2444 23bd 6a78 d4bc 46dd f7bc
000000e0: fdc1 52bc 0b90 39b9 2101 3bbc 9313 f2bb
000000f0: eeae c1bc 0c61 843c 9aa9 86bc af1c 3ebc
00000100: 2f10 453a 2090 bfbc 2453 863c 01dc 35bc
00000110: 4048 fcbc 16d9 d6bc 26ca fdbc 231e 71bc
00000120: 9fcc d0bc 0957 a0bc 79a1 613c 0360 81ba
00000130: 9057 93bc ecaf 01bd 01e1 983c 3a82 01bd
00000140: cdf2 8ebc 2098 56bd 46d7 0cbd 8756 36bd
00000150: 77d3 a5bc e31c 8bbc 4713 04bd f924 23bc
00000160: 5075 42bc b2bc 843a 46b9 1fbd 7bef c2bc
00000170: c937 b9bc 19d3 a53c 7094 a0bb b0ab 4bbc
00000180: c038 00bb 95bd 6abc b0a5 b8bc 62cb 9abc
00000190: 5908 b8bc 9d89 1ebc dc3d 813c d6fa e1bc
000001a0: 775e cabc bb5e c4bc fe49 06bd 54b2 23bc
000001b0: 998c 29bb a306 afbb 9fb9 94bb e354 b0bc
000001c0: 27a2 133c 6939 383c 79a6 623a 72dd 28bd
000001d0: 60db 8dbc 6aea f4bc 1d4f febb dc3c a9bc
000001e0: 69c4 ebbc 4f26 91bc ada1 81bc c03c a6bc
000001f0: 0d2d bcbc 800a c2ba a12e 7bbc 07a7 52bb
-0.03820021 -0.03731501 -0.012754757 -0.014750243 -0.0050224 -0.02654229 0.01850258 -0.008778401
-0.02666075 0.0058807125 0.027292402 0.038409833 -0.024770396 -0.0085173305 -0.018312657 -0.034780543
-0.018993616 -0.012154883 -0.0077340784 -0.007690767 0.0045024264 0.027979687 0.044741716 -0.005030979
-0.013794753 -0.03868358 -0.012971127 0.0031664015 -0.019329393 -0.009245757 -0.026945733 0.0044441563
-0.02197545 -0.02739981 -0.019397737 -0.017009186 0.0066698203 -0.0174797 -0.0075968797 -0.023933347
-0.016898358 -0.021787317 -0.025550663 0.017923826 0.025971271 -0.019510677 -0.011645597 -0.003623473
-0.039911732 0.028190045 -0.004887618 -0.00496513 -0.010514028 -0.039859906 -0.025936324 -0.030256879
-0.012863633 -0.00017696635 -0.011413843 -0.0073875873 -0.023642983 0.016159557 -0.016438294 -0.011603518
0.0007517365 -0.023384154 0.016397066 -0.011099816 -0.03079617 -0.026226562 -0.030980181 -0.014716658
-0.025488196 -0.019572752 0.013771408 -0.0009870533 -0.017986089 -0.031661913 0.018661978 -0.031618334
-0.01744976 -0.05239117 -0.03438499 -0.044516113 -0.020242436 -0.016981548 -0.032244947 -0.009957545
-0.01186879 0.0010127036 -0.03899505 -0.023795834 -0.022609608 0.02024226 -0.0049005076 -0.01243107
-0.0019565076 -0.014327426 -0.022539943 -0.018895809 -0.022464918 -0.009676364 0.015776567 -0.027585428
-0.024703247 -0.023970952 -0.03278541 -0.009991247 -0.0025871156 -0.0053413673 -0.0045387293 -0.021524852
0.009010828 0.011244156 0.0008646022 -0.04122681 -0.01731652 -0.029896934 -0.007760896 -0.020658903
-0.02878018 -0.017718462 -0.015824163 -0.02029264 -0.0229707 -0.0014804155 -0.015330941 -0.0032143013

input_net.1.running_mean f4 [128]
00000000: 6610 9e3e daab 973f 78b0 c83f aeef c03c
00000010: 2291 4f3e 2c53 cbbf 5360 95bf a462 013d
00000020: ec4e 7d3e ba14 993f 33c9 e1be 85da c0be
00000030: 2299 d93e f52d fdbe bf54 923f c6bc 91be
00000040: c2a3 133f 54cf e93f caa4 a2be 490f 853d
00000050: 591b 0abe fc65 acbe 878a 9dbf 1c83 d5be
00000060: 086d f23f 0a3d 843e 40ba 37bf 7cba ec3c
00000070: 16aa f83d df3a f9be 9b7a 5d3f abf7 6abf
00000080: e325 d63c b8c6 fbbd 25e0 5d3f 8091 c13f
00000090: 49bf 7bbf 3001 003f 4148 923f 7edc 3bbf
000000a0: 6d16 08bf 0639 3fbe 3a7e 273e 5994 44bf
000000b0: a75a e53d 46be 5dbe 2855 ecbe adfa 05bf
000000c0: db85 173f adbe 82bf d089 b63d e674 493f
000000d0: 6e37 773e 807e 39bf 5d25 283f 2ea9 b43d
000000e0: 27cc 81be 4975 eabf 5db0 13bf 7bca 5ebf
000000f0: 7bcf a5bf 8206 a6bf 30da 643f 1d09 603f
00000100: 0b05 9b3d b39a 84bc a921 eebf b64e 5d3f
00000110: c6dd 653f a050 363f 5569 213f 595c 963f
00000120: 032c ea3e 8f2b 82be 0ec3 653f cf57 0140
00000130: d093 62bf db1b 173e 2a26 ea3e 7bc8 dabd
00000140: c925 1ebd 7ffc 16bd 3cec a83f 0145 2b3f
00000150: 36f9 0dbf aecd 35be 4cb0 7bbe 2729 553f
00000160: 2ccc 5f3f 11c9 e4bf 9d69 c1be 2bbb 6ebf
00000170: 2abe 0340 ad03 33bf 781a 033c 832b 153f
00000180: 68f0 eabf 396f f9bf fe6e 093e f4b7 d1bb
00000190: ca0b 063f 16bf 4dbf 5a57 183f 0e91 303f
000001a0: 6758 3a3e a8c3 25be 5286 2fbf ef17 9a3f
000001b0: c937 bc3e 1b55 053e 89dc c73f d1eb 24bf
000001c0: 4a3b 583f 76e2 d43e c025 693e 2e2a 633f
000001d0: 4306 57bf 9766 2b3e 5a92 a4bf 134a 463d
000001e0: 6c30 f33f efdc 55bf b074 be3f d7f7 bf3f
000001f0: 1b4e a93f 433d 9fbf ef5c 283f d9b8 21bd
0.30871886 1.184932 1.5678854 0.023551788 0.20270208 -1.5884757 -1.1670021 0.03158821
0.24737138 1.195945 -0.44098815 -0.37666717 0.42499644 -0.49449125 1.1432112 -0.28464335
0.5767175 1.8266397 -0.3176635 0.06497056 -0.13486995 -0.33671558 -1.23079 -0.4170159
1.8939524 0.2582782 -0.7176857 0.028897516 0.12141816 -0.48677728 0.86515206 -0.9178416
0.026141113 -0.12293762 0.8667014 1.5122528 -0.98338753 0.5000181 1.14283 -0.7338332
-0.5315922 -0.18674096 0.16356745 -0.7678886 0.11198931 -0.21654615 -0.4615872 -0.52335626
0.5918862 -1.021444 0.089130044 0.78694 0.24142238 -0.7245865 0.6568201 0.08821331
-0.25351068 -1.8317043 -0.57690984 -0.8702771 -1.2953943 -1.2970736 0.8939543 0.87513906
0.07569321 -0.016187048 -1.8604022 0.8644823 0.89791524 0.71216774 0.6305135 1.1746932
0.45736703 -0.25423858 0.89750755 2.0209844 -0.88506794 0.1475672 0.45732242 -0.1068277
-0.038610253 -0.036861893 1.3197093 0.66902167 -0.5545839 -0.17754242 -0.2457897 0.8326592
0.87420917 -1.7873861 -0.3777589 -0.93254346 2.0584817 -0.69927484 0.008001916 0.5826952
-1.8354616 -1.9487067 0.13421246 -0.0064001027 0.5236174 -0.803697 0.5950829 0.68971336
0.18197785 -0.16187918 -0.6856433 1.2038554 0.3676131 0.13020746 1.5614177 -0.6442233
0.8446547 0.41579026 0.22768307 0.88736236 -0.8399393 0.16738354 -1.2857163 0.048410486
1.8999152 -0.8354024 1.487936 1.499751 1.3226961 -1.244057 0.65766805 -0.039482925

input_net.1.running_var f4 [128]
00000000: 175c a73f bb24 823e 5b12 b640 66e9 0241
00000010: 792c aa40 f174 3040 921b 0a3f 03f3 613e
00000020: 8631 9840 c124 5b40 16e8 893f ca4d 8d3e
00000030: 5326 0741 36d0 0141 0570 8c3f 179e 5f40
00000040: 8e09 0c3f 050c 1141 14b3 9c3e 72e2 2b40
00000050: 2a59 e73f 390a 843e fc6a a23e c729 1240
00000060: e962 8940 0d12 ef3e 592a 1f3f 5ac3 2140
00000070: 2a8e 1340 e7ea e340 f99e 4d40 7b45 4c3e
00000080: 4f5c d040 6b8d 883f fff8 0741 987b 9e40
00000090: 686e 203e 1d37 8f40 09a2 3841 3d96 a441
000000a0: ccd8 b13f 0472 f43f 66a5 4141 631f 903e
000000b0: be43 bd3d f922 ac41 923a 473f 81b9 a240
000000c0: 01bf 0140 cc37 fd3e d7a5 7541 580b 353e
000000d0: 29b4 c93f ad60 693f 4021 863f 5461 7241
000000e0: 01dd 403e d455 dc3f 22a7 693f 7f85 9e3f
000000f0: af25 d83f 49cf ce3e 84dd 043f c3e3 8f3f
00000100: ac70 343f 8d44 f43d 22ec 113f c06a 433e
00000110: f773 8440 2be1 6140 6375 c83f 3d7a 863e
00000120: ef92 ee40 7086 cf3f caaa 943e 51c3 203f
00000130: 7b92 0a40 b70d b13d 3637 4d3e cfcd ac3d
00000140: 4a01 8e3f bbf0 923f 7fd3 203f 84e7 a53f
00000150: f677 163f 9d96 d340 920f 2f41 c819 5240
00000160: ac50 363f abfe 9e3f f8e1 b43e f75d 3e3f
00000170: 19eb 4241 5581 a43e 032e 713e 7633 6c40
00000180: 0cc3 003e a012 4741 659e 7a3f 062a 923e
00000190: 1469 1c41 59cd ab3e 2dfe ad3f 4d44 0741
000001a0: fc48 0c40 50fe 6640 f3bd 773f 694e b540
000001b0: 0b2a 5c40 3c6c 1741 6415 ac3e 28ea 4041
000001c0: 577b ac3e 3396 1e3f 8924 8941 2f21 3841
000001d0: 0a30 db41 b817 3040 4b7e 8c3f 294c 6f3f
000001e0: 542b d23f 7eaf 1640 b6ef b93f d17f 2c41
000001f0: fe2f fb40 4987 353f c9cc 7b40 4c7c 8440
1.3074979 0.25418648 5.6897407 8.181982 5.317929 2.7571375 0.5394832 0.22065358
4.7560453 3.4241183 1.0773952 0.2759841 8.4468565 8.113333 1.0971686 3.494024
0.5470208 9.065434 0.30605376 2.6856961 1.8074086 0.2578905 0.31722248 2.2838
4.293324 0.4669346 0.6217399 2.5275483 2.305552 7.1224246 3.212828 0.1994838
6.511268 1.0668157 8.49829 4.952587 0.15667117 4.4754777 11.539559 20.573359
1.3894286 1.9097295 12.1028805 0.28148946 0.092414364 21.517076 0.77823746 5.0851445
2.027283 0.49456632 15.352988 0.17680109 1.5758106 0.9116314 1.0478897 15.148762
0.18834306 1.7213693 0.9127065 1.238449 1.68865 0.4039252 0.51900506 1.1241382
0.70484424 0.119271375 0.57000935 0.1908369 4.139156 3.5293682 1.5660824 0.26265135
7.455436 1.6212902 0.29036552 0.6279803 2.1651905 0.08645194 0.20040593 0.084376924
1.1094143 1.1479715 0.6282272 1.2961278 0.58776796 6.6121354 10.941301 3.2828236
0.71216846 1.2421468 0.3532865 0.7436213 12.182397 0.32129923 0.23552708 3.690641
0.12574404 12.442047 0.9789794 0.28547686 9.775654 0.33555105 1.3593193 8.454175
2.1919546 3.609272 0.96774215 5.6658216 3.440066 9.463924 0.3361007 12.057167
0.3368785 0.61947936 17.14284 11.508101 27.398457 2.7514477 1.0976042 0.93475586
1.6419473 2.3544612 1.4526279 10.781205 7.8496084 0.70909554 3.934374 4.140173

lstm.weight_ih_l0 f4 [512, 128]
00000000: b2d0 ae3d 5db1 453d 8394 123e e16e 18bc
00000010: fd1d 30bd c995 0cbe 1420 693c bb1b f5bd
00000020: 550a e33d 190e 793c 01d0 2f3d 50ec 7b3c
00000030: 5a56 e73c 675c b13d 71d5 dabd b473 003d
00000040: 0172 11bd 459b 293e c916 fd3d 612b b3bd
00000050: 52e4 603e 5841 1e3e 90bd bf3d b7de d9bd
00000060: 0238 273e 7901 a23d b396 043c 98e2 313e
00000070: f312 eebc f7ef 77bd 3e61 55bd d456 553e
00000080: 80a7 b93d 2a83 83bd 6993 e8bd 7f44 353d
00000090: e772 a8bd 02b5 1e3e 025b 003d d892 513c
000000a0: 7497 803d 5146 923e 8a07 b13c bb6f 0a3e
000000b0: c019 083e ad6a 92be 9bdf 313e 778b f8bd
000000c0: 7112 183d e166 1abe e3e1 61be 4505 d8bd
000000d0: 43d6 463d 6e4c 493d a1dd 673d fb87 19be
000000e0: a125 68bc 086c 613d e488 6dbd 5c1c 393d
000000f0: 8792 713d 358f c43d 2023 883d e8ed 7ebc
00000100: f99b 303e 7689 7d3e b7ff 4ebe 9ce5 803d
00000110: bd14 263e b205 903d c356 763d 2ae0 67be
00000120: 8cd2 57bc be1c 413b e765 c63d 05d9 473d
00000130: 1dd4 f6ba c9d9 2e3d e9e1 bc3c b20f 793d
00000140: bbd9 813d 01f4 973d d95a 353d bc2b 48be
00000150: f6f2 cd3d 2734 073e 1356 a4bd f741 babd
00000160: 2763 cb3a cce6 06bc 41d9 153e cf8d a0bc
00000170: 0df7 593e 3933 293e 093c 8dbd 22d1 523e
00000180: c714 7bbe 17f8 29bd 5819 1bbe 7ab1 16bc
00000190: f2a7 1cbd add1 163c 9f4b eabd e902 ef3d
000001a0: 6c69 183e 0df4 0ebe c43d 133d 77d9 95be
000001b0: 3731 a9bd b6f3 0d3e c302 063e faee ca3c
000001c0: ebe1 193e 0c6d 34bc a435 90bd a4d5 01be
000001d0: fd21 98bd 6acb 923c 639b f43b 9a56 203b
000001e0: 9a3e 9e3d c92c 763c 434a b9bd 4cb0 d3bd
000001f0: 7d26 963c 6b94 1fbe e485 4e3e 03f4 cdbb
00000200: 9ff0 503d 4e4c 0d3e b834 563d 28d4 423c
00000210: 342d 0ebe f3b4 9d3d ccf6 4a3d 8f68 0e3e
00000220: 73a2 a0bc fd24 b03d 5ab9 b0bd a6d1 f9bd
00000230: b66c 43be e9f0 3c3d 6cab 2bbd 7495 093e
00000240: 60c3 e8bd e28b 96bd 7132 9b3b b4c5 f2bd
00000250: 8c7a 633d f55b 8d3e 14ad d1bd 87d6 bb3d
00000260: cb30 b53c 31f1 8cbd 544a 15be 88a0 d43d
00000270: 3775 ca3d 76e3 9f3e 2a9a dc3d 9904 5d3d
00000280: 996a 91bd d9ec cd3d 7b52 4ebc 9fcb 2abe
00000290: ac94 433e 9a5f 0a3d 59e7 f43d cd4d 59be
000002a0: 64f5 d3bd a239 d0bc b248 163e 4f4a b4bd
000002b0: 4b52 4abe 527f 86bc 16a3 d6bd c8a9 a6bd
000002c0: 0c3c 26be 68a9 b9bd c4dc 6a3e 44af 013e
000002d0: 051e b93d 00f1 2c3e fa54 0bbd 2b6b c33b
000002e0: ac43 b93c 2039 6cbc 13e4 a0bd fbae 413d
000002f0: da6c 3c3e 8a96 71bd f505 d13d 8ac7 e33c
00000300: f559 073d 6d35 7fbd 264a 8e3d 7f9c 43bd
00000310: 7804 99be 5ee8 fabd e33c 653d bbce 04bd
00000320: 6dbb 823d 8b7f adbd 88da 673d a44b ca3d
00000330: e90b 78bd 0ccd 4b3c 0dc0 9d3c 6bd1 ecbd
00000340: 00c7 c1bb 3c47 8cbd 4736 c2bd 08cb 143d
00000350: e502 57bd 7ed2 323e 0ab3 1dbe e921 a9bd
00000360: 3afd d43c 5c82 dc3d ffbd 13be a2b7 1e3d
00000370: 4b90 723e af9a 153d f04a d4bd b40b 483d
00000380: 1a26 af3d 6719 033e aee3 103d 60eb 49bd
00000390: c2dd 1ebd c6f4 51be e776 3ebe 393e 123e
000003a0: 6cd7 e63d 6ff7 fd3d dd93 9abd 7674 5b3c
000003b0: 5a6c f23d 39f6 48bd f426 1f3d 801d 183d
000003c0: 7b07 0c3e 1c8e e2bd 7cb9 903d ff6e 813d
000003d0: 191c 64be facc a93e b5d4 453e 5b57 ebba
000003e0: 041e 0d3d dc94 0dbe ef03 543d 14ad f53c
000003f0: 57c8 0fbd 119b 443c ab45 64be 8947 21bd
0.08535899 0.04826485 0.14314465 -0.009303779 -0.04299735 -0.13729014 0.014228839 -0.1196818
0.11085955 0.015201115 0.042922977 0.0153761655 0.028239418 0.086602025 -0.10685242 0.031360343
-0.035509113 0.16563137 0.123578615 -0.08748508 0.21962097 0.15454614 0.09362328 -0.106381826
0.16329959 0.07910437 0.00809257 0.17371595 -0.02906177 -0.060531583 -0.05209469 0.20833904
0.09065151 -0.06421502 -0.11356241 0.044254776 -0.08225041 0.15498737 0.03133679 0.012791358
0.062788874 0.28569272 0.02161004 0.13519184 0.13291073 -0.28597012 0.17370455 -0.12135976
0.037126962 -0.15078308 -0.22058825 -0.1054788 0.04854418 0.049145155 0.056607846 -0.14993279
-0.014169128 0.055034667 -0.057991877 0.04519306 0.05897763 0.09597627 0.066473246 -0.015559651
0.17246999 0.24759468 -0.20214735 0.062937945 0.16218849 0.07032336 0.060141336 -0.22644106
-0.013172757 0.0029466595 0.09687405 0.04879095 -0.0018831525 0.042688165 0.023056941 0.060805984
0.06340357 0.07419587 0.044276092 -0.19547933 0.10056107 0.13203488 -0.0802423 -0.09094613
0.0015517221 -0.008233737 0.14633657 -0.01959887 0.21285649 0.16523446 -0.068962164 0.2058759
-0.24519645 -0.041496363 -0.15146387 -0.009197587 -0.038246103 0.009205264 -0.11440205 0.11670477
0.14883965 -0.13960285 0.035947576 -0.29267475 -0.0826134 0.138625 0.13086991 0.024772156
0.15027587 -0.011012327 -0.07041481 -0.12679154 -0.07428358 0.017919261 0.0074648126 0.002446568
0.07726784 0.015025326 -0.090473674 -0.1033636 0.0183289 -0.1558396 0.20168263 -0.006285192
0.051010724 0.13798639 0.05229637 0.011891402 -0.13884431 0.07700529 0.04955177 0.13907073
-0.019608712 0.08600805 -0.08629103 -0.121981904 -0.19084439 0.046128187 -0.041911528 0.13435918
-0.1136539 -0.07350899 0.0047362377 -0.11854115 0.05553679 0.2760922 -0.1023809 0.09171777
0.022117993 -0.06881941 -0.14579135 0.103821814 0.09885638 0.31228226 0.10771592 0.053959463
-0.0710041 0.10054941 -0.012592907 -0.16679238 0.19099683 0.03378258 0.119581886 -0.21221085
-0.10349539 -0.025418106 0.14676169 -0.08803236 -0.19757955 -0.016418133 -0.10480325 -0.08137852
-0.16233844 -0.09065515 0.22935778 0.12664515 0.09038929 0.16888809 -0.034016587 0.005963703
0.022615276 -0.014417917 -0.07856002 0.047286015 0.18400899 -0.058981456 0.10206214 0.027805109
0.033044774 -0.06230681 0.069477364 -0.04775667 -0.29886222 -0.12251352 0.05596627 -0.032423716
0.06383405 -0.084715925 0.056604892 0.098777086 -0.060558233 0.012439024 0.019256616 -0.11563381
-0.005913615 -0.068495244 -0.09483009 0.03632644 -0.052492995 0.17463109 -0.15400329 -0.08258421
0.025999654 0.107670516 -0.14427947 0.038749345 0.23687856 0.03652447 -0.10365856 0.048839286
0.08552189 0.12802659 0.035373382 -0.049296737 -0.038785703 -0.2050353 -0.18600045 0.14281549
0.11271557 0.1240071 -0.07547734 0.013394466 0.11837073 -0.04906294 0.038855508 0.03713751
0.13674729 -0.110622615 0.07066628 0.06319999 -0.22276343 0.33164197 0.19319423 -0.0017955111
0.034452453 -0.13826317 0.051761564 0.029989757 -0.03510317 0.011999861 -0.22292201 -0.039374862

lstm.weight_hh_l0 f4 [512, 128]
00000000: e2ca 793d d497 843c 3cc8 39bd 2c76 4d3d
00000010: 2eb5 6d3d 2663 edbc e895 42bd 8de7 d0bb
00000020: 6569 333d 25b2 853d d8f5 34bc 7dfd 7fbd
00000030: 1e0e c33d 34e2 bc3b 5630 72bc b79f 1f3d
00000040: 8176 0b3b 581f f43c d43b 16bd 971a a93d
00000050: 72fa 25bd 372f 163d 5558 8cbc 6006 273d
00000060: 255f a4bc faba cfbd ec3b 1fbd 983a cdbd
00000070: 865d ad3b ecb6 92bd f409 1bbd 797d e9bc
00000080: 2d37 503d be7e 03bd c2e5 963c ac53 0fbc
00000090: a97a 21bc a1e5 8e3d 5085 27bd 728b 8dbd
000000a0: 68d2 be3c ebaa ccbd 9c4b e8bb ddfb c0bc
000000b0: e1de 9b3b 34b6 be3d 89df bc3c 0b0a 443d
000000c0: c9e9 bebc 6bc9 da3b f414 70bd a622 383b
000000d0: 953e 00be bae5 5ebb b953 04bd 7222 a1bd
000000e0: 5ad9 533c 83bb a1bc 3e49 a7bc 4813 133e
000000f0: e12b d2bc 21b0 943c 5f18 22bd be31 bcbd
00000100: fe9d 4c3c a6c1 74bb 9803 833d 8713 753d
00000110: 2290 9b3d 403b 943b 2af1 c63d 879a 153d
00000120: 043f 763d 17b0 7d3d 56cb 913c a274 cabd
00000130: 6389 84bd 8141 9bbc b8a1 f93c 92e6 d5b9
00000140: 3e2a 2cbd 10b0 833d 8e2f d2bd bcd3 e3bc
00000150: 183e 40bd b576 d13d ceed d33c 8e99 e23d
00000160: 5dac 86bd ec52 9b3c 787e 72bb dd47 dfbd
00000170: fd8b a73c 7022 b53d 04ce b23c 7bb1 e23b
00000180: 860c 8a3c 53c4 663c 9779 b0bd da90 d6bc
00000190: 97dd 4bbd b926 fc3c fec2 08bd 08e7 483d
000001a0: 8a9b 763c ba02 21bd c8e0 da3c f421 4bbd
000001b0: 0ab6 333d 3b57 e03c 0475 babd b654 b83c
000001c0: 884c 64bc 7b3c ab3c 0c0b fdbc fe04 d93c
000001d0: 329d 9cbd 921c 99bd 951b 07bd d3d2 a53d
000001e0: b363 8fbd 257a 6a3c 9998 883d da27 80bc
000001f0: 7ffe 273d 0fa6 7c3d 4eec a7bc 4a8b 293d
00000200: c488 b43c 5f79 753c 2aea b63a 9929 1fbd
00000210: 6305 b03b f9d7 6d3d 2edb c6bc 8448 853c
00000220: ab7b b8bc be3b 36bd 6117 133d ef81 993c
00000230: 66e1 b43c 8664 cabc 7759 613d 6171 44bd
00000240: 7f9a 00bc c6e8 62bb cc3b e93b c519 aebc
00000250: b3a7 4cbd 2cf6 84bd 26a5 2bbc 2afe 423d
00000260: 6cf2 b0bd 80c2 45bd a3ff 333d ff09 433c
00000270: 007b a33d 8a30 843d d543 b9bd a7a0 0e3d
00000280: d686 b5bd ab03 fcb9 52b1 3e3d 3797 3ebc
00000290: 6b30 7e3d 0fbd ae3c cc1d 3a3d 7a59 2d3d
000002a0: 883e 743c 2061 de3c 3314 093e eb2b ddbc
000002b0: 8424 89bd a731 00be f7a9 433c d138 623d
000002c0: 050e 1b3c 916c 5e3d 7773 abbd 9dba a6bb
000002d0: d88d b7bc 9bc6 6ebd 1e88 643d 04b4 973d
000002e0: a229 753d 5ce9 323d 016f 03bd 36b4 bdbc
000002f0: a74e 803d cb4a 3fbd cead 12bd 55ed 323d
00000300: b6dd 5c3d b849 053d 7df0 97bd 9caa 893b
00000310: 8438 8f3b 8a58 4d3d c95e b3bd 4bf6 033d
00000320: 3841 643d 2b93 673d 36f4 90bb 0da6 f0bc
00000330: 7cfd 643d 70ab 6fbd 55aa cebc 5bf1 c83b
00000340: e0de 6e3d efb4 6dbd f881 5abd 55d4 8d3d
00000350: 2511 1d3d 20a3 633d d1bf 5e3d 98ad 5ebd
00000360: feab 23bd 05c1 ae3b a26a 65bd dc0b 5f3d
00000370: ee14 8fbc d1d6 95bd cf59 c53b 716f 7ebd
00000380: 41ff 923d e5fe a7bd cf87 2dbb 9b35 c13c
00000390: d0a3 59bd c5f4 07bd 8b30 8dbc 98c7 92bb
000003a0: 2c1e 2a3c 28f0 4d3d 1f6d 053d f9d7 373d
000003b0: 1b65 743d 3c92 48bd 475f bc3c caee 4f3d
000003c0: 5ab6 e3bd 91bb f8bc 3bd0 d03d e88b 813d
000003d0: a1ac b1bc 29ad ac3c cc44 9cbc 2ef6 e7bc
000003e0: 9882 a53b acf1 febb 96d8 57bd 089e 7f3b
000003f0: 1478 563d 87c9 3dbc d6f4 9e3c f72f db3c
0.0609845 0.016185679 -0.045356974 0.050161526 0.058034115 -0.028977942 -0.047506243 -0.0063752593
0.043801684 0.06528119 -0.011044942 -0.062497605 0.09524177 0.00576427 -0.014782032 0.038970675
0.002128035 0.029800102 -0.03667815 0.08257025 -0.040522046 0.03666612 -0.017131964 0.040777564
-0.0200649 -0.10143085 -0.038875505 -0.100209415 0.00529069 -0.07163796 -0.03785129 -0.028502213
0.05083387 -0.032103293 0.018420104 -0.008747976 -0.009855905 0.06977392 -0.04089862 -0.06911363
0.023293689 -0.099935375 -0.0070890915 -0.023557598 0.004756794 0.09312096 0.023055809 0.04786114
-0.023304837 0.006676843 -0.058613732 0.0028096824 -0.12523873 -0.003401144 -0.032306407 -0.07867898
0.012930239 -0.019742733 -0.020420667 0.14362824 -0.025655689 0.018150391 -0.039574023 -0.09189175
0.01248884 -0.0037346869 0.0639717 0.059833076 0.075958505 0.0045236647 0.09713967 0.036524322
0.06011869 0.06193551 0.017797153 -0.09885527 -0.06471517 -0.018952133 0.030472621 -0.00040798314
-0.042032473 0.06430066 -0.102629766 -0.027810924 -0.046934217 0.1022772 0.02587023 0.110644445
-0.065758444 0.018960439 -0.003700165 -0.10902379 0.020452494 0.08844459 0.021826752 0.00691813
0.016851675 0.014084893 -0.086169414 -0.026192117 -0.04977187 0.030780183 -0.033389084 0.049048454
0.015051732 -0.03930924 0.026718512 -0.049592927 0.043874778 0.027385345 -0.0910435 0.02250133
-0.013934262 0.020902863 -0.030889057 0.026491638 -0.0764717 -0.074761525 -0.03298529 0.08096852
-0.07001438 0.014311348 0.06669731 -0.015644003 0.04101419 0.061681803 -0.020498421 0.041392602
0.022037871 0.01498255 0.0013955284 -0.03885803 0.005371736 0.058067296 -0.024274435 0.01626993
-0.022519907 -0.04449057 0.035910968 0.018738715 0.022080135 -0.024706136 0.05501696 -0.04795969
-0.007849335 -0.0034623607 0.007117724 -0.021252522 -0.049964618 -0.06492266 -0.010476386 0.04760567
-0.08639988 -0.048281193 0.043944966 0.011904239 0.07982445 0.064545706 -0.09046141 0.03482118
-0.088636085 -0.00048067918 0.046555825 -0.011632732 0.062057894 0.021330385 0.045438573 0.04232166
0.014907487 0.027145922 0.13386612 -0.02699848 -0.06696418 -0.12518941 0.011942378 0.055229966
0.009463792 0.054302756 -0.083716325 -0.005088164 -0.022406504 -0.058294874 0.055793874 0.07407382
0.059854157 0.04367958 -0.032088283 -0.02315722 0.06265002 -0.046702188 -0.035810284 0.04368337
0.053922378 0.032541007 -0.074189164 0.0042012464 0.004370751 0.050133266 -0.08758313 0.032217305
0.05572626 0.056536835 -0.0044236435 -0.029376054 0.055905804 -0.058513105 -0.025227705 0.0061322874
0.05831802 -0.05803388 -0.053346604 0.06925265 0.03834643 0.05557549 0.05438215 -0.05436477
-0.039958946 0.0053330683 -0.056009896 0.05445467 -0.017466035 -0.073163636 0.006022669 -0.062117998
0.07177592 -0.08202914 -0.0026478653 0.023585131 -0.05313474 -0.033192415 -0.017235061 -0.00447936
0.01038317 0.05027786 0.03257477 0.044883702 0.059666734 -0.048967585 0.02299465 0.050764836
-0.11118765 -0.030362876 0.10195967 0.06325513 -0.021688761 0.021078663 -0.019075774 -0.02831563
0.0050509684 -0.0077802744 -0.052696787 0.0039004106 0.05236061 -0.011583692 0.019403856 0.02675627

lstm.bias_ih_l0 f4 [512]
00000000: dae4 8538 04a6 a0bc c714 86bc 4113 fb3c
00000010: 9953 a3ba 5812 b2ba 8fa9 f73c 19ec 9a3a
00000020: e385 913c 75bc b4bb 7327 a6bc cba4 f53b
00000030: 3e2c 02bd 7047 253c 1a9a 1abd f4a3 473b
00000040: e121 bd3b 849d 943c f506 383d 82af 203c
00000050: 46cc 70bc 8f92 803c 4637 61bb 8463 2d3b
00000060: b886 993a 4f1b 173c 72de b9bc 9ec7 f73c
00000070: 8b76 afbc 6247 cc3a ddc7 8fbc 0738 173c
00000080: 9f7f 263b 4da2 0e3c dd1d 05bc 2ec5 043d
00000090: c0a5 363b b32a 8fbc 9e99 a13c 5f59 a23c
000000a0: 7d0f da3c 09d6 d93c 8544 863c 96ee 43bc
000000b0: ca64 c23c 8f59 813a d5f4 973c 0be1 8d3b
000000c0: 2b6e d1ba e308 fc3b a74c 0dbc 7a27 7b3b
000000d0: 0080 043c c29b da3b 430a 0fbc 5574 123d
000000e0: eb3c 4a3b 4227 2c3c e413 cbbc 4527 58bc
000000f0: d7d7 de3b aaa4 5739 74a9 b9bb 0294 113d
00000100: 3b68 f9bb a139 d73c a8e7 bfb9 004c 2fbb
00000110: 1a67 9ebc 7ed9 f63b 44b2 303d 074b b2bc
00000120: cc5d 90bb 2ecd bd3c e6fb 48bc 138c 4bbc
00000130: d51f 91ba 813d 0cbc 7d55 0b3c 2474 d43b
00000140: eb6a 29bc 9222 003d 6e2c 7c3c 6ef9 ff3c
00000150: 0199 03bc f382 92bc 02ac b43c 4dfc da3c
00000160: 96aa af3c 700d 303b be05 acbb 7915 97bc
00000170: 786f 66bb 7054 e93c 8b3f 21b9 4158 bebb
00000180: 8dca c9bb 51f3 d4bc ab57 7bbc cd7d d33b
00000190: 59ae bdba 9b3c 3ebc 0b0a 853c ba51 d83c
000001a0: b0af c53c 5a53 a73c d7dd aabc dee9 54bc
000001b0: 4e37 b23a c5aa f3ba be41 143c 5bb3 cb3b
000001c0: ebb4 a5bc 0e2d 133a d4a8 10bd c5ad 9d3c
000001d0: 9e08 133b a229 a13c 20b1 0b3c 2c91 44bb
000001e0: 91e6 203c 2ac5 d2bc 2012 ff3b 4090 3dbc
000001f0: f1e9 eeb9 eaf4 b33c c229 0e3c b275 613a
00000200: 757b 333b 47c7 28bb 51a3 0bbc a8e5 3e3d
00000210: 5a89 1c3c 1937 843c 34b7 023d 00ff b33c
00000220: 3236 c53c a7cd 5dbc ebb2 87bb a670 093c
00000230: cd30 98bc ddc1 6d3c 4638 91bc 4a38 5e3c
00000240: 81f0 bb3b c82b 343d d739 563d 2ea7 cd3b
00000250: 2a8d 26ba a36f 533c d70e 043c 2b01 ab3c
00000260: b953 7cb9 d072 eb3c b0d1 aabc 9bd1 073d
00000270: a243 12bc 72a8 883c 8a4b 81bb 73cf 713c
00000280: 82fb b53c 0e70 aa3c bb38 3e3c 1853 413d
00000290: 6687 503c 5b8f 923c a0da 9c3c 7237 003d
000002a0: f0a3 063d 0226 063d 1154 a23c 8a98 053c
000002b0: 44fc f03c 4dc3 323c 13c6 c73c 8180 2a3c
000002c0: f860 a23c 2681 fc3b fec6 643c eacb 9d3c
000002d0: 0253 cb3c 9fed de3b 0aa7 6d3b d9d0 093d
000002e0: ce62 dd3b 1832 da3c cf2f 21bc 16e5 83bb
000002f0: 63e4 403c c2ce 893b 6c48 ad3b 7c25 0f3d
00000300: 38a4 653c d49b 063d ef3a 5e3c c119 933c
00000310: 0b3d 67bb e0ba 853c 447f 4e3d db27 283c
00000320: 23d2 ef3b eb06 333c 24d8 26bb 1166 2cbc
00000330: 4963 503c b22d 1f3c 0672 853c 70d1 353c
00000340: 1634 69ba c057 123d 5762 003d 5b58 053d
00000350: f0e9 f83b d3bb e5bb 7862 063d 299d 4e3d
00000360: 5013 033d e08d 813c 45f0 b6bb 338b 71b9
00000370: 5f3a 74bb 7d03 ba3c 17b4 2d3c e39c 423b
00000380: 90e6 4f3c 4e59 aebc 513a debb 3bad 053d
00000390: eec2 ac3a 2cf9 da3b e2c0 a13b 7514 d33c
000003a0: 3f45 fa3c f9a8 d83c 0597 9ebb 0e79 7fbb
000003b0: 5a19 663c 7ec3 cc3b 6a39 9f3b 3dff 0c3c
000003c0: bad0 33bc 21ae 353b 21c0 d8bb 8d4f 193d
000003d0: eb0a 4d3d 858a fd3c a26e a43c 0844 82ba
000003e0: a81c 893c bbd3 76bc 50d7 dc3c 1d58 963c
000003f0: e231 653b 29ed c23c 8df9 953c 8534 2c3c
6.384561e-05 -0.019610412 -0.01636733 0.03064883 -0.0012460827 -0.0013585789 0.030232219 0.001181963
0.017764037 -0.00551563 -0.020282483 0.0074964515 -0.031780474 0.010087833 -0.03774462 0.0030462714
0.005771861 0.018141516 0.04492851 0.009807469 -0.01469714 0.015694885 -0.003436522 0.002645702
0.0011713123 0.0092228195 -0.022689078 0.030246552 -0.02141883 0.0015585239 -0.017551357 0.009229667
0.0025405658 0.008705688 -0.008124796 0.032414608 0.002786979 -0.017476415 0.01972657 0.019818006
0.026618714 0.026591318 0.016390095 -0.011958739 0.0237297 0.000986861 0.018549362 0.0043298057
-0.0015978267 0.007691489 -0.008624232 0.003832309 0.008087158 0.0066714 -0.008730474 0.035755474
0.0030859064 0.010507407 -0.024789758 -0.013192956 0.0068006325 0.0002056534 -0.0056659523 0.035541542
-0.007611302 0.026272597 -0.00036602956 -0.002674818 -0.019336272 0.0075332513 0.043138757 -0.021764291
-0.0044057127 0.023169126 -0.0122670885 -0.012423533 -0.0011072109 -0.008559586 0.008504269 0.0064835716
-0.010340433 0.03128297 0.015391452 0.031246867 -0.008032084 -0.017884707 0.022054676 0.026731635
0.021443646 0.0026863478 -0.005249708 -0.018442856 -0.0035161655 0.028482646 -0.00015377828 -0.0058088605
-0.006158179 -0.025994929 -0.015340726 0.0064542056 -0.0014471515 -0.011611129 0.01624014 0.026406158
0.024131626 0.020425487 -0.020857735 -0.012995211 0.0013596804 -0.0018590322 0.009048877 0.006216449
-0.02022787 0.00056143187 -0.035317257 0.019247899 0.0022435556 0.019673172 0.008526117 -0.0029993756
0.009820596 -0.02572878 0.007784143 -0.011570036 -0.00045569197 0.02196737 0.008676948 0.0008600607
0.0027386819 -0.0025753544 -0.008522824 0.046605736 0.009554232 0.016139554 0.031912997 0.02197218
0.024073694 -0.013537801 -0.0041412017 0.008388674 -0.018577958 0.014511553 -0.017727029 0.013563225
0.0057354574 0.043987066 0.052301254 0.006276033 -0.00063534325 0.012905034 0.008060179 0.02087458
-0.00024063782 0.02874127 -0.02085194 0.03315888 -0.008927258 0.016681883 -0.0039457725 0.014758932
0.022214655 0.020805385 0.011610205 0.047198385 0.012727594 0.017890623 0.019147217 0.031302877
0.032871187 0.03275109 0.019815477 0.008154044 0.029417165 0.010910821 0.024386441 0.010406614
0.019821629 0.0077058254 0.013963459 0.019262273 0.024819855 0.006803229 0.0036262893 0.03364644
0.006756163 0.026635215 -0.009838059 -0.004025112 0.011773202 0.0042055557 0.0052881744 0.034947857
0.014016204 0.032863453 0.013563856 0.017956616 -0.0035284187 0.01632446 0.05041434 0.0102634085
0.0073187514 0.010926942 -0.002545842 -0.010522381 0.012718984 0.009715484 0.016289722 0.011097297
-0.0008896006 0.035728216 0.031343784 0.032554965 0.007596247 -0.007010916 0.03280875 0.05044285
0.03200084 0.015814722 -0.0055828416 -0.00023035407 -0.0037266237 0.022706741 0.010602019 0.0029695563
0.012689248 -0.021282818 -0.006781854 0.03263591 0.0013180652 0.0066825356 0.0049363235 0.02576659
0.030550597 0.02644776 -0.0048397803 -0.0038982066 0.01404413 0.0062488904 0.004859139 0.008605775
-0.010975057 0.0027722197 -0.0066147004 0.03742938 0.05005924 0.03094984 0.020072285 -0.0009938488
0.016737297 -0.015065129 0.026958138 0.018352563 0.003497236 0.023794727 0.018307472 0.0105105685

lstm.bias_hh_l0 f4 [512]
00000000: dae4 8538 04a6 a0bc c714 86bc 4113 fb3c
00000010: 9953 a3ba 5812 b2ba 8fa9 f73c 19ec 9a3a
00000020: e385 913c 75bc b4bb 7327 a6bc cba4 f53b
00000030: 3e2c 02bd 7047 253c 1a9a 1abd f4a3 473b
00000040: e121 bd3b 849d 943c f506 383d 82af 203c
00000050: 46cc 70bc 8f92 803c 4637 61bb 8463 2d3b
00000060: b886 993a 4f1b 173c 72de b9bc 9ec7 f73c
00000070: 8b76 afbc 6247 cc3a ddc7 8fbc 0738 173c
00000080: 9f7f 263b 4da2 0e3c dd1d 05bc 2ec5 043d
00000090: c0a5 363b b32a 8fbc 9e99 a13c 5f59 a23c
000000a0: 7d0f da3c 09d6 d93c 8544 863c 96ee 43bc
000000b0: ca64 c23c 8f59 813a d5f4 973c 0be1 8d3b
000000c0: 2b6e d1ba e308 fc3b a74c 0dbc 7a27 7b3b
000000d0: 0080 043c c29b da3b 430a 0fbc 5574 123d
000000e0: eb3c 4a3b 4227 2c3c e413 cbbc 4527 58bc
000000f0: d7d7 de3b aaa4 5739 74a9 b9bb 0294 113d
00000100: 3b68 f9bb a139 d73c a8e7 bfb9 004c 2fbb
00000110: 1a67 9ebc 7ed9 f63b 44b2 303d 074b b2bc
00000120: cc5d 90bb 2ecd bd3c e6fb 48bc 138c 4bbc
00000130: d51f 91ba 813d 0cbc 7d55 0b3c 2474 d43b
00000140: eb6a 29bc 9222 003d 6e2c 7c3c 6ef9 ff3c
00000150: 0199 03bc f382 92bc 02ac b43c 4dfc da3c
00000160: 96aa af3c 700d 303b be05 acbb 7915 97bc
00000170: 786f 66bb 7054 e93c 8b3f 21b9 4158 bebb
00000180: 8dca c9bb 51f3 d4bc ab57 7bbc cd7d d33b
00000190: 59ae bdba 9b3c 3ebc 0b0a 853c ba51 d83c
000001a0: b0af c53c 5a53 a73c d7dd aabc dee9 54bc
000001b0: 4e37 b23a c5aa f3ba be41 143c 5bb3 cb3b
000001c0: ebb4 a5bc 0e2d 133a d4a8 10bd c5ad 9d3c
000001d0: 9e08 133b a229 a13c 20b1 0b3c 2c91 44bb
000001e0: 91e6 203c 2ac5 d2bc 2012 ff3b 4090 3dbc
000001f0: f1e9 eeb9 eaf4 b33c c229 0e3c b275 613a
00000200: 757b 333b 47c7 28bb 51a3 0bbc a8e5 3e3d
00000210: 5a89 1c3c 1937 843c 34b7 023d 00ff b33c
00000220: 3236 c53c a7cd 5dbc ebb2 87bb a670 093c
00000230: cd30 98bc ddc1 6d3c 4638 91bc 4a38 5e3c
00000240: 81f0 bb3b c82b 343d d739 563d 2ea7 cd3b
00000250: 2a8d 26ba a36f 533c d70e 043c 2b01 ab3c
00000260: b953 7cb9 d072 eb3c b0d1 aabc 9bd1 073d
00000270: a243 12bc 72a8 883c 8a4b 81bb 73cf 713c
00000280: 82fb b53c 0e70 aa3c bb38 3e3c 1853 413d
00000290: 6687 503c 5b8f 923c a0da 9c3c 7237 003d
000002a0: f0a3 063d 0226 063d 1154 a23c 8a98 053c
000002b0: 44fc f03c 4dc3 323c 13c6 c73c 8180 2a3c
000002c0: f860 a23c 2681 fc3b fec6 643c eacb 9d3c
000002d0: 0253 cb3c 9fed de3b 0aa7 6d3b d9d0 093d
000002e0: ce62 dd3b 1832 da3c cf2f 21bc 16e5 83bb
000002f0: 63e4 403c c2ce 893b 6c48 ad3b 7c25 0f3d
00000300: 38a4 653c d49b 063d ef3a 5e3c c119 933c
00000310: 0b3d 67bb e0ba 853c 447f 4e3d db27 283c
00000320: 23d2 ef3b eb06 333c 24d8 26bb 1166 2cbc
00000330: 4963 503c b22d 1f3c 0672 853c 70d1 353c
00000340: 1634 69ba c057 123d 5762 003d 5b58 053d
00000350: f0e9 f83b d3bb e5bb 7862 063d 299d 4e3d
00000360: 5013 033d e08d 813c 45f0 b6bb 338b 71b9
00000370: 5f3a 74bb 7d03 ba3c 17b4 2d3c e39c 423b
00000380: 90e6 4f3c 4e59 aebc 513a debb 3bad 053d
00000390: eec2 ac3a 2cf9 da3b e2c0 a13b 7514 d33c
000003a0: 3f45 fa3c f9a8 d83c 0597 9ebb 0e79 7fbb
000003b0: 5a19 663c 7ec3 cc3b 6a39 9f3b 3dff 0c3c
000003c0: bad0 33bc 21ae 353b 21c0 d8bb 8d4f 193d
000003d0: eb0a 4d3d 858a fd3c a26e a43c 0844 82ba
000003e0: a81c 893c bbd3 76bc 50d7 dc3c 1d58 963c
000003f0: e231 653b 29ed c23c 8df9 953c 8534 2c3c
6.384561e-05 -0.019610412 -0.01636733 0.03064883 -0.0012460827 -0.0013585789 0.030232219 0.001181963
0.017764037 -0.00551563 -0.020282483 0.0074964515 -0.031780474 0.010087833 -0.03774462 0.0030462714
0.005771861 0.018141516 0.04492851 0.009807469 -0.01469714 0.015694885 -0.003436522 0.002645702
0.0011713123 0.0092228195 -0.022689078 0.030246552 -0.02141883 0.0015585239 -0.017551357 0.009229667
0.0025405658 0.008705688 -0.008124796 0.032414608 0.002786979 -0.017476415 0.01972657 0.019818006
0.026618714 0.026591318 0.016390095 -0.011958739 0.0237297 0.000986861 0.018549362 0.0043298057
-0.0015978267 0.007691489 -0.008624232 0.003832309 0.008087158 0.0066714 -0.008730474 0.035755474
0.0030859064 0.010507407 -0.024789758 -0.013192956 0.0068006325 0.0002056534 -0.0056659523 0.035541542
-0.007611302 0.026272597 -0.00036602956 -0.002674818 -0.019336272 0.0075332513 0.043138757 -0.021764291
-0.0044057127 0.023169126 -0.0122670885 -0.012423533 -0.0011072109 -0.008559586 0.008504269 0.0064835716
-0.010340433 0.03128297 0.015391452 0.031246867 -0.008032084 -0.017884707 0.022054676 0.026731635
0.021443646 0.0026863478 -0.005249708 -0.018442856 -0.0035161655 0.028482646 -0.00015377828 -0.0058088605
-0.006158179 -0.025994929 -0.015340726 0.0064542056 -0.0014471515 -0.011611129 0.01624014 0.026406158
0.024131626 0.020425487 -0.020857735 -0.012995211 0.0013596804 -0.0018590322 0.009048877 0.006216449
-0.02022787 0.00056143187 -0.035317257 0.019247899 0.0022435556 0.019673172 0.008526117 -0.0029993756
0.009820596 -0.02572878 0.007784143 -0.011570036 -0.00045569197 0.02196737 0.008676948 0.0008600607
0.0027386819 -0.0025753544 -0.008522824 0.046605736 0.009554232 0.016139554 0.031912997 0.02197218
0.024073694 -0.013537801 -0.0041412017 0.008388674 -0.018577958 0.014511553 -0.017727029 0.013563225
0.0057354574 0.043987066 0.052301254 0.006276033 -0.00063534325 0.012905034 0.008060179 0.02087458
-0.00024063782 0.02874127 -0.02085194 0.03315888 -0.008927258 0.016681883 -0.0039457725 0.014758932
0.022214655 0.020805385 0.011610205 0.047198385 0.012727594 0.017890623 0.019147217 0.031302877
0.032871187 0.03275109 0.019815477 0.008154044 0.029417165 0.010910821 0.024386441 0.010406614
0.019821629 0.0077058254 0.013963459 0.019262273 0.024819855 0.006803229 0.0036262893 0.03364644
0.006756163 0.026635215 -0.009838059 -0.004025112 0.011773202 0.0042055557 0.0052881744 0.034947857
0.014016204 0.032863453 0.013563856 0.017956616 -0.0035284187 0.01632446 0.05041434 0.0102634085
0.0073187514 0.010926942 -0.002545842 -0.010522381 0.012718984 0.009715484 0.016289722 0.011097297
-0.0008896006 0.035728216 0.031343784 0.032554965 0.007596247 -0.007010916 0.03280875 0.05044285
0.03200084 0.015814722 -0.0055828416 -0.00023035407 -0.0037266237 0.022706741 0.010602019 0.0029695563
0.012689248 -0.021282818 -0.006781854 0.03263591 0.0013180652 0.0066825356 0.0049363235 0.02576659
0.030550597 0.02644776 -0.0048397803 -0.0038982066 0.01404413 0.0062488904 0.004859139 0.008605775
-0.010975057 0.0027722197 -0.0066147004 0.03742938 0.05005924 0.03094984 0.020072285 -0.0009938488
0.016737297 -0.015065129 0.026958138 0.018352563 0.003497236 0.023794727 0.018307472 0.0105105685
