E2NN/Trained_models_h128_s20_20250726_160242/e2nn_model.pth (torch, 439266 bytes, 42 tensors)

inertial_net.net.0.weight f4 [128, 3]
000000 33 60 ab bc f4 0f 08 3c e7 cf a0 3c 93 fc 33 bc
       -0.020919895 0.008304585 0.019630386 -0.010985511
000010 27 c2 10 3c 74 23 c8 b8 6d ae b6 bc c0 93 61 3c
       0.008835352 -9.543347e-05 -0.02229997 0.0137681365
000020 e8 d5 ea bb c9 49 1d 3a 33 48 77 bb 3d 6b 66 bc
       -0.007166613 0.00060000696 -0.0037732243 -0.014063654
000030 5f f0 39 3b 42 79 2f bc 4e 5e 1c bc 9b fc 55 bc
       0.0028372032 -0.010710062 -0.009543968 -0.013060714
000040 7c d3 d6 3b de ce 04 bc 49 fc 02 bb 41 54 38 3b
       0.0065559726 -0.008105962 -0.00199868 0.002812639
000050 aa 36 57 bc ee be 49 bc 01 73 2c 3c a6 f0 94 ba
       -0.0131355915 -0.012313588 0.010525466 -0.0011363223
000060 ca ab 8f bc 5f 8c 96 3c 10 11 fd 3b 17 98 97 bb
       -0.01753797 0.018377481 0.0077229813 -0.004626285
000070 86 bc 1b bc 7b e7 ba 3c c3 61 e9 bb 33 4b 48 bc
       -0.009505397 0.022815457 -0.00712225 -0.01222496
000080 2d a5 c4 3c 71 98 07 3c 59 5c 10 3b db aa 8d 39
       0.024004543 0.008276091 0.00220277 0.00027020913
000090 e6 aa 5c bb a3 48 de ba 6d 7d a9 3b df b0 f9 bb
       -0.00336712 -0.0016958903 0.0051724226 -0.0076199616
0000a0 19 21 e1 3a 84 60 a6 bb 20 13 f0 bb c3 74 77 3b
       0.0017176002 -0.0050774235 -0.0073264986 0.0037758804
0000b0 cd dc a2 3c 05 f5 d0 bb 34 28 85 39 d5 b2 1c 3c
       0.019880677 -0.006376865 0.0002539769 0.009564121
0000c0 a3 dc c4 3b 8b e9 e9 ba 63 4e 00 3c 1a 5c 03 3c
       0.0060077473 -0.001784609 0.007831189 0.008017564
0000d0 0c e9 9e bb 28 45 9f 3a 23 32 a0 bb ec 16 4a 39
       -0.0048495587 0.0012151347 -0.0048887893 0.0001927276
0000e0 f6 a6 cb 3c 30 b1 2c 3d 02 30 89 bc 49 83 9e 3b
       0.024859887 0.042161167 -0.016746525 0.0048374278
0000f0 4d 7d 82 3c cc e8 17 bc 01 16 86 ba b3 52 5d bc
       0.015928889 -0.009271812 -0.0010229946 -0.013508487
000100 00 a9 95 3c 92 36 8e bc 4f ac 96 3c da 36 10 bc
       0.018269062 -0.017360006 0.01839271 -0.00880214
000110 ce 4d 8e bc 79 9f ee bc 29 a3 b7 ba b2 e1 da 3c
       -0.017371085 -0.029128777 -0.0014010418 0.026718948
000120 49 6c 2f 3a 81 3e fa 3b f2 2b 0a 3c 2e 6a 93 bb
       0.0006691856 0.0076368456 0.008433329 -0.0044987416
000130 c4 b3 da ba a5 28 1e 3b f3 f9 6f 3c 48 2d 53 ba
       -0.0016685654 0.0024133113 0.014646995 -0.00080557587
000140 1b 29 83 3b b1 b9 28 bc 44 af 21 39 fb f8 f3 3b
       0.004002703 -0.0102981785 0.00015419448 0.0074454523
000150 92 b3 09 3c 83 50 c9 3b 27 05 1b bb ba 5d e9 bb
       0.008404629 0.006143631 -0.0023654194 -0.007121769
000160 8d 75 21 3c 5c e0 42 3c 8a 93 91 3c 8b 95 8e ba
       0.009854686 0.011894312 0.017770547 -0.0010878308
000170 59 61 80 bc 75 0b f6 bb d1 44 3d 3c c4 28 c5 bc
       -0.015671419 -0.00750869 0.011552052 -0.02406729
000180 85 02 66 bb ba 71 fc bb cb a3 00 3b c6 3a 63 3c
       -0.0035096717 -0.007703987 0.0019628878 0.013868993
000190 3d 3b 3b bc 9e b5 99 bb 32 a0 6a bb 7d 1a 25 3b
       -0.011427698 -0.00469084 -0.003580105 0.002519279
0001a0 3c 1d 1d bc f1 41 3b bc b6 b4 ea 3b b8 98 d7 ba
       -0.00958949 -0.011429296 0.0071626557 -0.0016448712
0001b0 5b 80 c6 bb 6d 73 c8 3b 24 6d 55 bc c6 10 4d b9
       -0.0060577816 0.0061172755 -0.013026509 -0.00019556572
0001c0 97 a3 7e 3a f0 af 5d 3a c5 86 14 bb 4b 68 88 3a
       0.0009713708 0.00084566977 -0.0022663337 0.0010407058
0001d0 1d 07 8d bc 75 b2 6e bb 6b eb b1 39 db b7 03 bb
       -0.017215306 -0.0036422287 0.0003393547 -0.00200986
0001e0 5d a7 a9 bb 8c 8a e7 3b 9c b3 55 ba ce 63 92 39
       -0.005177422 0.0070660766 -0.0008152069 0.0002792165
0001f0 81 40 4f 3c d4 a2 ab bb f6 ac 46 3b 4b a0 00 3b
       0.012649656 -0.0052379165 0.0030315495 0.0019626792
000200 e2 cb 36 3a 7f 17 a8 3a 96 1b 95 ba 72 8a 09 3d
       0.000697313 0.0012824385 -0.0011376019 0.033579297
000210 9f 86 ee 39 ec 53 22 bc 82 19 b3 3b e7 bd 3b bd
       0.00045495198 -0.009907704 0.0054656873 -0.045835402
000220 1b 5d e6 3c 33 06 e5 3b f2 04 c2 b9 ec fa 88 bb
       0.028120568 0.0069892644 -0.00037006248 -0.004180303
000230 cd 28 9a bb c0 5b 38 3b c0 b7 9c bb 9c 6a 2f bc
       -0.004704571 0.002813086 -0.004782647 -0.01070657
000240 cc 38 3e 3c 29 ff 29 bc 92 d1 39 3b 46 21 14 bb
       0.011610221 -0.010375776 0.0028353673 -0.002260284
000250 78 b3 a2 bb ba 49 74 3b 7f 89 14 bc 8f fb d7 3b
       -0.004965242 0.003727539 -0.009065985 0.0065912674
000260 20 51 09 3c 51 51 20 3b 5e e6 8d bb d2 25 7c 3c
       0.008381158 0.002446253 -0.0043304404 0.015389876
000270 4d 64 22 3b 0f e8 8b 3a 19 f7 ac bb 91 b2 9b 3c
       0.0024779022 0.0010674017 -0.00527848 0.019006046
000280 8e 4d 27 bc 2e 6e 15 3c 83 19 d5 3b bf 2f 54 bb
       -0.010211362 0.009120507 0.0065032854 -0.0032377092
000290 6b 38 58 3c db bd e7 38 b3 c8 56 3c 4d 62 86 ba
       0.013197045 0.00011050302 0.013109374 -0.0010252685
0002a0 3d 71 d8 3b ed 41 6a bc d9 a3 ca 3c 2b e2 47 3a
       0.006605296 -0.0142979445 0.024736332 0.0007624949
0002b0 d7 c5 0e 3c 12 b1 2b 3c b0 e3 10 3a 15 26 12 3a
       0.008714161 0.010479229 0.0005527092 0.00055751327
0002c0 3c 51 71 bc db d0 e3 ba c8 0c 85 b9 2c d0 88 bb
       -0.01472884 -0.0017380969 -0.0002537726 -0.0041752066
0002d0 1d b6 d5 3b 57 c8 02 3c 76 44 b5 bb 91 a9 d1 3c
       0.0065219537 0.007982335 -0.005531843 0.02559355
0002e0 48 4b 64 bc 17 e0 85 bc 2f 89 ce 3b 5f ce ef bb
       -0.013933964 -0.016342206 0.0063029747 -0.0073183025
0002f0 57 21 8e 3c 8c f0 bf 3b bc d5 e0 3a 7c 2d e8 bc
       0.017349882 0.005857533 0.0017153542 -0.028342001
000300 c4 f5 58 3b 66 37 e1 bb 0a 6a f1 ba 00 0a 06 bb
       0.0033105472 -0.006873059 -0.0018418443 -0.0020452738
000310 58 38 b8 3b f6 05 95 bc dd f8 dd bb bf 2b 40 3c
       0.005621951 -0.018191319 -0.0067740516 0.01172918
000320 3e d4 c7 bc 37 76 09 3c 61 15 35 bc 5e 10 29 3c
       -0.024393197 0.008390001 -0.01105246 0.010318844
000330 6f 5b 6a 3c 0a c6 00 ba f5 86 ee 3b 47 b7 be 3b
       0.014304026 -0.00049123226 0.0072792717 0.005820188
000340 ce 04 ac bb bb 2c 50 3a 96 9b bb 3c 2a e1 c4 3b
       -0.005249596 0.00079412357 0.022901338 0.006008287
000350 27 83 07 bd 25 f7 4c bb 7d 13 08 3c e9 95 89 3c
       -0.03308406 -0.003127524 0.008305428 0.016795116
000360 af aa 8a bc 7c 3e 23 3c 02 91 17 3c 30 1d 15 3a
       -0.016927091 0.009963628 0.009250881 0.0005688248
000370 ea a9 d3 3b 41 b0 9f 3a e3 a8 1a bc 0a d4 4a 3c
       0.0064594643 0.0012183265 -0.00943968 0.012379656
000380 79 e9 0d 3b 38 0a 13 bc af bb ec 3b a1 73 2a 3b
       0.0021654053 -0.008974604 0.007224522 0.0026008862
000390 48 5d e2 bb 54 6a 90 3c e6 e0 96 bc d9 a4 9c 39
       -0.0069080926 0.017628826 -0.018417787 0.0002987746
0003a0 c0 47 d2 3b bb 61 41 bc 6a c8 9e bc c7 72 91 3b
       0.0064172447 -0.011803086 -0.019382674 0.0044387314
0003b0 38 c0 80 3c 75 df 75 3a 5a c9 30 bc ed 0b cd 3c
       0.015716657 0.0009379306 -0.010790193 0.0250301
0003c0 ef 6e 8d 39 24 c5 84 3c 30 da e5 bc 46 8a db 3b
       0.00026976268 0.016207285 -0.028058141 0.006699833
0003d0 1e 47 07 3c 68 4a f0 bb ec 13 03 3b a7 e4 a2 bb
       0.008256702 -0.0073330887 0.0020000888 -0.004971105
0003e0 bd f1 f6 3a 8e 33 a8 3b 85 ef ae 3a 9b 25 77 ba
       0.0018840354 0.005133099 0.0013346529 -0.0009427906
0003f0 3e 79 ee 3c 72 6b 83 bc 56 8f c0 bb 59 ca 82 3c
       0.029110547 -0.016042445 -0.005876462 0.015965628

inertial_net.net.0.bias f4 [128]
000000 26 4f ad 3b 8d 7a bc 3b af c5 2e 3c 9b 82 43 3b
       0.0052889762 0.005751914 0.010667249 0.0029832486
000010 44 2c 0a 3b 3d df 5f 3b d7 f1 2a 3c fc 9a 1f 3a
       0.0021083513 0.003416016 0.010433636 0.0006088463
000020 11 8d 82 bb 17 95 58 3b 33 5e 2f 3c da 39 0f bc
       -0.0039841016 0.003304785 0.010703611 -0.00874182
000030 7f 70 5a 3b 16 b8 e9 3b de 25 d1 b9 ca 75 06 bb
       0.0033331213 0.0071325405 -0.000398918 -0.0020516985
000040 1c d0 07 bc c7 54 82 3b b7 ee e8 3b 88 52 ad bb
       -0.008289363 0.0039773914 0.007108535 -0.0052893795
000050 f9 33 51 3b 5b 41 d7 b9 c8 2d 7d ba 36 d5 01 ba
       0.0031921847 -0.0004105669 -0.0009658006 -0.00049527304
000060 78 9c 80 bb d1 b9 61 3b 39 ae 4c bc e6 a0 c3 3b
       -0.0039249025 0.003444303 -0.01249271 0.0059701083
000070 ae cd 5d bc 1c 9b 81 bb 76 81 86 bb cb 45 22 3c
       -0.013537807 -0.003955258 -0.0041047884 0.009904335
000080 77 69 00 3c 4b 89 33 3c 4d 22 f3 3b 65 62 00 bb
       0.007837645 0.010958026 0.0074198605 -0.0019589898
000090 75 aa b3 3b aa 86 52 bb 29 44 9d 3b f0 ba d0 3b
       0.0054829665 -0.0032123723 0.004799385 0.006369941
0000a0 e6 fd 41 bb 60 02 24 bb c3 fe 3c bb 07 e1 5d bb
       -0.0029600798 -0.002502583 -0.0028838373 -0.003385605
0000b0 f7 c0 a4 3b 8a 76 bd bb b4 bf 22 3c 9f 39 b8 3a
       0.005027886 -0.005781953 0.009933401 0.0014055258
0000c0 49 7f ad 3b 14 4d b3 3b 44 19 25 bb b8 59 ab bb
       0.0052947146 0.005471835 -0.0025192061 -0.005229201
0000d0 39 a3 42 3b ff 2a 9d 3a ac 54 55 bb 5d 61 3f bb
       0.002969934 0.0011990963 -0.003255169 -0.002920232
0000e0 6e de c9 3a bf b9 f1 ba 7f 5f b0 3a c5 70 e2 3b
       0.0015401372 -0.0018442197 0.0013456194 0.006910416
0000f0 89 24 29 bc 08 43 32 3c e6 fc d1 ba 28 5a 3c bb
       -0.010323652 0.010880239 -0.0016020804 -0.002874026
000100 f3 f8 c6 3b 93 a9 b0 3b aa 70 07 3b e7 b8 dc 3b
       0.0060721575 0.0053913086 0.0020666518 0.0067359093
000110 26 6e 84 bc 07 44 7a 3b e1 5f 03 bb dc d8 f7 3a
       -0.016165804 0.003818752 -0.0020046162 0.0018909234
000120 3f bc bd bb 82 e0 3a bb 4f d7 ab bb 30 3f 95 3b
       -0.005790263 -0.0028515165 -0.0052441726 0.0045546517
000130 04 25 1d bb e4 16 43 39 11 39 c6 bb 69 69 c9 ba
       -0.0023978362 0.00018605177 -0.0060492833 -0.0015366498
000140 38 9a 5f ba 34 8b 1e bc d9 09 ba 3a cf f4 83 bb
       -0.0008529755 -0.009676743 0.0014193609 -0.004026986
000150 f1 d9 5a 3c a7 55 70 bc 54 4a 55 bc ae 8f 1d bb
       0.013357625 -0.014668859 -0.0130182095 -0.0024041939
000160 e4 17 9d bc e3 dd f1 ba 88 dc f3 3b b1 04 8b bb
       -0.019176431 -0.0018452968 0.007442061 -0.0042425026
000170 63 75 96 3b 80 fa 7d 3c f4 12 d7 38 9a 3a a9 39
       0.0045916303 0.015501618 0.00010255529 0.00032277853
000180 b7 0c 93 bb 65 7e 13 bb a0 67 d8 bb 40 ad a5 bb
       -0.0044875997 -0.0022505757 -0.00660415 -0.0050560534
000190 82 08 79 39 6d ea ce bb ec fd ca bb 9a e6 ab b9
       0.0002374966 -0.006314567 -0.0061948206 -0.00032787473
0001a0 0c 26 a4 bb 34 8f a1 3b bb e0 59 bb 36 90 ba bb
       -0.0050094184 0.004930401 -0.0033245522 -0.005693461
0001b0 fd 6b 7c 3a 9d dc 75 3c 07 07 ec 3b 18 c8 c4 ba
       0.00096291286 0.015006212 0.007202986 -0.0015013246
0001c0 4a 7f de 3b 3f f5 91 b9 4d 27 35 bb 56 72 62 3c
       0.0067900764 -0.00027839278 -0.0027641833 0.013821205
0001d0 cf 02 23 3b c0 a6 83 3b 47 b5 3c bc 5f b2 84 bb
       0.00248735 0.004017681 -0.011517829 -0.004049584
0001e0 ed 06 df 3b b5 5a 53 3c 92 34 fc bb 50 0b 20 bc
       0.0068062455 0.012900044 -0.0076966966 -0.009768322
0001f0 70 21 9d ba f9 d1 09 3b b3 e7 eb 3b 6f 85 9c bb
       -0.0011988115 0.0021029694 0.0071992516 -0.0047766487

inertial_net.net.1.weight f4 [128]
000000 2e a3 80 3f 99 d2 7f 3f 4f 2c 82 3f 1d 88 82 3f
       1.0049798 0.9993072 1.0169772 1.0197788
000010 d3 2b 83 3f d4 2f 7f 3f 29 a2 80 3f 1e 12 80 3f
       1.0247749 0.99682355 1.0049487 1.0005529
000020 a5 79 81 3f ea c3 7f 3f 45 bb 80 3f ad 6b 80 3f
       1.0115248 0.99908316 1.005715 1.003286
000030 e5 60 80 3f a5 6a 7f 3f 55 ff 80 3f fb ad 80 3f
       1.002957 0.997721 1.0077921 1.0053095
000040 b7 92 80 3f 50 b7 7d 3f 57 0b 81 3f 36 7c 83 3f
       1.0044774 0.9910784 1.0081586 1.0272281
000050 5b 04 82 3f b6 09 81 3f 57 cc 81 3f 02 3b 83 3f
       1.0157579 1.0081089 1.0140485 1.0252383
000060 35 8c 80 3f 53 ea 7d 3f 2a 2b 80 3f a1 e5 7f 3f
       1.0042788 0.99185675 1.0013173 0.9995976
000070 14 f5 80 3f a0 1a 7f 3f 35 46 80 3f c2 ee 80 3f
       1.0074792 0.9965 1.0021425 1.0072863
000080 36 d3 7f 3f 00 70 80 3f f2 3f 7e 3f 57 e5 7f 3f
       0.9993166 1.003418 0.9931632 0.9995932
000090 7f 90 7f 3f ab a5 7e 3f d6 ec 80 3f ff 58 7f 3f
       0.9982986 0.9947154 1.0072277 0.9974517
0000a0 2f 70 80 3f ee 80 7f 3f fe f1 80 3f f2 9a 83 3f
       1.0034236 0.99806106 1.007385 1.028166
0000b0 00 7f 80 3f 6a 95 85 3f 30 e1 80 3f 4b 51 80 3f
       1.0038757 1.0436223 1.0068722 1.0024809
0000c0 11 bb 7c 3f 14 a3 7f 3f 04 b2 81 3f 86 25 80 3f
       0.9872294 0.9985821 1.0132451 1.0011451
0000d0 d6 9a 7e 3f 35 49 80 3f d0 4e 7e 3f 7a f4 80 3f
       0.9945501 1.0022341 0.9933901 1.0074608
0000e0 30 79 81 3f ac 60 82 3f d8 4e 80 3f 7b 33 81 3f
       1.0115108 1.0185752 1.0024061 1.0093836
0000f0 6c 63 81 3f 47 33 82 3f 5a 0b 80 3f 41 ec 81 3f
       1.0108466 1.0171899 1.0003464 1.0150224
000100 03 3e 80 3f b8 91 80 3f 1d 7a 80 3f e5 d0 7f 3f
       1.0018924 1.004447 1.0037266 0.9992812
000110 fd 88 80 3f f5 7c 7e 3f 10 78 81 3f 44 32 84 3f
       1.0041806 0.9940942 1.0114765 1.032784
000120 fd 60 82 3f 53 53 7f 3f a2 44 80 3f 02 f1 7e 3f
       1.0185848 0.9973652 1.0020945 0.995865
000130 36 31 81 3f d4 43 7f 3f f4 da 82 3f c3 9d 7f 3f
       1.0093143 0.9971287 1.0223069 0.998501
000140 33 fd 80 3f 0c 65 80 3f ed 69 7f 3f 76 47 7f 3f
       1.007727 1.0030837 0.99771005 0.99718416
000150 1c e4 83 3f 63 48 80 3f ef 0b 80 3f af c5 80 3f
       1.0303988 1.0022091 1.0003642 1.0060328
000160 af 7b 80 3f 95 f2 7e 3f a6 ae 80 3f 63 a2 7f 3f
       1.0037745 0.995889 1.0053298 0.9985716
000170 f5 63 7e 3f b0 5a 80 3f c8 12 82 3f 25 6b 80 3f
       0.9937127 1.0027676 1.0161982 1.0032698
000180 8c 98 7f 3f d6 cf 7f 3f 3b ab 80 3f 45 28 7f 3f
       0.99842143 0.9992651 1.0052255 0.9967082
000190 df 2c 82 3f e9 a8 7f 3f d9 04 7f 3f 8d e5 80 3f
       1.0169944 0.9986711 0.9961677 1.0070053
0001a0 7c 0d 7e 3f 62 c4 81 3f cd 8a 80 3f 22 78 7e 3f
       0.99239326 1.0138056 1.0042359 0.9940206
0001b0 1e 98 81 3f 40 81 7f 3f 63 19 80 3f 71 62 80 3f
       1.0124547 0.99806595 1.0007747 1.0030042
0001c0 d7 46 7e 3f 4f 51 7f 3f 76 a5 80 3f 54 01 80 3f
       0.99326843 0.9973344 1.0050495 1.0000405
0001d0 88 94 80 3f 29 4d 7e 3f e6 e0 7f 3f cf 66 7f 3f
       1.0045328 0.9933649 0.9995254 0.9976625
0001e0 1e fe 80 3f b3 ba 80 3f 41 e1 7f 3f 62 81 82 3f
       1.007755 1.0056976 0.99953085 1.0195735
0001f0 01 45 82 3f 10 1e 83 3f 66 a6 80 3f c1 1f 81 3f
       1.0177308 1.0243549 1.0050781 1.0087816

inertial_net.net.1.bias f4 [128]
000000 35 b7 6d 3b 4c c4 84 bb f8 06 b6 bc ab 96 a8 3a
       0.003627253 -0.0040517207 -0.02222012 0.0012862285
000010 6e 0c 20 bb 1a 5a 60 bb ec 05 4c ba 64 dc 81 3a
       -0.0024421471 -0.0034233392 -0.0007782865 0.00099076
000020 65 4c 82 bb dc 53 cb bb 69 12 29 bb 53 42 5d 3c
       -0.003976392 -0.006205065 -0.0025798327 0.013504582
000030 4b 0b 69 bc e3 f7 3e bc a8 c0 44 bb 5a c0 a0 bb
       -0.014223884 -0.0116557805 -0.0030022059 -0.0049057426
000040 0e d2 96 3c 68 94 79 bb e4 33 f1 ba be ac c7 3b
       0.018410709 -0.0038082842 -0.0018402305 0.0060935905
000050 32 96 06 3b 88 c0 ba 3b 90 99 9d ba 92 03 87 3a
       0.00205363 0.005699221 -0.0012023915 0.0010300747
000060 62 f3 32 3c 7d f0 36 3b 2d 75 01 3c 2d 59 4e bc
       0.010922285 0.0027914338 0.007901472 -0.012594503
000070 43 22 72 3c 50 69 82 3b 22 43 cd 3a 48 a8 15 b9
       0.014778676 0.0039798394 0.0015660266 -0.00014272437
000080 dd a3 40 bc f0 45 db 3b 3d d4 83 bb 80 48 c1 ba
       -0.011757818 0.006691687 -0.0040231035 -0.0014746338
000090 1b 60 20 bc 20 de 45 3b 48 ac 9e 3a 1d 19 2b 3b
       -0.009788538 0.0030192211 0.0012105787 0.0026107498
0000a0 ed 6f cd 3a 93 2e ef 3b a4 e0 9f 3c df 79 76 3a
       0.0015673615 0.0072992533 0.019516297 0.00094023155
0000b0 99 32 46 bc e4 9e ad bb ba 34 b2 b9 3c 95 f9 ba
       -0.012097024 -0.0052984823 -0.0003399009 -0.0019041668
0000c0 fe e2 e0 bb 99 f4 09 bc 28 4d 8a 3a d7 6e 17 3c
       -0.006862997 -0.008420133 0.0010551559 0.009242735
0000d0 77 c9 74 bb bd 52 45 3b d9 64 31 bb 2f 6d f9 39
       -0.0037351528 0.003010913 -0.0027068167 0.0004757433
0000e0 a7 25 c2 bb 15 75 26 ba 76 b7 8e ba 78 ad be bc
       -0.0059248987 -0.0006349844 -0.0010888416 -0.023276076
0000f0 2e c5 8e 3c a2 80 d3 3b 5a b3 11 bb ff d3 0c 3b
       0.017428007 0.006454543 -0.0022232146 0.0021488664
000100 bc e9 e0 bb 36 2d 96 bc 6d 3d 1d 3b f9 c2 b4 bb
       -0.006863801 -0.018332105 0.0023992911 -0.0055164066
000110 60 c9 0a 3b 4f a9 a2 bb 5e b3 b0 ba 13 eb 18 bc
       0.0021177158 -0.004964031 -0.001348119 -0.00933339
000120 74 60 b1 ba a9 1d 95 3a cc 78 18 3b ef d2 94 b9
       -0.0013532774 0.0011376637 0.002326536 -0.00028385918
000130 a5 42 99 3b 3f a7 ff 3b d5 8a 59 3a 85 37 77 bb
       0.004677134 0.0078019197 0.00082985807 -0.0037722301
000140 08 aa 9a 3b d3 09 3e 3c 7b f5 1e bb cd 47 46 3b
       0.0047199763 0.011599022 -0.0024255204 0.00302552
000150 fb 9f 7c ba 69 64 04 3c cd 7d 34 3c e9 82 ea 3a
       -0.0009636876 0.00808058 0.011016321 0.0017891797
000160 32 93 b0 3b 44 4e 01 3b f1 57 31 bb 04 d7 88 3b
       0.005388641 0.0019730488 -0.0027060474 0.0041760225
000170 76 ac 87 bb 9a c0 ba bb 7b b9 0a bc 1a 66 ab bb
       -0.004140432 -0.0056992294 -0.008467074 -0.0052306773
000180 84 5f db 3b 7b 74 4e 3b 17 7d 30 3b 68 db 79 3b
       0.006694736 0.0031502533 0.0026930028 0.003812516
000190 14 00 60 3a 38 6b 2a 3c 32 e2 4a 3b 97 2c 3d 3b
       0.00085449335 0.0104015395 0.0030957577 0.002886569
0001a0 7f 19 a8 3b 18 3f e3 bb 8b 35 fb bb 26 2d 27 3a
       0.0051299925 -0.0069350116 -0.007666295 0.0006377272
0001b0 23 81 19 bb ae 34 45 b9 49 cd cf bb 20 36 07 3b
       -0.0023422919 -0.00018807009 -0.0063416106 0.0020631626
0001c0 6c d5 56 3b f7 d5 c8 3b a9 d9 b3 ba c1 3c f4 ba
       0.0032781018 0.006129022 -0.0013721484 -0.0018633829
0001d0 e4 8d 1d 3b 5e 3a 86 bb 35 34 99 3b 11 56 81 3b
       0.0024040872 -0.0040963134 0.004675413 0.0039470275
0001e0 0f 37 15 bb ea 87 96 bc 8b 55 4b 3a 92 d4 01 bb
       -0.0022768413 -0.018375356 0.00077565823 -0.001981054
0001f0 8a 8d de ba 7c 3a 8b 3b a6 39 c5 ba 93 66 31 bb
       -0.0016979438 0.0042489152 -0.0015047088 -0.0027069196

inertial_net.net.4.weight f4 [128, 128]
000000 1d da 08 bb 0a 50 be 3b 97 09 51 3a cb 90 e5 bc
       -0.0020881959 0.0058078812 0.0007974146 -0.028023144
000010 c7 1a 17 3b 9e e9 dd 3b 04 f8 e5 39 94 eb c2 3b
       0.0023056732 0.006772234 0.0004386307 0.0059484933
000020 eb a1 db bb fa 87 0e 3b 95 45 15 bb 53 fe a0 3a
       -0.0067026517 0.0021748529 -0.002277707 0.0012282826
000030 77 79 66 3a 9f 84 dc b8 98 22 41 bb 5f 61 a1 3b
       0.00087919034 -0.0001051512 -0.0029470082 0.0049249376
000040 8e db 86 3b 6e 0f 45 bc 64 a3 f1 ba 20 56 cb bb
       0.0041155284 -0.0120276045 -0.0018435535 -0.0062053353
000050 cb 5a 35 3a 48 65 a5 3a 72 b8 a1 39 25 47 79 3b
       0.0006918131 0.0012618685 0.00030845735 0.003803679
000060 e4 76 82 bc bc be 8e bc ba af 40 bc 9a 4b 16 bc
       -0.015925832 -0.017424934 -0.0117606465 -0.009173298
000070 17 45 8f 3c ad 31 ca 3b e6 95 34 3c 8d 6e 4d bb
       0.017489 0.0061704726 0.011022067 -0.003134641
000080 5b 57 22 ba 4f c6 f5 bb 4a 93 fc bb 3e 11 c4 3b
       -0.00061928265 -0.007500447 -0.007707988 0.0059835007
000090 ff 00 e2 bb f2 62 0c 3b e7 7c ed b9 74 3e 2b 3c
       -0.0068970914 0.002142128 -0.00045297222 0.010451902
0000a0 7f 42 d6 3b 6a da f8 3b 37 35 53 3c a6 9d d0 3c
       0.0065386887 0.0075943964 0.012891105 0.025465798
0000b0 0e 27 de ba b2 f2 86 3c fc aa 37 3a 9d 64 85 bb
       -0.0016948895 0.016473148 0.00070063747 -0.004070832
0000c0 6b 12 30 bc 2a 14 34 bc be b4 c2 3b 21 85 ee b9
       -0.010746579 -0.010991136 0.0059419563 -0.00045494086
0000d0 51 37 b3 bc d3 93 7f 3b 79 62 22 3c 51 c6 ed bb
       -0.021876963 0.0038998022 0.009911173 -0.007256307
0000e0 7b c4 1e 3b fa 5e 8c 3c 76 2d cf 3b 45 99 c4 3b
       0.0024225998 0.017135132 0.006322558 0.0059997165
0000f0 66 61 26 3c 79 ac 26 bb b9 6a 31 bc 22 9d 37 3b
       0.010155058 -0.0025432392 -0.010828667 0.0028017242
000100 1d f7 48 bc ba 27 9f 3b e8 31 14 bb 58 5d e3 ba
       -0.012265948 0.0048570307 -0.0022612754 -0.0017346544
000110 2b c5 44 3c e0 c6 8e bc 8d fc a4 bb 08 ff 3f 3c
       0.012009899 -0.017428815 -0.005034989 0.011718519
000120 d0 a9 08 3c 81 96 0b 3c 4a a2 ca 3a 44 87 a0 bb
       0.008341268 0.00851977 0.0015459743 -0.0048989374
000130 f9 2c 12 3c aa 7b a4 3a b5 97 16 3c 4a e3 74 bb
       0.008921855 0.0012549062 0.009191443 -0.003736692
000140 7e 2c 9e b8 3e df 7e 3c 74 47 88 ba 74 db 09 3b
       -7.5423144e-05 0.015556155 -0.0010397271 0.0021035345
000150 dc 3a 3e bb 6b 82 51 3c 8d 98 a3 bb 33 72 50 3c
       -0.0029026782 0.012787442 -0.0049925507 0.01272254
000160 f7 09 e3 3c 11 8f 3b 3c e7 2e 5f bc d9 80 ea bb
       0.027714713 0.011447684 -0.013622022 -0.007156473
000170 c7 e7 d3 b9 7a 67 a8 bb 1f e3 45 bb 91 30 77 bc
       -0.00040417744 -0.0051392885 -0.003019519 -0.015087263
000180 d4 4b 8d ba b0 c3 eb 3a d4 0c 99 3c 31 3d 35 bb
       -0.0010780045 0.0017987397 0.018682875 -0.002765488
000190 b3 ff b8 bb 5d d7 27 3b 4d 8e 15 bc fb 41 dd 3b
       -0.005645716 0.0025610544 -0.009128165 0.0067522503
0001a0 38 f0 69 3b e4 b3 5b bc 1a 95 62 bb 93 ba ad bb
       0.003569616 -0.0134095885 -0.0034573735 -0.0053017824
0001b0 87 31 52 3c e0 06 15 bc 0b da 5d bc ee 91 49 bb
       0.012829191 -0.009095877 -0.013540755 -0.0030757147
0001c0 78 64 be ba cb c5 1a bb ee 57 88 3b 9b a7 2e bb
       -0.0014525792 -0.002361643 0.0041608727 -0.0026650194
0001d0 de 54 b4 bb 05 66 3b 3c 8c fc 98 3b c2 bf 51 3c
       -0.005503281 0.011437898 0.004668778 0.012802066
0001e0 12 07 6b bc cc 83 b1 bc 15 61 fa 3b 4e c3 b4 3b
       -0.014344947 -0.021669291 0.0076409676 0.005516446
0001f0 60 07 54 bc 54 7f 7e 3a 01 5f 93 3a a8 76 98 bb
       -0.012941211 0.00097083044 0.0011243523 -0.004652817
000200 af 6d 58 bc 5b 3f bf 3a 6b bc 58 ba ad b8 f7 ba
       -0.013209744 0.0014591025 -0.00082678226 -0.0018899642
000210 1a 5a 56 3c 7c bb 90 bb d3 ee 92 bb b2 f9 6e 3b
       0.013083005 -0.004416881 -0.0044840365 0.0036464748
000220 df 2f 23 bc ce ef b0 ba 98 02 56 3b 9e 6c a6 bb
       -0.009960144 -0.0013499202 0.0032655355 -0.005078866
000230 1c e0 35 bc 98 5a 63 3c b4 b4 04 3c ad 69 cf bb
       -0.011100795 0.01387658 0.008099724 -0.006329736
000240 c2 d5 08 3b 68 59 89 bb 3c 80 44 3c 6d fb 33 3c
       0.0020879363 -0.0041915663 0.011993464 0.010985238
000250 af a5 6f bb 29 9a 7d bc ee a1 f0 bb ce 98 71 3c
       -0.003656726 -0.015478649 -0.0073435223 0.014745904
000260 16 db 50 3b 49 51 87 3c b8 a6 b1 3b fe 8a 97 bc
       0.0031868867 0.016518252 0.0054214858 -0.018498894
000270 74 57 7c 3b ee cc 96 bb 89 97 b2 ba 80 54 86 3a
       0.0038504275 -0.0046020662 -0.0013625483 0.0010248572
000280 ba 57 03 bc dc 8f 3d bc 5a ad 9e bc 4d ca 42 ba
       -0.008016521 -0.011569943 -0.01936977 -0.0007430658
000290 46 cd 16 3c 12 48 f2 b9 72 87 91 bc 8b 68 f8 37
       0.009204214 -0.00046211533 -0.01776478 2.9612585e-05
0002a0 b4 74 ab ba b6 4e 83 39 f1 d2 ab 3a e5 80 31 bb
       -0.0013081045 0.0002504491 0.001310913 -0.0027084884
0002b0 01 a4 48 bc 30 55 d8 3b 01 34 13 bb 94 f1 ef bb
       -0.012246133 0.006601952 -0.0022461417 -0.0073224995
0002c0 d2 57 1d bb df ee ab ba 49 91 6f ba 22 40 1c 3c
       -0.0024008644 -0.0013117454 -0.00091387756 0.009536775
0002d0 43 d5 ff bb ab a9 04 bc 2b 5d fe ba 20 ae 09 ba
       -0.007807405 -0.008097093 -0.0019406428 -0.0005252082
0002e0 f4 ac 86 3c fc 07 bc 3b 44 5e 56 bb 69 ef e3 bb
       0.016439892 0.0057382565 -0.0032709995 -0.00695603
0002f0 08 84 93 bb c8 02 5e 3b 31 60 fe 3b 53 1a a8 3b
       -0.0045018233 0.003387617 0.0077629318 0.005130091
000300 61 d1 3b bb ab b6 f7 38 c0 17 bd bb 2b 56 bf bb
       -0.0028658735 0.000118119024 -0.0057706535 -0.0058391294
000310 91 74 ec 3b ab 8b 8c bb 84 9b 67 3b cf bc ec 3a
       0.0072160442 -0.0042891107 0.0035340497 0.001806164
000320 9f 64 f3 3a 84 23 49 bb cd aa ae bb ff bb 44 3c
       0.0018569416 -0.0030691335 -0.0053304196 0.012007712
000330 ab 98 42 3c 60 df 0d 3b 38 2b 84 39 74 01 11 3c
       0.011877219 0.0021648034 0.00025209202 0.008850444
000340 a3 33 34 bc 91 9a 0f 3b 48 69 b4 bc f7 e4 d3 3c
       -0.010998639 0.0021912197 -0.022022858 0.025866015
000350 59 08 b3 3b 43 cf 96 3c ce 27 3e 3c 4a d3 56 3c
       0.0054636416 0.018409377 0.01160617 0.013111899
000360 21 24 a0 3c 2a 08 66 3b 0a 51 5a bc d6 c3 e4 3a
       0.019548478 0.003510008 -0.013324985 0.0017453383
000370 ff 25 b1 bb 1b f9 d7 bb 65 39 b0 3b d3 c8 c9 bc
       -0.005406141 -0.006590975 0.0053779357 -0.024631893
000380 f9 e4 a8 3b f6 84 6a 3c 86 a8 0e 3c 88 8f 42 3b
       0.005154249 0.014313927 0.008707171 0.0029687602
000390 d1 c1 28 bc b1 7c 10 3c df b2 a0 bb eb 25 dd bb
       -0.010300116 0.008818791 -0.0049041356 -0.006748905
0003a0 09 5e 12 3c 65 81 b4 bb ab 17 8a bb f8 44 17 3c
       0.008933553 -0.005508589 -0.004214247 0.009232752
0003b0 d7 37 a5 3b 9f e7 b4 bc d9 f9 22 bc 09 99 16 bc
       0.005042057 -0.022083102 -0.009947264 -0.00919176
0003c0 7b 8a 2f 3c 8d 94 26 39 b0 40 d6 3a 39 5e 12 3c
       0.010714169 0.00015886333 0.0016346183 0.008933597
0003d0 4d 67 c0 3b e2 d9 e1 bb 54 c4 e3 3b f9 bd df bb
       0.0058716894 -0.0068924287 0.0069508944 -0.0068280664
0003e0 71 d3 ee bb 85 62 2d bc 08 a2 4f bc e0 46 bb bb
       -0.0072883894 -0.010582571 -0.012672909 -0.005715236
0003f0 66 93 9d 3b 70 59 53 bc 58 0c fd bb 33 b9 0d 3c
       0.004808831 -0.0128997415 -0.0077224188 0.008650112

inertial_net.net.4.bias f4 [128]
000000 69 ac f1 3b 9c c6 31 3c c9 ed db 3b bd 8b 30 bc
       0.007375289 0.010850575 0.006711696 -0.010775504
000010 cb 01 6a 3a ec d5 df 3b 08 fb 9d 3b 1a 64 de bb
       0.0008926659 0.0068309214 0.004821185 -0.0067868354
000020 05 38 d6 ba 00 35 11 ba b1 d7 08 3c c1 98 ac 3b
       -0.00163436 -0.00055392087 0.008352206 0.005267233
000030 db 0b fe ba 90 fd 53 ba c7 0a 43 3a d2 34 f3 3b
       -0.0019382195 -0.0008086795 0.00074402656 0.007422068
000040 9c 43 fc 3a ab a1 d7 bb 5d 25 78 3b bf 7a f6 ba
       0.0019246223 -0.0065805516 0.0037864067 -0.0018804892
000050 5f 62 cd 3b e6 7b 9d 3b 06 68 44 3a a0 f9 a0 3a
       0.0062678303 0.0048060296 0.00074923073 0.0012281425
000060 f9 90 a0 ba 51 b2 17 3c b6 59 63 b9 9d 8d f6 3a
       -0.0012250236 0.009258823 -0.00021681827 0.0018810515
000070 88 30 b0 bb 83 42 d5 b8 6e 66 33 3b b6 0a f2 3a
       -0.005376879 -0.0001016902 0.0027374285 0.0018466327
000080 38 e4 0f 3b a4 ba 14 3c 02 93 20 bb af d3 c4 bb
       0.0021956097 0.009077702 -0.0024501686 -0.00600668
000090 a8 f0 04 3c c4 e2 6d bb 04 cc 2f bb 68 0c ca 3b
       0.008114018 -0.0036298493 -0.0026824484 0.0061660297
0000a0 a1 4f ba 3a 01 1b 82 3b b1 90 cb 3b 71 26 3a bc
       0.0014214405 0.0039705043 0.006212317 -0.011361704
0000b0 12 63 5e 3b ff 53 97 3b 24 c6 5d 3b 1e 49 11 3c
       0.0033933562 0.0046181674 0.0033840025 0.00886753
0000c0 a5 c1 6c bb 8d 95 29 3c e4 0a 14 bc cf 02 75 3b
       -0.0036126163 0.010350597 -0.0090358 0.0037385707
0000d0 10 f2 e0 bb 2d 36 2b 3b 1a 91 47 3c 31 68 69 bb
       -0.0068647936 0.002612482 0.012180591 -0.0035615081
0000e0 cd dd 06 bb c8 a6 0b bc 92 65 b4 3a 82 57 45 3b
       -0.002057898 -0.0085236505 0.001376318 0.0030111973
0000f0 ac 96 26 3b d7 4a 9e 3b ea f5 12 b9 d4 c5 f7 ba
       0.0025419397 0.004830699 -0.00014015255 -0.0018903562
000100 ea f9 5a bc 54 cc 05 bb b1 ec 9f ba 86 11 08 bb
       -0.013365248 -0.0020415979 -0.0012201277 -0.0020762398
000110 95 ff f7 bb 1f 40 10 bc 18 c6 bf bb 67 b4 c7 ba
       -0.0075683095 -0.00880435 -0.005852472 -0.0015236259
000120 8b d0 30 bb c3 b4 86 3a f1 26 93 3b ac bf 61 bb
       -0.002697977 0.001027726 0.004490726 -0.003444652
000130 9e 3c d8 3b c6 e3 49 3b c8 9d ad 3a 35 af 0c bb
       0.006599023 0.003080593 0.0013245875 -0.0021466736
000140 6d 67 0b bb 24 d9 1b 3c 20 d3 4d bc 59 3e 5c 3a
       -0.0021271363 0.00951222 -0.012562543 0.00084016245
000150 84 d1 df 3b 11 af df bb b3 fc 1e 3c b7 fd b8 3a
       0.006830396 -0.0068262895 0.009703803 0.0014113699
000160 c4 e9 3e bc f0 76 08 bb a0 61 1d 3b de d5 8d ba
       -0.011652414 -0.0020822845 0.0024014488 -0.0010821184
000170 ac 3e 35 bb b4 d0 8e ba cd 06 32 bb e3 d7 e4 39
       -0.0027655764 -0.0010895939 -0.0027164698 0.00043648397
000180 bf 8e 33 bc a0 94 4d 3c d2 d0 a7 bb 42 1a d0 3b
       -0.010959326 0.012547642 -0.005121329 0.0063507864
000190 c6 a7 b7 ba 50 6b 54 3c 07 82 21 bc b1 b0 83 3a
       -0.0014011792 0.012965038 -0.009857661 0.0010047165
0001a0 ce 54 a8 3a 7d 2a 0e bc fa 7f 10 bc 47 8a 7c 3b
       0.0012842657 -0.008677122 -0.0088195745 0.0038534568
0001b0 c6 91 2e bc 5a cb 01 bc df 13 01 bc 41 78 c6 39
       -0.010654872 -0.007922018 -0.007878273 0.000378551
0001c0 1b c4 e7 bb 1e b4 92 bb 39 4d 90 3b 99 a5 17 3a
       -0.007072938 -0.004477038 0.004403737 0.0005784869
0001d0 23 f3 5b ba 5c 3f 29 3b 2f 7a 94 bb f8 22 1a bc
       -0.0008390417 0.0025825119 -0.004531167 -0.009407751
0001e0 13 f6 fd 3a 4b a9 0a 3b 81 80 1d ba 74 dc d5 bb
       0.0019375704 0.0021158035 -0.0006008223 -0.006526524
0001f0 08 8b bf 3b d6 a0 4a 3c 4b 9a e8 bb c4 14 8c 3b
       0.0058454312 0.012367448 -0.0070984713 0.0042749364

inertial_net.net.5.weight f4 [128]
000000 fe 8a 81 3f fa 9e 80 3f 69 e8 7f 3f 92 e2 82 3f
       1.0120542 1.0048516 0.99964005 1.0225394
000010 23 dd 82 3f 91 b4 7f 3f 4c 04 7f 3f fc 90 7f 3f
       1.0223736 0.998849 0.9961593 0.99830604
000020 fe 77 80 3f 43 e6 82 3f 97 f2 81 3f b5 6b 80 3f
       1.0036619 1.022652 1.0152158 1.003287
000030 3a 25 7f 3f 8f 58 82 3f 2d 55 82 3f 19 62 80 3f
       0.9966618 1.0183276 1.0182244 1.0029937
000040 2e 0c 83 3f d8 66 7f 3f 05 34 81 3f 44 48 82 3f
       1.0238092 0.997663 1.0094 1.0178304
000050 0c 27 80 3f 8a 35 80 3f 5a 53 7f 3f a6 22 82 3f
       1.0011916 1.0016339 0.9973656 1.0166824
000060 2b 16 80 3f 2a 18 82 3f 3a 7d 81 3f 46 b7 7f 3f
       1.0006765 1.0163624 1.0116341 0.9988903
000070 50 8f 82 3f ee c7 7d 3f 55 0a 80 3f ee 81 81 3f
       1.0199986 0.99133193 1.0003153 1.0117776
000080 3e 0f 7e 3f d9 c5 82 3f d7 49 7e 3f 66 6a 80 3f
       0.9924201 1.0216628 0.9933142 1.003247
000090 ad 87 81 3f 34 ae 7e 3f 67 ab 80 3f dd 94 81 3f
       1.011953 0.9948456 1.0052308 1.0123554
0000a0 a6 08 80 3f 94 df 82 3f ba c1 82 3f 27 25 81 3f
       1.0002639 1.0224481 1.0215371 1.0089463
0000b0 f7 b6 7e 3f 88 9b 7f 3f c4 22 7f 3f 7b b0 80 3f
       0.9949793 0.99846697 0.99662423 1.0053858
0000c0 14 55 81 3f 0c 2e 81 3f 15 0e 83 3f f4 ee 81 3f
       1.0104089 1.0092177 1.0238672 1.0151048
0000d0 ec 6b 81 3f e8 d3 7e 3f 6f b1 83 3f 1c 6a 7f 3f
       1.011106 0.99542093 1.0288523 0.99771285
0000e0 72 5f 81 3f 73 35 7f 3f 8b f0 7d 3f ac c0 7d 3f
       1.0107253 0.9969093 0.99195164 0.9912212
0000f0 8d b6 85 3f e3 cb 82 3f f3 20 81 3f f4 d8 80 3f
       1.0446335 1.0218471 1.008818 1.0066209
000100 0e 71 83 3f 0c d5 80 3f 10 90 7f 3f 67 b2 80 3f
       1.0268877 1.0065017 0.99829197 1.0054444
000110 b9 da 80 3f 50 8f 80 3f 46 53 80 3f 0c e2 7f 3f
       1.0066749 1.0043736 1.0025413 0.99954295
000120 ad 24 81 3f e5 cc 7f 3f a5 44 80 3f 17 62 80 3f
       1.0089318 0.9992202 1.0020949 1.0029935
000130 fc 2e 81 3f 2e ed 80 3f bb 4a 80 3f a2 b0 80 3f
       1.0092463 1.0072381 1.0022806 1.0053904
000140 2f 7b 80 3f 71 ef 81 3f 13 f8 81 3f d6 03 82 3f
       1.0037593 1.0151197 1.0153831 1.0157421
000150 18 b1 80 3f 9f 2c 80 3f 50 40 80 3f 23 fb 7e 3f
       1.0054045 1.0013617 1.0019627 0.99601954
000160 af 29 83 3f 81 64 80 3f d4 84 80 3f 4c 2f 81 3f
       1.0247096 1.0030671 1.0040536 1.0092559
000170 f0 4b 80 3f f4 34 81 3f ea 31 7f 3f a8 2b 80 3f
       1.0023174 1.0094285 0.9968554 1.0013323
000180 cb 8e 81 3f 68 66 82 3f a8 8a 84 3f f2 9c 80 3f
       1.0121702 1.0187502 1.0354815 1.0047896
000190 e4 51 82 3f 69 c3 81 3f c9 57 81 3f 26 cf 81 3f
       1.0181241 1.013776 1.0104915 1.0141342
0001a0 e2 b9 82 3f d3 6f 80 3f 9d 99 81 3f dc a3 7f 3f
       1.0212977 1.0034126 1.0125004 0.99859405
0001b0 f2 0f 82 3f ce 6d 81 3f 82 b1 80 3f 75 6b 83 3f
       1.0161116 1.0111635 1.0054171 1.0267168
0001c0 34 86 80 3f 0b ab 80 3f 57 3b 80 3f 71 26 80 3f
       1.0040956 1.0052198 1.0018109 1.0011731
0001d0 0e cb 83 3f 40 ad 7f 3f 77 c9 80 3f ec d7 80 3f
       1.0296342 0.99873734 1.0061482 1.0065894
0001e0 bc 24 81 3f 61 62 7f 3f bf 8e 7f 3f bc 2d 80 3f
       1.0089335 0.9975949 0.9982719 1.0013957
0001f0 ba b9 80 3f 5d 64 81 3f e7 42 7e 3f 88 0c 80 3f
       1.0056679 1.0108753 0.99320835 1.0003824

inertial_net.net.5.bias f4 [128]
000000 99 e6 81 3c bd d8 a2 3c 11 0a 31 3c 66 b4 df bc
       0.015857028 0.01987874 0.010805623 -0.0273077
000010 d9 10 84 3b ed e7 67 3c a0 92 f2 3b 6b cb 2f bc
       0.0040303287 0.0141544165 0.007402733 -0.010729651
000020 70 78 d3 bb 07 de 82 3b 6e 40 89 3c 87 5b 1f 3c
       -0.0064535663 0.003993753 0.016754355 0.009726412
000030 95 38 97 bb 1a 43 2b 3b 6c a6 80 3b 4d ef 7e 3c
       -0.0046148994 0.0026132525 0.003926089 0.015559983
000040 40 04 32 bb e4 d0 5c bc d2 77 03 3c 97 57 21 3b
       -0.0027163178 -0.013477538 0.008024173 0.0024618858
000050 5b 93 2c 3c 77 38 c2 3b a7 7d 03 3b 85 a4 75 bb
       0.010533179 0.0059271413 0.0020063908 -0.0037482094
000060 41 9f 6f bb cb 91 b8 3c a2 c9 c9 ba 19 1a 25 3b
       -0.0036563429 0.022530457 -0.0015395174 0.0025192557
000070 c6 38 57 bc 76 9e 62 bb d0 85 6e 3a 10 e5 2c 3b
       -0.013136094 -0.0034579313 0.0009098919 0.002638165
000080 b9 c1 a6 3b 87 34 aa 3c f3 4d d7 bb 9e c8 4d bc
       0.0050890115 0.020777 -0.0065705716 -0.012560038
000090 2a 29 9e 3c a5 be eb bb 7a 79 16 bc d1 95 56 3c
       0.019306738 -0.0071943575 -0.009184236 0.013097242
0000a0 be a2 22 ba 3c 8f f3 3b 57 5e 42 3c 19 ce d6 bc
       -0.000620406 0.0074328464 0.011863313 -0.026221322
0000b0 29 7a 76 3b bd 31 c5 3b 09 45 c2 3b 3b 7a 82 3c
       0.0037609434 0.006017892 0.00592864 0.015927425
0000c0 03 f7 44 bc 5e 76 b3 3c 2c 61 c9 bc 64 98 16 3b
       -0.012021783 0.021907028 -0.024582468 0.0022979015
0000d0 e1 67 91 bc 92 48 8b 3b a2 c7 fe 3c ad 2e f6 bb
       -0.017749729 0.0042505944 0.031101052 -0.0075128884
0000e0 7b 2b c0 3a da 9f 83 bc 01 11 bb 3b ad 76 be 3b
       0.0014661396 -0.016067434 0.005708814 0.005812487
0000f0 14 85 6d bb 17 6e e7 3b 2a 2e 40 bb d8 bb 48 bb
       -0.003624265 0.0070626843 -0.002932439 -0.0030629542
000100 bf 0c f7 bc c6 d9 18 bb bd 0c ff ba 8e 58 5c bb
       -0.030157445 -0.0023323162 -0.0019458752 -0.0033622119
000110 be f8 80 bc 03 44 8b bc fa 45 3a bc 16 9e c8 bb
       -0.01574361 -0.017000204 -0.011369223 -0.006122361
000120 5d ef 20 bc 14 f0 9e 3a 7b b6 e5 3b c5 c7 99 bb
       -0.009822694 0.0012125992 0.0070102788 -0.004693004
000130 60 0f 6f 3c e3 fe f5 38 a7 96 8a 3a 57 ee 41 bb
       0.014591068 0.00011729987 0.0010573462 -0.0029591525
000140 5d 15 3d bb 14 26 e0 3c 27 62 d8 bc d2 41 b8 bb
       -0.0028851845 0.027361907 -0.02641399 -0.005623081
000150 01 16 44 3c 1a 87 31 bc ed 6a 9e 3c 3f 81 05 3b
       0.011968137 -0.010835433 0.019338096 0.0020371226
000160 cc 2f e2 bc 43 85 ca bb b8 05 90 3a cc 0a 5e 3b
       -0.027610682 -0.006180437 0.0010988032 0.0033880947
000170 4a 95 95 bb 2b 71 a5 bb 4f ff 53 bb 07 55 e4 b9
       -0.004564916 -0.005048891 -0.003234822 -0.000435509
000180 90 67 b2 bc 8c 8e c6 3c 94 62 15 bc 6d ef 4e 3c
       -0.021777898 0.024237894 -0.009117741 0.012630326
000190 01 ec 9d b9 2a a3 c9 3c c4 82 b3 bc 47 f3 66 bb
       -0.0003012121 0.024613936 -0.02191294 -0.003524022
0001a0 7e 12 8b 3b ae 4c 91 bc ed c2 a9 bc 44 ab 59 3b
       0.004244148 -0.017736759 -0.02072283 0.0033213655
0001b0 bb c6 b0 bc 5a 89 90 bc 74 e4 79 bc 3a e7 c0 3b
       -0.021579137 -0.01764362 -0.015252221 0.0058869394
0001c0 18 0d 6c bc 6b 29 f5 bb 6a 5e 8c 3b 7f 4f a9 ba
       -0.014407419 -0.007481744 0.004283716 -0.0012917368
0001d0 aa 89 44 3b 32 b5 77 3b cb 91 1b bc 33 da a1 bc
       0.002998928 0.003779721 -0.009495209 -0.019757366
0001e0 4b c4 8e b7 40 e2 a2 3b 74 92 af bb 54 9a 7b bc
       -1.7019125e-05 0.0049708188 -0.0053580347 -0.015356619
0001f0 d5 df 0c 3c c1 38 cc 3c 8d 98 54 bc ad 6d 07 3c
       0.008598288 0.024929406 -0.012975824 0.008265895

inertial_net.net.8.weight f4 [128, 128]
000000 95 b0 b3 3b 22 72 20 3c c8 7c d5 3b b6 d0 54 bb
       0.0054836967 0.009792836 0.006515119 -0.0032473034
000010 84 35 64 3c f9 1a 00 bc 0f 58 1b 3c ac 01 a3 3b
       0.013928775 -0.007818931 0.009481444 0.0049745645
000020 90 48 16 3a bc 14 e2 3b 0b e5 0a bc 17 ea c5 3c
       0.00057328586 0.0068994444 -0.00847746 0.024159474
000030 4e b4 e1 3b ca 8d 36 3b 97 dd b8 3b 13 41 16 bc
       0.006887949 0.002785551 0.00564165 -0.009170788
000040 d4 98 07 3b 26 31 c2 bb 2a 04 9d 3c 8d e5 03 3c
       0.0020690458 -0.005926269 0.019167025 0.008050335
000050 8f 4b 26 3c c4 1d 22 bc 26 1d fc bb 48 7e 5d bc
       0.0101498505 -0.009894792 -0.0076939045 -0.013518877
000060 82 37 10 bc 75 18 9a 39 0b 28 37 3c ba 05 e5 b9
       -0.008802297 0.0002939139 0.011178981 -0.0004368255
000070 6d c8 86 bc 52 83 e8 39 9c d7 21 ba c4 e8 40 3c
       -0.016452992 0.0004434833 -0.0006173791 0.011774246
000080 4f ef 99 bb 80 34 e8 39 57 05 d0 ba e6 9c 3e bc
       -0.0046977173 0.00044289604 -0.0015870732 -0.011634087
000090 ba 56 09 bc b8 7c a9 bb 82 a9 c5 bc be 8d 25 3c
       -0.008382494 -0.0051723383 -0.02412868 0.010104595
0000a0 38 61 d1 bc 0a 9a 03 bb 0d 5d 82 3c d3 c1 24 bb
       -0.025559053 -0.0020080828 0.01591351 -0.0025139942
0000b0 f1 d5 ec 3b 78 69 55 3b e7 f3 0d 3b e6 fc 20 3c
       0.0072276522 0.0032564085 0.002166027 0.009825921
0000c0 f3 7a 0b bc 2b d0 af 3a 03 44 4c bc ae b4 61 3b
       -0.0085132 0.0013413479 -0.012467387 0.003443997
0000d0 48 97 2b bb d2 79 88 38 e7 a6 83 bc 56 e4 67 bc
       -0.00261827 6.507676e-05 -0.016070796 -0.014153561
0000e0 31 c2 d1 bb 5c ba f7 bb 4b ff 37 ba 72 be 11 3c
       -0.0064013232 -0.0075600576 -0.00070189376 0.008895503
0000f0 55 df ab bc 83 0a b8 3b 9d c7 c3 3a fc d1 4e 3b
       -0.020980516 0.0056164875 0.0014936809 0.0031558266
000100 16 7e 6b 3c 54 d4 93 bb d9 0e 27 bc 72 5e 84 ba
       0.014373323 -0.0045113955 -0.010196411 -0.0010098948
000110 d5 4d 7e b9 33 ba a2 bb e0 1a da 39 e7 f3 a1 bb
       -0.00024252322 -0.0049660443 0.00041600224 -0.0049424055
000120 4b f1 10 bb 7d ca 55 bb cb 35 b9 3b 39 34 07 3c
       -0.0022116478 -0.0032621913 0.0056521646 0.008252197
000130 e7 9d 2e 3c b3 f1 32 bb ea 44 d5 ba 0e ac 40 bc
       0.010657764 -0.0027304708 -0.0016271148 -0.011759771
000140 fa af b6 b9 53 ac f1 3b ac fc 5a bc 5f b2 29 bc
       -0.00034844858 0.007375279 -0.013365906 -0.010357468
000150 31 4b 27 3c dd bd fa 3b 8f f7 11 bb 59 38 0f bc
       0.010210798 0.007652028 -0.00222728 -0.008741462
000160 a1 e4 4c 3c 23 d6 6e bc 11 c6 09 bc 1a b5 bf 3b
       0.012505681 -0.014577421 -0.008409039 0.0058504464
000170 ff 58 74 3c 3b b9 6e bb 32 f9 8b 3b e0 34 68 3b
       0.014913796 -0.0036426324 0.0042716498 0.0035431907
000180 99 11 69 bb 62 5b 6d 3c 83 7f 04 ba 2f 55 80 bb
       -0.0035563468 0.014487119 -0.0005054401 -0.0039164047
000190 13 c4 07 bb 85 23 0d bb 21 5a 76 3c d4 d9 10 bc
       -0.0020716235 -0.0021536064 0.015036137 -0.008840997
0001a0 58 e4 ec 3b fa 41 c1 bb ff eb 87 bc 84 f2 25 bb
       0.007229369 -0.0058977576 -0.016592024 -0.0025321553
0001b0 0c 82 6c bb 96 d1 2c bb 0e 96 93 3b a3 e3 9a 3b
       -0.0036088256 -0.002637004 0.004503972 0.0047268434
0001c0 c7 4e 52 bb 2c 03 1b 3c 79 be c3 3c 12 d8 c1 3c
       -0.0032090412 0.009461205 0.023894535 0.0236626
0001d0 4f 7c 5c 3c 73 ab 08 bb 86 75 03 3c 4d 0c 1c bc
       0.013457372 -0.0020854145 0.008023625 -0.009524417
0001e0 7a e6 35 bb be d4 73 3b d4 07 a3 bc 85 52 02 bc
       -0.0027755783 0.0037205662 -0.019901194 -0.0079542445
0001f0 d8 1d 46 3c 57 a0 0c 3c 29 53 80 bc 4f 9b 33 bb
       0.012092076 0.00858315 -0.015664654 -0.0027405804
000200 ed 5a 11 3b 3f da f3 3b 3a 2f 22 3a 99 a0 11 b7
       0.002217944 0.0074417884 0.0006186847 -8.680066e-06
000210 7c 6a 78 3c be 48 c8 bb 9c c3 ec bb 0b 02 d3 3b
       0.015162107 -0.006112187 -0.007225467 0.0064394525
000220 ed 01 1f bc 1f 28 d2 3c 90 89 e2 3b 37 0e 15 3c
       -0.009705049 0.025653897 0.0069133714 0.009097627
000230 21 b8 46 bb ab 2c 46 3c 87 1d b9 3a 6f 30 ae 3a
       -0.0030322152 0.012095611 0.001412318 0.0013289581
000240 4f 99 76 bc 6f 62 07 bc 5b b3 ba 3c dc 58 4e 3c
       -0.0150512 -0.0082632145 0.022790601 0.012594428
000250 92 88 f5 3b 6c a9 0e bc e5 15 3b 3c 3b a1 e7 bb
       0.007493087 -0.0087073855 0.011418794 -0.0070687807
000260 77 ad 20 bc 8f 92 c7 bb be 41 69 3c 15 d5 05 bc
       -0.009806982 -0.006090469 0.014236866 -0.0081684785
000270 80 66 f3 bb a9 a9 0b 3c ac 63 2c bc cd fd d6 3b
       -0.0074279904 0.008524337 -0.0105218105 0.006561017
000280 ae 28 3d 3b d6 99 1c 3c 3c 3d 0a 3c e9 9e 86 bc
       0.0028863358 0.009558162 0.008437451 -0.016433196
000290 22 45 2d bc 94 48 45 bb 20 df d9 3b 72 3e ee 3a
       -0.010575565 -0.0030103074 0.006648913 0.0018176569
0002a0 b8 1d 16 bc db da b5 3b 56 b3 04 3c 38 94 eb bb
       -0.009162359 0.0055497712 0.008099398 -0.0071893
0002b0 a8 4c b4 3a 43 00 2e ba dd 59 b7 3c 8c 94 80 ba
       0.0013755755 -0.0006637612 0.022381717 -0.0009809895
0002c0 58 cc 61 bc 38 bd 0d 3b 69 c3 c4 b8 a6 40 c8 3a
       -0.0137816295 0.0021627676 -9.382406e-05 0.0015278056
0002d0 46 08 e1 bb a5 d8 d3 3a df b8 0b 3a 54 2e 8a ba
       -0.0068674413 0.0016162588 0.0005329977 -0.0010542371
0002e0 68 54 cc 3b 23 d8 65 bb 00 0a 34 bc f9 69 44 3b
       0.006235648 -0.0035071454 -0.010988712 0.0029970391
0002f0 d4 9b 57 bc d1 be b9 bb 9a 8d bf bb 04 9c b2 39
       -0.013159711 -0.005668499 -0.0058457376 0.00034067046
000300 d9 bf b6 ba 0d 91 fc bb 4d bb c8 3b 9d db 01 3c
       -0.0013942673 -0.007707721 0.0061258436 0.007925895
000310 c7 41 b2 3b d5 d6 30 ba 0a 8c 94 bb f7 69 46 3b
       0.00543997 -0.00067458797 -0.0045332955 0.0030275562
000320 50 f5 71 3b ee d2 4e 3b a8 2c 3d bb 9a e4 cf 3c
       0.00369199 0.003155883 -0.0028865729 0.02537756
000330 dc 64 f1 3b e1 60 15 bc 7c ca 3b bb 53 d6 2a 3a
       0.0073667597 -0.009117336 -0.0028654626 0.0006516922
000340 4c fd 4f 3b de f8 19 bb 3b 3f 9a 39 d1 16 18 3b
       0.003173667 -0.0023494284 0.0002942028 0.002320696
000350 8a 52 50 bc f4 c2 1f 3a d8 38 a8 3b 7f 9a de bb
       -0.012714991 0.0006094419 0.0051337294 -0.0067933197
000360 5e 4d d1 ba a0 c4 79 3b db f2 ab ba 25 8a 11 3b
       -0.0015968492 0.0038111582 -0.0013118641 0.0022207585
000370 b1 8e d7 bb a3 02 b4 bc b3 3b 74 bb 20 61 87 bb
       -0.0065782894 -0.021973914 -0.0037267029 -0.0041314512
000380 7b 87 2d bc 81 d1 23 3c 49 1e 2e bc 05 10 a7 3a
       -0.010591383 0.00999868 -0.010627338 0.0012745863
000390 89 57 11 bc 88 d4 a3 bb ab 00 5c bc a9 49 ab bb
       -0.008870968 -0.004999701 -0.013427894 -0.005227287
0003a0 c9 2b 82 3c 35 65 fa 3b 0c 15 59 ba 61 9f 9b bb
       0.015890019 0.0076414593 -0.00082810293 -0.004749224
0003b0 82 93 d0 bb 80 c1 04 bc 59 dc 68 3c 0d 87 21 3c
       -0.0063652406 -0.008102775 0.014212691 0.009858859
0003c0 10 ff 3a bc 1d 70 2d 3c 9a b9 b0 3c e2 b0 b3 3c
       -0.011413351 0.010585812 0.021572877 0.02193493
0003d0 7b 95 b9 3c c7 44 07 3c b2 33 c1 3b b0 66 6a bb
       0.022654286 0.008256144 0.005896055 -0.0035766773
0003e0 2c 2e 84 bc 3f d0 04 3b 7b 30 2e 3c 83 04 1c bc
       -0.016135298 0.0020265726 0.010631676 -0.00952256
0003f0 95 0a 73 bb 77 4a 72 3c 16 85 52 bc 88 f6 31 bb
       -0.0037085165 0.014788262 -0.012849113 -0.0027155

inertial_net.net.8.bias f4 [128]
000000 36 9d 53 bb 4e 47 86 ba e5 cf 2d bb f4 10 56 3b
       -0.003228975 -0.0010244639 -0.002652162 0.0032663913
000010 0e 98 23 3c 15 6b a7 3b 1f 9c f9 bb e4 94 4a 3c
       0.009984983 0.0051092007 -0.007617488 0.0123646
000020 cb c3 74 3c 49 9e 52 bc 49 98 80 3b f8 29 3e 3b
       0.014939259 -0.012855121 0.003924404 0.0029016715
000030 a3 da 56 3b b7 3b ee b8 bc bb 96 3b d8 8c 1b bc
       0.0032784126 -0.00011359847 0.0046000164 -0.009494029
000040 c5 e8 52 bb 64 3d 24 bc 94 53 5f 3b da 7a 45 3c
       -0.0032182198 -0.010024402 0.0034076916 0.012053216
000050 95 b5 2a bb 48 42 be 3a fe 18 4b 3a 3d fe 16 3b
       -0.0026048173 0.0014515603 0.00077475596 0.0023039721
000060 56 9d ab 3b 9e 2d 08 3c 68 87 21 bc 47 dd 4e 3c
       0.0052372618 0.008311657 -0.0098589435 0.012625999
000070 6a 0c 3b 3c 02 88 40 3c 32 a5 3a 3a b2 bc 4d bb
       0.011416534 0.011751177 0.0007119953 -0.0031392989
000080 12 73 54 bb 98 ad 58 3a 66 89 45 bb 4d 3e 71 bc
       -0.003241722 0.00082656136 -0.003014171 -0.014724326
000090 1b a0 92 bb 06 fc ce 3b fa b7 11 bc 0c 04 66 b9
       -0.0044746525 0.0063166646 -0.008893961 -0.00021936017
0000a0 cf 9c 26 bc 35 16 48 3b d9 d2 37 bc d4 a8 20 bc
       -0.010169222 0.0030530815 -0.011219704 -0.009805877
0000b0 c1 1d 0a 3a 76 5a 87 bb 6e 93 2f 3c 4b d0 27 bc
       0.0005268716 -0.004130657 0.010716302 -0.010242532
0000c0 30 10 1b 3c 06 82 a7 ba 04 fa 8a 3b e8 36 8e bb
       0.009464309 -0.0012779839 0.00424123 -0.0043400414
0000d0 9c a1 d0 bb 2d 8f a0 bb 22 3e 2f 3c 9b 25 33 3c
       -0.0063669216 -0.0048998804 0.010695966 0.010934259
0000e0 84 41 d8 3b 99 92 42 3b ab 2f 8f b9 c3 90 95 3a
       0.006599607 0.002968943 -0.000273106 0.001141094
0000f0 b5 9e 39 bc d8 5f 01 bb 72 08 c3 bb dc b7 0b 3c
       -0.011329343 -0.0019740965 -0.0059519345 0.008527722
000100 74 d7 53 3c 6f bd 84 bb 45 21 14 bc 71 88 51 3a
       0.012929786 -0.0040509026 -0.009041135 0.00079930486
000110 e3 d4 51 bb 15 03 9d 3b 6c 1a 9b 3a 66 dd 46 3a
       -0.003201776 0.004791627 0.0011833436 0.00075860915
000120 58 ce 27 bc 6e 1d 49 39 f2 7d e3 38 0c 78 b0 bb
       -0.010242067 0.00019179817 0.000108476626 -0.0053854045
000130 5d 29 46 bc f7 54 d5 ba ca 5d 0d 3c bc 1f 43 bc
       -0.012094823 -0.0016275932 0.008628318 -0.0119094215
000140 d5 e1 6e bb 41 fe e3 39 f5 98 ff bb d0 e3 2f bc
       -0.0036450524 0.00043486248 -0.0078002163 -0.010735467
000150 97 d6 0a 3c d6 b4 ef bb 3d 81 23 bc e8 94 7e bb
       0.008474014 -0.0073152585 -0.009979543 -0.003884608
000160 a8 cf 5b 3b 36 ee 9e 3b fe 43 d8 ba 2e 32 5f 3c
       0.003354052 0.0048501743 -0.0016499755 0.013622804
000170 8c bd 36 ba 84 1e c1 3b ed 43 74 bc ef 9f 41 3c
       -0.00069709937 0.0058935303 -0.014908773 0.011817916
000180 d1 44 27 bc 18 a2 fb 3b d3 89 3d 3c ff 01 16 3c
       -0.010209278 0.007679235 0.011568504 0.009155749
000190 88 e1 6f 3b 22 0d 48 bb 3d a6 47 bc e5 3a 0b bc
       0.0036602933 -0.0030525406 -0.01218563 -0.008497928
0001a0 9d be 4f 3c 15 b7 34 bc fc 96 92 3b db a2 63 3c
       0.012679723 -0.011029978 0.004473565 0.013893808
0001b0 f9 ce 25 bc f7 2f 26 3a 8b ad 82 bb 65 fc d2 bb
       -0.010120147 0.0006339545 -0.003987973 -0.006438779
0001c0 d6 e7 38 bc b2 48 27 bc f6 50 a9 3b 9c 0b 26 bc
       -0.011285743 -0.010210203 0.005167122 -0.010134604
0001d0 08 d2 f8 b9 04 0f a4 3b b3 dc 18 bb 3c 61 6f bb
       -0.00047458732 0.005006673 -0.0023324906 -0.0036526462
0001e0 8d 5f 46 3c 41 50 22 3c c1 a9 35 3a 5d 75 17 bc
       0.012107742 0.009906829 0.00069298974 -0.00924429
0001f0 9a 28 72 3c 7d 68 46 3a bd 8d 23 3c 68 17 da 3b
       0.014780188 0.00075686706 0.0099825235 0.0066556223

inertial_net.net.9.weight f4 [128]
000000 96 d4 8a 3f 3a 19 89 3f 16 c2 85 3f ed 0e 88 3f
       1.0846126 1.0710824 1.0449855 1.0629555
000010 03 b4 85 3f 52 a9 88 3f c3 4d 8a 3f 79 90 86 3f
       1.044556 1.0676672 1.0804981 1.051284
000020 b6 00 8b 3f 67 f8 8a 3f cb 73 8a 3f 62 c4 86 3f
       1.0859592 1.0857056 1.0816587 1.0528681
000030 26 ec 89 3f 7f 8d 87 3f f3 91 88 3f 62 91 87 3f
       1.0775192 1.0590056 1.066954 1.0591242
000040 6a cc 8a 3f 54 8b 89 3f 18 3f 89 3f 2c e4 89 3f
       1.0843632 1.0745645 1.072238 1.0772758
000050 85 89 89 3f 41 f4 85 3f b9 43 86 3f 64 f4 88 3f
       1.0745093 1.0465165 1.0489417 1.0699582
000060 d9 2a 86 3f f5 00 89 3f e5 65 8b 3f aa bf 8a 3f
       1.0481826 1.0703417 1.0890471 1.0839741
000070 d8 bc 8b 3f 6f 4d 89 3f 6c 95 86 3f 24 1d 87 3f
       1.0917006 1.0726756 1.051435 1.0555768
000080 56 7b 86 3f d8 a7 84 3f 31 87 8c 3f d7 b3 8b 3f
       1.0506389 1.0363722 1.0978757 1.0914258
000090 09 ff 8a 3f fa 1e 89 3f 9e 13 87 3f ea 13 87 3f
       1.085908 1.0712578 1.0552862 1.0552952
0000a0 da 6c 85 3f ee 05 87 3f 1b fa 8b 3f 86 ed 88 3f
       1.0423844 1.0548685 1.0935701 1.0697486
0000b0 88 a7 85 3f 65 40 8a 3f 84 4c 89 3f 43 c7 89 3f
       1.0441751 1.0800902 1.0726476 1.0763935
0000c0 37 db 89 3f a8 28 89 3f d8 70 85 3f 72 95 8a 3f
       1.0770024 1.0715532 1.0425062 1.0826857
0000d0 59 76 8c 3f 53 52 81 3f b1 a1 8a 3f 29 4f 89 3f
       1.0973617 1.0103248 1.0830594 1.0727283
0000e0 82 12 8b 3f a3 20 88 3f 32 85 84 3f 4e 11 88 3f
       1.0865023 1.063496 1.0353148 1.0630281
0000f0 2a 39 8b 3f 2f e8 85 3f fc bc 89 3f 42 fa 89 3f
       1.087682 1.0461482 1.0760798 1.0779498
000100 a7 97 8a 3f 6c 8b 89 3f 7c 7e 8a 3f ee 17 88 3f
       1.0827531 1.0745673 1.081985 1.0632303
000110 24 97 89 3f 8a 9d 8a 3f f5 fc 88 3f 6e 73 8b 3f
       1.074925 1.0829327 1.0702196 1.0894601
000120 83 58 8b 3f a3 99 87 3f 92 cb 87 3f 2d cc 8b 3f
       1.0886387 1.0593761 1.0609 1.0921685
000130 40 af 8b 3f 51 69 89 3f e7 85 8b 3f 69 59 89 3f
       1.0912857 1.0735265 1.0900239 1.0730411
000140 a3 e8 89 3f 26 87 89 3f 67 fe 89 3f 03 00 8b 3f
       1.077412 1.0744369 1.0780762 1.0859379
000150 82 ab 8a 3f de 98 89 3f 7b 3b 88 3f 50 81 8a 3f
       1.083359 1.0749776 1.0643152 1.0820713
000160 e3 e5 89 3f 35 45 89 3f d9 16 8a 3f b0 09 8c 3f
       1.0773281 1.0724245 1.0788223 1.0940456
000170 21 67 8b 3f dc 31 8b 3f 4c 4a 89 3f eb b8 8a 3f
       1.0890847 1.0874591 1.0725799 1.0837682
000180 40 c1 87 3f be 22 8a 3f 7e 9e 8b 3f b6 c7 89 3f
       1.060585 1.0791852 1.0907743 1.0764072
000190 f4 6e 88 3f 79 ad 8b 3f a2 5c 89 3f da a0 89 3f
       1.065886 1.0912315 1.0731394 1.0752213
0001a0 21 7d 8b 3f db 98 88 3f aa 42 8b 3f 02 88 89 3f
       1.0897561 1.0671648 1.0879719 1.0744631
0001b0 0a 5d 8a 3f 31 de 88 3f 59 a0 88 3f 07 34 8c 3f
       1.0809643 1.0692807 1.0673934 1.0953377
0001c0 59 71 88 3f df a7 88 3f fb c6 86 3f 41 02 8a 3f
       1.0659591 1.067623 1.0529474 1.0781938
0001d0 87 22 8b 3f ad 94 88 3f dc 59 8a 3f c5 ce 86 3f
       1.0869912 1.0670372 1.0808673 1.0531851
0001e0 a7 6d 8a 3f 27 71 89 3f cf 00 87 3f 78 23 8b 3f
       1.0814713 1.0737656 1.0547122 1.0870199
0001f0 5c ae 8b 3f 26 3d 86 3f d3 f5 89 3f ed 09 89 3f
       1.0912585 1.0487411 1.0778145 1.0706154
