E2NN/Trained_models_h128_s20_20250726_160242/vanillafnn_model.pth (torch, 117572 bytes, 20 tensors)

net.0.weight f4 [128, 9]
000000 db d6 bb 3e 2f 9b c5 bd c6 b0 a9 be 28 92 7a be
       0.3668736 -0.096487395 -0.3314268 -0.24469817
000010 8b ad 90 bf 87 ee 3f bf 2d eb 2b 3f b5 c5 12 3d
       -1.1302961 -0.7497334 0.67155725 0.03583308
000020 b0 18 1f 3e b8 07 2a 3e ab 81 da bd ef 7c c8 be
       0.15536761 0.16604507 -0.106692635 -0.39157817
000030 73 32 07 bf a4 f4 33 3f 12 51 01 bf fc c8 e2 be
       -0.52811354 0.70295167 -0.5051433 -0.44293964
000040 7a 49 5a 3d ce dd 51 3f d1 5c 8c 3e b7 28 b1 bc
       0.05329273 0.8197907 0.27414563 -0.02162586
000050 3c 3a 61 3f 5a 04 49 3f d1 c4 4f 3f 52 1d ce be
       0.87979484 0.78522265 0.81159693 -0.40256745
000060 48 98 74 3e 88 8d 3f 3e 3a ba 16 bf 4a 4b 37 be
       0.23886216 0.18706334 -0.5887791 -0.17899814
000070 6e db 1b bd 5c 56 58 3f 16 fc 35 bb fd a1 fe bd
       -0.03805106 0.84506774 -0.0027768663 -0.124332406
000080 32 2b c7 be 55 c3 c7 3e 98 c9 6c bd 1b b7 b3 3e
       -0.38900143 0.39016214 -0.057809442 0.35100636
000090 72 f8 14 bf c0 da 0c bf 99 ce be 3e 1e 1c 0f 3e
       -0.581916 -0.55021286 0.37266997 0.1397557
0000a0 5f 45 64 3f 74 80 84 3e 20 b0 8a 3e a1 3c 1e 3e
       0.8916835 0.25879252 0.27087498 0.15452816
0000b0 80 19 72 3e aa f4 8d 3e fe ea 9e bf 0c b0 d2 3d
       0.2364254 0.27725726 -1.2415464 0.102874845
0000c0 b7 cb 46 be d5 b9 33 3e 8d 06 b7 be a7 ea de 3d
       -0.19413649 0.17551358 -0.35747185 0.108846
0000d0 91 66 ae be 6a 90 8f be bc b6 2b 3e 57 4f fb be
       -0.34062627 -0.28039867 0.16768926 -0.4908397
0000e0 7b a2 aa 3e 6b fa 82 be db 22 b5 bd 66 87 83 be
       0.33327088 -0.2558168 -0.08844539 -0.25689238
0000f0 e4 7d 9b 3f 7f 88 fa be 81 c6 ca bd 99 10 8e 3e
       1.2147794 -0.48932263 -0.09901143 0.27747038
000100 e5 bf 90 be bd c2 55 be cc d2 66 be 20 9f 44 be
       -0.28271404 -0.20875068 -0.2254135 -0.19201326
000110 51 35 c1 3f e9 5d 1b 3e bb 0e 35 bb 88 94 dc 3e
       1.5094396 0.15172543 -0.0027627188 0.4308207
000120 f9 68 60 bf 45 29 0f 3f 0f 6e 10 bd a9 b4 5b 3e
       -0.87660176 0.5592235 -0.03526121 0.21455635
000130 07 6b f1 3d 7f 5c fd be b5 9e b0 3e ee e2 1a 3d
       0.11787992 -0.4948463 0.34496084 0.037814073
000140 8b c2 18 be 1c 4e 99 be 5b df 1b bf 84 a3 5a bf
       -0.14917962 -0.29942405 -0.6088769 -0.85405755
000150 c4 a0 39 3e 1c e7 6a bf 8c 71 95 be ac 09 13 bf
       0.18127733 -0.91758895 -0.29188192 -0.57436633
000160 5a 0a 4c be 81 53 cb 3e 88 29 15 3f ad c1 b6 3e
       -0.19925824 0.39712146 0.58266497 0.35694638
000170 dc 82 78 be f0 ab 43 3e ce 8f 2f bf 57 39 57 3d
       -0.24268669 0.19108558 -0.68578804 0.052544918
000180 e7 76 e6 be ab 71 07 3e 24 c9 23 bf b1 a0 8a 3e
       -0.4501259 0.13226955 -0.6397879 0.27075723
000190 9b db 43 be 11 b5 06 be 35 dd 65 3f 91 36 8c bd
       -0.19126742 -0.13155009 0.8979066 -0.06846345
0001a0 e6 f4 9e be 31 6b 94 be 13 e2 a4 3d 61 d2 a1 bf
       -0.31046218 -0.2898803 0.08050933 -1.2642328
0001b0 c7 b4 57 be e4 a0 4c 3e 0a 49 bf 3e fb da 63 bf
       -0.21065055 0.1998325 0.37360412 -0.8900601
0001c0 e0 b9 06 be c5 d4 b8 3e c3 ee 1e be 56 13 4d bf
       -0.13156843 0.3609983 -0.15520768 -0.8010763
0001d0 f3 a8 5a 3d cb de 52 3d 3f 8d 4e 3f dc f7 03 bf
       0.05338378 0.051482003 0.80684274 -0.5155008
0001e0 dc 3b 59 bf e7 d6 81 3f ca 21 a3 3e cd ef f4 be
       -0.84856963 1.0143708 0.31861717 -0.47839203
0001f0 e8 7f 23 3f 6d bd a3 3d 62 48 80 3e 42 fb 17 3d
       0.63867044 0.079951145 0.25055224 0.037104852
000200 36 d2 cf be 90 b1 a0 bc ce 0e 24 3f 07 17 02 3f
       -0.40590066 -0.019615918 0.6408509 0.50816387
000210 ae 39 c1 be 83 9d 58 bd 10 94 43 3e b0 28 56 bc
       -0.3773932 -0.05288459 0.1909945 -0.013071224
000220 50 41 4e be a6 14 0e 3e 7e 21 9e 3e f0 69 df be
       -0.20142102 0.13875064 0.30884928 -0.4363551
000230 aa 4c 52 bf 29 44 cf 3e 7d 2c 56 3e f6 bd 1b bd
       -0.8214823 0.4048169 0.20915408 -0.038022958
000240 1f b5 81 3e be 7f c8 be 35 66 13 bf ef a0 22 3f
       0.25333497 -0.3915996 -0.5757783 0.63526815
000250 14 ca 90 3e c3 c5 8e be 58 b3 ab 3e 47 04 b8 be
       0.28279173 -0.27885255 0.33535266 -0.35940763
000260 83 c1 83 be d3 5d fc bd 5e bd 32 3d ef 46 00 3f
       -0.25733575 -0.12322583 0.043637626 0.50108236
000270 8f c8 85 be c9 f4 61 be 7c 66 16 bf 60 62 0e be
       -0.26129577 -0.22066034 -0.5875013 -0.13904715
000280 89 e9 4a 3e 6c d1 3d 3f 90 d6 c3 3e 3d 07 83 be
       0.19815649 0.7414768 0.38249636 -0.2559146
000290 3c f6 c5 bd af 9e 38 bf ad 09 30 3f c2 da 87 be
       -0.09666106 -0.7211713 0.68764764 -0.26534086
0002a0 1a 45 cc be f2 8d 00 3f 45 55 86 be 2f 9c 23 bf
       -0.3989647 0.5021659 -0.2623693 -0.6391019
0002b0 28 ad 38 bf 08 61 e0 3c 19 75 09 3f 0b 92 f8 be
       -0.72139215 0.027390018 0.536943 -0.48548922
0002c0 92 29 ce bd 37 82 be be ad f5 28 3f cf f9 21 bf
       -0.10066523 -0.3720872 0.6599987 -0.632718
0002d0 64 2a 74 3f 32 ad 86 be 0a 28 55 3f ec f7 84 bf
       0.9537718 -0.26304013 0.8326422 -1.038816
0002e0 6c a2 a0 3d cb a7 57 3e c4 a9 ac be 55 fd 88 3c
       0.078434795 0.21060102 -0.3372327 0.01672236
0002f0 7b e2 51 3e 19 92 00 be d6 90 45 bf c9 fb 8f be
       0.20496552 -0.12555732 -0.7717413 -0.28121784
000300 fe cd dd bd 79 98 a5 3e 63 e7 c6 be a9 1f e9 3e
       -0.108303055 0.3234289 -0.3884841 0.45531967
000310 74 c3 12 3f 41 e9 1b bd a9 c1 19 3f a7 5a 2b bd
       0.5732949 -0.038064245 0.60061127 -0.0418345
000320 ce b2 8a bf 2e b8 26 bf 62 6a 43 3e 16 cf aa bf
       -1.0835817 -0.65124786 0.1908355 -1.3344448
000330 75 ff d3 3e 60 93 03 3f ba c9 b6 3e 19 30 01 3e
       0.41405836 0.5139675 0.3570078 0.12616004
000340 d9 1d d9 be a2 95 cd be df 66 5a bf 2a 62 a7 be
       -0.42405584 -0.40153223 -0.8531322 -0.3269208
000350 f9 62 ec 3d 0c 4c 86 3e 27 0e 27 3d ac 35 e4 bd
       0.11542315 0.26229894 0.04078498 -0.111430496
000360 0e 8e ad be 7f 4c 24 3c 9e 12 f5 bd 91 0f f3 bd
       -0.33897442 0.010028004 -0.119664416 -0.118682034
000370 64 94 20 3f c4 f2 27 3f 06 a7 0a 3e f9 1b 22 3e
       0.62726426 0.65604806 0.13540277 0.15830983
000380 b0 0c 79 3d e5 7f a3 3d e3 ce aa be 6b 9d dd 3e
       0.060803115 0.07983378 -0.33360967 0.43284163
000390 0a a8 f0 be e1 ce 5d be 4a 70 06 be a1 70 95 bb
       -0.47003204 -0.2166095 -0.13128772 -0.0045605456
0003a0 1e 06 bd 3d af 74 1b 3f 2c 30 ac be 79 14 ae 3d
       0.092296824 0.6072492 -0.33630502 0.084999986
0003b0 de 07 e6 3e bb 55 5e 3e 85 05 1c 3f 8d f5 fb 3e
       0.44927877 0.21712391 0.6094592 0.49210778
0003c0 e6 02 92 be ac c5 03 bf 25 b2 50 bf a5 98 4c bf
       -0.28517836 -0.514735 -0.81521827 -0.7992042
0003d0 13 50 1e 3e 52 6b a4 bd 7c 46 1f bf 50 28 36 bf
       0.15460233 -0.08028282 -0.62216926 -0.7115526
0003e0 13 06 28 be 05 1a 29 bf fd b6 aa 3e 94 a6 29 bc
       -0.16408567 -0.6605533 0.33342734 -0.010354657
0003f0 1e 72 0d 3e 2d ce ec 3e 72 41 e1 3d 8e b6 23 bf
       0.13813064 0.4625105 0.10998811 -0.6395043

net.0.bias f4 [128]
000000 03 0a 3c b9 d2 fd 84 39 6f 6f 07 ba 55 78 0c 3a
       -0.00017932807 0.00025366113 -0.0005166446 0.0005358507
000010 c2 42 f0 3a c1 48 a6 3a 9f 45 85 39 26 24 f4 39
       0.0018330442 0.0012686477 0.0002541961 0.0004656624
000020 31 97 05 bb 74 2e 7c 3a f6 b6 a2 39 25 a7 d5 39
       -0.0020384307 0.0009619959 0.00031035364 0.00040751058
000030 85 58 10 b9 d6 6d 2c 3a 4f ea 2a ba ef 39 9d ba
       -0.00013765886 0.0006577646 -0.00065199 -0.0011995415
000040 d0 e8 eb b9 9a 6a 9f b9 59 d3 62 b9 e8 bf 0e 37
       -0.00044996152 -0.00030406268 -0.00021631773 8.508541e-06
000050 2f 29 42 3a 21 51 92 39 38 00 4a 3b d9 a1 b5 b5
       0.00074066495 0.00027907736 0.0030822884 -1.3532655e-06
000060 bd 59 19 3a 1f e3 11 ba 6a 5a ff 37 ad f9 ea 39
       0.0005849859 -0.0005565155 3.0440471e-05 0.0004481798
000070 bd aa 7c 39 50 62 da b9 9b 51 c7 b9 c0 a6 13 b8
       0.00024096198 -0.0004165345 -0.0003801704 -3.520283e-05
000080 4d e4 8a ba 51 57 5c 3a a0 6c 55 3a e9 87 8c bb
       -0.0010596603 0.0008405345 0.00081414916 -0.0042886627
000090 ae 3f 82 39 04 f1 37 ba 5f 68 8a b5 c1 81 f2 37
       0.00024842977 -0.000701681 -1.0312177e-06 2.890907e-05
0000a0 bd bc 8a 39 89 71 f3 38 a2 68 ac 39 89 55 a0 b9
       0.00026462032 0.000116082905 0.00032884354 -0.00030581307
0000b0 f9 4a be 39 05 ca 85 39 be 64 1d 39 23 a4 86 39
       0.00036295483 0.00025518253 0.00015010216 0.00025680763
0000c0 9e 71 21 b9 d1 bb 4b ba c0 ba 31 3a 9b 62 92 3a
       -0.00015396482 -0.0007771822 0.0006779842 0.0011168303
0000d0 3d b5 87 39 0b 41 6c b9 46 20 cc b8 52 ee a1 bb
       0.0002588424 -0.00022530944 -9.7334894e-05 -0.00494174
0000e0 f3 99 80 39 78 54 c9 b9 26 70 64 ba 79 87 7f b9
       0.00024528764 -0.00038400642 -0.0008714221 -0.00024369163
0000f0 a9 92 08 ba fd c3 11 ba a6 95 de b8 a1 06 24 bb
       -0.00052098423 -0.00055605156 -0.00010613659 -0.0025028365
000100 c8 75 1b bb 18 c1 b5 ba b6 be 81 3a 9b 5c 4a 3a
       -0.0023721326 -0.001386675 0.0009898755 0.0007719488
000110 f0 83 18 3a c9 89 5b 3a 43 bf b6 36 ce 8e 21 3b
       0.0005818 0.00083747186 5.4462885e-06 0.0024651769
000120 ac c7 00 b9 d6 73 cd ba eb 26 8d ba 7c ef 3b ba
       -0.00012281415 -0.0015674781 -0.0010769045 -0.000716917
000130 7b e2 80 b9 06 1d fa 39 b7 34 54 38 f6 f2 c0 b9
       -0.00024582804 0.0004770534 5.0593833e-05 -0.00036802114
000140 2d 27 78 38 35 3f 26 ba 13 31 72 3a 44 76 a7 38
       5.9164293e-05 -0.0006341816 0.000923888 7.985209e-05
000150 7f 33 84 3a 6d 91 ef 3a 31 7a 94 39 2d 81 0f 39
       0.0010086148 0.0018277593 0.000283198 0.00013685664
000160 ae cf b0 b8 47 89 c4 38 84 28 f6 b9 3d bc c0 38
       -8.431017e-05 9.371578e-05 -0.00046950963 9.1903355e-05
000170 2e d8 8a b8 22 76 5a ba 4b f2 35 3a 38 c3 e5 b8
       -6.6206194e-05 -0.0008333643 0.00069407065 -0.00010955933
000180 da 58 7a b8 6e fa de 3a af 91 00 bb 76 ae 27 ba
       -5.9687394e-05 0.001701189 -0.0019618084 -0.0006396541
000190 3f 25 36 ba a6 b0 de 3a 0f 59 0e ba 84 94 b2 b9
       -0.0006948299 0.0016989901 -0.0005430141 -0.00034061458
0001a0 ac 55 ef b9 28 0d 41 3a 59 81 bd b9 5f 17 99 3a
       -0.00045649463 0.0007364326 -0.0003614526 0.0011679939
0001b0 79 93 9a ba b1 c6 aa b8 db 41 dd ba cd 5d cb b9
       -0.0011793218 -8.143241e-05 -0.0016880588 -0.00038789064
0001c0 30 93 b4 39 dd cb eb b8 dc 7a 6f 3a fb 81 57 b9
       0.0003444194 -0.00011243646 0.0009135434 -0.0002055242
0001d0 7f 6b 66 ba 2f 6e 93 b7 b7 b6 9f 39 ae 7c 37 b9
       -0.0008789822 -1.7575074e-05 0.00030462976 -0.00017498687
0001e0 50 38 f1 b8 27 c8 3e b9 dd 5b b3 ba c7 1b 71 b7
       -0.000115022645 -0.00018194375 -0.0013683994 -1.4371187e-05
0001f0 12 ae 5b b9 9a 69 7c ba ef c0 d9 3a 3c 26 b4 39
       -0.00020950314 -0.0009628773 0.0016613285 0.00034360762

net.1.weight f4 [128]
000000 d3 9c 7a 3f fc 85 7c 3f 7a da 7d 3f e8 99 7b 3f
       0.97895545 0.98641944 0.99161494 0.9828172
000010 9a 68 78 3f d6 f6 7c 3f 75 b7 73 3f 53 15 7d 3f
       0.9703461 0.9881414 0.9520181 0.98860663
000020 a6 fa 8b 3f 46 76 82 3f f2 90 7b 3f d1 d8 7d 3f
       1.0935867 1.0192344 0.98268044 0.9915896
000030 91 98 82 3f e3 9c 80 3f dc 6d 73 3f fa d1 80 3f
       1.020281 1.0047878 0.9508951 1.006408
000040 73 1b 76 3f c2 7f 7f 3f 40 9a 77 3f e0 35 7f 3f
       0.96135634 0.9980432 0.9671974 0.9969158
000050 7a 2c 85 3f 67 7e 7a 3f 8f 5b 7f 3f bc 80 7f 3f
       1.0404198 0.97849125 0.9974908 0.9980581
000060 5b f6 86 3f d1 63 80 3f cc 05 7e 3f 8b 64 7d 3f
       1.0543932 1.0030462 0.99227595 0.9898154
000070 ab d6 79 3f a2 76 7e 3f 88 e7 81 3f a8 e1 7d 3f
       0.9759318 0.9939977 1.0148783 0.9917245
000080 64 c0 7c 3f 9b fb 80 3f 2b 86 8c 3f 6a e3 85 3f
       0.98731065 1.0076784 1.0978445 1.0460026
000090 99 d2 7c 3f 39 d4 78 3f 49 d0 7c 3f d5 6d 78 3f
       0.98758847 0.97198826 0.9875532 0.9704259
0000a0 78 48 78 3f 6c e4 7a 3f 28 13 7d 3f 43 ce 7d 3f
       0.9698558 0.98004794 0.98857355 0.99142855
0000b0 a6 75 7f 3f e7 f1 7c 3f e9 e4 77 3f 25 bd 7d 3f
       0.9978889 0.98806614 0.96833664 0.99116737
0000c0 60 d8 75 3f 03 ef 7e 3f 82 1b 77 3f 39 23 85 3f
       0.9603329 0.9958345 0.9652635 1.0401374
0000d0 71 b3 80 3f 90 60 78 3f 96 cc 77 3f 66 af 77 3f
       1.0054761 0.9702234 0.9679655 0.9675201
0000e0 3d a0 7c 3f 54 4b 7d 3f c5 57 7b 3f 9f 3c 79 3f
       0.98682004 0.98943067 0.981808 0.97358125
0000f0 05 69 75 3f 79 40 7d 3f 92 0b 7a 3f 45 d2 81 3f
       0.9586337 0.989265 0.97673905 1.0142294
000100 57 a2 86 3f ca da 7a 3f 45 e7 7e 3f f0 24 80 3f
       1.0518292 0.97990096 0.9957164 1.0011272
000110 bf a2 7c 3f 95 e3 85 3f dd cb 83 3f 8e b4 77 3f
       0.9868583 1.0460078 1.0296589 0.9675988
000120 08 ec 7f 3f 78 61 81 3f 49 2d 8d 3f 80 70 7d 3f
       0.9996953 1.010787 1.1029445 0.98999786
000130 17 fa 80 3f 61 4a 7a 3f 35 2e 77 3f 3f ca 7c 3f
       1.0076321 0.97769743 0.9655488 0.98746103
000140 ea a8 79 3f fa 37 78 3f db aa 7d 3f 32 07 79 3f
       0.9752337 0.96960413 0.9908883 0.97276604
000150 d4 e8 89 3f 3c 9f 8a 3f 12 84 91 3f d6 05 7f 3f
       1.0774179 1.0829844 1.136843 0.9961828
000160 5f 71 78 3f 92 9d 76 3f 56 6d 7c 3f 4c 1f 77 3f
       0.9704799 0.96334183 0.98604333 0.9653213
000170 8b a3 75 3f 26 f4 7a 3f 3c 64 7a 3f 88 25 7a 3f
       0.9595267 0.9802879 0.97809196 0.9771352
000180 cd bb 75 3f a4 1d 85 3f 40 c7 7d 3f 9e 02 7a 3f
       0.95989686 1.0399671 0.99132156 0.97660244
000190 d9 a9 82 3f 56 30 86 3f 14 5e 6e 3f 3e d5 78 3f
       1.0208083 1.0483501 0.931123 0.9720038
0001a0 d6 c0 80 3f 40 b7 86 3f f7 d6 82 3f 52 dd 76 3f
       1.0058849 1.0524673 1.0221852 0.9643146
0001b0 74 d6 81 3f f0 fe 7a 3f 02 0d 85 3f e0 01 7e 3f
       1.0143571 0.98045254 1.0394595 0.9922161
0001c0 62 91 81 3f ec 74 7a 3f 42 80 79 3f e8 52 77 3f
       1.0122492 0.9783466 0.9746133 0.9661088
0001d0 e3 b7 77 3f 5e bc 83 3f 56 2e 80 3f 94 1a 7c 3f
       0.96764964 1.029186 1.0014141 0.98478055
0001e0 fc 45 76 3f 2c f0 80 3f 5e f5 82 3f 75 01 7e 3f
       0.9620054 1.0073295 1.023113 0.99220973
0001f0 a2 ee 7b 3f 0e af 7d 3f aa 16 78 3f f3 f8 7b 3f
       0.98411 0.9909524 0.9690958 0.9842674

net.1.bias f4 [128]
000000 67 91 f1 3c 6f 4a 9b bc 32 99 d1 bc 5b 04 88 3c
       0.029488279 -0.018956391 -0.025585745 0.01660364
000010 e3 8c 42 bd 9e 94 11 bc b4 9f 54 bc d0 33 93 bd
       -0.04749764 -0.008885531 -0.012977529 -0.07187617
000020 d8 90 77 3d 70 d1 8d 3d 11 0f 3b bc 1e b4 0f 3b
       0.06044087 0.06924713 -0.011417166 0.0021927427
000030 af ab 8c bc fb 82 86 bd b4 85 fb bb a3 98 7d bc
       -0.017171709 -0.06567951 -0.0076758508 -0.015478286
000040 c1 93 7a bd 61 c3 31 bd d8 77 78 3a 8b ea 31 bb
       -0.061176065 -0.04339922 0.00094783073 -0.0027147855
000050 ae 0b 78 3c 13 2a d2 bc 4e 9a a7 3d 0c 8f ec 3b
       0.015139503 -0.025654828 0.08183728 0.007219201
000060 1f b6 4a 3c 57 16 99 bc f3 07 f3 bc d8 62 e2 bc
       0.012372523 -0.01868741 -0.029666876 -0.027635023
000070 01 de e3 bc 0a cb b1 bc 24 a9 bb 3c ca da df bc
       -0.02781582 -0.021703262 0.022907801 -0.027326006
000080 3c 5b b2 bc 24 1a 17 bc e6 3e 94 3d 18 f3 c5 3d
       -0.02177202 -0.009222541 0.072385594 0.09665507
000090 7b ae d7 bb a5 cf 4d bd 9b c5 29 bc 02 ef cd bc
       -0.006582079 -0.050246853 -0.010362054 -0.025138382
0000a0 07 b8 c3 bc ed 49 0d bd 8a e0 97 3c 94 60 3c bd
       -0.023891462 -0.03449433 0.018539686 -0.04599054
0000b0 73 e9 2d bd 1a bd 0f bd aa 1d a6 bd 14 5f d7 bc
       -0.042458963 -0.03509245 -0.08111127 -0.026290454
0000c0 dd 57 3c bc d3 4f 80 bc d3 56 7e bd 0f aa 7d 3d
       -0.011495558 -0.015663063 -0.06209452 0.06192976
0000d0 e8 51 9b 3a 07 ee fe bc 53 f2 29 bd d4 6d 05 bd
       0.0011849971 -0.03111936 -0.041490864 -0.032575443
0000e0 60 b0 37 bd e0 b8 7a bd 95 4f d7 3c ff fb 16 bd
       -0.04484594 -0.061211467 0.026283065 -0.036861416
0000f0 41 e5 3d bd 0d f4 c6 3b 13 36 08 bd fe fc 85 3d
       -0.04636121 0.0060715736 -0.033254694 0.06542395
000100 89 ef 93 3d 58 8d d3 bc 28 0e 32 bd be 76 d4 3c
       0.07223422 -0.025824234 -0.04347053 0.025935527
000110 1c 0a 03 bd 0e e9 d7 3b 59 b8 1a 3d 04 bb 4e bc
       -0.031992063 0.0065890616 0.037773464 -0.01261783
000120 a6 ee 0f bd 52 bb 0f 3d 14 eb 33 3d 3b 8d c5 bc
       -0.035139702 0.035090752 0.04392536 -0.024115195
000130 74 99 88 3c cd ec 66 bd dc aa 85 bd 17 88 99 bd
       0.016674735 -0.056378175 -0.065267295 -0.0749666
000140 88 19 6b bd 3f fa 97 bc 08 3b 30 bc 90 ef 2b bd
       -0.057397395 -0.018551944 -0.010756262 -0.04197651
000150 b5 10 68 3d c3 55 29 3d 5d d3 b9 3d ef 91 d5 bc
       0.056656558 0.041341554 0.090735175 -0.026070563
000160 61 ac ad bc 98 b4 84 bd 1d 10 f3 bc 00 c8 0f bd
       -0.02120036 -0.06479758 -0.02967077 -0.035102844
000170 c1 40 32 bd 35 39 13 bd a6 11 28 bc 60 3e a2 bd
       -0.043518785 -0.03594323 -0.010258114 -0.07922053
000180 ee eb 11 bd 2f c3 44 bb f4 1b 14 bc 17 9c 10 bd
       -0.03562539 -0.0030023565 -0.009039868 -0.03530511
000190 32 39 89 3c dd 2a 70 3d 15 1c 70 bd 67 bc 8e 3a
       0.016750906 0.058634628 -0.05862053 0.0010889889
0001a0 a0 34 0e 3b 9d 4a 43 3d 01 79 a2 3c f1 fa 33 bd
       0.0021698847 0.04767858 0.01983309 -0.04394049
0001b0 b2 46 6b bc 36 5e 38 bd 8e f2 df 3c 98 a7 0d bd
       -0.014360117 -0.04501172 0.027337339 -0.034583658
0001c0 ac cb a0 3c 5e 07 1f bd 3c f7 9f 3c fa 28 2c bd
       0.019628368 -0.038825385 0.01952707 -0.042031266
0001d0 6a 6a 93 bd c1 d6 40 3d 63 4a 2b bd 6c 36 ea 3b
       -0.07198031 0.047079805 -0.041818988 0.007147601
0001e0 e3 b2 4e bd af 61 62 bd f8 a3 24 3c 49 a5 b0 bc
       -0.05046357 -0.05526894 0.010048859 -0.02156319
0001f0 7b 18 82 bd 3f 04 d8 bc 75 80 e8 bc 35 eb 43 bd
       -0.063523255 -0.026369212 -0.028381566 -0.047831733

net.1.running_mean f4 [128]
000000 5f 3b d1 3e 46 f3 23 bf 23 0f 7f 3f 38 78 e4 3e
       0.4086561 -0.6404308 0.9963247 0.4462297
000010 7a 22 91 bf 6f f6 88 bf a4 31 9a 3e 82 2e c5 be
       -1.1338646 -1.0700206 0.30115998 -0.38512045
000020 ad 3b d5 bb 9a 92 dd bf 33 d3 6d 3f 32 d6 4f 3e
       -0.006507358 -1.7310364 0.9290039 0.20296553
000030 57 0a 8a 3e ba 1a 76 3e 28 a6 84 be 8d 50 b1 3d
       0.26961014 0.24033633 -0.25908017 0.08657942
000040 5c c9 b7 be 7a c4 aa 3d 46 36 8a be 6f 77 c2 bf
       -0.35895813 0.08338256 -0.26994532 -1.5192698
000050 c9 af 68 3f 65 f1 9b bf 8e 97 f9 bd 33 75 17 bf
       0.90893227 -1.2183043 -0.1218711 -0.59163207
000060 5e 11 0a bf 24 d0 4a be c6 75 f7 3d 95 a8 5f bf
       -0.5393275 -0.19805962 0.120830104 -0.8736661
000070 57 83 35 3f 79 2e 11 bf 39 76 a3 bf 2b 10 74 bf
       0.70903534 -0.56711537 -1.2770454 -0.9533717
000080 41 df de 3e ae 16 10 3e 66 ec 39 be a1 69 b6 bf
       0.43529704 0.14071152 -0.18156585 -1.4250985
000090 93 37 6d 3f 8a 91 d8 3e ed e6 81 3f e6 c2 0d 40
       0.92662925 0.42298537 1.0148598 2.2150207
0000a0 41 76 8d 3f 20 d0 16 bf 1a cd 18 bf 0e 37 67 bf
       1.1051713 -0.58911324 -0.5968796 -0.9031838
0000b0 45 08 64 3e 90 09 37 be f6 61 92 3b 81 e1 3b 3e
       0.2226878 -0.17874742 0.0044672443 0.18347742
0000c0 33 2c 0c 3f c4 d9 7e bf 93 57 5f bf 5a d8 aa bf
       0.5475494 -0.99551034 -0.87243 -1.3347275
0000d0 38 3f a0 be 98 5a d8 3f 97 1d 1f bf 7d 13 86 3f
       -0.31298232 1.6902647 -0.62154526 1.0474697
0000e0 d6 a7 58 be e7 5e 0e 3f 67 9a 74 3f ae 92 b0 3f
       -0.21157774 0.5561356 0.955481 1.3794763
0000f0 50 b9 2d bb 51 0f 38 3f b9 ef 0b 3f 4a 89 0a c0
       -0.002650816 0.7189837 0.5466266 -2.1646295
000100 b8 e3 6c 3e 5f 5b 5e bf f1 3d 63 bf fe ec 71 3d
       0.23133743 -0.8685817 -0.8876639 0.059063904
000110 09 c3 ef bf 46 2d b2 3e ac 1b 21 bf 02 7e a1 be
       -1.8731395 0.34800166 -0.6293285 -0.3154145
000120 7e 29 aa be ed f6 ad bf b8 a0 fa 3f 74 34 4e be
       -0.3323478 -1.3590981 1.9580297 -0.20137197
000130 93 7a 61 3f 70 c6 f9 be ed 2c 50 bf 4c 6f 8e 3f
       0.8807766 -0.48784208 -0.8131855 1.1127715
000140 ec 82 12 bc 87 d9 23 40 c8 36 f9 be 53 d3 f2 be
       -0.008942347 2.5601518 -0.48674607 -0.47426853
000150 79 ec 0f 3f 87 c5 2c be 37 2e 30 3e 10 08 15 3f
       0.56220204 -0.16872226 0.1720513 0.5821543
000160 a9 dc 5b 3f 42 1d 4d be d1 90 81 bf a6 f7 3f 3f
       0.85883576 -0.20030692 -1.012232 0.74987257
000170 1a 73 d9 be 0b 17 55 3f 2f 52 62 3f de 25 4c 3f
       -0.42470628 0.83238286 0.8840665 0.7974528
000180 cf 14 b6 be aa 4c 61 bf 81 f7 9f bd 8c 94 b4 be
       -0.3556275 -0.88007605 -0.078108795 -0.35269582
000190 00 42 70 3f 91 27 5e 3f 0a ac f0 3e 19 1a 0a bf
       0.9385071 0.86779124 0.47006255 -0.5394607
0001a0 8e 64 a8 bc 97 6e e5 3f 64 5d 75 be 40 1e 6d be
       -0.02055576 1.7924374 -0.23961407 -0.2315607
0001b0 20 af bf 3e a7 1b 79 bf c8 38 0d 3e 2b ea 7b bf
       0.37438297 -0.9730782 0.13791192 -0.98404187
0001c0 c1 2a be 3e 0a 35 8f bf a0 61 3c be 9c 72 13 be
       0.37141994 -1.1188061 -0.18396616 -0.14399189
0001d0 07 9d c7 be ca 44 d3 3f 13 76 7f 3e 95 8a 2a 3f
       -0.3898699 1.6505368 0.24947385 0.6661771
0001e0 d0 17 89 bf 11 cf 44 be c4 9e 83 bf 7f e7 b5 3e
       -1.0710392 -0.19219615 -1.0282826 0.3552818
0001f0 40 02 d3 3e 44 f6 17 40 c0 b7 ab 3d d3 e0 73 be
       0.41212654 2.3744059 0.08384657 -0.23816232

net.1.running_var f4 [128]
000000 76 46 10 40 d8 e6 0d 40 44 d1 42 40 6e a5 39 40
       2.2543006 2.2172146 3.0440226 2.900722
000010 1c dc fa 3e e4 bb 97 3e a7 db 10 41 ba 0b 1f 40
       0.48996055 0.29635537 9.053626 2.4850907
000020 f2 8a 9c 3e de e5 88 3f 0b 03 ea 40 ad 1b 84 41
       0.30574757 1.069515 7.3128715 16.513514
000030 3d 6f 62 40 66 f1 99 40 03 1a 2a 3e de 3c 05 3e
       3.5380394 4.8107176 0.16611485 0.130115
000040 83 01 45 3f 8f 74 e7 3f 44 0e e0 40 73 09 6c 41
       0.7695543 1.8082446 7.0017414 14.752307
000050 70 ac 39 3e 1c f8 5e 3f 7f 86 d3 3e 64 90 ca 3d
       0.18132186 0.87097335 0.4131355 0.098908216
000060 6a a2 09 3d 53 7f 00 40 cc 9c 10 40 a9 c1 76 40
       0.033602156 2.0077713 2.2595701 3.85557
000070 d9 9a 68 3f e8 3b 66 40 3c bf f9 3e 4a fb de 40
       0.9086128 3.5974064 0.48778713 6.968175
000080 2d e9 d6 3f 13 91 9a 3f 2d aa 82 3e d5 dc ce 3e
       1.678991 1.2075523 0.2552046 0.40402856
000090 fc cb 4f 3e 9c ae a7 40 bf db bf 3e c1 3e ab 3f
       0.20292658 5.2400646 0.3747234 1.3378526
0000a0 00 d6 ec 40 5a 8c a2 3f 4f d6 22 41 b8 6d 17 41
       7.401123 1.2699082 10.177321 9.464287
0000b0 56 b6 20 3f 10 ad bc 3f af 81 a9 40 29 99 6d 40
       0.6277822 1.4740314 5.2970805 3.7124732
0000c0 a8 4f d3 40 5e 6b f8 3f c2 04 24 40 05 e9 89 3e
       6.6034737 1.9407766 2.5627904 0.26935592
0000d0 1b 68 83 3f 2e 72 8e 3f bd b0 c0 41 67 94 c6 3d
       1.0266145 1.1128595 24.086298 0.09696274
0000e0 17 63 a6 40 c6 5b a9 3f 31 5e b5 3f 7d 17 ff 3f
       5.199596 1.3231132 1.416937 1.9929043
0000f0 01 2d 25 40 0f fb 14 3f 33 50 c5 3f f5 59 51 3f
       2.5808718 0.58195585 1.54151 0.8177789
000100 b8 96 39 3f 77 6d bc 3f 06 25 66 40 a1 0e 9c 40
       0.72495604 1.4720906 3.5960097 4.8767858
000110 d2 51 2c 41 42 01 0c 3e ed 23 a6 40 b8 9a 3a 3e
       10.769976 0.13672355 5.1918855 0.18223083
000120 6c 52 00 41 fe 06 98 3e 47 a2 17 3f 1c 3e 93 40
       8.020123 0.29692835 0.5923199 4.6013317
000130 1f 3e 23 41 02 88 1e 40 8a c0 d3 40 30 77 9c 3f
       10.202666 2.4770513 6.6172533 1.2223873
000140 4b 53 8a 40 46 be 34 41 6c 7e b3 3f 2e 2c 03 40
       4.3226676 11.296453 1.4022956 2.0495715
000150 38 38 e9 3c f2 f2 eb 3e ae ce 82 3e 0c a6 30 41
       0.02846919 0.4608379 0.2554831 11.040539
000160 a3 14 cb 3f 6c 5e 29 41 de 1c 6b 3f cd 59 32 41
       1.5865673 10.585552 0.9184092 11.146924
000170 cf ae 43 41 17 f8 7e 3e 3a b9 28 41 62 84 20 3f
       12.230178 0.24899326 10.545221 0.62702
000180 b3 e3 82 40 a0 65 02 3f 6c 1c 71 3d 1b 27 a9 41
       4.0902953 0.5093632 0.058864996 21.144094
000190 92 72 b2 3f 85 fa a1 3e 6f ef 8c 40 fb 9d aa 40
       1.3941214 0.31636444 4.4042277 5.3317847
0001a0 48 e4 4d 3f 78 de 4c 3f 49 89 77 3e e5 04 f5 3e
       0.80426455 0.8002696 0.24173464 0.47855297
0001b0 35 5d 30 3f 4d e2 e1 3f 15 c5 02 3e 7b 69 58 3f
       0.6889222 1.7647187 0.12770493 0.8453595
0001c0 d7 8b 5b 40 4a e7 94 40 c5 5d 9a 40 34 68 f7 40
       3.4304101 4.6532335 4.8239465 7.73147
0001d0 67 98 14 40 a3 4e 6c 40 f9 36 d3 3f 27 72 2f 40
       2.321802 3.6922996 1.6501151 2.7413423
0001e0 53 1d 45 40 0f d5 82 3e f4 0d 1e 3e 04 c4 a3 40
       3.0799148 0.25553176 0.1543501 5.1176777
0001f0 de 32 36 41 f8 e1 53 3f 56 01 17 40 db 27 aa 40
       11.387419 0.82766676 2.3594565 5.317365

net.4.weight f4 [128, 128]
000000 9a a7 8b bd c1 38 56 be cf b0 5e bc 18 6a e1 3e
       -0.06819077 -0.20920087 -0.013591959 0.44026256
000010 1d e7 d8 bd 9a ad bf 3c a6 3d c3 3d 28 41 92 bd
       -0.10590956 0.02339821 0.09533243 -0.07141334
000020 c9 c4 3b 3e 0e e5 67 be b6 ce c4 3d 5e 23 73 3e
       0.18336786 -0.22645971 0.096097395 0.2374396
000030 d2 b6 88 3d 98 50 24 3d 5c 8c ac 3c 05 f2 a1 bd
       0.06675495 0.040115923 0.021063022 -0.0790749
000040 f6 f9 14 3d f8 d8 2c 3d 41 4d e6 3d 4d cb 51 be
       0.036371194 0.042199105 0.11245204 -0.2048771
000050 b1 e1 12 be 86 95 83 3d 1d 42 8c bd c6 10 35 bd
       -0.14343907 0.06425004 -0.068485476 -0.04420545
000060 28 3f eb bd 46 99 4b 3e e0 5d 0c 3d d9 e7 2d 3e
       -0.114866555 0.19882688 0.034269214 0.16982974
000070 85 47 2d be 8e f6 0b bd 8c fa 61 be 90 f3 9f 3e
       -0.16921814 -0.03417068 -0.22068232 0.3124051
000080 c7 ab a8 bd 6c 45 6f be ae 0e e3 3c e3 d6 81 bd
       -0.08235889 -0.23366326 0.02771696 -0.063398145
000090 56 c7 35 3e 9c c7 46 bd f8 01 95 3b 60 ea ba bd
       0.17751822 -0.048530206 0.004547354 -0.09126735
0000a0 d1 a0 1a 3d f9 b2 6e 3e 02 2f 34 be 26 fb 5b be
       0.037751023 0.2331046 -0.17596057 -0.21482524
0000b0 8b fa 47 bd ab ba 88 bb 3c a0 8f 3e db b0 80 bd
       -0.04882292 -0.004172643 0.28051937 -0.062837325
0000c0 c1 bb 41 3e 48 d7 1a be 62 44 ae bd d1 71 04 3d
       0.18919279 -0.15121186 -0.08509137 0.032335106
0000d0 01 b1 bb bb 40 26 7f bd 16 a5 04 3d fc 77 0d 3c
       -0.0057278876 -0.062292337 0.032384 0.008634564
0000e0 8e 55 ed 3d fe 87 4e be 95 ee ab 3c 32 bf c5 3b
       0.11588584 -0.20169064 0.020987788 0.006034755
0000f0 49 0a 3e be 1c 3c 0d 3e 91 f2 ed bd d8 c4 82 bd
       -0.18558611 0.13792461 -0.116185315 -0.06385201
000100 fd 34 94 3e 39 36 5a 3e f3 c0 12 be 99 7e a3 3c
       0.28946677 0.21309747 -0.14331417 0.019957827
000110 48 99 97 3d f9 2f 38 be c9 6d e7 3d e3 cd 0a be
       0.07402283 -0.1798705 0.11300237 -0.13555102
000120 cc 3a 77 bd 1d 21 a5 39 47 16 73 3c ce 0d 32 3d
       -0.060358807 0.00031495924 0.014836854 0.043470196
000130 ee 94 66 bc 4d 65 80 be 83 8f 14 be f5 e0 12 be
       -0.014073594 -0.25077286 -0.1450787 -0.14343627
000140 b3 4c b8 bd 3a 42 f2 bb ac 56 d7 bd 1a bc 2a bc
       -0.08999004 -0.0073931487 -0.10514578 -0.0104208235
000150 fd a0 45 3c c5 56 ee 3d bd e7 6e 3d 25 d9 94 3d
       0.012062308 0.11637644 0.05832647 0.072679795
000160 70 f7 f3 bc d3 f8 d5 bd 75 01 fd 3d 7f a0 82 3e
       -0.029781073 -0.1044785 0.123537935 0.25513074
000170 80 d3 3d 3c b0 61 7d bc f7 cd 11 3d 61 4a 1e 3d
       0.01158607 -0.015465185 0.035596814 0.038645152
000180 25 a8 05 be e1 cf 01 be 62 fb a2 3e f7 5c b6 3d
       -0.13052423 -0.12676956 0.31832415 0.089044504
000190 b5 a9 79 3d 8b e7 29 3e 1e 93 c9 bd 95 de 69 bc
       0.06095286 0.16592233 -0.098425135 -0.014274259
0001a0 13 95 46 be d5 71 3f be 6d 48 05 3d 21 fa 93 3c
       -0.19392805 -0.18695767 0.032539774 0.018063607
0001b0 c2 84 b9 bd 8d 0e ac bd eb b6 a7 bc 4b 16 4b be
       -0.09058525 -0.08401213 -0.020472964 -0.19832723
0001c0 30 f8 c7 3d 77 f4 8c 3d 0c 99 98 bb 35 b2 11 3d
       0.09764135 0.068825655 -0.0046569165 0.035570342
0001d0 39 d7 6e 3c 10 9b 70 3d 41 fd e3 bd 3c 0a 4b bd
       0.01457768 0.05874163 -0.11132289 -0.049570307
0001e0 a2 97 87 be 35 7c 43 bd d9 c2 07 bc e1 70 c0 bd
       -0.26482874 -0.047725875 -0.008286201 -0.0939653
0001f0 f8 7e 08 be 0e ba 9b bd 86 39 59 be 81 31 81 be
       -0.13329685 -0.076038465 -0.2121335 -0.2523308
000200 f6 d8 91 3e a7 2a cc bd 2f 7c 4f bd 48 e8 3f bd
       0.2848584 -0.09969073 -0.05065554 -0.04685238
000210 a4 19 74 bc 1d fd 70 3b c8 59 70 be 13 43 48 be
       -0.014898691 0.003677196 -0.23471749 -0.19556837
000220 48 29 24 bd 4e e3 32 3e 20 e4 8e 3d 9b be 73 bc
       -0.04007843 0.17469522 0.06977105 -0.014876987
000230 da 60 7e 3e 57 36 56 bd a9 2d ed 3d 23 9a 63 be
       0.24841633 -0.052297916 0.115809746 -0.22226767
000240 6b 10 9c bc 2a c3 c2 bd 8a 75 01 3d 72 58 80 be
       -0.019050797 -0.09509881 0.031606235 -0.25067478
000250 59 27 3f be d7 36 cc bd 04 42 df 3d c7 94 e8 bd
       -0.18667354 -0.09971397 0.10901263 -0.11356502
000260 6a 13 9b bd 47 1f ae 3e 51 1e 85 3e b4 8e f3 3d
       -0.07572062 0.34008238 0.25999692 0.11892453
000270 e6 97 95 bb 1b bc 31 bc 54 94 6f bd 51 e3 c4 bd
       -0.004565227 -0.0108480705 -0.058491066 -0.0961367
000280 87 ef 3e bd 5b 10 cf bb 8e e4 32 be 1d 67 2d 3e
       -0.04661515 -0.0063190884 -0.17469999 0.16933866
000290 84 8e 9a 3d 88 0f 0d be 25 78 f7 3d 8f 7d d3 bd
       0.07546714 -0.13775456 0.120834626 -0.10326683
0002a0 02 3a 1b 3e 1b 2c 42 be b9 ce bc bc 4f 6c 48 bd
       0.15158847 -0.18962137 -0.023047792 -0.048931416
0002b0 b3 27 25 bd 42 61 a4 3d 7d ec 1a bd 39 43 33 be
       -0.040321063 0.08026363 -0.03782319 -0.17506112
0002c0 f6 01 27 3e f6 28 9b be 58 91 7a bd 71 1b 32 3e
       0.16309342 -0.30304688 -0.061173767 0.1739328
0002d0 ce 95 a7 bb d2 40 14 3e 83 60 df ba 30 60 81 bd
       -0.0051142937 0.14477852 -0.0017042313 -0.063171744
0002e0 7d 1f 45 3e c1 bb 0a bd 03 98 26 3e a8 7e ee 3d
       0.19250293 -0.033870462 0.16268925 0.116452515
0002f0 c9 33 69 3b fd aa 6f bd 2d e5 6a 3d 55 32 77 be
       0.0035583845 -0.058512677 0.057347465 -0.24140294
000300 94 00 e9 bc 14 3e 39 be 89 59 3e bd 6d 2b 1c 3d
       -0.028442658 -0.18090087 -0.046472106 0.03812735
000310 0b 37 30 3e 9d 40 69 3d ca 44 f7 ba 3a 5e 34 3e
       0.17208497 0.056946386 -0.0018865105 0.1761407
000320 e8 e2 ba 3c d0 5e 80 bd 42 9a f4 bd 17 d0 63 3d
       0.022813275 -0.06268084 -0.11943485 0.05561837
000330 f9 95 25 be 58 23 8f bd 9b 59 6e be 91 43 61 be
       -0.16170491 -0.06989163 -0.2327637 -0.21998431
000340 78 6e a5 bd a8 db 50 be f2 06 25 be de 4d 09 bd
       -0.08077711 -0.20396292 -0.1611593 -0.033521526
000350 19 8d c1 bd b0 5c 04 be 21 7f 54 bc 83 81 3d 3e
       -0.0945074 -0.12925982 -0.012969763 0.18506436
000360 68 58 56 bb d7 f6 28 be 71 68 a8 bd 8c ca 90 bd
       -0.0032706503 -0.16500412 -0.082230456 -0.07069883
000370 5a ca d9 3d 59 2a 96 3d ac c6 24 3e 7d 2f 97 3e
       0.106342986 0.07332296 0.16091412 0.29528418
000380 62 05 8e be 8a 66 ff 3c 03 e4 c1 bd 5a 8f 37 3e
       -0.27738482 0.031176824 -0.09467318 0.17925778
000390 57 8b 21 3e 12 41 92 3b 30 56 83 ba 33 48 16 be
       0.1577581 0.0044633234 -0.0010020193 -0.1467598
0003a0 61 13 62 be 0a 02 16 bd 9a e7 c7 3d fb 6f 53 be
       -0.22077705 -0.03662304 0.09760971 -0.20648186
0003b0 0e 3a 09 bd dd cf c2 bd 02 70 0e be 7f 13 29 3d
       -0.03350263 -0.09512303 -0.13909915 0.04127836
0003c0 21 44 bb 3c c6 87 04 3e 46 74 88 bd 73 d5 cb 3d
       0.022859635 0.12942418 -0.066628024 0.099528216
0003d0 82 26 ad 3d 30 71 02 3d 97 43 a2 be fb e6 bb 3d
       0.084546104 0.031846225 -0.31692192 0.091749154
0003e0 3a 33 2e 3e 0e 8a ac bd 27 91 1b 3d af 22 65 bd
       0.17011729 -0.08424769 0.037980225 -0.05594128
0003f0 ca 80 55 bc 63 e4 87 3d d9 7e b9 3d 31 c0 70 3d
       -0.013031194 0.06635358 0.090573974 0.058777038

net.4.bias f4 [128]
000000 b8 87 0e 3b ee 2b 95 3a f7 f1 66 3a 77 bf 8f 3a
       0.0021748375 0.001138089 0.0008809859 0.0010967095
000010 7a b5 51 ba 91 a7 11 39 ce 66 e8 b6 09 ea b2 ba
       -0.00079997594 0.00013890701 -6.926107e-06 -0.001365007
000020 f4 aa be 38 ee 8e c1 39 60 67 db ba 50 a7 4e 39
       9.0917485e-05 0.0003691832 -0.0016739182 0.0001970802
000030 a3 14 96 38 01 df 1c 3a f4 55 bf b8 29 b4 a9 ba
       7.156401e-05 0.0005984158 -9.1236e-05 -0.0012947369
000040 87 b5 00 b9 90 1a 98 b9 4a 06 87 3a 5d bf a9 ba
       -0.00012274655 -0.0002901149 0.0010301557 -0.0012950707
000050 f4 ff 85 b9 fe ab f4 b9 9b 01 45 b8 6a 00 15 b9
       -0.00025558437 -0.0004666745 -4.6969955e-05 -0.00014209902
000060 42 01 76 ba e5 ea 22 b9 59 ac 92 b9 0d 5a 09 39
       -0.00093843427 -0.00015537029 -0.000279757 0.00013098885
000070 e4 35 25 ba 32 f8 22 3a 1f bb c8 ba ef 68 77 b8
       -0.0006302281 0.00062167936 -0.0015314555 -5.8987116e-05
000080 c4 ca 6c ba ac 2d 3a ba 11 8e 8f 37 de e9 32 3a
       -0.00090329 -0.00071021426 1.7113083e-05 0.000682501
000090 89 25 d1 3a ed df 49 3a cc 91 1e ba 8c 9e a8 ba
       0.0015956621 0.0007700909 -0.0006048947 -0.0012864633
0000a0 2a 0d 5a 3a 14 d9 d9 b8 4c b7 b1 b9 96 ef ad 39
       0.00083180016 -0.000103878 -0.00033896638 0.00033175637
0000b0 37 da a4 ba 7c fe 42 3a 8d 3d 2c 3a 92 8d 39 3a
       -0.001257724 0.0007438434 0.0006570451 0.00070782856
0000c0 a4 41 9e b9 dd e5 02 3a 48 ea fa 39 a8 5a 24 39
       -0.00030185014 0.0004993359 0.0004785827 0.00015674031
0000d0 24 a2 8f 3a 2d 85 de b9 88 40 ae ba bf f0 ca b8
       0.0010958356 -0.00042442363 -0.0013294378 -9.676953e-05
0000e0 e1 ac b9 3a 76 eb 6b 39 f1 a7 1a 39 91 b8 09 3a
       0.0014165902 0.00022499062 0.00014749148 0.0005253638
0000f0 06 47 45 ba c1 3f 34 b9 99 82 60 b9 87 2f 03 39
       -0.0007525537 -0.00017189888 -0.00021410956 0.00012510839
000100 3b 2a 4b ba 58 40 53 b8 c7 89 01 ba 4b 5c ba 39
       -0.0007750128 -5.0366245e-05 -0.000494149 0.00035545448
000110 dc 33 a6 38 01 f4 04 3a b8 5f a8 b9 f4 8c 38 bb
       7.9251564e-05 0.000507176 -0.00032114773 -0.0028160186
000120 6c 46 7d 3a 0d 66 0a 39 f1 b3 1f ba d1 bc c2 38
       0.0009661678 0.00013198722 -0.0006092182 9.285811e-05
000130 66 bd 21 3b 76 b0 e9 39 dd 85 26 3a 1e 6a 4a 3a
       0.002467954 0.00044572697 0.00063523446 0.0007721501
000140 71 dd 57 ba 73 09 97 38 bb 5c 09 ba 7e 8e 70 3a
       -0.00082345965 7.202001e-05 -0.0005239953 0.00091765064
000150 27 22 75 b9 f5 88 03 ba 3e 8c 25 ba 09 49 1a 37
       -0.00023377743 -0.00050176616 -0.0006315148 9.19612e-06
000160 91 dc 05 b9 b3 d9 a9 b9 56 32 57 b9 3a 71 d4 3a
       -0.00012766036 -0.0003239639 -0.0002052275 0.001620806
000170 2a c1 b6 39 51 40 82 3a 89 5c 04 39 b2 5c c7 b8
       0.00034857664 0.0009937381 0.00012622973 -9.506325e-05
000180 3c 83 94 ba 44 18 86 ba 67 dc 0b ba 03 f3 b8 b9
       -0.0011330615 -0.001023062 -0.00053352717 -0.00035276273
000190 08 1f 7b 37 69 3a 94 b9 c8 3a 51 ba 56 0f a2 b9
       1.4967991e-05 -0.0002827228 -0.00079814764 -0.00030910474
0001a0 b4 81 83 b9 70 0b a6 ba de f5 26 ba b5 15 ca 3a
       -0.00025082903 -0.0012668204 -0.00063690345 0.0015417846
0001b0 66 79 5f 39 97 70 0d ba cb 24 29 3a d3 2b 33 3a
       0.00021312162 -0.00053955003 0.0006452321 0.00068348384
0001c0 e8 55 24 39 f6 1e b1 ba 08 91 ae 36 2b 5f 18 3b
       0.00015672261 -0.0013513255 5.202488e-06 0.0023250084
0001d0 5e e9 f8 38 04 52 48 3a ea eb c5 ba cc af 1f ba
       0.000118690295 0.0007641616 -0.0015100215 -0.00060915644
0001e0 3e 13 ba 39 ea 8f 15 3a 15 16 23 bb da 13 6a 3a
       0.0003549102 0.0005705344 -0.0024884988 0.000892935
0001f0 53 1f 89 3a 8b dd 90 b9 e9 0f a8 39 77 ad 1e 3a
       0.0010461606 -0.00027630883 0.0003205531 0.000605307

net.5.weight f4 [128]
000000 43 45 83 3f 75 df 6c 3f b2 7f 7f 3f 8e 75 72 3f
       1.0255512 0.9252847 0.9980422 0.94710624
000010 f9 68 73 3f 29 25 80 3f 8e 87 80 3f 31 e6 7e 3f
       0.9508205 1.001134 1.0041368 0.99569994
000020 39 11 7e 3f 40 bb 82 3f c8 af 85 3f 06 6b 75 3f
       0.9924503 1.0213394 1.0444269 0.9586643
000030 5f ec 7f 3f 69 e6 82 3f 9b 57 75 3f e0 f2 80 3f
       0.9997005 1.0226566 0.958368 1.007412
000040 cd 49 7e 3f cf aa 84 3f d9 02 77 3f 85 99 6f 3f
       0.9933136 1.0364627 0.9648872 0.9359363
000050 d7 69 78 3f 22 3b 7e 3f a7 77 81 3f b5 8d 6b 3f
       0.970365 0.9930898 1.011464 0.920131
000060 33 19 84 3f 74 7e 7e 3f d7 7f 75 3f 7a 3e 7d 3f
       1.032019 0.994117 0.95898193 0.98923457
000070 f4 43 7e 3f 4c 4c 78 3f 29 5c 7d 3f e2 62 81 3f
       0.9932244 0.9699142 0.9896875 1.0108302
000080 e4 14 88 3f 9b 4b 76 3f 0c cf 83 3f 37 52 7c 3f
       1.0631375 0.96209115 1.0297561 0.9856295
000090 b3 3f 86 3f d9 cb 7f 3f 26 9a 85 3f 1d e9 82 3f
       1.048819 0.9992042 1.0437667 1.022739
0000a0 d7 f1 84 3f 8d dc 79 3f 0d 91 83 3f 77 b4 80 3f
       1.0386304 0.9760216 1.0278641 1.0055073
0000b0 9d fb 7c 3f f6 a8 87 3f 7c ed 79 3f d3 3c 82 3f
       0.9882143 1.0598438 0.97628 1.0174812
0000c0 5c cc 82 3f 20 14 82 3f 83 56 78 3f ba d5 86 3f
       1.0218616 1.0162392 0.97007006 1.0533974
0000d0 b2 de 85 3f f8 d4 80 3f ce 99 81 3f 22 6b 79 3f
       1.0458586 1.0064993 1.0125062 0.97429097
0000e0 22 7a 85 3f 82 34 73 3f 76 ce 79 3f 4b 60 7c 3f
       1.0427897 0.95001996 0.9758066 0.9858443
0000f0 ae c5 7f 3f 56 36 7b 3f 7f 5c 78 3f 18 47 80 3f
       0.9991101 0.98129785 0.9701614 1.0021696
000100 8a 1b 82 3f b7 17 82 3f 0f 76 7a 3f ad bc 88 3f
       1.0164654 1.0163487 0.97836393 1.0682579
000110 fe 15 75 3f 28 22 73 3f 03 1d 83 3f 69 14 7c 3f
       0.9573668 0.94973993 1.0243229 0.98468643
000120 c0 8a 7e 3f 72 ea 80 3f 8c 0d 7d 3f 80 3b 86 3f
       0.99430466 1.0071547 0.98848796 1.0486908
000130 d8 42 70 3f 6f ef 82 3f 6a 3e 81 3f 49 77 7d 3f
       0.93851995 1.0229319 1.0097172 0.9901014
000140 4c 41 88 3f c6 83 7b 3f 66 dd 8b 3f 3e a6 84 3f
       1.0644927 0.98247945 1.092694 1.0363233
000150 e9 3b 78 3f 7a 69 79 3f 1d 97 78 3f 90 de 72 3f
       0.96966416 0.9742657 0.9710558 0.94870853
000160 d0 61 82 3f 64 6d 77 3f 62 c7 89 3f 8f 88 72 3f
       1.01861 0.9665129 1.0763972 0.9473962
000170 fb f5 80 3f 54 3c 81 3f 84 75 78 3f 11 bb 7a 3f
       1.0075067 1.0096536 0.97054315 0.9794169
000180 67 92 89 3f 82 bb 7c 3f 00 4d 80 3f 5a 19 86 3f
       1.0747803 0.98723614 1.0023499 1.0476487
000190 2b 02 8d 3f f2 c5 72 3f ea f3 7e 3f 69 e1 75 3f
       1.1016287 0.9483329 0.99590933 0.96047074
0001a0 06 92 77 3f d4 fc 7b 3f 57 67 86 3f 8c 12 81 3f
       0.9670719 0.9843266 1.0500287 1.0083785
0001b0 0b 38 84 3f 0f 82 72 3f 17 ec 83 3f 8d e9 7c 3f
       1.0329603 0.94729704 1.0306424 0.9879387
0001c0 00 84 81 3f 89 c0 75 3f 71 42 7b 3f 6b 81 81 3f
       1.0118408 0.9599691 0.98148257 1.011762
0001d0 d7 67 80 3f d8 e9 77 3f 62 99 78 3f f3 ee 86 3f
       1.003169 0.9684119 0.97109044 1.0541672
0001e0 a9 08 87 3f 9a 72 84 3f c4 a9 7a 3f bc b8 7e 3f
       1.0549518 1.0347474 0.9791529 0.9950063
0001f0 05 39 80 3f 9b b3 81 3f e7 30 8f 3f 4b bb 7c 3f
       1.0017401 1.0132936 1.1186799 0.98723286

net.5.bias f4 [128]
000000 84 58 ca 3c f3 ad 63 bd 5c ee 6c 3d 50 c2 3d bd
       0.02470041 -0.055585813 0.057844505 -0.04632789
000010 f3 d1 a6 bc 94 1f 64 bd af 01 8a 39 4d 38 f2 3c
       -0.020363783 -0.055694178 0.00026322666 0.029567862
000020 58 4d 02 3d 00 db ae bb ff f5 40 3d d5 22 25 bd
       0.031812042 -0.0053361654 0.0471096 -0.04031642
000030 b3 dd cc 3c 2b 42 11 3d af e0 33 bd 9f 0b 11 bd
       0.025008058 0.035463493 -0.043915447 -0.035411473
000040 3c d2 e7 bc 2c bb 00 bd 6b f6 c7 bc 8d 50 84 bd
       -0.02829849 -0.0314285 -0.024409493 -0.06460676
000050 f7 3d 7f 3c 38 d9 ef bc 42 d2 ab bc 42 2d 85 bd
       0.015578738 -0.029278383 -0.020974282 -0.06502773
000060 cd 5f 66 3d 6c d9 b7 bc fa 14 75 bc 7e 98 37 bc
       0.056243706 -0.022442542 -0.0149586145 -0.011205791
000070 0d a6 96 bc c7 ad 3f bc 21 a0 2b bb 26 53 7f 3c
       -0.018389726 -0.011699147 -0.0026187974 0.015583789
000080 68 8a 3c 3d 01 85 87 bd f5 6a 50 3d 78 b8 1d bd
       0.046030432 -0.06617165 0.050883252 -0.038506
000090 bf 35 7e 3d ad 3c 62 3b b8 48 98 3d 19 b6 a8 3c
       0.062062975 0.003452103 0.07435745 0.020594643
0000a0 a2 02 0e 3d f4 00 95 3b 28 6f 6a 3d b6 67 4b bb
       0.03467048 0.0045472328 0.057234913 -0.0031037158
0000b0 cc 40 c1 bb 43 20 8b 3d 92 bb b4 3c 17 0f 80 3d
       -0.005897617 0.06793263 0.022062097 0.06252878
0000c0 79 06 b7 3c 6e 1e 59 3d 90 ef d2 bc b7 94 03 3d
       0.022341954 0.053007536 -0.025748998 0.032124247
0000d0 77 ae 21 3d 21 69 20 3c 56 36 12 bd ba 2e c3 bc
       0.039473023 0.00979069 -0.03569635 -0.023825992
0000e0 4a e9 b3 3c 92 3e 23 bd e9 59 a6 bc a9 ef 0d 3c
       0.021961827 -0.039854594 -0.020306544 0.008663096
0000f0 50 fa 26 3d 23 f7 87 bd ad 52 c1 3b 5b d5 09 bd
       0.04076606 -0.066389345 0.0058997483 -0.033650737
000100 b7 82 b8 ba 24 5d a9 bb dd 49 00 bd ef a6 99 3d
       -0.0014077042 -0.005168574 -0.03132044 0.07502543
000110 59 97 c2 bc 57 e8 24 bd eb 06 18 3d fc dd 6f 3c
       -0.023753809 -0.04026064 0.037115972 0.014640328
000120 81 34 0a 3d b7 1a db bb 0d 14 4c 3b 2b 16 0a 3d
       0.033741478 -0.0066865343 0.003113988 0.033712547
000130 c8 57 87 bc f7 3c c4 bb c7 6a 86 bc 88 f7 df bb
       -0.01652135 -0.005988713 -0.016408337 -0.006834928
000140 ec ce 7c 3d 22 89 c7 3c e3 29 66 3d a6 12 c9 b9
       0.061720774 0.024357382 0.05619229 -0.00038351602
000150 51 75 bc 3b 33 2c 09 bb fa af 49 bd d2 b2 5d bd
       0.00575129 -0.0020930886 -0.04924009 -0.054125614
000160 ca 81 f1 bc 7e 76 54 3c aa ba 21 3d 32 6e 9a bc
       -0.029480834 0.012967704 0.039484657 -0.018851373
000170 8f 20 38 bb 70 29 52 3c 5c b8 b2 bb c4 93 d2 3c
       -0.0028095578 0.012827262 -0.0054541063 0.025705226
000180 1a ed 78 3c 3e 6b 2c 3c 50 a3 a6 bc eb f9 f8 3c
       0.015193248 0.010523615 -0.020341545 0.030392608
000190 b8 be 8c 3d 69 8d 27 bc 95 c8 5b bc aa 70 6c bd
       0.06872314 -0.010226586 -0.013414522 -0.057724632
0001a0 a2 90 0f bd 09 8a 32 bd 16 05 49 3d 2e 65 20 bd
       -0.035050042 -0.04358867 0.049077116 -0.039158992
0001b0 d9 7c 8d 3c 20 0f 1d bd 15 f7 cf 3b 63 27 1b bb
       0.017271446 -0.038344502 0.006346593 -0.00236746
0001c0 00 f1 89 bb be 69 77 bd 84 e7 b1 bc cd 67 d0 bb
       -0.0042096376 -0.060403578 -0.02171684 -0.0063600303
0001d0 00 df 38 3c 7c 8d 0d bc 14 7b 6f bc 3e f2 7e 3c
       0.011283636 -0.00863969 -0.014616746 0.015560685
0001e0 c1 cb 3c 3b 2d 18 46 3d 3a 85 68 bc ca 9b 98 bc
       0.002880797 0.0483629 -0.01419192 -0.018628974
0001f0 06 57 64 39 fb 8b 46 3d 39 7c 48 3d 06 4b 10 bd
       0.00021776193 0.04847334 0.048946593 -0.035227798

net.5.running_mean f4 [128]
000000 6a 33 ee be 23 28 0e bf e6 5c 45 bf 83 a9 bc 3e
       -0.465236 -0.55529994 -0.77094877 0.36848077
000010 06 f8 b6 3d 11 a4 6f bf 00 b2 a7 3d 54 3e 38 3f
       0.089340255 -0.9360972 0.08188248 0.71970105
000020 5a 13 f6 3e c2 a7 57 3e 22 bd 17 bd 4f 9d 9a 3e
       0.4806164 0.21060088 -0.037045605 0.30198142
000030 d6 2a 90 be 64 8b 91 bf bf 90 ae 3e 33 fd ff bd
       -0.2815768 -1.1370664 0.34094808 -0.12499466
000040 9b 0a 9a bd bc a8 df bf ba ab 4b 3e 98 ae 2d bf
       -0.07521554 -1.7473369 0.19889727 -0.67844534
000050 90 e2 ae 3e a3 43 a9 3f 8f 03 1a 3f 24 ee 4d bf
       0.34157228 1.3223766 0.6016168 -0.804415
000060 4e 30 94 be 73 e6 51 3f d3 1e ad 3f e4 6f d3 3e
       -0.28943104 0.8199226 1.3525032 0.41296303
000070 83 8c 17 3f bb 7c f8 3e 1c 62 45 bf 26 dc 14 bf
       0.5919878 0.48532662 -0.7710283 -0.5814842
000080 4b 6a 2e 3c 9a be a4 3e 0a 5e 2e bf ba 50 6e 3f
       0.010645459 0.32176667 -0.6811224 0.9309193
000090 6c 4f 59 bf 9d 29 66 bf 4f 24 10 3f ce 0a 55 3f
       -0.84886813 -0.89907247 0.563054 0.8321961
0000a0 4b 1a 81 bf a0 9b 0f bf 95 5a b4 bf d8 d1 4f 3f
       -1.0086149 -0.5609684 -1.4090143 0.8117957
0000b0 bb 98 3d bf b4 fd 31 bf b4 92 ff be 32 cc fb bd
       -0.74061173 -0.69527745 -0.49916613 -0.122948065
0000c0 48 4d 14 be ca 2c 42 bf 89 27 29 3e 5b 74 c1 3e
       -0.14482605 -0.7584959 0.16518988 0.37784085
0000d0 34 30 67 3e 3f 25 06 bf f8 4a 97 bf c7 9d 1a 3f
       0.22576982 -0.52400583 -1.1819754 0.60397
0000e0 05 a4 05 bf b0 2d eb bd bf fc 8c 3e f2 98 3f bf
       -0.522034 -0.114833236 0.2753658 -0.7484275
0000f0 29 83 1a bf 70 60 5d 3f c4 c2 77 bf ce 73 0c 3f
       -0.60356385 0.86475277 -0.96781564 0.54864204
000100 e5 b6 bc 3e 50 f9 1a 3d d0 dc e7 be 77 19 60 bc
       0.36858287 0.03783542 -0.45285654 -0.013677946
000110 ed 52 67 bf cc 18 f1 3e 8d 22 44 bf 92 64 8e bf
       -0.9036091 0.4708923 -0.7661522 -1.1124442
000120 81 c4 3f bf 60 95 1e bf 5f df 17 be a7 8e b6 bf
       -0.74909216 -0.6194668 -0.14831303 -1.4262284
000130 26 71 81 3e 4c 5b 24 bf 98 da 28 3f 71 9e 89 bf
       0.25281638 -0.6420181 0.6595855 -1.0751477
000140 96 0f c4 bf 15 8f 2c bf 5a 43 99 bf 94 f2 6b bf
       -1.5317256 -0.67405826 -1.1973679 -0.9216702
000150 39 9b c8 be 79 f2 7f be ae b4 a1 3d f7 14 99 3e
       -0.39180925 -0.2499484 0.0789579 0.29898807
000160 c1 a4 df 3e 6c 4f 08 bf c8 6d fa 3e c8 b4 42 3d
       0.43680385 -0.5324619 0.4891188 0.047535688
000170 cf 31 43 bf cd 98 9e bf 07 28 0a bd ad d8 63 bf
       -0.76247877 -1.2390381 -0.03372958 -0.89002496
000180 dc f6 5f 3e d9 83 35 be 34 99 5a 3f 84 54 ec bf
       0.21871513 -0.17726077 0.8539002 -1.8463292
000190 90 97 23 3d 00 04 8e be 80 dc 72 bf 03 d9 34 3f
       0.039939463 -0.27737427 -0.94867706 0.70643634
0001a0 5b 50 51 be 9d af 84 3e 43 ac 84 bf cf 61 89 3f
       -0.2044081 0.25915232 -1.036507 1.0732974
0001b0 f3 d6 4b 3e 5c 95 96 bf 4b 4f 40 3e c8 c2 dc 3b
       0.19906215 -1.1764331 0.18780248 0.006737087
0001c0 44 49 8c be 62 f5 62 3f 66 b9 fa 3d 16 8b eb be
       -0.27399647 0.88655674 0.12242393 -0.46004552
0001d0 e2 87 43 be 8f b3 22 bf 3c 27 61 be de f3 85 3e
       -0.19094804 -0.63555235 -0.21987623 0.26162618
0001e0 ee e7 68 3f f3 c9 84 bf eb e2 04 bf c5 a2 8f bf
       0.90978897 -1.037413 -0.5190875 -1.1221548
0001f0 30 93 79 be 19 d7 af 3d 18 d7 bb 3e 67 fd 18 3f
       -0.24372554 0.085859485 0.3668754 0.5976166

net.5.running_var f4 [128]
000000 80 77 a6 3f 59 db 50 3f f2 23 94 40 54 b9 eb 3f
       1.3005219 0.815847 4.629388 1.8415933
000010 0f 6d 18 40 8e 69 d6 3f 92 01 0b 40 92 d5 87 3f
       2.3816564 1.6750963 2.1719708 1.0612051
000020 d2 69 05 40 6b 62 c4 3f 12 10 42 3f 4f 75 e6 3f
       2.0845838 1.5342535 0.7580577 1.800455
000030 0f ff 33 3f 89 d6 48 40 70 c9 0d 40 91 97 99 3f
       0.70311064 3.1380942 2.2154198 1.1999379
000040 2b 12 0a 40 d5 f1 0d 40 1b d6 61 3f d4 06 dd 3f
       2.157359 2.2178853 0.88217324 1.7267709
000050 6c 12 7a 3f 04 96 15 40 2c 2d ea 3f d5 11 ac 3f
       0.9768436 2.3372812 1.8295035 1.3442942
000060 55 41 a9 3f 2a 1f 16 40 9d ff d0 3f 64 2e a5 3f
       1.3223063 2.345652 1.6328007 1.2904782
000070 4c 96 c0 3f 96 07 93 3f c7 b4 30 3f 98 53 8f 3f
       1.5045867 1.148669 0.69025844 1.1197386
000080 1f 28 7f 3f bb d2 80 3f 82 19 87 3f f2 d3 f9 3f
       0.99670595 1.006431 1.0554659 1.9517806
000090 bc 36 d6 3f 1f 47 8b 3f 91 1c d6 3f 8c f4 65 3f
       1.6735454 1.088108 1.6727468 0.89826274
0000a0 b4 31 ab 3f c8 b7 2a 3f b6 50 58 40 00 b8 f1 3f
       1.3374543 0.6668668 3.3799262 1.8884277
0000b0 5c 38 ab 3f f7 e2 d0 3f f1 b2 66 3f 71 aa 6d 3f
       1.3376575 1.6319264 0.9011679 0.928382
0000c0 87 38 71 3f 89 ef 1a 40 b9 44 4f 40 a1 b3 8f 3f
       0.9422688 2.42087 3.2385695 1.1226693
0000d0 f8 42 da 3f 4e 16 93 3f 36 d7 b8 3f db 05 00 40
       1.7051687 1.1491182 1.4440677 2.0003574
0000e0 39 e8 ec 3f 1a c3 bf 3f 57 08 e1 3f 90 41 78 3f
       1.8508369 1.4981415 1.758067 0.9697504
0000f0 53 58 38 3f be a1 e2 3f 89 4a d1 3f b0 69 d8 3f
       0.7200977 1.770561 1.6350871 1.6907253
000100 92 e1 a7 3f f5 c4 cd 3f 6a 26 3a 3f a3 9c 97 3f
       1.3115714 1.6075732 0.72714865 1.1844677
000110 9d c9 fd 3f cd e8 ab 3f 45 61 8c 3f 23 b1 71 3f
       1.9827152 1.343042 1.0967184 0.94410914
000120 15 e8 66 40 8c a7 7d 3f db 07 39 3f 7e 19 eb 3f
       3.6079152 0.9908378 0.7227761 1.8367155
000130 0c 9e 81 3f f5 1c 7a 3f 94 7b b4 3f 30 3a 02 40
       1.0126357 0.97700435 1.4100213 2.0348015
000140 a6 57 17 40 3f 7f 95 3f c7 9f f4 3f 9a 52 9b 3f
       2.3647246 1.1679457 1.911126 1.2134583
000150 74 96 1b 40 1f 2b c8 3f 6d a7 69 3f 39 1c 62 3f
       2.431058 1.563816 0.91271096 0.88324314
000160 fc 3c a7 3f 26 43 d8 3f 06 66 fd 3f e0 d8 1a 3f
       1.3065486 1.6895492 1.979676 0.60487175
000170 08 98 dd 3f d3 22 a9 3f 99 a1 4c 3f fc 80 32 40
       1.7312021 1.3213753 0.7993408 2.7891226
000180 94 ef b5 3f 0d 81 20 40 02 64 72 3f 45 af 1c 40
       1.4213738 2.5078766 0.9468385 2.4481976
000190 1b 07 bd 3f 70 66 7e 3f e6 8d b0 3f 70 76 d8 3f
       1.4767793 0.9937506 1.3793304 1.6911144
0001a0 f9 0d 7f 3f b1 18 c5 3f 1e cb dc 3f 94 86 c8 3f
       0.99630696 1.539816 1.7249486 1.566607
0001b0 45 c9 2c 40 0a 04 1a 40 04 6b 79 3f 4c c3 ed 3f
       2.6997845 2.4064965 0.9742892 1.8575225
0001c0 62 2f a7 3f fa 44 a7 3f 6c c9 57 3f 63 dd 97 3f
       1.3061335 1.3067925 0.8429172 1.1864437
0001d0 ca 4c 8a 3f 84 17 76 3f fa 44 71 3f ea b0 94 3f
       1.0804684 0.9612963 0.94245875 1.161649
0001e0 92 d5 d3 3f bb f2 9c 3f 5a 33 33 3f 7f e0 fd 3f
       1.6549551 1.2261575 0.7000023 1.9834136
0001f0 a8 d9 59 3f 38 fb cb 3f ea 59 b1 3f 6c 40 43 3f
       0.8509774 1.5936041 1.3855565 0.76270175
