E2NN/Trained_models_h128_s20_20250726_160242/vanillarnn_model.pth (torch, 577266 bytes, 18 tensors)

input_net.0.weight f4 [128, 9]
0	0xbf3ac86f	-0.7296209
1	0xbe041060	-0.12896872
2	0xbe9dce74	-0.30821574
3	0xbdb07ea7	-0.08617907
4	0x3d58a940	0.052895784
5	0x3eda0e03	0.42588815
6	0xbece0b0b	-0.402428
7	0x3ec5b5ac	0.38615167
8	0x3e080dd6	0.13286528
9	0x3f7b307f	0.98120874
10	0xbf33c90d	-0.70228654
11	0xbee7b4cb	-0.45255122
12	0xbedde511	-0.43338826
13	0x3ebbe508	0.36698174
14	0xbeca5a98	-0.39522243
15	0xbf01d6e7	-0.5071854
16	0xbe2f47b9	-0.17117204
17	0x3dfbdba3	0.12297752
18	0xbee6b641	-0.45060924
19	0xbd9f6a1f	-0.07783913
20	0xbcb3275e	-0.021869358
21	0xbea530cd	-0.32263795
22	0x3e30391c	0.17209285
23	0xbf0baaa4	-0.5455725
24	0xbf3884ef	-0.7207784
25	0x3b974151	0.0046159406
26	0xbe97e4af	-0.2966666
27	0x3c14de1f	0.009086161
28	0x3e84764d	0.25871506
29	0xbdeac91c	-0.1146414
30	0x3ecb66a5	0.3972675
31	0xbd89106d	-0.06692586
32	0xbc2e38a4	-0.010633621
33	0xbca01296	-0.019540112
34	0x3d6f20a8	0.058380753
35	0xbef5e8c1	-0.4802914
36	0x3eb1b15a	0.3470562
37	0x3ea49b19	0.3214958
38	0xbf4e9087	-0.8068928
39	0xbf4fe668	-0.8121095
40	0xbf2d0fa7	-0.6760201
41	0xbd9fb07f	-0.07797336
42	0xbf7025df	-0.93807787
43	0xbf829396	-1.020129
44	0x3e4acd25	0.19804819
45	0xbe235753	-0.1595128
46	0x3db6d102	0.08926584
47	0x3f343f75	0.7040933
48	0x3e399d74	0.1812647
49	0xbf1661de	-0.58743083
50	0xbeb8cd56	-0.3609416
51	0x3e92368c	0.2855724
52	0xbf3683c8	-0.7129483
53	0xbe5cb3f9	-0.21553029
54	0x3f123e49	0.5712629
55	0xbf861f44	-1.0478292
56	0x3f04aa01	0.51821905
57	0x3e19ab1b	0.15006678
58	0xbe0b8e68	-0.13628542
59	0xbc51f552	-0.012814837
60	0xbe6a173d	-0.22860427
61	0x3f0f9682	0.5608903
62	0xbe5830df	-0.21112393
63	0xbe39ef1f	-0.18157624
64	0x3ca0249d	0.019548709
65	0xbf0ef446	-0.5584148
66	0xbe04fcee	-0.1298711
67	0x3e85e82e	0.26153702
68	0xbec2a9b1	-0.3802009
69	0x3e880349	0.26565006
70	0xbdd816d7	-0.10551231
71	0x3e27e06c	0.16394204
72	0x3e2b5f3c	0.16735548
73	0x3e1e029e	0.15430686
74	0xbe20fc09	-0.15721144
75	0x3c7d87f4	0.015474308
76	0x3e5a7941	0.21335317
77	0xbe681266	-0.22663268
78	0x3f144341	0.5791512
79	0x3e1cc8c3	0.1531096
80	0xbf4f340c	-0.8093879
81	0xbf12663f	-0.57187265
82	0xbf463328	-0.7742181
83	0x3a2e41a7	0.0006647356
84	0xbde6ed26	-0.11275701
85	0xbe0c1004	-0.13677984
86	0xbc313c17	-0.010817549
87	0xbe819ed4	-0.2531649
88	0x3f256d74	0.6462014
89	0xbe240e08	-0.16020977
90	0x3e64db9d	0.22349401
91	0x3ef62028	0.48071408
92	0xbe43441d	-0.19068952
93	0xbeaf5eef	-0.34252116
94	0x3e18739e	0.14887854
95	0x3c83637e	0.016038653
96	0x3e7df610	0.24800897
97	0x3ea50327	0.32228968
98	0x3ca5ff85	0.020263443
99	0x3cfa6c94	0.030569352
100	0xbe7ce74c	-0.24697608
101	0x3e64bb87	0.22337161
102	0xbecb3765	-0.396907
103	0x3ea50d03	0.3223649
104	0xbf0f687e	-0.5601882
105	0x3f05653c	0.52107596
106	0x3d9b06a8	0.07569629
107	0x3f57a1b8	0.8423114
108	0xbdc2dd8f	-0.09514915
109	0x3daa6a03	0.083210014
110	0xbe509daf	-0.20372652
111	0x3ee3199f	0.44355485
112	0xbe4282f7	-0.18995272
113	0xbf6c1afd	-0.9222868
114	0x3e82ab79	0.25521448
115	0x3eb13741	0.34612468
116	0xbef7c78d	-0.48394433
117	0x3d9dc6b9	0.07703919
118	0xbe8f931f	-0.28041932
119	0xbc83587a	-0.0160334
120	0x3c15ff22	0.009155067
121	0xbf48f18d	-0.7849358
122	0x3ebce958	0.36896777
123	0x3eb885fa	0.36039716
124	0x3f93d63f	1.1549758
125	0xbc094b30	-0.0083797425
126	0x3e517fd2	0.20458916
127	0x3eb65e3b	0.35618767
128	0x3dc87739	0.09788365
129	0x3d1ecd17	0.038769808
130	0x3e37f8a9	0.1796595
131	0x3e229eb8	0.15880859
132	0x3d85aecb	0.0652748
133	0x3e6e5cfd	0.2327766
134	0x3f195d01	0.5990754
135	0x3e875b90	0.26437044
136	0x3d603d04	0.05474569
137	0xbe30903d	-0.17242523
138	0x3f2cbab7	0.67472404
139	0xbf458ac3	-0.7716486
140	0xbe8ff6aa	-0.28117877
141	0x3dbd371d	0.09239028
142	0x3f338cbd	0.70136625
143	0xbec9674c	-0.39336622
144	0x3ec97425	0.39346424
145	0x3e95ce56	0.29258984
146	0xbf08298f	-0.53188413
147	0xbf2babfb	-0.67059296
148	0x3e9e2f32	0.30895382
149	0x3e9cba58	0.3061092
150	0x3f8079c5	1.0037161
151	0x3e7ca462	0.24672082
152	0x3e9c5e74	0.30540812
153	0x3ed75dd6	0.4206378
154	0xbf0a5b61	-0.54045683
155	0xbe067d90	-0.13133836
156	0x3ee087bd	0.4385356
157	0xbdb7d076	-0.08975308
158	0xbddd4918	-0.10804957
159	0xbc99d1db	-0.018776825
160	0xbf37fe4c	-0.718724
161	0xbe70fbf5	-0.23533614
162	0xbe930cdb	-0.28720745
163	0x3e1b7a77	0.15183435
164	0xbf0b1a5d	-0.543371
165	0x3f0c379b	0.5477235
166	0x3f2f0537	0.6836733
167	0x3d3720ea	0.044709124
168	0x3ec551dc	0.38539016
169	0xbe785656	-0.24251685
170	0x3e929f9b	0.28637394
171	0x3ee8139f	0.4532747
172	0xbec1e264	-0.37868035
173	0xbe91c0db	-0.2846745
174	0xbdbba4b7	-0.09162276
175	0x3f120b15	0.5704816
176	0xbcb706ea	-0.022342164
177	0xbf328442	-0.6973306
178	0x3f01178a	0.5042654
179	0xbe5350d4	-0.20636302
180	0x3ed9d216	0.42543095
181	0xbe5aa485	-0.21351822
182	0x3d5cfb05	0.05395033
183	0xbe152198	-0.14563596
184	0x3f438402	0.763733
185	0x3f3f2310	0.74662876
186	0xbdec7cb8	-0.11547226
187	0xbdd9441f	-0.10608696
188	0xbd8a040c	-0.06739053
189	0xbe3307cc	-0.17483443
190	0xbf0ce16b	-0.5503146
191	0xbdf8c748	-0.12147385
192	0xbeb5819c	-0.35450447
193	0x3f22ee0f	0.636445
194	0xbe275eeb	-0.16344802
195	0x3e2f11c8	0.17096627
196	0xbf921c8d	-1.1414963
197	0x3eaae81b	0.33380207
198	0x3eb6702d	0.35632458
199	0x3b37e1c7	0.0028058158
200	0xbf3cd911	-0.7376872
201	0xbd7f6400	-0.062351227
202	0xbe14e12a	-0.14539018
203	0x3e33cf6a	0.17559591
204	0xbf4001d5	-0.75002795
205	0x3e506c59	0.20353831
206	0x3e83ca88	0.25740457
207	0xbf03c8df	-0.5147838
208	0xbf27c15d	-0.65529424
209	0xbdd04a9b	-0.1017048
210	0xbf0d14e3	-0.55109996
211	0xbf116e90	-0.5680933
212	0xbeedaac7	-0.46419355
213	0x3e94efd9	0.2908924
214	0xbd909cde	-0.0706117
215	0xbeaf319f	-0.34217545
216	0x3f08c1da	0.53420794
217	0x3f27eec4	0.655987
218	0xbe5079b3	-0.20358925
219	0x3e827d58	0.25486255
220	0xbdea7ce5	-0.11449603
221	0x3e7ce261	0.24695732
222	0x3eff2b88	0.498379
223	0x3e13e1b1	0.14441563
224	0xbe17b982	-0.1481686
225	0xbf0b98fe	-0.5453032
226	0xbec01012	-0.3751226
227	0xbdbea7d5	-0.09309355
228	0x3e768a70	0.24076247
229	0x3f00bd39	0.5028873
230	0x3e02ddbd	0.12779899
231	0xbf56593b	-0.83729905
232	0x3ec857bd	0.3912944
233	0x3dc5abac	0.096518844
234	0xbdae2302	-0.08502771
235	0xbf302e27	-0.6882042
236	0xbe855e47	-0.2604849
237	0xbea22628	-0.31669736
238	0xbf0b6167	-0.544455
239	0xbed774fb	-0.42081437
240	0x3e0a8abf	0.1352949
241	0x3e621d6c	0.22081536
242	0xbfa82f77	-1.3139485
243	0x3f9925f9	1.1964713
244	0xbd4229d5	-0.047403175
245	0xbfcbb4c3	-1.5914539
246	0xbf5a41d8	-0.8525672
247	0xbf2ddc6d	-0.6791447
248	0x3f4032f2	0.75077736
249	0xbd939d2d	-0.07207713
250	0x3d91f0de	0.0712602
251	0xbe8c5f72	-0.2741657
252	0x3e56a065	0.20959623
253	0xbebb6abb	-0.36604866
254	0x3d708e02	0.05872918
255	0x3f043e36	0.51657426

input_net.0.bias f4 [128]
0	0xba5bee67	-0.0008389712
1	0x3b6c7be4	0.0036084587
2	0x3b0686fc	0.0020527234
3	0x3a21e3a3	0.0006175583
4	0xb9aac645	-0.0003257265
5	0xb9219de5	-0.00015412977
6	0xba19139c	-0.0005839409
7	0xbaae775e	-0.0013310721
8	0xbae6738d	-0.0017582044
9	0xbaa1c5f9	-0.0012342326
10	0x3589545b	1.0231846e-06
11	0xb92f3af3	-0.00016711261
12	0xba0e77af	-0.00054347044
13	0xb91fb40c	-0.00015230494
14	0xbaae978b	-0.001332031
15	0xbac966c8	-0.0015365714
16	0x3a87fcab	0.0010374984
17	0xb9643449	-0.00021763252
18	0x3ab679fb	0.0013921851
19	0x39ec2418	0.0004504032
20	0xba699d5f	-0.0008911695
21	0xb9821a3b	-0.00024815075
22	0xb968d9d0	-0.00022206386
23	0xbab8c5ee	-0.0014097074
24	0x3b93976c	0.004504135
25	0x369d94a6	4.6962696e-06
26	0x37bf6fd6	2.2821052e-05
27	0x3b09e55a	0.0021041245
28	0x3aeb7397	0.0017963526
29	0x3a46adfb	0.00075790257
30	0x3b4f7845	0.003165738
31	0xbac45765	-0.0014979659
32	0xba450805	-0.00075161486
33	0xba5966bc	-0.00082932017
34	0xbc14e0f8	-0.00908684
35	0x3a762f26	0.0009391181
36	0xbb8a19e0	-0.0042145103
37	0x3b87b7f3	0.0041418015
38	0xba88397d	-0.0010393109
39	0x3af8dd1e	0.0018986796
40	0x3b4aa004	0.003091813
41	0x38dbdaff	0.00010483525
42	0x3a581cab	0.0008244018
43	0xb9e5af9c	-0.00043809123
44	0xb788b0e8	-1.6294842e-05
45	0xba784573	-0.0009470798
46	0xbb075d4a	-0.002065497
47	0x3ab56321	0.0013838747
48	0xb910ba84	-0.00013802393
49	0x39d56a56	0.00040705752
50	0xbb187d71	-0.0023268128
51	0x3adc30b2	0.001679918
52	0xba54324f	-0.0008094655
53	0xb9af1777	-0.00033396084
54	0x3a2d6487	0.0006614406
55	0xbab55d4d	-0.001383701
56	0xb9b121aa	-0.00033785152
57	0xba0c86a1	-0.00053606374
58	0xbac9ce96	-0.001539665
59	0x391a5960	0.00014719879
60	0xb92be2f4	-0.00016392377
61	0x3a1dacc3	0.0006014818
62	0xb99c7fc1	-0.00029849823
63	0xba40fb93	-0.0007361706
64	0x3b09a3c0	0.0021002144
65	0xba302838	-0.000671986
66	0x3af011b5	0.0018315824
67	0xba15740d	-0.0005701192
68	0xbb2b7de0	-0.0026167557
69	0xba82b02d	-0.0009970717
70	0xba983f74	-0.001161559
71	0xba2368b7	-0.000623356
72	0xbaa584bf	-0.0012628062
73	0xb90c995d	-0.00013408573
74	0x3adc0cb9	0.001678846
75	0xbb87026e	-0.0041201627
76	0xb91aba28	-0.00014755933
77	0xb9fd06d0	-0.00048260996
78	0x3a6359fd	0.0008672772
79	0xb941c8c1	-0.00018480701
80	0x3aba6dcc	0.0014223396
81	0x3a3fa562	0.0007310716
82	0xbaeac980	-0.0017912835
83	0x3a2011e8	0.0006106184
84	0x39b701a0	0.0003490569
85	0x39584fdc	0.00020629115
86	0x390db429	0.00013513923
87	0xba8c247c	-0.0010692026
88	0x3a8c0297	0.0010681924
89	0xb69a9550	-4.60694e-06
90	0xb9f560c9	-0.00046802152
91	0x3a3a8ab1	0.00071160035
92	0xb856c994	-5.120931e-05
93	0xbac77310	-0.0015216786
94	0xb8dedd15	-0.00010626965
95	0x39dd2ca5	0.00042185668
96	0xbaa369ba	-0.0012467422
97	0x3a6d0f20	0.00090430863
98	0x3a423404	0.00074082636
99	0xbad1af6c	-0.0015997714
100	0xbaa13e80	-0.0012301952
101	0xb9ffca6d	-0.0004878821
102	0xb97cc050	-0.00024104235
103	0x3a85e44e	0.0010215135
104	0xb8bc57e3	-8.980909e-05
105	0x3acf20ab	0.0015802582
106	0x3a504a1d	0.0007945614
107	0xba86c738	-0.001028276
108	0x3a9d7ba0	0.0012014993
109	0xba790645	-0.00094995304
110	0x3a972d35	0.0011533858
111	0xbaa2af41	-0.0012411849
112	0x3a9130b1	0.0011077133
113	0x3ad3ee08	0.0016168961
114	0xba840611	-0.0010072609
115	0x3ac9bcec	0.0015391386
116	0xbab9c8d7	-0.0014174235
117	0x3984a768	0.0002530173
118	0xbaa19d4c	-0.0012330203
119	0x3985da8e	0.00025530573
120	0x3a0e3797	0.00054251536
121	0xb988ae21	-0.00026069678
122	0xbb0ef0c7	-0.0021810995
123	0xba6d54ea	-0.00090534857
124	0x38e714b0	0.00011018792
125	0x384344be	4.6555644e-05
126	0xb9b695cd	-0.00034825355
127	0xbafd4d40	-0.001932539

input_net.1.weight f4 [128]
0	0x3f7d7754	0.99010205
1	0x3f80f83f	1.0075759
2	0x3f7efa5d	0.99600774
3	0x3f8075dc	1.0035968
4	0x3f802358	1.0010786
5	0x3f7f35c7	0.9969143
6	0x3f7d1ba5	0.9887031
7	0x3f7a7fb3	0.97851104
8	0x3f7d8e89	0.99045616
9	0x3f800125	1.0000349
10	0x3f7d6f69	0.98998123
11	0x3f7d8bcd	0.99041444
12	0x3f814ef3	1.0102218
13	0x3f79bd61	0.97554594
14	0x3f80df82	1.0068209
15	0x3f7c359b	0.98519295
16	0x3f7cc58e	0.98738945
17	0x3f7d9ad6	0.99064386
18	0x3f7a280d	0.9771736
19	0x3f7b1e15	0.98092777
20	0x3f81223a	1.008857
21	0x3f8075bb	1.0035928
22	0x3f7fb90f	0.9989175
23	0x3f8045b5	1.0021273
24	0x3f7b5e01	0.98190314
25	0x3f7caf85	0.9870532
26	0x3f79a7ac	0.9752147
27	0x3f7c9984	0.98671746
28	0x3f7caf52	0.9870502
29	0x3f7bdb9f	0.9838199
30	0x3f7eb162	0.99489415
31	0x3f8144fc	1.0099177
32	0x3f80a117	1.0049161
33	0x3f7d10dd	0.98853856
34	0x3f7c8aa6	0.9864906
35	0x3f7bd555	0.98372394
36	0x3f7dafbc	0.99096274
37	0x3f82feea	1.0234044
38	0x3f7caa69	0.98697525
39	0x3f7a48c7	0.977673
40	0x3f804343	1.0020527
41	0x3f780f13	0.96898
42	0x3f7b6da6	0.98214185
43	0x3f7efbe9	0.99603134
44	0x3f7d928d	0.99051744
45	0x3f7f0f5a	0.996328
46	0x3f801eee	1.0009439
47	0x3f8161bb	1.010795
48	0x3f7be041	0.9838906
49	0x3f7fcf29	0.99925476
50	0x3f824ea9	1.0180255
51	0x3f80810f	1.0039386
52	0x3f7db28b	0.9910056
53	0x3f7fcb4e	0.99919593
54	0x3f79e8e3	0.9762098
55	0x3f7f79ca	0.9979521
56	0x3f7c56b3	0.9856979
57	0x3f7be374	0.9839394
58	0x3f818066	1.0117309
59	0x3f7ab6e1	0.979353
60	0x3f7eb02e	0.9948758
61	0x3f7e1ecf	0.9926576
62	0x3f7c45b7	0.98543876
63	0x3f7dfbcf	0.99212354
64	0x3f79a305	0.97514373
65	0x3f80d430	1.0064754
66	0x3f81a86d	1.0129524
67	0x3f78c881	0.97180945
68	0x3f7bac04	0.9830935
69	0x3f7d6582	0.98983014
70	0x3f7c22b9	0.9849048
71	0x3f79f768	0.97643137
72	0x3f7beb8d	0.98406297
73	0x3f7b3d4b	0.981404
74	0x3f7ead06	0.9948276
75	0x3f81674d	1.010965
76	0x3f77cd98	0.96798086
77	0x3f7e2a05	0.99282867
78	0x3f7d67c3	0.9898645
79	0x3f7a870c	0.97862315
80	0x3f82c1d4	1.0215402
81	0x3f7d8b1a	0.9904038
82	0x3f823a6d	1.017408
83	0x3f81d1e0	1.0142174
84	0x3f802871	1.0012342
85	0x3f7a21f9	0.9770809
86	0x3f7e93d0	0.99444294
87	0x3f7ca81a	0.98694
88	0x3f7f1b72	0.99651253
89	0x3f7f6696	0.9976591
90	0x3f7c9b11	0.9867411
91	0x3f7d3460	0.9890804
92	0x3f805675	1.0026385
93	0x3f7be879	0.984016
94	0x3f7f2869	0.99671036
95	0x3f802919	1.0012542
96	0x3f7d8237	0.9902682
97	0x3f7feeee	0.9997395
98	0x3f7df9ba	0.9920918
99	0x3f7c7787	0.98619884
100	0x3f7b7a3d	0.98233396
101	0x3f806d46	1.0033348
102	0x3f7cf0fd	0.9880522
103	0x3f7f62fb	0.9976041
104	0x3f78193a	0.9691349
105	0x3f7dc1d7	0.991239
106	0x3f8165e2	1.0109217
107	0x3f7a105f	0.9768123
108	0x3f7e8f95	0.9943784
109	0x3f7c1bf2	0.9848014
110	0x3f801e85	1.0009314
111	0x3f7f0963	0.996237
112	0x3f7a0cfa	0.9767605
113	0x3f802b40	1.0013199
114	0x3f80420a	1.0020154
115	0x3f7aa630	0.9790983
116	0x3f7b9394	0.9827206
117	0x3f7c5b55	0.9857686
118	0x3f7ecc24	0.99530244
119	0x3f7c02b5	0.9844163
120	0x3f789a32	0.97110283
121	0x3f83d436	1.0299137
122	0x3f7e5275	0.9934457
123	0x3f7c4b12	0.9855205
124	0x3f7e724c	0.99393153
125	0x3f7ced6c	0.9879978
126	0x3f7c7bef	0.9862661
127	0x3f793913	0.97352713

input_net.1.bias f4 [128]
0	0xbc73154a	-0.014836619
1	0x3d25d98a	0.040490665
2	0xbd0b87f4	-0.034065202
3	0xbbc92848	-0.006138835
4	0xbbe39e23	-0.0069463416
5	0x3b0c8cfc	0.0021446338
6	0xbcea4cd6	-0.028601091
7	0x3c1bdc7d	0.009513018
8	0xb946407e	-0.00018906777
9	0xbc843574	-0.01613877
10	0xbc79d0e8	-0.015247561
11	0x3bd0f155	0.0063764253
12	0x3c39e9c3	0.011347237
13	0xbcb2557b	-0.021769276
14	0xbc01e09e	-0.007927088
15	0xbc3b44a9	-0.011429944
16	0xbc96c696	-0.01840524
17	0xbbf44999	-0.0074550626
18	0xbcc9f5c9	-0.024653332
19	0xbc5d7305	-0.013516192
20	0x3c87208b	0.01649501
21	0xbca58f62	-0.020209972
22	0xbb8c7f43	-0.0042876317
23	0x3a61999f	0.000860596
24	0xbc8a7faa	-0.016906578
25	0x3cd479c9	0.025936978
26	0xbac80f08	-0.0015263269
27	0x3c605f40	0.013694584
28	0xbcad1f15	-0.021132985
29	0x3c36fbeb	0.01116846
30	0xbc05a070	-0.008155927
31	0xbc5d5d91	-0.0135110775
32	0xbcfb66da	-0.030688692
33	0xbc79983d	-0.01523405
34	0xbb738c27	-0.0037162395
35	0xbca84863	-0.02054233
36	0xbce28a2a	-0.027653772
37	0x3c9c74a6	0.019098591
38	0xbbcbd5d1	-0.0062205573
39	0x39bf3418	0.00036469172
40	0xbc41acce	-0.011820985
41	0xbc9f0a10	-0.019413978
42	0xbbb47492	-0.0055070603
43	0xbbec1328	-0.007204432
44	0xbc92e7d1	-0.017932804
45	0xbc37f0ee	-0.011226876
46	0xbca47d94	-0.020079412
47	0x3cc817b1	0.02442536
48	0xbc294116	-0.010330459
49	0x3c139fab	0.009010236
50	0x3bc349eb	0.0059597394
51	0xbc83f4a7	-0.01610787
52	0xbbd466e3	-0.0064819916
53	0xb9b0b31a	-0.00033702777
54	0xbc8d6615	-0.01726059
55	0xbba4190c	-0.0050078686
56	0xbcb59270	-0.022164553
57	0xbbe9eb55	-0.0071386495
58	0x39e58d24	0.00043783442
59	0xbc4f1444	-0.012639109
60	0xbc3d503b	-0.011554773
61	0xbcbea65d	-0.023272688
62	0xbd052620	-0.032507062
63	0xbc9e0879	-0.01929115
64	0xbd167b7b	-0.036738854
65	0x3cc587d6	0.024112623
66	0x3c9efbde	0.019407209
67	0xbc827854	-0.015926518
68	0xbc8990e4	-0.016792722
69	0xbbdcd3a9	-0.006739099
70	0xbcc00512	-0.023439918
71	0xbcdc4aa7	-0.026891066
72	0xbce1602a	-0.027511675
73	0xbcff5626	-0.031169008
74	0xbc907d00	-0.01763773
75	0x3c9926c0	0.018695235
76	0xbcd3c706	-0.025851738
77	0x3c7f9f55	0.015601953
78	0x3c2d5edc	0.010581698
79	0xbc9d8de8	-0.019232705
80	0x3c64880a	0.01394845
81	0xbced9f45	-0.02900661
82	0x3c67dc64	0.014151666
83	0xbc5cd29b	-0.013477947
84	0x3c2b6f09	0.010463485
85	0xbc4f7d81	-0.0126642
86	0xbc0f69ae	-0.008753223
87	0xbc3adc6f	-0.0114050945
88	0xbc4bacad	-0.012431306
89	0xbc31e8fe	-0.010858772
90	0xbbad38a8	-0.005286295
91	0xbc1ba71b	-0.00950029
92	0xbb38947a	-0.002816467
93	0xbba3099f	-0.004975512
94	0xbc0b6763	-0.008508536
95	0xbc6386ae	-0.013887091
96	0x3c023214	0.00794651
97	0xbbc8b2db	-0.006124837
98	0xbca7d2b6	-0.020486217
99	0x3b28bce2	0.0025747349
100	0xbab199ca	-0.0013549861
101	0x3cb41884	0.021984346
102	0xbbdc407a	-0.0067215534
103	0xbc554700	-0.013017416
104	0xbc6f34d6	-0.014599999
105	0x3be015a1	0.006838516
106	0xbc373fd7	-0.011184654
107	0xbcf874ed	-0.030329192
108	0x3be1993a	0.006884721
109	0xbb232f40	-0.002489999
110	0x3b8137da	0.0039434256
111	0xbc494329	-0.012284079
112	0xbb9eead9	-0.0048497734
113	0x3ad53e76	0.0016269225
114	0xbcb9fa4c	-0.022702359
115	0xbd19786e	-0.037468366
116	0xbccefee9	-0.025268035
117	0xbca206ce	-0.019778635
118	0x3c8ecc1a	0.017431308
119	0xbc4f3acf	-0.012648298
120	0xbc93f6c1	-0.018061997
121	0x3ce0d8af	0.027447073
122	0xbace3374	-0.0015731887
123	0xbcddcbc2	-0.027074698
124	0xbc595ef5	-0.013267268
125	0xbc917919	-0.01775794
126	0x3c5dc3e2	0.013535472
127	0xbd0716bc	-0.032980666

input_net.1.running_mean f4 [128]
0	0xbfaf8323	-1.3711895
1	0xbee0d7f4	-0.4391476
2	0xbf3f3f4d	-0.74705964
3	0x3ec24cb6	0.3794915
4	0x3d024e3c	0.03181289
5	0x3f4a029e	0.78910244
6	0xbf05a5a6	-0.52205884
7	0xbeec9748	-0.46209168
8	0x3f19af26	0.6003288
9	0xbfd9e4d1	-1.7022954
10	0x3f34bf94	0.70604825
11	0xbe1b04b3	-0.15138511
12	0x3e0da82c	0.13833684
13	0xbe8d06d2	-0.27544266
14	0x3f0e68a1	0.556284
15	0x3ec1491a	0.37751085
16	0x3f102978	0.56313276
17	0xbe2c7da7	-0.16844808
18	0xbec8dd3c	-0.39231288
19	0xbf12f67f	-0.57407373
20	0x3c5e7d40	0.013579667
21	0xbf61332c	-0.8796871
22	0xbef9b571	-0.4877124
23	0xbf94e7b8	-1.1633215
24	0x3fb72853	1.4309181
25	0xbfc1b32e	-1.5132806
26	0xbf462f11	-0.7741557
27	0x3d45b8c0	0.048271894
28	0xbe1757f9	-0.14779653
29	0xbee04cfc	-0.43808734
30	0xbda78db6	-0.08181326
31	0x3fac88e9	1.3479282
32	0x3ee9a565	0.45634
33	0x3d4c072a	0.04981152
34	0x3fbf0cad	1.4925743
35	0xbf99938d	-1.1998154
36	0xbe92b98a	-0.2865718
37	0xbfc61f6d	-1.547834
38	0x3f23867f	0.638771
39	0xbf3b594f	-0.7318315
40	0x3f62b5d6	0.8855871
41	0x3ef85502	0.48502356
42	0xbfc023b3	-1.5010895
43	0x3f6f9df6	0.93600404
44	0x3d8e45b6	0.0694689
45	0x3f2037f6	0.6258539
46	0x3f844102	1.0332339
47	0xbf0e65ef	-0.5562429
48	0xbea0bcaa	-0.3139394
49	0xbf70fcbf	-0.9413566
50	0x3fed3e13	1.8534569
51	0xbead2d84	-0.33823788
52	0x3e6beba9	0.23039116
53	0xbebbbb83	-0.36666498
54	0xbedab3fa	-0.42715436
55	0x3f8baf4d	1.0912873
56	0xbfefcd89	-1.8734599
57	0xbf85a325	-1.0440413
58	0xbfdbbf34	-1.7167726
59	0x3f8e2bc2	1.1107104
60	0x3fa4f9a1	1.2888681
61	0xbed2bc87	-0.4115946
62	0x3cabc289	0.020966785
63	0xbd81d93e	-0.06340264
64	0x3f958963	1.1682552
65	0x3d26da86	0.040735744
66	0x3ecfdd75	0.40598646
67	0xbe9b895a	-0.30378228
68	0x3f814df1	1.0101911
69	0x3f1119c1	0.5667992
70	0xbf2d1a23	-0.67618006
71	0x3fcfbf0a	1.6230175
72	0x3e5bc552	0.2146199
73	0x3fc25ea3	1.5185131
74	0xc011d4b6	-2.2786078
75	0xbfe9eac5	-1.8274771
76	0x3f5204f4	0.8203881
77	0xbf31bf95	-0.69432956
78	0x3ed94c07	0.42440817
79	0xbf8c8003	-1.0976566
80	0x3fc70f64	1.5551572
81	0x3fe69214	1.801333
82	0x3ca8db18	0.020612285
83	0x3f450d4a	0.769734
84	0xbeec6fd6	-0.46179074
85	0x3fa07e1c	1.2538486
86	0xbf42d5c8	-0.76107454
87	0xbe904f70	-0.28185606
88	0x3fc4311e	1.5327489
89	0x3f24df48	0.644032
90	0xbd04806c	-0.032349035
91	0xbf8f4972	-1.1194289
92	0xbf21fad9	-0.6327339
93	0xbf884e44	-1.0648885
94	0x3df922c6	0.12164836
95	0xbfa2e856	-1.2727153
96	0xbee3cc47	-0.4449179
97	0x3f39b3fe	0.7254027
98	0x3f6cbfdc	0.92480254
99	0xbf313609	-0.69223076
100	0x3e9c5aea	0.30538112
101	0xbf6371c5	-0.88845474
102	0x3e916d31	0.2840362
103	0x3efe119f	0.4962282
104	0x3f5e4a6e	0.8683232
105	0xbddbcb6c	-0.10732159
106	0x3f0c48d1	0.5479861
107	0x3f1b0516	0.60554636
108	0xbfa58154	-1.2930093
109	0xbfb12270	-1.3838634
110	0xbfcc5330	-1.5962887
111	0xbeef89eb	-0.4678491
112	0x3f666892	0.9000331
113	0xbec408cc	-0.3828796
114	0xbefab0b5	-0.48962942
115	0xbf4475d5	-0.767423
116	0x3e9347c9	0.28765705
117	0x3ffe8905	1.9885565
118	0xbf233846	-0.6375774
119	0xbfb61157	-1.4224042
120	0x3f587504	0.8455355
121	0x3fe180a1	1.761738
122	0x3d81cb46	0.063375995
123	0xbfd787b5	-1.683829
124	0x3ef01820	0.46893406
125	0x3f66371f	0.8992786
126	0xbe800db2	-0.2501045
127	0x3f5255e6	0.8216232

input_net.1.running_var f4 [128]
0	0x3fd04064	1.626965
1	0x3f2ae5f6	0.6675714
2	0x40928e40	4.5798645
3	0x40095a9c	2.1461554
4	0x4030daf0	2.763363
5	0x40396ddd	2.8973305
6	0x40b170ea	5.5450335
7	0x3f983025	1.1889693
8	0x4050d963	3.2632682
9	0x40bceb28	5.9037056
10	0x3e17268e	0.14760801
11	0x41046e89	8.276986
12	0x40545874	3.3178988
13	0x4098e3f7	4.7778277
14	0x3fbcc2da	1.4746964
15	0x40d6270a	6.6922655
16	0x40812330	4.0355453
17	0x3fa672e9	1.3003818
18	0x407b76f3	3.929135
19	0x41143622	9.263216
20	0x3d39b582	0.045339115
21	0x416e2c1e	14.885771
22	0x3fddc0d2	1.7324469
23	0x3e867124	0.26258194
24	0x3e80147e	0.25015634
25	0x409e3ed5	4.94517
26	0x41784ba3	15.518466
27	0x3faf236b	1.3682684
28	0x3f9254a1	1.1432077
29	0x4047b78a	3.1205773
30	0x3e84f07e	0.2596473
31	0x3eed06b4	0.46294177
32	0x3f22b1d2	0.6355258
33	0x404976e7	3.1478822
34	0x3eaa5b81	0.33272937
35	0x40212810	2.5180702
36	0x3eddd027	0.4332287
37	0x3dde0e7c	0.108426064
38	0x407db6ea	3.9642892
39	0x40cd7b16	6.421275
40	0x3ea5ce41	0.32383922
41	0x40c5e5d0	6.1843033
42	0x3d3f8f79	0.046767686
43	0x3f360a9a	0.71109927
44	0x4140b6b4	12.044605
45	0x40bb6c82	5.8569956
46	0x3ed7dea5	0.42162052
47	0x3edc1f60	0.42992687
48	0x41663b0f	14.389419
49	0x4049b42e	3.1516223
50	0x3e85d80b	0.2614139
51	0x400ce8ab	2.201701
52	0x3fb24047	1.3925866
53	0x3fefe601	1.8742067
54	0x405e455c	3.4729834
55	0x3fb76e07	1.4330453
56	0x416b6441	14.711976
57	0x3eadca95	0.3394362
58	0x3e4f0e32	0.20220259
59	0x405d307e	3.4560847
60	0x415647cb	13.392528
61	0x3fd416c5	1.6569449
62	0x40ba9bee	5.8315344
63	0x3ed6e776	0.41973466
64	0x3e855c2f	0.26046893
65	0x4184f69a	16.62041
66	0x3d6e4f7e	0.05818128
67	0x407c4265	3.9415524
68	0x3f03c563	0.51473063
69	0x3f50236f	0.8130407
70	0x3fd9e3c0	1.7022629
71	0x3f3940c3	0.72364444
72	0x40a673bd	5.201628
73	0x4138cac1	11.5495
74	0x40a8341a	5.25636
75	0x3f199a80	0.60001373
76	0x3e83ada7	0.25718424
77	0x405f3200	3.4874268
78	0x3ebede09	0.37278774
79	0x408d1f18	4.4100456
80	0x3f127d0d	0.5722206
81	0x40615607	3.5208757
82	0x3f2b11da	0.66824114
83	0x41255898	10.334129
84	0x40124be4	2.285882
85	0x409aa478	4.8325768
86	0x41d4a1ef	26.57907
87	0x3f9699ee	1.1765726
88	0x40d6fccf	6.7183604
89	0x40ba267a	5.817197
90	0x3f85365a	1.0407212
91	0x40847517	4.139293
92	0x4023d1a1	2.5596697
93	0x3f31859d	0.693445
94	0x3f0ed4f1	0.5579367
95	0x3faca1f8	1.3486929
96	0x3e9f2249	0.31080845
97	0x3e905299	0.28188017
98	0x414f57f3	12.958972
99	0x3f4a20a7	0.78956074
100	0x3f8b08b4	1.0862031
101	0x3e2c3456	0.1681684
102	0x40fe4e06	7.9470243
103	0x40eeb353	7.45939
104	0x4013c2d3	2.3087661
105	0x40361997	2.8453119
106	0x4087387e	4.225646
107	0x4108cda5	8.550206
108	0x3fb80036	1.4375064
109	0x3f39bd5d	0.7255457
110	0x3eaafb43	0.33394822
111	0x404cc9dd	3.1998208
112	0x408974bf	4.295501
113	0x408029a8	4.005085
114	0x4119b901	9.607667
115	0x3fee8c15	1.86365
116	0x407a548b	3.91141
117	0x3f29515b	0.66139764
118	0x3fec2bfa	1.845092
119	0x40387a2f	2.8824575
120	0x4098ee1f	4.7790675
121	0x3e866514	0.2624899
122	0x3f88c1e0	1.0684166
123	0x41119808	9.099617
124	0x41c3e936	24.488873
125	0x3fb17438	1.3863592
126	0x3f75fa49	0.9608503
127	0x402fbac8	2.7457752

lstm.weight_ih_l0 f4 [512, 128]
0	0xbd8b309e	-0.06796382
1	0x3c7f84a9	0.0155955935
2	0x3e947b11	0.29000142
3	0x3dcd5a96	0.100270435
4	0x3d1a3043	0.037643682
5	0x3e48d492	0.19612339
6	0xbd3b827b	-0.045778733
7	0xbd1c7846	-0.03820064
8	0x3bf95ff8	0.0076103173
9	0x3dfaa3e7	0.12238293
10	0x3c22c114	0.009933729
11	0x3e127903	0.14303975
12	0xbd2ef4ef	-0.042714056
13	0x3de5420d	0.11194239
14	0x3e880e69	0.26573494
15	0x3e496f9f	0.19671486
16	0x3d2aa0a1	0.041657094
17	0xbe11f8f6	-0.14255127
18	0xbd6afdf8	-0.05737111
19	0x3e353cac	0.17698926
20	0x3d4de21f	0.050264474
21	0x3e4464c7	0.19179069
22	0xbe29dac6	-0.16587362
23	0xbe27a8b3	-0.16372947
24	0x3d409033	0.04701252
25	0xbc6a6092	-0.014305251
26	0xbca3eb42	-0.02000964
27	0x3bbeb336	0.0058197035
28	0x3df994c6	0.121865794
29	0x3de34b91	0.110983975
30	0xbdb821c0	-0.08990812
31	0xbdf1ecce	-0.11812745
32	0x3e42e3cd	0.19032212
33	0x3c62152d	0.013798994
34	0x3bdeff1e	0.0068053147
35	0xbcc8977f	-0.024486301
36	0x3e096614	0.13417846
37	0x3b8a7100	0.0042248964
38	0xbdcf36a8	-0.10117847
39	0x3e40a62a	0.18813387
40	0x3c96d346	0.01841129
41	0xbe08ccf7	-0.13359438
42	0x3dac1d87	0.084040694
43	0xbdd5cb3b	-0.10439154
44	0xbc6f219b	-0.0145954145
45	0x3e46cb11	0.19413401
46	0xbdee3fa5	-0.11633233
47	0xbdd2783a	-0.10276838
48	0xbcfb382b	-0.030666431
49	0x3d0ff69c	0.035147294
50	0xbe32b45b	-0.17451613
51	0xbc9c5765	-0.019084642
52	0xbe055e74	-0.13024312
53	0x3e5f2a12	0.21793392
54	0xbd7794e9	-0.060444746
55	0xbd0b41b2	-0.0339982
56	0xbcb29588	-0.021799818
57	0x3c6325d1	0.013863997
58	0x3e1460f8	0.14490116
59	0xbe309e03	-0.17247777
60	0x3d667c5d	0.056270946
61	0xbe8a6da4	-0.27036774
62	0xbd0b3b92	-0.033992358
63	0xbdc769c3	-0.09736969
64	0x3e03b0b9	0.12860383
65	0x3deb5a82	0.11491872
66	0xbdef3733	-0.1168045
67	0x3d0ea222	0.03482259
68	0x3e567b75	0.20945533
69	0xbe83d1f3	-0.25746116
70	0xbddd2870	-0.107987285
71	0x3e39df06	0.18151483
72	0xbc9d6c69	-0.019216733
73	0x3ea80f7d	0.32824317
74	0xbd610658	-0.05493769
75	0xbda9c047	-0.08288627
76	0x3e1dfeaa	0.15429178
77	0x3e2c4daa	0.16826501
78	0xbd3c0ea4	-0.0459124
79	0x3de6239d	0.112372614
80	0xbd953f31	-0.072874434
81	0xbd27aff7	-0.040939298
82	0xbdfe4044	-0.124146014
83	0xbdaa94ef	-0.08329188
84	0xbc195acc	-0.009360027
85	0xbca3e343	-0.020005828
86	0x3e6a634e	0.22889444
87	0xbde724cb	-0.112863146
88	0x3b4b4d0f	0.0031021272
89	0xbdd0b606	-0.10190968
90	0xbe320f7b	-0.17388718
91	0x3dc92d20	0.0982306
92	0xbd2f2353	-0.042758297
93	0xbb7e7621	-0.0038827735
94	0xbcbf9c87	-0.023390068
95	0x3e8e9a1f	0.2785196
96	0x3c5a6bcf	0.013331368
97	0x3daeb2a3	0.08530166
98	0xbe079b13	-0.1324275
99	0xbe091d9b	-0.133902
100	0xbcb06fda	-0.02153771
101	0x3c57089e	0.013124613
102	0xbda4bb4e	-0.08043538
103	0xbe0bb6cb	-0.13643949
104	0x3d5e41f1	0.054262105
105	0x3cc9ecaa	0.024648983
106	0xbd283aa1	-0.041071538
107	0x3d8315ef	0.06400668
108	0x3de92638	0.11384243
109	0x3cfacad0	0.030614287
110	0x3e55ee42	0.2089167
111	0xbd3e8bf5	-0.046520192
112	0xbdc6b1cd	-0.097018816
113	0xbd53e0ae	-0.051727943
114	0x3dccebf5	0.10005943
115	0x3d2b0b2a	0.041758694
116	0x3e8d8673	0.2764164
117	0x3e0907ec	0.13381928
118	0xbd5bfaa4	-0.053705826
119	0xbc850b8c	-0.016240858
120	0xbc91eb2c	-0.017812334
121	0xbd401854	-0.0468982
122	0xbdf5a780	-0.11994839
123	0x3b06be8f	0.002056036
124	0xbe286208	-0.16443646
125	0xbe06b682	-0.13155559
126	0x3d35517b	0.04426716
127	0xbc2d04b0	-0.0105602
128	0x3d8792c3	0.066197895
129	0xbbe13f24	-0.006873982
130	0x3caed131	0.021339985
131	0xbd0e23a3	-0.034701955
132	0xbe101130	-0.14069057
133	0xbd024d26	-0.031811856
134	0xbd4b7116	-0.049668394
135	0x3dc468fc	0.09590337
136	0x3d9bc87f	0.07606601
137	0x3dbcbae0	0.09215331
138	0xbcaf5e84	-0.021407373
139	0x3e025142	0.1272631
140	0xbe2a28d3	-0.16617136
141	0xbd33b333	-0.04387207
142	0xbe03bd83	-0.12865262
143	0x3dfdf7a1	0.12400747
144	0x3d360128	0.044434696
145	0xbd8cc506	-0.06873517
146	0xbe09f9af	-0.13474153
147	0x3c8b0534	0.016970254
148	0xbeecc329	-0.46242645
149	0x3c061346	0.008183306
150	0xbd2ee904	-0.04270269
151	0x3e288d7f	0.16460226
152	0x3d0d8135	0.03454705
153	0xbdef161f	-0.11674141
154	0xbe548461	-0.20753624
155	0xbdd230f5	-0.10263244
156	0xbcb53c78	-0.02212356
157	0xbd2656a6	-0.04060998
158	0x3b8241ae	0.003975115
159	0xbe80390a	-0.25043517
160	0x3d4dcd38	0.05024454
161	0x3de2dd28	0.110773385
162	0xbe3640d4	-0.17798167
163	0x3dd99842	0.10624744
164	0x3e27aab8	0.16373718
165	0x3e80e4be	0.25174516
166	0xbdd0c65f	-0.10194086
167	0x3d8903f2	0.06690206
168	0xbd9cab53	-0.07649865
169	0xbd0df01f	-0.034652825
170	0x3c8c5510	0.017130405
171	0x3c05ab05	0.00815845
172	0x3b9020f4	0.0043984596
173	0xbdcd3351	-0.100195535
174	0x3e01aeee	0.12664387
175	0xbdd09011	-0.101837285
176	0xbce4f185	-0.027947197
177	0x3d77f816	0.060539328
178	0xbdd1c272	-0.102421656
179	0xbe137b26	-0.14402446
180	0xbd795a59	-0.060877178
181	0x3c359f3b	0.011085327
182	0xbc9b2b76	-0.018941622
183	0xbddd37a4	-0.10801628
184	0x3d8db4fd	0.069192864
185	0xbd5a36d7	-0.053274956
186	0x3df7d5f1	0.12101353
187	0xbdc7cc6c	-0.09755787
188	0xbdcc5e53	-0.099789284
189	0xbdba20f1	-0.09088314
190	0x3dc28690	0.09498322
191	0xbe36497c	-0.1780147
192	0x3bf2a1cc	0.0074045416
193	0xbbb2dc78	-0.005458411
194	0xbc8bd08a	-0.017067213
195	0x3d12bb06	0.03582289
196	0xbe2a685a	-0.1664137
197	0x3e7e0e24	0.24810082
198	0x3dfb2fa5	0.12264947
199	0x3df01dd6	0.11724441
200	0xbd97dd52	-0.074152604
201	0xbd8bdd39	-0.06829304
202	0x3d8ee6c1	0.069776066
203	0x3e2a1dfd	0.16613002
204	0xbd0deb89	-0.034648452
205	0x3d139ddf	0.03603923
206	0xbde3c978	-0.111224115
207	0xbe136ab5	-0.14396174
208	0x3c246e4d	0.010036063
209	0x3de60c5c	0.11232826
210	0xbc8c56e0	-0.017131269
211	0xbdb99772	-0.09062089
212	0x3db0af4b	0.086271845
213	0xbd65939b	-0.05604897
214	0x3cd6de25	0.026228974
215	0x3b875f03	0.0041311993
216	0x3d742337	0.059603896
217	0xbc19fb55	-0.009398301
218	0xbd5252e6	-0.05134859
219	0xbdb733e5	-0.08945445
220	0x3cfc7772	0.030818675
221	0x3e448fd8	0.19195497
222	0xbdb0aa01	-0.08626176
223	0x3d8c2570	0.06843078
224	0x3e5a8e76	0.21343407
225	0xbd3ee1e3	-0.04660214
226	0x3d8aa87e	0.067704186
227	0xbdacc329	-0.08435661
228	0xbe84d6fc	-0.2594527
229	0xbe833803	-0.2562867
230	0xbd9a1234	-0.07523003
231	0xbdccc9c0	-0.09999418
232	0x3db9609f	0.09051632
233	0xbd85c48c	-0.06531629
234	0xbd311521	-0.04323304
235	0xbdccdfe0	-0.10003638
236	0x3d87529f	0.066075556
237	0x3dc67600	0.096904755
238	0xbe1e216e	-0.1544244
239	0x3e4a98fa	0.19784918
240	0x3daf4da1	0.085597284
241	0xbdadac9b	-0.084801875
242	0xbcc9ec92	-0.024648938
243	0x3e11a2c8	0.14222252
244	0xbe8fdbdd	-0.2809743
245	0x3e21b33d	0.1579103
246	0x3c1149ba	0.008867675
247	0x3e167463	0.14692836
248	0x3d732c38	0.059368342
249	0xbdf9bb35	-0.1219391
250	0x3f041b1f	0.51603884
251	0xbd0a6f67	-0.033797648
252	0x3d396c7c	0.045269474
253	0x3d8ccff3	0.06875601
254	0x3c331752	0.010930853
255	0x3e0599b9	0.13046922

lstm.weight_hh_l0 f4 [512, 128]
0	0x3c2a869e	0.010408072
1	0xbd997b87	-0.07494264
2	0x3cf6d4e3	0.03013081
3	0x3d77fe9e	0.060545556
4	0xba20beeb	-0.00061319646
5	0x3ca36a92	0.019948278
6	0xbb5fc746	-0.0034145876
7	0xbbbbb6df	-0.005728587
8	0xbd9d2a1e	-0.07674049
9	0xbd751e5b	-0.059843402
10	0x3c0d73ba	0.008633548
11	0x3d0ec0ce	0.03485184
12	0xbc4aabef	-0.012370094
13	0xbb95343b	-0.0045533455
14	0x3d756bdf	0.059917327
15	0xbd686d27	-0.05674472
16	0x3c3437a0	0.01099959
17	0xbd10f78c	-0.03539233
18	0x3da2073b	0.07911535
19	0xbd551378	-0.05202052
20	0xbc13aaec	-0.009012919
21	0x3cc82481	0.024431469
22	0x3baf5a36	0.00535133
23	0x3da596fc	0.080854386
24	0x3ca1ecf0	0.0197663
25	0x3c90750e	0.017633941
26	0x3c4ff404	0.012692455
27	0xbcbadf13	-0.022811448
28	0xbd9bd07c	-0.076081246
29	0xbd1ea82b	-0.038734596
30	0x3cac36ee	0.021022286
31	0x3d1848b1	0.0371787
32	0xbc60461f	-0.013688593
33	0xbd048322	-0.03235162
34	0x3d8ce8b4	0.06880322
35	0x3d6ed1d9	0.058305595
36	0x3b756530	0.0037444346
37	0x3bd3341f	0.0064454223
38	0x3db22ee7	0.08700352
39	0x3d79ef37	0.06101915
40	0xbd42b92b	-0.04753987
41	0xbd121de3	-0.035673033
42	0x3c92cce2	0.017919961
43	0x3d4251ae	0.047441177
44	0x3d03654b	0.032079022
45	0xbce629d8	-0.028096125
46	0x3d3874d5	0.045033295
47	0xbc7a71db	-0.015285934
48	0x3cbfd347	0.023416175
49	0x3c58b4f7	0.013226739
50	0xbd19ed9a	-0.03758011
51	0xbb1d7999	-0.0024028777
52	0xbbabde6a	-0.0052450197
53	0xbb3836ce	-0.0028108838
54	0x3d5ffee5	0.054686446
55	0xbc7a31d3	-0.015270668
56	0x3d067c5b	0.03283344
57	0x3d06efdd	0.032943595
58	0xbbb44ec9	-0.005502556
59	0xbd988e91	-0.074490674
60	0xbc99c323	-0.018769806
61	0xbddc4a64	-0.107563764
62	0x3a9aebd4	0.001181955
63	0xbd50adc4	-0.050946966
64	0x3c7731b8	0.0150875375
65	0xbc2d56c2	-0.010579767
66	0xbd2a1c9e	-0.041531198
67	0x3d4e7e79	0.050413582
68	0x3d7ef063	0.06224097
69	0xbc779f29	-0.01511363
70	0x3d90a2c2	0.070622936
71	0xbadf0293	-0.0017014317
72	0xbdaf8310	-0.0856992
73	0xbd2dcc2f	-0.042431053
74	0x3c52fc6f	0.012877568
75	0xbd354fb8	-0.04426548
76	0xbcabb1f2	-0.020958874
77	0xbd688c48	-0.056774408
78	0x3d2b4526	0.041813992
79	0x3d8b41ed	0.06799684
80	0xbd221e07	-0.039579418
81	0x3d3a3a54	0.045465782
82	0x3cd6a9e3	0.026204055
83	0xbd1198b3	-0.035546016
84	0xbc35ff08	-0.0111081675
85	0xbd35f5fc	-0.044424042
86	0x3d26e161	0.04074228
87	0xbd9e6858	-0.07734746
88	0x3ce7d64f	0.028300432
89	0x3d67c781	0.056586746
90	0xbd6c5056	-0.0576938
91	0x3d8b6a0b	0.068073355
92	0x3cb72311	0.022355588
93	0xbce6a570	-0.028155059
94	0xbc866114	-0.016403712
95	0x3d840e9e	0.064481005
96	0xbd0aa720	-0.03385079
97	0x3d2daba0	0.042400002
98	0xbd73f14a	-0.059556283
99	0x3da60976	0.08107273
100	0x3d8d969f	0.06913494
101	0xbd1caaaf	-0.038248714
102	0xbd5f5a49	-0.054529462
103	0x3d1ee8d7	0.038796272
104	0x3aaee290	0.0013342667
105	0x3c8efa65	0.017453382
106	0x39744d64	0.00023298484
107	0xbd052872	-0.032509275
108	0xbd012115	-0.03152569
109	0x3d4622fb	0.048373204
110	0x3cc42109	0.023941534
111	0xbbe4a7eb	-0.006978025
112	0xbcb8e88d	-0.022571826
113	0x3c28c486	0.010300761
114	0xbc013bfe	-0.007887838
115	0x3d3deffd	0.04637145
116	0x3d2c9359	0.04213271
117	0xbd47cccb	-0.04877929
118	0x3db63303	0.088964485
119	0x3d0c7093	0.034287047
120	0x3d05688e	0.032570414
121	0xbc2348c2	-0.009966077
122	0x3d61bbd5	0.05511077
123	0xbdad846b	-0.08472522
124	0x3cff2b83	0.031148678
125	0xbc216474	-0.00985061
126	0xbd92add4	-0.07162061
127	0xbce5b801	-0.028041841
128	0xbd476d8f	-0.048688468
129	0xbdb36771	-0.08759964
130	0x3db209c2	0.086932674
131	0x3de76561	0.11298633
132	0x3b1256eb	0.002232964
133	0xbceb841c	-0.028749518
134	0xbdcafeee	-0.09911905
135	0xbd60d7b8	-0.054893225
136	0xbce3fde7	-0.027831031
137	0xbc95baa1	-0.018277468
138	0x3d041786	0.032248996
139	0xbcb94dc8	-0.022620097
140	0x3d66430d	0.05621629
141	0xbb83044e	-0.003998316
142	0x3d3ef17a	0.04661701
143	0x3d5b7db6	0.053586684
144	0x3db21f22	0.08697344
145	0x3d1516f9	0.03639886
146	0xbc825a81	-0.015912296
147	0x3cd59d4e	0.026075985
148	0xbd1dfa6c	-0.0385689
149	0x3da5625d	0.08075402
150	0x3d8a3c3d	0.06749771
151	0xba796c96	-0.0009514777
152	0x3d378732	0.044806667
153	0xbc32a99e	-0.010904698
154	0x3d57c980	0.0526824
155	0xbd4e6fb3	-0.050399493
156	0xbdcb1cee	-0.09917627
157	0xbd6aaaab	-0.057291668
158	0xbd045998	-0.032312006
159	0x3d898025	0.06713895
160	0x3d628342	0.05530096
161	0x3d0d1e66	0.03445282
162	0xbab22aa1	-0.0013593027
163	0xbd90a6af	-0.07063042
164	0x3d524966	0.05133953
165	0xbd10a01c	-0.035308942
166	0x3cfc7e20	0.03082186
167	0x3d91e738	0.071241796
168	0x3c4cbf88	0.0124968365
169	0x3c0c7454	0.008572657
170	0x3c71458a	0.014726052
171	0xbcec034a	-0.028810162
172	0x3c8a7b26	0.016904425
173	0x3d0d60c8	0.034516126
174	0xbd72344c	-0.059131905
175	0xbdd19a1e	-0.10234474
176	0x3d881ad1	0.0664574
177	0xbb756c01	-0.0037448409
178	0x3d8b8a64	0.06813505
179	0xbd1303c3	-0.03589226
180	0x3d23a73d	0.039954413
181	0x3d46e232	0.04855556
182	0xbc917b63	-0.01775903
183	0x3d1c5e92	0.038176127
184	0x3cc1218f	0.023575572
185	0x3d8a3bb8	0.06749672
186	0xbd0bff56	-0.034179054
187	0xbd96c1cd	-0.07361183
188	0xbdbe65bd	-0.09296749
189	0xbcc53edb	-0.024077823
190	0xbd8e7973	-0.06956758
191	0x3cd9e9f6	0.02660082
192	0xbc246ddc	-0.010035958
193	0x3d0ff400	0.035144806
194	0x3db5eb96	0.08882825
195	0x3c8598b2	0.016308162
196	0xbc2ff343	-0.01073915
197	0xbb9cd644	-0.0047862846
198	0xbc4dddec	-0.012565117
199	0x3db552f0	0.0885371
200	0xbda93ad5	-0.082631744
201	0xbc858fbb	-0.016303888
202	0x3d755eb6	0.059904777
203	0x3a340da2	0.00068684865
204	0x3d1c9ba2	0.03823436
205	0xbc92fba4	-0.017942257
206	0xbd0156ef	-0.031577047
207	0x3b553650	0.0032533593
208	0xbce7f0f9	-0.028313147
209	0x3cd1f271	0.0256283
210	0xbd34e923	-0.04416765
211	0x3bf641a0	0.0075151473
212	0x3ccf08a5	0.025272677
213	0xbcfa0d3b	-0.030523887
214	0xbcbf6b1f	-0.023366509
215	0x3d1350de	0.035965793
216	0x3d904159	0.07043714
217	0x3d173f39	0.03692553
218	0x3cf58482	0.029970411
219	0x3dcaa9c2	0.0989566
220	0xbdcd22cd	-0.10016403
221	0xbd6bbaee	-0.057551317
222	0xbd1c5a16	-0.03817185
223	0x3c8e573c	0.017375581
224	0x3ab55b4e	0.0013836415
225	0xbd262ba6	-0.04056897
226	0xbd11b687	-0.035574462
227	0xbda26b85	-0.07930664
228	0xbbe11d08	-0.006869916
229	0x3bdf01ab	0.0068056188
230	0x3d407635	0.04698773
231	0x3d7081b5	0.05871745
232	0x3d37d771	0.044883195
233	0xbcf07b65	-0.029355714
234	0xbb8af319	-0.0042404053
235	0xbbfa064a	-0.0076301442
236	0x3b8ad55d	0.0042368607
237	0x3d155e20	0.036466718
238	0x3d3b0d5d	0.04566704
239	0xbd11ed5a	-0.035626747
240	0xbc2a33eb	-0.010388355
241	0xbd09bccd	-0.03362732
242	0x3b0eee9c	0.0021809703
243	0xbc889a56	-0.016675156
244	0x3dad0588	0.084483206
245	0xbdaa8ea7	-0.0832799
246	0x3c841839	0.016124832
247	0x3d93509b	0.07193109
248	0x3d21888f	0.039436873
249	0xbcc3504e	-0.023842003
250	0x3d38ba53	0.045099568
251	0x3ccae378	0.024766669
252	0x3ddf6236	0.10907404
253	0xbdb81a42	-0.08989383
254	0xbd6b47cb	-0.057441514
255	0x3ce92567	0.028460218

lstm.bias_ih_l0 f4 [512]
0	0x3c47cc6a	0.012194732
1	0x3c18e3e3	0.009331676
2	0x3cb0814e	0.021546032
3	0x3ba2064b	0.004944598
4	0xba70ae8e	-0.0009181284
5	0x3cebbeed	0.028777564
6	0x3cf53312	0.029931579
7	0xbbaae7f2	-0.0052156383
8	0x3b9b16fe	0.0047329655
9	0x3cbb8e6b	0.022895059
10	0x3bff94e1	0.00779973
11	0xbb8b2e82	-0.0042474875
12	0xbc650257	-0.013977609
13	0xbcb30d30	-0.021856874
14	0x3a318931	0.0006772457
15	0x3c628e64	0.013827894
16	0x3cb43369	0.02199717
17	0xbadbdb88	-0.00167738
18	0x3c87876e	0.01654407
19	0x3d0c0850	0.034187615
20	0x3cdc4851	0.026889952
21	0x3cfd391b	0.03091102
22	0xbc524b04	-0.012835268
23	0xbbae5dc4	-0.0053212363
24	0x3bcde60e	0.006283528
25	0xbc827194	-0.015923299
26	0x3bcf8cbc	0.0063339155
27	0x3bc6a724	0.006062405
28	0x3d353feb	0.04425041
29	0xbc5a885e	-0.0133381765
30	0x3d253267	0.04033127
31	0xbc09e679	-0.008416765
32	0x3c8b652a	0.017016012
33	0x3cda5766	0.026653003
34	0x3bb47a3d	0.005507736
35	0xbc0f44ff	-0.008744477
36	0xbcaa857c	-0.020815603
37	0x3bb1e73c	0.0054291766
38	0xbc2bb19e	-0.010479359
39	0xbbdb5ff7	-0.0066947895
40	0x394fa4bd	0.00019802428
41	0x3d75602d	0.059906173
42	0x3a2ed2d9	0.0006668992
43	0xb9005c9e	-0.00012241534
44	0x3b562933	0.0032678365
45	0x3bb45e96	0.0055044396
46	0x3bb2a2cc	0.005451536
47	0xbc14d2c7	-0.009083456
48	0xbca7df20	-0.020492136
49	0x3bb2662b	0.0054443083
50	0xbb7882c7	-0.0037919746
51	0x3a6e81a1	0.00090982957
52	0x3ba222ed	0.004948011
53	0xbc826017	-0.01591496
54	0x3c39ba3a	0.011335904
55	0xbacfd457	-0.0015856129
56	0xbc271d75	-0.010199894
57	0x3c0e3179	0.008678787
58	0x3c89fd18	0.016844317
59	0x3cfceaf4	0.030873753
60	0x3c6a9ed1	0.014320091
61	0xbd0c2f55	-0.034224827
62	0xbbd9e886	-0.0066500334
63	0xbc2965a4	-0.010339174
64	0xbc767e41	-0.01504475
65	0xbc08a630	-0.008340403
66	0xbcc75257	-0.024331255
67	0xbc9d2fcb	-0.019187829
68	0x3cd94cc2	0.026525859
69	0x3b2cb4a5	0.002635279
70	0xbbfb4393	-0.0076679676
71	0xbcd340e2	-0.025787774
72	0x3d219cf1	0.03945631
73	0x3aa05c7a	0.0012234591
74	0xbc27e9b7	-0.010248593
75	0x3c89e637	0.016833408
76	0xbb03b674	-0.0020097764
77	0x3c4ed094	0.012622971
78	0xbbd44db1	-0.006478988
79	0xbbd98ef0	-0.006639354
80	0xbca30cce	-0.019903567
81	0x3bb7699a	0.0055973055
82	0x3cadbefa	0.021209229
83	0xbb415bf7	-0.0029504278
84	0xbaa95a4a	-0.0012920585
85	0xbb9adbb8	-0.0047258995
86	0x3c230eb0	0.009952232
87	0xbb65777b	-0.0035013843
88	0x3d036023	0.032074105
89	0x3c409a82	0.0117555875
90	0xbca89450	-0.020578533
91	0xbbda4061	-0.0066605066
92	0x3a9a3b4e	0.0011766942
93	0x3cbcd7bd	0.02305209
94	0xbca4daa8	-0.020123795
95	0x3cf3b453	0.029749071
96	0x3c1a52e1	0.009419174
97	0x3d0b4ba7	0.034007695
98	0x3bc4b931	0.006003522
99	0x3c193a5f	0.009352296
100	0xbcb53037	-0.022117717
101	0xbb896657	-0.004193108
102	0xbcd536a6	-0.026027035
103	0xbb2a75ae	-0.0026010084
104	0xbc6e10d8	-0.014530383
105	0x3ce1325c	0.027489834
106	0x399aa6fe	0.00029497588
107	0x3b9a8d2d	0.0047165365
108	0x3caad7e3	0.020854896
109	0x3cac1498	0.021005914
110	0x3c8726c4	0.016497977
111	0x3c85c7df	0.016330658
112	0x3b07ab77	0.0020701566
113	0xbcaea5fd	-0.021319384
114	0x3c9857c2	0.018596534
115	0xbc49a8b4	-0.012308288
116	0xbcb6b3d9	-0.022302555
117	0xbbc97635	-0.0061481246
118	0x3ca47c25	0.020078728
119	0x3c901bce	0.017591383
120	0x3b0ceb20	0.002150245
121	0x3c99d539	0.01877843
122	0xbb0a4656	-0.0021099052
123	0x3b98cd5c	0.0046631526
124	0x3b5460f4	0.0032406421
125	0xbb7e30b2	-0.003878635
126	0x3caa90f3	0.02082107
127	0xbc23634b	-0.009972404
128	0xbb29662a	-0.0025848248
129	0x3ca391e2	0.019967023
130	0x3ccd1713	0.025035417
131	0x3c90f14e	0.017693188
132	0x3c632842	0.013864579
133	0x3d113acd	0.035456467
134	0x3d024258	0.03180155
135	0x3bf36955	0.007428328
136	0x3c3d05fc	0.011537071
137	0x3cb5c81b	0.022190144
138	0x3cd046de	0.025424417
139	0x3c273b5e	0.010207025
140	0xbbfe29ee	-0.0077564633
141	0xbb94a14f	-0.004535831
142	0x3c8c9671	0.01716158
143	0x3c347527	0.011014259
144	0x3cdcb0cb	0.02693977
145	0x3be8a5b0	0.0070998296
146	0x3cc55ad3	0.02409116
147	0x3cfe40f2	0.031036828
148	0x3ca2f47e	0.019891974
149	0x3d1b627f	0.03793573
150	0x3b68e01b	0.0035533968
151	0x3b248ac7	0.0025107132
152	0x3a585bf6	0.00082534493
153	0xbacadf9b	-0.0015478017
154	0x3cba19f1	0.022717448
155	0x3c47bb11	0.012190596
156	0x3d53cd3e	0.051709406
157	0x3ca07d9e	0.019591149
158	0x3d2ee165	0.04269542
159	0x3b12b6b9	0.0022386743
160	0x3cd2837b	0.02569746
161	0x3d101a54	0.03518136
162	0x3caae25f	0.020859895
163	0x3b8f9c32	0.0043826336
164	0xbb9e6349	-0.004833613
165	0x3c80e726	0.01573522
166	0x3c942da0	0.018088162
167	0x3cbfa1d3	0.023392593
168	0x3c16741c	0.009182956
169	0x3d907ee1	0.0705545
170	0xba526357	-0.0008025667
171	0x3c90b5f8	0.017664894
172	0x3c0987db	0.008394207
173	0x3cb4c388	0.022065893
174	0x3ca088e7	0.01959653
175	0xba99793c	-0.0011709104
176	0xbc50568a	-0.012715945
177	0x3c6379b6	0.013883999
178	0x3c0cb01a	0.008586908
179	0x3cc73f89	0.024322288
180	0x3c10ed13	0.008845585
181	0x3b3a676b	0.002844299
182	0x3c5216d2	0.012822824
183	0x3c07d233	0.0082898615
184	0x3ae6ffb2	0.001762381
185	0x3c6a7655	0.014310439
186	0x3cab783d	0.020931358
187	0x3d0ca331	0.03433532
188	0x3cb47892	0.022030149
189	0xbc0c9fba	-0.008583004
190	0x3b72afb2	0.0037030992
191	0xbc903916	-0.017605346
192	0x3bc88cdf	0.006120309
193	0x3c445834	0.01198392
194	0xbc84904d	-0.01618209
195	0x3c19e669	0.009393313
196	0x3d0894d9	0.033345077
197	0x3b765e54	0.0037592845
198	0x3bfdf056	0.0077495975
199	0x3b292651	0.0025810192
200	0x3d37d338	0.04487917
201	0x3cad07c8	0.021121874
202	0x3c616352	0.01375659
203	0x3ce091bf	0.027413247
204	0x3aa20db6	0.0012363705
205	0x3c8691d0	0.01642695
206	0xbb941706	-0.004519346
207	0x3b436839	0.002981676
208	0xbb1a9a9d	-0.0023590692
209	0x3c61d916	0.0137846675
210	0x3cca71c8	0.024712458
211	0xbc2b4ca9	-0.010455289
212	0x3bc1cfe8	0.005914677
213	0x3c4a35f2	0.012341963
214	0x3be10cdc	0.006867988
215	0xbbfd6917	-0.007733475
216	0x3d4582dd	0.048220504
217	0x3c8b1af0	0.016980618
218	0xbc23391b	-0.0099623455
219	0x3bde4b68	0.0067838915
220	0x3c528c96	0.012850901
221	0x3cbac97d	0.022801155
222	0xba49eea8	-0.0007703104
223	0x3d19177b	0.03737591
224	0x3beaaea6	0.007161933
225	0x3d1c52ac	0.03816478
226	0x3ba8040e	0.0051274365
227	0x3cd62e84	0.026145227
228	0xbc1b3caa	-0.009474913
229	0x3be633ed	0.007025233
230	0xbc3dd939	-0.011587434
231	0x3c870d86	0.01648594
232	0xbbb7474c	-0.005593216
233	0x3cce5f06	0.025191795
234	0x3b79566d	0.0038045899
235	0x3c00f6e8	0.007871367
236	0x3cb563d9	0.022142338
237	0x3cc55dbd	0.02409255
238	0x3c01d9c0	0.007925451
239	0x3ccd0b2b	0.02502974
240	0x3c2de52e	0.010613723
241	0xbb9042f5	-0.004402513
242	0x3ce507fe	0.027957913
243	0x3a2a2380	0.0006490275
244	0xbc1195f8	-0.008885853
245	0xba9a0c65	-0.0011752961
246	0x3ce3f782	0.027827982
247	0x3c8f490f	0.017490892
248	0x3b122dc4	0.002230511
249	0x3cfdd09e	0.030983265
250	0x3bc140fb	0.005897639
251	0xb929c4c8	-0.00016190403
252	0x3bdd613e	0.006755977
253	0x3c0812c0	0.008305252
254	0x3cfee44b	0.031114718
255	0x3b9474c3	0.0045305206
